lunar_landar_project_2/ddpg/experiment1_ddpg_critic_final.pth (torch, 501804 bytes, 5 tensors)

fcs1.weight f4 [400, 8]
000000 51 bc df 3c a4 c9 0a bd 3b d1 a0 3b 4b f2 af 3c
       0.027311476 -0.033883706 0.0049077547 0.021477839
000010 66 8f 0a bd 15 7a f4 bc 7a 6e dc bc df f2 1f 3d
       -0.03382816 -0.02984337 -0.026908148 0.03904998
000020 8b a8 74 3d b9 ec 62 c0 94 10 0e be 6f 95 7e 3e
       0.059731048 -3.5456984 -0.13873512 0.24861692
000030 e0 9d 31 bf e1 8f 0f 3d b4 5d 2f 3e a5 9b f0 3e
       -0.69381523 0.035049323 0.17125589 0.46993747
000040 31 c2 39 3f 9e 86 94 3e bc 67 e4 3e f0 7c e4 3f
       0.7256194 0.29008955 0.44610393 1.7850628
000050 24 9e 5f 3e 51 d5 3c bf 41 fa 86 bf 6b 17 d8 bf
       0.2183767 -0.73762995 -1.0545121 -1.6882147
000060 77 dd 3e 3d ad 4a be 3c 50 ed cb 3c 6b 7a 23 3d
       0.046597924 0.023228968 0.024893433 0.03991167
000070 3d 13 26 bd 3d 80 c1 bc 10 71 bc bc 8a e6 96 bc
       -0.04054569 -0.02362072 -0.023003131 -0.018420476
000080 0d bb a4 bf 55 4f a9 bd f0 33 82 bf 53 33 c0 3e
       -1.2869583 -0.082670845 -1.01721 0.37539157
000090 47 25 26 bf a2 05 99 3d db 33 18 3f 9a 87 45 bd
       -0.6490063 0.074717775 0.59454125 -0.048225023
0000a0 4e 1a a5 bf ef 76 a5 be b1 fb f1 bd 21 c9 20 3e
       -1.2898653 -0.32317302 -0.118155845 0.15701725
0000b0 11 24 3b be 55 48 af 3d f1 d0 09 bf e6 4f 88 3d
       -0.18275477 0.08558718 -0.53834444 0.066558644
0000c0 11 2e 20 3f 62 40 c3 bd 39 6e 60 bf d4 51 0d 3f
       0.6257029 -0.095337644 -0.87668186 0.55202985
0000d0 73 54 07 be b3 43 9e 3e ae 2b 6e 3f 13 ff 9e bf
       -0.13215809 0.30911025 0.930354 -1.2421592
0000e0 e9 e5 ab 3c a0 69 92 be 87 1f f6 3d 58 91 eb be
       0.020983653 -0.2859621 0.12017732 -0.46009326
0000f0 f2 01 df be e6 e0 f2 3d 61 8b 13 bf 18 ff a8 be
       -0.43556172 0.11859302 -0.5763455 -0.3300712
000100 dd 74 73 be ec 79 1c bf 2a b6 65 bd 3d e3 64 bf
       -0.23775049 -0.6112354 -0.05608193 -0.8940924
000110 ec bd c2 be aa 76 d1 be b4 f9 1b bf 95 ee f6 3e
       -0.38035524 -0.40910846 -0.6092789 0.482289
000120 32 c5 26 be d2 fb 34 be 33 7e 89 be 59 5a 7c 3f
       -0.16286162 -0.17674187 -0.26854095 0.9857536
000130 73 3c a2 3e 65 bd 63 3d 11 3c aa be 63 7f ae bf
       0.31686744 0.055600543 -0.33248952 -1.3632625
000140 f3 63 93 bc 43 bb f5 be f1 95 bf be 40 75 cf 3e
       -0.017991995 -0.47994432 -0.37419084 0.40519142
000150 bd 7a da 3e 16 aa d8 bd 54 8b a8 bf 04 d6 56 3f
       0.42671767 -0.10579316 -1.316752 0.8392031
000160 bd ad 8e be 78 85 0f 3f ff a0 f0 3e 31 f7 4a bf
       -0.27866927 0.5606303 0.4699783 -0.79283434
000170 d2 97 f1 be f2 9f 0b 3f 56 cb 27 bf fe ad 48 3e
       -0.47186142 0.5454093 -0.6554464 0.19597623
000180 fd 25 92 bf c3 e6 1c be a4 4d b2 3d ab c7 2c bf
       -1.1417843 -0.15322404 0.08706215 -0.6749217
000190 95 04 c3 be ac b7 df be fa 06 0e bf d5 2b 67 3f
       -0.38089433 -0.43694818 -0.55479395 0.9030126
0001a0 9a 7d 15 bd e8 c7 6b bc 6f 43 3d 3e d8 1b 8d 3d
       -0.036496736 -0.014390923 0.18482755 0.068900764
0001b0 04 5d 67 3c db ca de bc 8b 3c e7 bd 4f 94 d1 bd
       0.014121298 -0.027196338 -0.112908445 -0.10233366
0001c0 5a e3 f4 bb 52 de 0a bd 65 1c 19 3d e7 85 cd bb
       -0.0074733915 -0.033903427 0.037380595 -0.006272066
0001d0 0d b3 64 bc a3 64 c2 3c d2 99 26 bd d7 18 92 bc
       -0.013958705 0.023729628 -0.04067404 -0.01783411
0001e0 ad 2f 0b 3c 50 a8 04 3d 27 dc c3 3b 83 19 4b 3d
       0.0084952535 0.032387078 0.005977172 0.049584877
0001f0 68 8b 0d bd c0 ac 4b 3c cd c0 2c ba 27 b8 09 bc
       -0.034556776 0.0124313235 -0.0006590009 -0.008405722
000200 b1 21 12 be c3 fd 01 3f 6c 9c 96 3f 13 75 0a 3e
       -0.14270665 0.50777835 1.1766486 0.13521223
000210 20 82 74 bd ec 4d e8 3e 92 6b 7b 3e 7a 8d 79 3f
       -0.05969441 0.4537195 0.24552754 0.974815
000220 41 69 10 bf 13 3d 45 bf 3b eb 75 bf 88 75 90 be
       -0.56410605 -0.77046317 -0.9606206 -0.2821467
000230 56 2e 72 be 07 f2 05 bd bb 75 19 3f b8 f9 61 bf
       -0.23650488 -0.03270152 0.5994527 -0.88271666
000240 2a 9c 21 3f fa 6d a0 bf 25 ba f8 3e e3 c7 84 bd
       0.6312891 -1.2533562 0.48579517 -0.06483438
000250 d5 ca a1 3e 37 85 1e be 30 cc ab bf b4 0a 04 3f
       0.3160006 -0.15480505 -1.3421688 0.5157883
000260 33 4f ab 3e 47 5c 0b 3e ab 0e 3b be 6b cc 57 bf
       0.33458862 0.1360942 -0.18267314 -0.8429629
000270 ea 0c 03 be 23 ce 13 bf f5 0f c0 bd c2 86 03 c0
       -0.12797895 -0.57736415 -0.093780436 -2.0551
000280 5a ba 39 3f 33 c4 03 3d 36 b7 0d 3f a0 3a 69 be
       0.72549975 0.032169532 0.5535768 -0.2277627
000290 c3 d8 02 bf 91 77 cb be 98 cb 1b bf a2 22 66 bd
       -0.51112 -0.3973966 -0.60857534 -0.056185372
0002a0 f1 5b 6d be b8 7f e9 3e 54 45 8b 3e a3 39 5b 3e
       -0.23179604 0.45605254 0.2720133 0.21408705
0002b0 ed 02 bf 3a 5c 34 ff 3d 4e 6d 4c be 8c 66 d1 3e
       0.0014573016 0.12461159 -0.19963571 0.4089855
0002c0 f0 63 03 bd 00 34 2d 3d fd 18 22 bd 23 28 08 3d
       -0.03207773 0.04228592 -0.039574612 0.033241402
0002d0 2d 36 dc bc 77 1c 37 bd 57 f6 25 bd 40 d4 c9 bb
       -0.026881302 -0.04470488 -0.04051813 -0.0061593354
0002e0 80 8a db 3c d5 38 0b 3d 40 81 f9 bc bf f1 10 3d
       0.02679944 0.033989746 -0.030457139 0.035386797
0002f0 6d 93 72 bc 7a b2 29 3c 7a fa 4a bc f3 74 39 3d
       -0.014805657 0.010357494 -0.01238882 0.045277547
000300 4a 3b 1f 3d 87 4d 87 bf 59 87 a6 3e 0a 75 b1 3f
       0.0388749 -1.0570534 0.32525137 1.3863842
000310 ed 8d 33 bf ab c0 9b be c6 cb 93 3e f4 d7 50 3f
       -0.70138437 -0.30420431 0.28866404 0.8157952
000320 43 57 e1 3c f0 04 14 bd 92 92 14 bd 9d 6d d3 bc
       0.02750743 -0.03613752 -0.036272593 -0.025809104
000330 2f e5 05 bd a0 73 e0 3c d7 cc 8f 3c 13 33 f3 3c
       -0.03268927 0.027398884 0.01755373 0.02968744
000340 a7 b0 88 3b 6b 6c 28 bd 43 0c e2 3c ad 51 02 bc
       0.004171449 -0.04111902 0.027593737 -0.007954043
000350 d5 95 32 bd ad f6 38 3d 67 6e e8 3c e7 8a cf bc
       -0.043599922 0.045157123 0.028372956 -0.025334788
000360 06 93 10 3e a2 85 36 bf aa 26 89 3d 04 98 56 bf
       0.14118585 -0.7129766 0.06696828 -0.8382571
000370 2b 41 db be cc 28 01 3e 8d 33 2a 3e 04 20 c1 bd
       -0.42823157 0.12613219 0.16621228 -0.094299346
000380 80 46 0c bd 15 fe 81 bd 95 a5 84 3c 94 64 02 bd
       -0.03424692 -0.063472904 0.016192237 -0.0318342
000390 6d 98 a1 bc c1 0e 8d 3c 9f fd 1c bd af 27 c0 3d
       -0.019726003 0.01721895 -0.03832781 0.09382569
0003a0 4c d5 ef 3f ed cd 27 bf bb 19 ca 3f 69 40 fc 3e
       1.8736968 -0.6554859 1.5789102 0.4926789
0003b0 9a d0 db 3e aa 4a 61 3e b4 72 aa be 12 0f 43 3d
       0.42932588 0.22001138 -0.33290637 0.047621794
0003c0 ab 63 00 bd e7 de 0d bd cd ce 2f ba 10 57 ef 3c
       -0.03134505 -0.034636404 -0.0006706536 0.02921632
0003d0 a3 42 af bc cd 6e f9 3b e2 61 13 3d 9a 63 13 bd
       -0.02139408 0.0076120854 0.03598202 -0.03598366
0003e0 3e f9 85 bd fd 3b f9 bf 7c 84 ed 3d 2b 2a 2d bf
       -0.0654168 -1.9471432 0.11597535 -0.6764247
0003f0 6f e2 83 be f3 77 1c bf c8 aa 20 bc 3e 72 01 3e
       -0.25758693 -0.6112053 -0.009806342 0.12641236

fcs1.bias f4 [400]
000000 05 28 2d be a3 b5 b8 be 4e 5e a7 3a 7e 72 81 be
       -0.16909797 -0.36076078 0.0012769194 -0.25282663
000010 d6 a1 b3 be 37 24 2a 3f dc 57 f3 3d b9 2f 6c 3f
       -0.3508441 0.6646151 0.11881992 0.9226032
000020 6f 0e 94 be 53 ac 8c 3e 3a 1c ce be 61 01 f2 be
       -0.28917262 0.27475223 -0.4025591 -0.47266677
000030 43 ca 1e bf 1b e4 b3 be 28 85 9c be 07 34 59 be
       -0.62027377 -0.35134968 -0.3057034 -0.21211253
000040 98 8b 67 bf 77 03 c8 3d de 9f b4 be f5 3b ea 3e
       -0.9044738 0.09766286 -0.3527822 0.4574887
000050 7e 43 76 3f ac a5 18 3e 95 83 62 be ea a0 9d be
       0.96196735 0.14906949 -0.22120507 -0.3078683
000060 67 8b 2f bb 8d fe 7c be d5 47 9e be f8 ca f3 bd
       -0.002678597 -0.24706478 -0.30914178 -0.119039476
000070 b9 77 5e be 20 5b 84 bf 7c 51 26 be 87 a0 c9 bd
       -0.21725358 -1.0340309 -0.16242021 -0.09845071
000080 dc 87 49 3f 0a 70 b3 bb c6 5a 6f bd dc 43 89 be
       0.7872293 -0.0054760026 -0.058436178 -0.26809585
000090 b3 b3 08 3f f4 03 48 bf d8 73 94 be cb 33 1a 3e
       0.533992 -0.7813103 -0.28994632 0.1505882
0000a0 ed c3 c6 3e 58 29 7a be 1c 4e ba bd 04 13 c2 bd
       0.38821355 -0.24429834 -0.090969294 -0.09476283
0000b0 c6 ee bb be 8d cf dd 3e 0d 4c cf 3e 92 ea 17 3c
       -0.36705607 0.4332241 0.4048771 0.0092722345
0000c0 55 fe 5f be 12 8f 19 be db dc 5e 3f 4d c5 87 3e
       -0.21874364 -0.14995983 0.8705575 0.26517716
0000d0 89 6c eb bd 9d 1e dc 3e 48 cc 53 bd e6 16 c1 bd
       -0.11495311 0.42992106 -0.05170849 -0.09428196
0000e0 3d d2 01 bf e8 9d 06 be 9f ea 1e 3f c2 90 92 be
       -0.50711423 -0.13146174 0.62076753 -0.28626066
0000f0 1d 41 8b be 0f 68 8b be e4 28 e0 3e b5 52 a2 bc
       -0.27198115 -0.27227828 0.43781197 -0.019814828
000100 e5 93 63 3d e6 d9 86 3e 57 56 a6 3d 1f ca ac be
       0.055560965 0.26338118 0.08121937 -0.33747956
000110 61 b2 ba bd a1 7d aa be 7e 50 69 be 7f 36 46 bf
       -0.09116054 -0.33298972 -0.22784612 -0.77426904
000120 79 d6 1f 3e 45 72 25 3e 7b 75 68 be dc ce ff 3e
       0.15609159 0.16156872 -0.22701065 0.4996251
000130 d5 4f 87 3e a7 86 83 be 6b fd 47 3f 1a d5 82 3e
       0.26428095 -0.2568867 0.7812106 0.2555321
000140 54 aa 2b bf be 56 17 3f 32 62 a2 be 5b 8f 06 bf
       -0.67056775 0.59116733 -0.31715542 -0.52562493
000150 6d d8 93 be f7 9c af be 39 5b d7 3e 0c 16 7e be
       -0.28876057 -0.34299442 0.42061785 -0.24813098
000160 ad 08 45 be 2a d2 78 3e 3e ac 87 be f5 5e c6 bd
       -0.19241591 0.24298921 -0.26498598 -0.0968608
000170 f9 ba 16 3e 0f 8a 23 bf 0a 77 e8 3e 6a 9c 2a bf
       0.14719762 -0.63882536 0.4540332 -0.6664492
000180 5e 13 09 be 91 72 f2 3e 2c d6 d3 3d 67 a6 81 3e
       -0.13386294 0.47353032 0.103435844 0.25322267
000190 ef 91 d7 bd ba 60 5c bc b4 9f 01 3d 64 9f 91 3d
       -0.105258815 -0.013450796 0.031646445 0.071104795
0001a0 28 fe 7c 3d fc 46 07 be 4f 5b 61 be 50 57 73 be
       0.06176582 -0.13210672 -0.22007488 -0.23763776
0001b0 01 ca 9f be b5 86 34 bf 7e 66 62 3f 1e 7a 7e be
       -0.31208804 -0.70518047 0.8843764 -0.24851272
0001c0 cc 45 1a be ac 21 d9 3d b0 4d 88 be 0f 14 8f be
       -0.15065688 0.106021255 -0.2662177 -0.2794499
0001d0 1c 8d d4 3e ec c4 82 be ba 32 32 be 65 16 a0 be
       0.41513908 -0.25540864 -0.17402163 -0.31267086
0001e0 15 e7 73 3e df 0f 99 be da 95 5b 3f 48 ec 9c be
       0.2381862 -0.2989492 0.8577553 -0.30649018
0001f0 03 47 01 bf 96 e5 e1 be db b5 46 bc f1 50 3b bc
       -0.5049898 -0.44120473 -0.012128319 -0.011432872
000200 a9 a2 b0 be 9c 9e 29 be be bf 8d be 64 c5 58 bf
       -0.344991 -0.16564411 -0.2768535 -0.84676194
000210 d2 96 04 bf d4 da 1a be 6d 6e 11 be 95 ff 69 bf
       -0.51792634 -0.15122539 -0.1420228 -0.9140561
000220 74 88 5b 3c 92 69 92 be d3 6a e2 3e 02 31 04 bd
       0.013399232 -0.2859617 0.44222125 -0.0322733
000230 07 eb 65 be d3 09 0f be 3c 80 87 be eb 6d 57 bc
       -0.22452937 -0.13968591 -0.26465023 -0.013148765
000240 3f 94 3e bf a1 ec c8 3e da 1f 76 be 1b c2 37 3e
       -0.74444956 0.39243034 -0.24035588 0.17945139
000250 c2 24 7d 3e 47 1e a8 be 62 92 c9 3d d8 91 86 3e
       0.24721053 -0.328356 0.098423734 0.26283145
000260 27 89 4a bf 1c 94 8a be 66 bd 8f 3e 70 d8 1f 3e
       -0.7911553 -0.27066123 0.28074187 0.15609908
000270 88 12 8d 3e 52 15 3f 3e a1 72 65 3f fb 86 d4 bd
       0.275532 0.18660477 0.89628035 -0.10377308
000280 7c ea 2a bf bf c0 b5 3e fb 42 ed bd a1 06 97 be
       -0.66764045 0.35498616 -0.11585041 -0.29497245
000290 5f 7b a5 be 61 73 46 be f1 09 9c be b7 d9 2c bf
       -0.32320687 -0.19379951 -0.30476335 -0.67519706
0002a0 2b a0 4d 3f 88 e6 36 be 3e 87 89 be 2e f7 c7 bd
       0.8032252 -0.17861378 -0.26860994 -0.09763943
0002b0 96 2b dd bd d4 3b 4c 3f f0 34 bc bd f4 2e 3c 3f
       -0.10799329 0.7977879 -0.091897845 0.73509145
0002c0 7a f3 35 3e d3 9a 0a be 06 fa b2 be c0 66 83 be
       0.1776866 -0.13535623 -0.34956378 -0.2566433
0002d0 c2 c1 4e be fe dd ec bd 12 71 5a bf cc 88 27 bd
       -0.201911 -0.11565779 -0.8532878 -0.040901944
0002e0 4f fd c3 3d 29 ec 18 3f 84 95 23 bf 3d 57 da 3d
       0.09569799 0.5973535 -0.6390002 0.10661171
0002f0 e7 88 4a 3f d2 7f 2f be 72 13 1a 3d 0b a8 c1 3e
       0.79115146 -0.17138603 0.0376162 0.3782352
000300 3e 79 d0 be 09 ab 63 3f 82 59 36 be dc c6 5c bf
       -0.407175 0.88932854 -0.17807582 -0.86240935
000310 ab c3 05 be 75 77 83 be 27 1f 38 be ac 2b 7a 3e
       -0.13062923 -0.25677076 -0.17980634 0.24430722
000320 54 1a 4a be 6d 39 85 3e 89 01 09 bf e2 9f 5d be
       -0.19736606 0.26020375 -0.5351797 -0.21643022
000330 cc 03 9e be 80 f4 6b 3d 47 41 9b bf 61 d3 7c be
       -0.30862272 0.05760622 -1.2129296 -0.2469001
000340 61 5a 9b 3e 6d b0 e9 3d 44 13 5d be 35 fb a0 be
       0.3034239 0.11410604 -0.2158938 -0.31441656
000350 18 d6 d9 3e 44 04 4b 3d 38 23 ec be 26 5d 4c 3e
       0.42546153 0.049564615 -0.4612062 0.19957408
000360 5f 3a e0 3e 14 ef 31 3f 66 7d 46 be 86 2e e9 3e
       0.43794534 0.6950543 -0.19383773 0.45543307
000370 43 b7 15 be 7c 73 82 bd aa 4d 87 be 37 0d 80 be
       -0.1462069 -0.06369683 -0.2642644 -0.25010082
000380 1a d8 c3 be 3f 9c fa bd 49 20 df be fe 1e 99 be
       -0.3825081 -0.12236833 -0.4357932 -0.29906458
000390 47 80 26 bf d6 ba 65 3e 7e f3 9e be 5f 8c 8d be
       -0.65039486 0.22434554 -0.31045145 -0.27646157
0003a0 eb 61 6e 3d 9b 1a 81 be 7e 35 47 be ad da 49 be
       0.05819885 -0.2521561 -0.19454 -0.19712324
0003b0 b5 b5 ee 3d 10 1b b4 be 11 af e1 bd 0c 01 be be
       0.116557516 -0.35176897 -0.110197194 -0.37110174
0003c0 30 44 90 be 2d fd f6 3e 2b 4b 8b be 84 87 0d 3e
       -0.28177023 0.48240033 -0.27205786 0.13821226
0003d0 f7 43 be be d7 0c 86 bf 59 82 53 be 3f 6a 08 3f
       -0.37161228 -1.0472668 -0.20655192 0.5328712
0003e0 29 e8 57 be 81 fe 92 3e 74 4f 46 3f c2 45 5b bd
       -0.21084656 0.28709796 0.77464986 -0.053533323
0003f0 58 bf 9e be 94 0d c8 3a 4d 71 b3 be 4e 63 07 bf
       -0.3100536 0.0015262836 -0.3504738 -0.528859

fc2.weight f4 [300, 402]
000000 6f da 0a bd b3 69 88 3e ee 2c 84 3e c3 ce 59 3d
       -0.03389972 0.26643142 0.2581553 0.0531757
000010 8f 8a 73 be 98 ff 1d 3f 38 ca 15 3e b2 6c 87 be
       -0.23783325 0.6171813 0.14627922 -0.26450115
000020 61 36 91 3e 30 46 99 bf 55 f1 22 bf c6 af f4 bd
       0.283618 -1.1974545 -0.63649493 -0.119475886
000030 b5 95 20 bd 2d 60 01 be 3b 78 0a bd 9a 32 bf bc
       -0.03920527 -0.12634344 -0.033806067 -0.023339558
000040 fe 94 9d be d5 b7 43 be 7a 0d 26 bf 75 51 e1 bd
       -0.30777735 -0.19113095 -0.64864314 -0.11001865
000050 b3 c5 c4 bd 9b 43 08 bd a4 02 2f 3d ce ab ae bc
       -0.09608021 -0.0332676 0.042727128 -0.021322157
000060 70 3c c7 be 16 2a 2b 3c c2 83 8e 3c e1 6e 5c 3d
       -0.38913298 0.010447046 0.017396811 0.05381668
000070 84 fb 72 bc 6a 6e 83 3f 35 bf e4 3c 0c fc 8d bd
       -0.014830474 1.0268071 0.027923206 -0.0693284
000080 3d cd 1e bf 24 26 fb 3c c2 c5 f7 3c 6a e9 36 b9
       -0.6203192 0.030657835 0.030245665 -0.00017443826
000090 bd d0 f2 3e b3 57 12 3f c6 b2 1b 3d b3 ff 35 bf
       0.4742488 0.5716507 0.03801229 -0.7109329
0000a0 aa 39 0b bf 6b 31 49 3c f2 b9 bb bf c6 8b 62 3d
       -0.54384863 0.012279849 -1.4666121 0.05530908
0000b0 fa 73 3e c0 85 3b 0d c0 3d b0 5f be 32 50 20 bf
       -2.9758286 -2.2067578 -0.21844573 -0.6262237
0000c0 1c b9 e3 3e eb 87 32 bd af d1 05 3e c9 9a 92 bf
       0.44477165 -0.043586653 0.13068269 -1.1453487
0000d0 33 4d a6 be 07 66 f8 bd 8a f5 43 bf 29 52 24 3e
       -0.32480773 -0.12128835 -0.7654654 0.16046967
0000e0 03 07 12 bf 29 72 d5 be dc 2f 0a 3e d2 b6 ef 3c
       -0.5704195 -0.4168866 0.1349482 0.02926198
0000f0 9a 0b 1e bd e7 64 3c bd cd 7e 12 c0 bd 0d 82 bf
       -0.038585283 -0.045994665 -2.2889893 -1.0160443
000100 2b ff cb 3d 83 60 70 3f 9b cb b3 bd 1d 66 89 bc
       0.09960779 0.93897265 -0.08779069 -0.016772324
000110 5e cf e9 3e 6d 13 82 bc 8b 3b 0f bd 15 4d bc 3d
       0.4566602 -0.015878404 -0.034968894 0.0919439
000120 33 a5 a2 3e c3 52 46 bf 92 8b 17 3c 28 13 f9 3d
       0.31766662 -0.77470034 0.009249585 0.12161857
000130 d5 67 44 3d 69 f3 6f bb 85 a9 09 bd 94 54 45 bf
       0.047950584 -0.003661359 -0.033608932 -0.7708218
000140 49 76 87 bd 6d 10 6f 3e 78 2f ab bc 93 b8 d5 3e
       -0.06614358 0.2334611 -0.020896658 0.4174238
000150 74 be cc 3b f7 b2 7e 3c 35 06 ac 3d 24 ff e7 3c
       0.0062482897 0.015545598 0.083996214 0.028319903
000160 0d 70 18 bd 2e da 0b 3f d3 ee 94 bb 36 25 dd 3e
       -0.037216235 0.5462979 -0.0045450716 0.43192452
000170 a3 0f 05 3e 27 e4 19 bf 54 3e 55 3e c3 7a 5c 3d
       0.12994246 -0.6011376 0.20824558 0.053828012
000180 2d 4e 1f bc 96 83 22 c0 9c c5 86 bf 2b 99 e4 bd
       -0.009723228 -2.5392814 -1.0529056 -0.11162027
000190 54 6d 87 3d b3 e8 3c be f9 e4 fe 3e d3 52 31 bf
       0.066126496 -0.18448143 0.49784067 -0.69267005
0001a0 42 2a 0e be f7 ab bb bb 01 92 db 3d d2 2e 37 bd
       -0.13883308 -0.005727287 0.107212074 -0.044722386
0001b0 f2 f2 3a bd a6 83 20 3e 9d 09 95 be 5c ca 91 3c
       -0.045641847 0.1567522 -0.29108897 0.017796688
0001c0 1f 4f 37 3f 06 44 a3 3e 46 3d fd bb 92 aa 02 bd
       0.71605104 0.31887835 -0.0077282516 -0.03190095
0001d0 dc 20 d2 be fe 7d 2f 3c 54 a1 30 3e 8c 30 1e bd
       -0.41040695 0.010711191 0.17249042 -0.038620517
0001e0 94 61 8e 3e 6a b7 0d 3f 6c 1a 26 be 4a d4 bf bc
       0.2780882 0.5535799 -0.16221017 -0.023416657
0001f0 16 1a 95 3f 56 a1 ac 3f 4e d9 cb bd d9 9d e4 bf
       1.1648586 1.3486736 -0.09953557 -1.7860671
000200 ef 8c 08 c0 64 0a dc 38 04 34 17 3c ce fa 14 be
       -2.133602 0.00010492353 0.00922871 -0.145488
000210 ea d2 e2 be 0c 17 13 bb f2 f5 fd bc d8 1f 3b 3f
       -0.4430154 -0.0022444157 -0.031001065 0.73095465
000220 34 0b 2c 3e fe 71 c9 bc a0 e2 32 bf 6b d9 16 bd
       0.16801149 -0.024590489 -0.6987705 -0.03682844
000230 fb 0b f9 bb 7d 76 29 bd 07 b9 30 3f 65 88 9a 3f
       -0.007600305 -0.041372765 0.6903233 1.2072874
000240 81 7b c4 bf bb 32 dc bd 6f ac f9 3c 8b 79 06 3f
       -1.535019 -0.107518636 0.03047773 0.5252921
000250 2f 1a ae 3e 31 9c ad be 48 36 09 3d e3 da 24 3f
       0.34004351 -0.33908227 0.033499032 0.64396495
000260 59 eb c9 be 48 a0 1d 3d 8d bb 36 be a9 03 28 3e
       -0.3943737 0.038482934 -0.17844982 0.16407646
000270 0f 53 33 3f d7 86 06 bf df 53 50 3d a3 d5 8e be
       0.7004861 -0.525495 0.050861236 -0.27897367
000280 0e 96 40 be ff 89 9c 3e b6 af 2c 3c 88 70 2d 3e
       -0.18807241 0.30574033 0.01053994 0.16937459
000290 8d d9 4b bd a4 f2 0b bd 19 8e 2f bd db 07 93 3e
       -0.04976802 -0.034166947 -0.042860124 0.2871693
0002a0 f2 05 94 be b8 b5 4c bc 50 ae 76 3c 17 07 81 bb
       -0.28910786 -0.012494497 0.015056208 -0.0039376128
0002b0 f3 98 f2 3e c5 1c 77 3d 90 bf b6 be 91 8b 5b bd
       0.47382316 0.06033017 -0.35693026 -0.053599898
0002c0 1e 08 08 3e df 93 f0 3e 9c 50 35 3f 2d bc c2 bb
       0.13284346 0.46987817 0.70826125 -0.0059428425
0002d0 03 b8 4e bc 0a 11 2f bd f6 17 d8 bf 3f 1f 31 bf
       -0.012617114 -0.04274086 -1.6882312 -0.691883
0002e0 07 76 5e 3e ea 19 d8 3d 93 fc db 3d 24 fd 36 3f
       0.21724711 0.10551818 0.10741534 0.7148001
0002f0 ca 28 8d bd 40 60 53 3d 82 f0 9f bf 4b e0 f8 3e
       -0.068925455 0.051605463 -1.2495272 0.48608622
000300 1f c0 a3 3d 6b d6 13 3e e1 85 0c bd 58 52 b0 3e
       0.079956286 0.14437263 -0.034307364 0.34437823
000310 8c ad 3a bd da 24 7e bf de a8 26 3f c7 f5 a3 be
       -0.045575663 -0.9927498 0.6510142 -0.3202345
000320 15 64 f5 bc b4 26 c5 bc bf 57 bc be 98 08 34 bd
       -0.02995495 -0.024066307 -0.36785695 -0.04395351
000330 d9 8a 0f 3f c8 88 4f 3f 04 27 ab be f7 44 c4 bc
       0.5607124 0.81068087 -0.33428204 -0.023958666
000340 b4 d5 c7 3e a5 8c d4 be a4 c6 64 3d 01 dd 58 bd
       0.3903023 -0.41513553 0.0558535 -0.05294514
000350 21 86 5f 3e 55 e6 f2 be ad 4f d9 bd 5d a2 96 3e
       0.2182851 -0.47441354 -0.106109 0.29420748
000360 97 30 2b 3e f4 c2 aa be cb 9b 97 bb 32 9b 5a 3e
       0.16717754 -0.33351862 -0.0046267263 0.21348265
000370 4f 7e 3d c0 c6 ce 97 3e b6 15 a8 bf 63 c2 4a bc
       -2.9608343 0.29649943 -1.3131626 -0.012375447
000380 ce ef 29 be 9c 47 91 bf b4 28 ec 3e 59 88 a7 bc
       -0.16595384 -1.1349978 0.46124804 -0.020450758
000390 96 36 83 3e 11 43 4e 3e 7c 6e dd 3c a1 be 9c bc
       0.25627583 0.20142771 0.027030222 -0.019133868
0003a0 b3 36 34 3e 91 f9 b1 3c ab 59 ac 3c 1d 40 47 3d
       0.17598991 0.021725448 0.02103885 0.048645128
0003b0 42 b0 37 3e da 64 19 3c 07 0e 8d bb 2e a9 9f be
       0.17938331 0.009362424 -0.0043046507 -0.3118376
0003c0 d6 78 0d 3d b5 39 f0 3e 1c 06 44 3d af 1a 79 3d
       0.034539066 0.46919027 0.04785739 0.060816463
0003d0 5a 15 23 bd 61 a7 89 bf 4b c9 1f bd 71 e4 2e be
       -0.039815284 -1.0754205 -0.039010327 -0.17079331
0003e0 07 00 21 3e 39 8b e5 3d 33 92 2a bf 30 4c b1 bd
       0.15722667 0.11208195 -0.6662933 -0.0865711
0003f0 2b ab 2d 3d e8 3a 05 bf 05 3e 30 c0 1e cf 04 3e
       0.042399567 -0.5204301 -2.7537854 0.12969634

fc2.bias f4 [300]
000000 0d ee 19 3b c6 b3 95 bd e5 bf 23 bd 70 b7 cd 3e
       0.0023487837 -0.0730968 -0.039977927 0.40179014
000010 b6 34 e9 bb 48 1e 18 3d 9e 28 25 bf a9 ed 51 bd
       -0.0071168793 0.037138253 -0.645151 -0.05125204
000020 b1 39 79 be d9 6d 26 be 9f 90 c2 3c 87 91 32 bd
       -0.24338414 -0.16252841 0.023750601 -0.043595817
000030 25 da 04 bd 23 cb 76 bc d5 9a 30 be 37 6b b9 be
       -0.0324346 -0.01506308 -0.17246564 -0.3621461
000040 09 51 34 be 63 a2 15 3e 71 21 80 be 72 9b af be
       -0.17609037 0.14612727 -0.25025514 -0.34298283
000050 ae 08 68 bc ce ab c2 3d 04 83 49 3e 9a 6e 96 3d
       -0.014162226 0.095054254 0.19678885 0.07345314
000060 dc b1 6f bd e5 2f 31 be 40 92 2a bd e5 ff 86 3c
       -0.05851923 -0.17303427 -0.04164338 0.016479442
000070 e2 76 2f bd d9 52 8d be 74 86 82 bd 5a e6 e8 3d
       -0.042837985 -0.2760227 -0.06373301 0.11372061
000080 a6 2c 86 3e b4 8b 8b be 51 5c da bd 5d 08 2d bd
       0.2620594 -0.27255023 -0.10662139 -0.042244304
000090 be 71 bc 3b 2e 12 66 3c 8b 9c b4 3e 62 3a ab be
       0.005750864 0.01404242 0.35275683 -0.3344298
0000a0 cd e2 a7 3d 5a b0 f0 3e b0 7a 64 3e f3 38 55 bc
       0.08197556 0.47009546 0.22312427 -0.013014066
0000b0 e4 ec a8 be 31 fa 6d be 4b 43 71 be ec c9 51 be
       -0.32993233 -0.23239972 -0.23560826 -0.20487183
0000c0 3f 34 f1 be 16 4a a4 3e 7b d3 96 be 65 37 9b be
       -0.47110173 0.32087773 -0.29458222 -0.303157
0000d0 79 27 23 bd f9 23 06 bd f1 62 78 bd ad c1 a7 3d
       -0.039832566 -0.03274915 -0.060641233 0.081912376
0000e0 2d 63 1b bd 6a 56 4a 3d c0 22 e8 3e e8 5f 73 3d
       -0.03793638 0.049398817 0.45339012 0.059417635
0000f0 fe 26 b3 bd 58 af 43 be c7 f5 e8 3e ca fd fd 3d
       -0.087476715 -0.19109857 0.45500013 0.12401922
000100 ef cb a0 be 65 ba 43 3e 8d 3a 33 bd 73 d1 d2 be
       -0.3140559 0.19114073 -0.04375701 -0.41175422
000110 78 ad 0e bd 25 90 91 bd 27 68 d4 bd fd 74 87 be
       -0.0348334 -0.071075715 -0.10371428 -0.26456442
000120 ba db a2 be 97 15 c5 be fb e5 70 bd 01 91 81 3e
       -0.31808263 -0.38493034 -0.058813076 0.25305942
000130 dc dc 73 bd 20 f6 5f bd 7b 57 9c bd f5 b3 a5 be
       -0.0595368 -0.054678082 -0.07633873 -0.3236386
000140 d1 3e b9 3d 61 4a 24 bc c1 65 b6 3e 61 09 8e 3e
       0.090451844 -0.010027499 0.35624507 0.2774153
000150 f3 65 d7 bc 33 59 e5 bc 86 d5 40 bd d8 97 84 bd
       -0.02629373 -0.027996635 -0.04707863 -0.064742744
000160 1a 9c 1c 3f 1a 62 bd 3b 9c 5f d1 bd b3 97 5c 3d
       0.6117569 0.005779517 -0.10223314 0.05385561
000170 f2 da 8e bd 36 78 37 be 3b d1 04 bd f5 20 27 bd
       -0.06975354 -0.1791695 -0.0324261 -0.040802915
000180 63 dd 2f 3d 17 47 67 3e 06 a0 cd be 9f f8 db 3c
       0.04293574 0.22585712 -0.4016115 0.02685195
000190 ea 54 8a bd 76 54 8b bd 1c 72 22 3f a1 4d 51 bd
       -0.06754477 -0.06803219 0.6345537 -0.051099423
0001a0 fb 2c e2 bd 8c a6 1c 3d 6b 34 94 bc cf 8f 85 3e
       -0.110437356 0.03824477 -0.018091401 0.2608628
0001b0 75 d1 bf be 57 8f f2 bc 14 e0 32 bf fc 2f 94 bd
       -0.3746449 -0.029609365 -0.69873166 -0.07235715
0001c0 6a ff a8 be a7 03 62 be 6b a9 7c bd be e2 8e bd
       -0.33007365 -0.22071706 -0.061685007 -0.069768414
0001d0 dd 9b ad bd 8e 96 5a be 3f 6d 96 3e 83 3b ba 3e
       -0.08476994 -0.21346495 0.29380223 0.3637353
0001e0 f0 bd a5 3d 35 7d 00 bf 5f 68 22 3e af 26 a1 3b
       0.08092868 -0.5019105 0.15860127 0.0049179415
0001f0 77 5d c9 3e e7 40 b4 3c f9 a2 12 be e5 7e 04 bd
       0.3932912 0.022003604 -0.14319982 -0.03234758
000200 68 e3 a8 bc 8a 39 92 be a6 d3 a1 bd 35 8a c0 bc
       -0.020616248 -0.28559524 -0.07901697 -0.023503402
000210 27 93 81 3e 2b 38 66 bd bb 73 86 3e 81 a8 5f 3c
       0.2530758 -0.05620591 0.2626017 0.013651014
000220 bb 67 98 bd 98 b4 70 3f 70 72 54 bd 53 8a 89 be
       -0.0744166 0.94025564 -0.05186695 -0.26863346
000230 e4 0b 65 be f0 37 84 be 85 d5 2d be 44 86 84 3e
       -0.22367817 -0.25823927 -0.16975982 0.25883687
000240 97 03 17 3e 6e 7a 55 ba 64 45 57 bd a3 ac a7 bc
       0.14747463 -0.00081435486 -0.05255641 -0.020468062
000250 6b a5 8f be f9 67 66 bd 0f 89 8f bd a1 3a 6b bd
       -0.2805589 -0.0562515 -0.07008564 -0.05742896
000260 90 57 77 3d 2d 20 0b 3e 97 d8 02 be 52 7a c8 be
       0.06038624 0.13586493 -0.12777935 -0.39155823
000270 aa f4 bb bc aa 81 f8 be 06 f0 a7 bd 22 ea b6 be
       -0.022943813 -0.48536426 -0.08200078 -0.35725504
000280 6d cb be 3d fc ef 85 be 00 b6 cc be 2f e0 0d bf
       0.09316144 -0.26159656 -0.39982605 -0.554202
000290 f2 7d 56 be de 37 c6 be 2a 65 6a bc b8 50 99 bd
       -0.20946482 -0.38714498 -0.014306346 -0.07486099
0002a0 63 db 5c bd cc ca 27 bd df a5 b8 bd bb 0d 1f 3f
       -0.05392016 -0.040964887 -0.090160124 0.62130326
0002b0 8f 76 12 bd 93 77 85 be 7d e1 2d be 79 9c ab bd
       -0.035757598 -0.2606779 -0.16980548 -0.08379454
0002c0 1d d7 1c bd 8e ed 70 3c 29 20 32 3b 6d 40 79 bd
       -0.038291086 0.014705075 0.0027179813 -0.060852457
0002d0 d8 ec 93 be cc 76 da bd a2 a2 66 3d 6a 1e fa 3c
       -0.28891635 -0.1066719 0.056307442 0.03053208
0002e0 d6 83 68 3e 28 60 35 bd 05 e4 21 bd c0 f3 29 3e
       0.22706541 -0.044281155 -0.039524097 0.1659689
0002f0 9b d2 9e be ba 1f 1c 3e 3b 73 fe bd 13 cc 9b 3e
       -0.31020054 0.15246478 -0.12424322 0.30429134
000300 38 f1 89 3e 47 d0 80 bd ef f1 99 be 83 07 82 3e
       0.26941848 -0.06289726 -0.30067393 0.25396356
000310 38 db 63 be dc e0 c0 be 49 bc 83 bd a7 63 ab bd
       -0.22251594 -0.37671554 -0.06432397 -0.083686166
000320 8e b0 a1 bd 1e 39 62 bd 10 41 bc be d6 6f 72 be
       -0.07895003 -0.055230252 -0.3676839 -0.23675475
000330 ae 9b 53 be f8 93 0c be f4 bc b1 3e f9 f2 58 be
       -0.20664856 -0.1372832 0.34714472 -0.21186437
000340 8d 26 29 bd 10 a7 12 be 53 e6 c4 be 68 2f 6a be
       -0.04129653 -0.14321542 -0.38456973 -0.22869647
000350 c4 0d ba 3d d7 07 bc be e2 3a 8e bd 60 83 b6 3e
       0.09084657 -0.3672473 -0.06944825 0.35647106
000360 84 ac 96 bc 8e 80 a0 bd a1 e6 ff bd 4f 47 ab be
       -0.018392809 -0.0783702 -0.12495161 -0.33452842
000370 5b 79 a3 3c 0d b2 db bb e8 7d fa 3b ba a2 9c 3e
       0.019955328 -0.006704575 0.0076444037 0.305929
000380 d5 16 6e 3e 29 b4 e8 be c6 d4 8f be f3 d1 1c bd
       0.23250897 -0.4544995 -0.2809202 -0.03828616
000390 75 63 3b be 76 ba bc 3e fd 46 70 bd 2d 92 ec be
       -0.18299659 0.36861008 -0.05866145 -0.46205273
0003a0 c3 a2 8c bd 73 07 73 3e d8 58 90 bd 75 4a 81 3d
       -0.06866982 0.2373331 -0.070481956 0.0631303
0003b0 28 1c 02 bd 0b a4 7a 3e 7a 39 97 be 84 d3 33 3f
       -0.031765133 0.2447664 -0.2953604 0.7024462
0003c0 52 a6 db bd fb c8 2d bd e8 63 c1 be 4a be 37 3e
       -0.107250825 -0.042427998 -0.37771535 0.17943683
0003d0 71 49 b1 3d 27 1a ae 3e 2e d9 f0 bd 43 bf 8b bd
       0.08656586 0.34004328 -0.11760174 -0.0682359
0003e0 8b 1d 27 bd 44 bd 93 bd e9 89 e4 bc 43 b4 5e bd
       -0.04079966 -0.07213834 -0.027897792 -0.05437113
0003f0 fd cb 84 bd 84 0c 50 be 2c 6d a9 be 5d 2c 03 be
       -0.0648422 -0.20317274 -0.33091104 -0.12809892

fc3.weight f4 [1, 300]
000000 e0 46 97 bf 1b c2 e5 be 33 2c 4f bc 4d d5 47 bf
       -1.1818504 -0.44874653 -0.012644815 -0.78059846
000010 43 5e c0 3c 55 9e c2 be f8 7a 80 bf 38 92 fa 3b
       0.023482447 -0.38011423 -1.0037527 0.007646825
000020 f2 e7 46 bf 81 78 9d bf 80 7b 49 3c de 2d b2 3c
       -0.7769767 -1.23024 0.012297511 0.021750387
000030 5e 38 ab bb c5 bd 7b 3e d4 de 3e 3b 9a c1 41 3c
       -0.0052252254 0.2458411 0.0029124515 0.011825943
000040 1c ca a9 be a6 51 fe 3f 20 06 0e bc d3 1b 77 bf
       -0.3316201 1.9868667 -0.0086684525 -0.9652683
000050 19 a5 e3 3c ec 55 75 bf 07 9e 42 bf 53 27 27 bf
       0.027788686 -0.9583423 -0.7602238 -0.6529438
000060 d6 a4 ae 3c 02 d2 95 bf ff 24 b4 3c 7a 65 32 bc
       0.021318834 -1.1704714 0.021990297 -0.010888452
000070 9c 18 db 3c ab ff 8a bf e9 92 99 3f e2 2a ae bf
       0.026745133 -1.0859274 1.1997958 -1.3606837
000080 b2 36 84 bf ff 34 19 bd 0a d1 58 be da 7a f3 bb
       -1.0329192 -0.037404057 -0.21173492 -0.0074304165
000090 71 bb bf 3c 75 42 8b bf 9f f0 30 bf 31 bf 89 be
       0.023404809 -1.0879656 -0.6911716 -0.2690368
0000a0 80 64 8e bf ce 08 32 bf a1 3d ff be c8 b3 de 3c
       -1.112442 -0.69544685 -0.49851707 0.027185336
0000b0 32 e1 39 bf f5 cd 25 bf e0 a9 99 be b2 7f e3 be
       -0.72609246 -0.6476739 -0.30012417 -0.4443336
0000c0 67 7e 41 c0 67 6b d7 be a2 ab 83 3f 60 90 80 be
       -3.02334 -0.4207413 1.0286753 -0.2511015
0000d0 ce 2d 1d bd fd 7f 5b 3c e5 53 2e bc cd 17 35 bf
       -0.03837376 0.013397214 -0.010640119 -0.7073944
0000e0 8c e6 c7 3b c9 1f 7f bf 2f c0 ea be 70 24 fb bf
       0.0061004814 -0.99657875 -0.4584975 -1.9620495
0000f0 a3 ec 20 bf 5d c3 6b 3b 91 85 bd be d8 c4 2a bf
       -0.6286108 0.00359746 -0.37015966 -0.6670661
000100 6d 42 c5 bb 46 02 95 bf d2 da a6 bf 9e 44 82 be
       -0.0060198815 -1.1641319 -1.3035529 -0.25442976
000110 6f a4 8f 3b 00 3d 74 bc c5 ea d3 bb 26 82 06 bf
       0.0043836157 -0.014907122 -0.0064671957 -0.5254234
000120 ad c7 00 3c 64 72 92 3f 84 25 53 3b 84 c2 fa be
       0.007860106 1.1441159 0.0032218406 -0.4897653
000130 78 82 e0 3c b3 56 e0 3c c6 dd 1f 3c 14 0c a4 3c
       0.027405962 0.027385091 0.009757465 0.02002529
000140 0c 71 ad be e4 f8 c8 bb 18 69 76 be 29 2a 1d bf
       -0.3387531 -0.0061331857 -0.24063528 -0.61392456
000150 d6 41 0a bd 05 0f 64 3c 08 ac df 3c fe df d0 3c
       -0.033754192 0.013919597 0.02730371 0.025497433
000160 09 f4 3c 3f 1c 55 e7 3c 51 ef 39 3a 92 df 45 bf
       0.7380987 0.028238826 0.0007092851 -0.77294266
000170 58 39 93 3c a7 b9 d3 bf f6 9c 1b 3c 2c 3c c2 3c
       0.01797168 -1.6541032 0.009497872 0.023710333
000180 c7 98 08 bf c8 79 c7 be 6c a2 91 c0 f7 50 7c bd
       -0.5335812 -0.389601 -4.551077 -0.06160065
000190 39 b6 7d 3c 66 e8 c0 3a 12 8d 5a 3f b5 97 85 3c
       0.01548534 0.0014717698 0.85371506 0.016307691
0001a0 ad 22 bf 3c 87 e0 0e bc 4b 53 cf bd 55 0b af be
       0.023331964 -0.008720524 -0.10123309 -0.34188333
0001b0 2d 66 6d bf c0 7c ef bc ec 95 de 3f a6 7c b6 3c
       -0.9273403 -0.02923429 1.7389503 0.022276234
0001c0 8c 7c bc be df c7 8e bf dc 47 00 3d 2d b3 fc bc
       -0.36813772 -1.1154746 0.03131853 -0.030847156
0001d0 35 a4 6b bc aa b0 ef 3b 8e 5a 8f be 15 6c 76 be
       -0.014382412 0.007314761 -0.27998775 -0.24064668
0001e0 f4 f5 bd bf ff 9b c7 be 4f 92 31 bf e5 58 d6 3c
       -1.4840684 -0.38986203 -0.69363874 0.026165435
0001f0 f4 69 97 be 5e ff 47 3c d7 96 59 be 5c 67 28 3c
       -0.29573023 0.01220688 -0.21248947 0.010278549
000200 01 cc c5 bb aa d7 7a bb e7 d6 66 be dd 21 af bf
       -0.006036282 -0.0038275518 -0.22542916 -1.3682209
000210 bc 85 e5 be 93 35 92 be ce 62 16 bf 65 89 95 bb
       -0.44828594 -0.285565 -0.58744514 -0.004563498
000220 40 a6 80 bf 92 fe ab 3f 89 da 16 be 32 a0 9a bc
       -1.0050735 1.3437064 -0.14731802 -0.018875215
000230 2a df d8 be e6 7b 2b be 4e bb db 3c 59 ce e0 be
       -0.4235776 -0.16746482 0.026822712 -0.4390743
000240 75 b5 2a bf 42 31 dd 3c 36 ca 6a bc 8d 1c c3 bc
       -0.6668313 0.027001027 -0.014330437 -0.023817325
000250 42 30 83 3f e9 fd bb 3c b9 d9 a2 3c ba 89 e0 bc
       1.0249102 0.022948222 0.019879209 -0.027409423
000260 61 6b da bf 2a a3 1e bf 02 9c 84 bf ae 23 cf be
       -1.706402 -0.6196772 -1.036011 -0.4045691
000270 2c 2d cb 3c 21 69 a9 be 8d ad 0e bc 8f 4b b7 be
       0.024801813 -0.3308802 -0.00870837 -0.35799834
000280 dd dc d1 bf 75 5a 95 bf 0d bb a8 be 65 a1 6c bf
       -1.6395527 -1.166823 -0.32955208 -0.9243377
000290 c9 6c 30 bf 84 72 29 3f 0e 0e 81 bc a0 d6 ca 3c
       -0.6891599 0.6619036 -0.015753772 0.024760544
0002a0 6e 1f 6e 3b 34 89 05 3d a2 a0 1d 3c e1 9e 53 3f
       0.0036334652 0.03260155 0.009620817 0.82664305
0002b0 38 70 cd bb ae dc 4e bf 65 19 bb 3c 70 18 7e bf
       -0.006269481 -0.8080548 0.022839257 -0.9925604
0002c0 4b 9b e3 3c 2b 50 d1 bb 45 32 49 bc a3 75 c0 bc
       0.02778401 -0.0063877306 -0.012280052 -0.023493594
0002d0 16 56 ac be 2f c2 51 3f a1 fd ed bd 0f e9 c2 3a
       -0.33659428 0.81936926 -0.116206415 0.0014870482
0002e0 f1 02 fe bf 61 e1 fc 3c 49 f4 da 3c ca 5b 09 c0
       -1.9844648 0.030869188 0.026727812 -2.1462274
0002f0 30 7e 0b 3d f8 87 08 bf 7e db eb bf 59 81 07 bf
       0.03405589 -0.5333247 -1.8426359 -0.52931744
000300 c9 30 46 bf ac 34 fe 3c 2a 4c 43 be 4c 8b 9c 3f
       -0.7741819 0.031030975 -0.19072023 1.223001
000310 79 47 3a be b9 3e d2 be 95 ed 90 3c f0 f7 c0 3c
       -0.18191327 -0.4106348 0.017691413 0.023555726
000320 00 95 fb bb f1 a2 e3 3c 15 06 19 be 8f ec 8f bf
       -0.0076776743 0.027787657 -0.14943726 -1.1244067
000330 27 1c f3 ba d3 74 27 bc b9 63 51 c0 4c 90 8a bb
       -0.0018547819 -0.010220724 -3.2717116 -0.0042286273
000340 db de 08 c0 14 34 db bd e5 73 59 bf de 50 87 bf
       -2.138602 -0.107032925 -0.84942466 -1.0571554
000350 39 77 9c be 76 82 6e be d4 d6 b9 3c 7f fa 45 bf
       -0.3055971 -0.23291954 0.022685446 -0.7733535
000360 10 f1 00 3e eb 46 2b bc 19 ef e3 be 61 a1 82 bb
       0.12591958 -0.01045392 -0.44518355 -0.003986523
000370 3c 6b 75 3c fa f7 11 bc 49 a4 83 3c e9 98 dc be
       0.01497918 -0.00890922 0.016069548 -0.4308541
000380 77 f1 94 be 2b 27 1b bf e7 f7 0c bf 58 bc dc 3c
       -0.29090473 -0.6060664 -0.5506577 0.026945278
000390 a7 66 dc bd 7b 33 ca be 0a d1 e8 3c 1d cb ca be
       -0.10761767 -0.394924 0.02841999 -0.39608088
0003a0 21 88 51 3b 1b 37 41 bf 70 02 d8 3c 28 75 d1 bd
       0.0031972008 -0.7547471 0.02636835 -0.10227424
0003b0 0b b7 1f 3c bc f8 03 bf 55 4d a1 3c 1d 8e 4b 3f
       0.009748231 -0.51551414 0.019690195 0.7951372
0003c0 b8 61 1b bf ef f8 8f 3c 6d 90 71 be d8 42 f0 be
       -0.6069598 0.017574755 -0.2359025 -0.46925998
0003d0 66 68 86 bf 06 3b 81 be 0d a6 c7 bf 71 6e 8e c0
       -1.050061 -0.25240344 -1.559755 -4.4509816
0003e0 3d 0c e5 3c 8c 72 e6 3c 66 65 9b 3c 36 f4 c9 be
       0.027959937 0.028130792 0.018969249 -0.3944413
0003f0 12 39 d6 bc 80 ab ac bd ec f0 a7 3f 4b f6 cb 3b
       -0.02615026 -0.084311485 1.3120399 0.006224429
