lunar_landar_project_2/ddpg/experiment1_ddpg_actor.pth (torch, 500642 bytes, 6 tensors)

fc1.weight f4 [400, 8]
000000 ed f2 30 3d 43 26 fc bc 8a 57 9b bc 0d 97 db 3c
       0.043200422 -0.030779963 -0.01896264 0.026805425
000010 20 ba 08 3c 33 72 c4 3b 0d 4e 21 3d cd 2a bb bc
       0.008345157 0.005995059 0.039381076 -0.022847557
000020 4e b2 82 3e 30 ed f0 3d 17 c4 90 bd 48 c2 40 3e
       0.2552666 0.1176399 -0.07068651 0.18824112
000030 6b ad 27 bd b5 9c f1 bd ac 82 3b 3e 79 df 34 3c
       -0.04093687 -0.117974676 0.18311566 0.011039608
000040 72 67 19 3e 2c 09 4e bf 91 86 86 bc 23 29 cc bd
       0.14980868 -0.80482745 -0.016421588 -0.09968784
000050 25 52 1d bb ff 87 f5 3d 10 08 58 3b 94 48 ed 3d
       -0.002400526 0.1198883 0.003296379 0.11586109
000060 45 49 aa 3b 00 5a 35 bd f2 ff ea bc e3 8b 5a 3d
       0.0051967227 -0.044275284 -0.028686497 0.053356063
000070 b8 b9 39 3c 10 48 06 3d d8 03 39 bd d3 d7 2d bd
       0.011335783 0.032783568 -0.04516968 -0.042442154
000080 46 99 08 be 35 80 c1 bc 66 03 60 be 12 e7 41 bd
       -0.13339719 -0.023620704 -0.21876296 -0.047339506
000090 92 92 13 3e 57 71 2c 3d 9c 9c 43 be 31 e8 65 3c
       0.14411381 0.042100277 -0.1910271 0.0140324095
0000a0 e4 98 88 be e4 87 91 bd d3 77 46 3c f2 b1 c1 3d
       -0.26679146 -0.07105997 0.012113529 0.094577685
0000b0 a9 ee af 3c a3 f7 38 bc 1b 55 ae 3d 52 90 e5 bd
       0.021476107 -0.01128951 0.08512326 -0.112091675
0000c0 de bc 60 be bb a1 d3 3d e0 0e 89 3e 7a 44 39 3f
       -0.21947047 0.10333582 0.2676916 0.7237011
0000d0 e8 b5 61 bf 6a 95 2d bd 71 c6 bf 3d ad f8 99 bd
       -0.8816819 -0.04237882 0.093640216 -0.07518134
0000e0 81 63 5a be 4a 3d 1e bc 99 dc e1 3e 92 1e fc bd
       -0.2132702 -0.009658167 0.44113615 -0.12310518
0000f0 19 b9 78 3d 39 e9 b3 be 0c 0b e6 3c b1 77 71 3d
       0.060723398 -0.35138872 0.02808144 0.058952037
000100 f3 f5 98 3e 73 b7 e7 3d 40 f1 6b 3e 9c fb 27 3d
       0.29875144 0.11314287 0.23041248 0.041011438
000110 5f 6b a4 be cd 04 11 bd e4 28 72 bc 01 fd cf bd
       -0.32113168 -0.03540497 -0.014780257 -0.101556785
000120 82 20 46 3e 73 25 db bc 63 e0 86 bd b2 2f c8 bd
       0.19348338 -0.026751256 -0.06585767 -0.09774722
000130 a2 b3 b6 bb eb fb ed bc 8a f9 3d 3e 46 3b 1c 3c
       -0.005575613 -0.029050788 0.18552223 0.009535616
000140 0e 6d e1 3d cc 9b dc 3c b9 06 71 3b 64 da 47 3e
       0.11007129 0.026929758 0.0036777689 0.19516903
000150 7d a2 cc be 0d 2b 0a be 76 c8 dd 3d 2c 8f 32 bd
       -0.3996772 -0.13492985 0.108292505 -0.04359357
000160 e4 7d 1b be b1 23 50 3e 75 c7 cd 3b 17 36 4d 3e
       -0.15184742 0.20326115 0.0062798806 0.20040165
000170 c1 c8 85 3d a7 48 82 be f0 e7 e9 bd ef c8 00 3d
       0.065324314 -0.25446054 -0.11421192 0.031441625
000180 9a aa 22 be 52 ed 32 3e 30 28 be bd bf 47 de bd
       -0.15885392 0.17473343 -0.09285009 -0.10853528
000190 f0 c4 33 bd 69 c0 80 3d ee be 0b 3e db 0c c7 3c
       -0.043888986 0.06286699 0.13647053 0.024298122
0001a0 d3 41 0e bc fd de 9f bc a7 76 e3 bc 1a dc 7d 3c
       -0.008682686 -0.019515509 -0.027766539 0.015494371
0001b0 7a 41 da bc 9a ed e4 39 23 ab af 3c f0 92 82 bc
       -0.02664255 0.00043664576 0.021443909 -0.015939206
0001c0 b0 ff db 3c 18 5d 37 bd db c0 2b 3d e7 d5 f4 bc
       0.02685532 -0.044766515 0.04193197 -0.029887153
0001d0 c7 1c 5c 3c 3a eb a2 bc 1d e1 fb bc da cd 49 3c
       0.013434595 -0.019887555 -0.03074699 0.012317145
0001e0 95 b8 df 3d a3 5e d2 3a 27 da 96 3d 18 7a 5b 3d
       0.10923878 0.0016049932 0.07365828 0.053583235
0001f0 b6 77 84 3c 90 5f a9 3c ca 46 be 3c 8e 15 1e bb
       0.016170364 0.02067545 0.023227114 -0.0024121734
000200 d1 ca c1 bd a7 01 95 bc f0 53 7d be 99 71 49 3f
       -0.09462512 -0.018189264 -0.24739051 0.7868896
000210 5e 7b 37 3e 5a b1 bb bc 35 d4 42 3d ce ca bb bc
       0.17918155 -0.022911716 0.047565658 -0.022923853
000220 4f 37 74 bc 57 90 a9 bd 37 f6 d1 bd 7d ce b7 be
       -0.014905765 -0.08279484 -0.1025204 -0.35899726
000230 18 f4 8e bd 61 9b e0 bd d2 aa 57 3d 2d ec ac 3c
       -0.06980151 -0.10967136 0.05265314 0.021108711
000240 37 6d 22 3e b5 21 e3 bd 59 df 20 be b4 f6 b9 3c
       0.15861975 -0.110904135 -0.157102 0.022700645
000250 eb 08 82 3d dd d5 59 3e 50 9c 2a 3e 67 e6 bb 3d
       0.06349357 0.21272989 0.16661191 0.09174805
000260 42 0c 04 3e 0a 09 32 be 16 b1 2a bd 60 77 cd be
       0.12895301 -0.1738626 -0.04167279 -0.40130138
000270 8f 4e 8a bd 5f df 49 bd df e2 36 be 77 11 7e bc
       -0.06753265 -0.04928529 -0.17859982 -0.015507094
000280 d3 9e e0 3d ef 77 17 3d e8 bd 11 be 36 3d bd 3d
       0.10967793 0.036979612 -0.142326 0.09240191
000290 fb f6 1f 3a 82 28 18 bc fb 31 a9 bd 51 03 18 bd
       0.00061021716 -0.009287002 -0.08261486 -0.037112538
0002a0 7a 4c 96 bd 6b af e3 3d 0c 3c f8 bd ca a5 31 3e
       -0.073388055 0.11117443 -0.12120828 0.173484
0002b0 18 f7 80 3c e2 cd 26 3e 47 2a a2 3d 60 0c e5 3c
       0.015742823 0.16289476 0.0791822 0.027960002
0002c0 ea 63 7e bc af 4a b0 be 86 73 2b bd 30 e5 5d 3e
       -0.015526751 -0.3443198 -0.04185822 0.2166946
0002d0 e8 20 3b bd 06 dd bd bc 87 89 2e 3e b2 31 5b 3e
       -0.04568568 -0.023176681 0.1704465 0.21405676
0002e0 87 cc 8f bd e7 e9 51 be 17 12 ad 3e ca bd 24 bc
       -0.07021432 -0.20499383 0.33802864 -0.010055015
0002f0 fc 6e ff 3d 1d 59 ad 3b 5b 64 8a 3d 0a f2 28 3d
       0.124723405 0.005290164 0.067574225 0.04124645
000300 00 2e f9 3d 20 4d 83 be 1e e4 a2 3d bc af 24 bf
       0.12166977 -0.2564478 0.07953666 -0.6433065
000310 4f b4 34 bd ee 4f 07 be 15 fd 3b 3d aa 18 52 bc
       -0.04411727 -0.13214085 0.045895655 -0.012823263
000320 3d 02 9c bd f4 61 a6 3b 47 d3 68 bd 98 2b a6 bd
       -0.076176144 0.005077595 -0.056842115 -0.081137836
000330 d8 2f c2 3d d0 97 a9 bc f5 a8 1f 3d 0f ae 97 bd
       0.09481782 -0.020702273 0.03897949 -0.07406246
000340 7d 17 3d bd 4d 10 79 bb 80 31 4c 3b af e5 18 bd
       -0.04616498 -0.00380041 0.0031157434 -0.03732842
000350 9a c9 c3 b8 3a 1e bf bc 63 ca 0a 3d 40 2f c6 bb
       -9.335876e-05 -0.023329843 0.033884417 -0.006048113
000360 a9 64 9c 3c 21 73 3a be 22 e2 1f be 5d 32 03 3e
       0.019090967 -0.1820798 -0.15613607 0.12812181
000370 ea b5 3e bd 82 0d 5d 3d 8f c7 bf 3d dc 1e 66 be
       -0.046560206 0.05396796 0.09364235 -0.2247271
000380 a0 04 c4 3c 27 ae 34 bd ea 23 35 bd 4a b6 09 3d
       0.023927987 -0.044111397 -0.044223703 0.03362111
000390 ef 68 90 3b ac 1b de 3c f5 38 03 bd 42 15 e5 3c
       0.0044070403 0.027112804 -0.03203674 0.027964238
0003a0 4c 0d e4 3e 18 fb 1c 3e 06 83 fc bb 44 cd fe 3b
       0.44541395 0.1533016 -0.007706049 0.0077759344
0003b0 16 47 0d 3e cf a3 5c bd 7c 1c 43 bd 97 e4 60 bc
       0.13796648 -0.053867158 -0.047634587 -0.013726375
0003c0 a9 ab 71 3e 11 58 1c 3e c0 47 4b 3e 4c 9f 1a bd
       0.2360064 0.1526797 0.19851589 -0.037749574
0003d0 a1 5e 83 bc 38 f6 ad bc 8d 54 e1 3d 99 8b 2e 3d
       -0.016036334 -0.02123557 0.11002455 0.0426136
0003e0 e6 52 f6 3d 20 91 98 3d 31 c5 c0 3e ea 24 2a 3e
       0.1202753 0.074495554 0.37650445 0.16615644
0003f0 b2 6f 26 3d 0e f8 d3 bd ac db bb bd b7 2b 21 3e
       0.040633865 -0.10350047 -0.091727585 0.15739332

fc1.bias f4 [400]
000000 e2 56 1a be 08 ea 9b bc f5 36 2b bd 44 4f 87 be
       -0.15072206 -0.019032493 -0.041800458 -0.26427662
000010 17 67 13 3e f4 04 b5 3e fc 72 77 3e 0f 75 77 3e
       0.14394794 0.3535534 0.24164957 0.24165748
000020 e4 ee d3 3c 11 46 24 3e 01 98 b0 3d 97 a1 86 3d
       0.025870748 0.16042353 0.086227424 0.065737896
000030 19 11 7e 3d 79 19 8e be 28 85 9c be cb 70 b4 be
       0.062028024 -0.2775381 -0.3057034 -0.35242304
000040 a1 2e 45 3d f0 ba 15 3e a8 c6 a9 3c 09 43 57 3e
       0.048140172 0.14622092 0.02072461 0.21021666
000050 d5 3d 68 3e 02 cf fb 3d cf 37 7b be f4 28 a3 be
       0.22679837 0.12295343 -0.24533008 -0.31867182
000060 3f 12 84 3d 4e 91 50 be d5 47 9e be e6 f3 77 3e
       0.06448793 -0.2036793 -0.30914178 0.24214134
000070 ab 90 50 be ce e0 98 be 07 1c 30 3d a2 8f 5a 3d
       -0.20367686 -0.29859012 0.04299548 0.053359635
000080 04 b3 6d 3e 7a a0 6f 3e 24 b0 ef bc 58 4a 72 be
       0.2321282 0.2340106 -0.029258795 -0.23661172
000090 c5 d6 42 bc d6 e5 7c be d8 73 94 be 01 08 55 3e
       -0.011892025 -0.2469705 -0.28994632 0.20803834
0000a0 38 f9 6b 3e 58 29 7a be 50 f8 37 3e 67 36 8e bd
       0.23044288 -0.24429834 0.17965817 -0.0694397
0000b0 df 7d 18 3e 25 ec cb bd 8c 3b 5d 3e dc b4 6b bd
       0.14891766 -0.0995715 0.21604747 -0.057545528
0000c0 ab b6 d5 3d 12 8f 19 be 0a 88 36 3e 8e 49 a5 3d
       0.10435232 -0.14995983 0.17825332 0.0807067
0000d0 f5 bb a5 bd 9c f9 66 3e f5 e0 4b 3c d0 cb 8f 3d
       -0.080924906 0.22556156 0.012443771 0.07021296
0000e0 b6 90 bc 3d 26 95 c5 3d 47 c5 47 3e 3e e2 2d be
       0.09207289 0.096475884 0.19508849 -0.16980836
0000f0 e2 2b a3 be 0f 68 8b be 46 dd 4c 3e 2a bd 94 bc
       -0.31869417 -0.27227828 0.20006284 -0.018156607
000100 ba 26 b5 3d fd e8 18 3d 9e ac fa 3d 15 31 98 be
       0.08845277 0.03733157 0.12239955 -0.29724947
000110 5b 40 53 3e a1 7d aa be 2e f1 8d be 19 0b 83 3d
       0.20630018 -0.33298972 -0.27723068 0.06398601
000120 80 c6 ab 3d 44 0a aa 3d 61 8c 4d be bd c7 82 3e
       0.0838747 0.08302739 -0.20073082 0.25543013
000130 53 d9 59 3e 92 cb 7c be 84 5b 82 3e f6 f7 60 3e
       0.21274309 -0.24687031 0.25460446 0.2196959
000140 d0 b5 82 3d dd ee 7d 3e 55 06 be be ec 82 25 be
       0.06382334 0.2479815 -0.37114206 -0.16163224
000150 1b a1 6e be f7 9c af be d8 1d 17 3e 2e 29 32 be
       -0.23303644 -0.34299442 0.14757478 -0.17398521
000160 ad 08 45 be e8 51 2f 3e 78 e8 7d be 0d de 3b 3e
       -0.19241591 0.17121089 -0.24795711 0.18346424
000170 7f 20 4d 3e 58 80 d9 bd b6 97 0d 3e c6 57 d0 3d
       0.20031928 -0.10620183 0.13827404 0.101729915
000180 14 31 bc bd 1a 30 e4 bd 20 d5 07 3e 09 77 3e 3e
       -0.091890484 -0.11141987 0.13264894 0.18600096
000190 87 33 7b 3d 92 35 93 3e 11 18 5b 3e 59 8a f4 3d
       0.061328437 0.28751808 0.213959 0.1194045
0001a0 d0 26 4b 3e 22 5c 07 be cd b7 fd bc d1 2a 3d be
       0.19839025 -0.1321874 -0.030971432 -0.18473364
0001b0 83 ab 82 be 8a c8 55 be a3 3e 92 3e 0d d9 52 be
       -0.25521478 -0.20877281 0.28563413 -0.20590611
0001c0 93 a5 b5 3d 1f 4f 3c 3e b0 4d 88 be b1 09 87 be
       0.088694714 0.18389557 -0.2662177 -0.2637458
0001d0 f3 68 72 3e 13 78 55 be e5 67 a8 3e 65 16 a0 be
       0.23672847 -0.20846586 0.32891765 -0.31267086
0001e0 36 1c b1 bd 99 a6 e6 3d 1f 9b 3e 3e 48 ec 9c be
       -0.08647959 0.11262245 0.18613862 -0.30649018
0001f0 19 92 ee bd 8f b6 46 3c d7 60 90 3d 34 64 84 3e
       -0.1164896 0.012128486 0.07049721 0.258577
000200 4d 3c bc 3d ac 32 20 be 51 63 65 be 73 cc 32 3d
       0.09191189 -0.1564433 -0.22401167 0.04365201
000210 4c 2a 8c be b3 bb f0 3c 40 7c 9b bd 01 5d 7d be
       -0.2737602 0.029386377 -0.07592058 -0.2474251
000220 40 49 7d 3d 92 69 92 be 88 4d 3b 3e a9 a5 58 3e
       0.061837435 -0.2859617 0.18291295 0.21156944
000230 07 eb 65 be a8 35 20 bd 03 17 06 be b5 2e 9c 3d
       -0.22452937 -0.03911367 -0.13094716 0.07626096
000240 46 85 3a be e2 cb f8 3d 28 38 db bc dd 52 83 3d
       -0.18214902 0.121482626 -0.026760176 0.06412289
000250 d0 f5 3e bd 87 79 11 3e 95 ff 14 3e 85 32 d8 3b
       -0.046621144 0.14206515 0.14550622 0.0065978193
000260 ed 29 c6 3d 87 85 8f be 7c 40 3c 3e 8c 02 0d bd
       0.096759655 -0.2803156 0.18383974 -0.034426257
000270 0c f9 35 3d 81 9a 76 3e 04 d1 80 3e c8 8b 60 3e
       0.044426963 0.24082376 0.25159466 0.21928322
000280 6d d3 11 3e 6c 14 05 3e 6a d4 cc bd a9 71 67 bd
       0.14240809 0.12996072 -0.10001452 -0.05650488
000290 90 f1 96 be ce 17 6a be 0c c4 01 be 14 ed 46 be
       -0.29481173 -0.22860643 -0.12672442 -0.19426376
0002a0 17 84 1d 3e 21 d4 07 be 37 c0 8b be 24 6a a9 3d
       0.1538242 -0.13264515 -0.27295086 0.08272198
0002b0 05 cf 4f 3e 03 7f 64 3e 88 c1 08 bd a5 01 48 3e
       0.20293815 0.22314076 -0.03338769 0.19531877
0002c0 d1 14 e3 bc d5 5e 5a 3d 36 dd 51 bd c0 66 83 be
       -0.027719887 0.053313095 -0.051236354 -0.2566433
0002d0 1e a2 60 be 0d da cf bd a7 16 7e 3d 67 fd 29 3e
       -0.21936843 -0.10149012 0.06203332 0.16600572
0002e0 32 66 1a 3e af 36 87 3e 35 40 cb 3d 79 03 e8 3d
       0.15078047 0.26408908 0.09924356 0.11328787
0002f0 07 63 93 3e 69 7a 5a be f4 28 09 3d 3b 00 a8 3d
       0.2878649 -0.21335758 0.03348632 0.08203169
000300 3b ec 27 3e c0 75 92 3e 63 ce 50 be 45 09 fc 3d
       0.16398709 0.2860546 -0.2039123 0.123064555
000310 07 b0 71 be 99 bd 30 3e b0 6f 0a 3d be a7 20 3e
       -0.23602305 0.17259826 0.03379792 0.15688989
000320 4d 82 38 be 2d 0b 3e 3e 56 f8 6c bd 8c d0 1e bd
       -0.18018456 0.1855895 -0.05785402 -0.038773105
000330 cd 42 c7 3d 73 75 38 3d 57 34 5d be 72 4a 35 be
       0.09729538 0.045033883 -0.21601997 -0.1770418
000340 9a a5 72 3d 75 93 58 3e 48 c1 42 be 96 49 3c be
       0.05923996 0.2115 -0.19019043 -0.18387446
000350 2e 90 4e 3e 94 f2 35 3e b6 e1 9c 3d a9 18 70 3e
       0.20172188 0.17768317 0.076602384 0.23446907
000360 ba d1 a1 3e 41 0f c2 3d 66 7d 46 be 41 96 d0 3d
       0.3160532 0.09475566 -0.19383773 0.10184909
000370 a2 35 d9 bd b7 ed 83 3e a9 6f ed 3d 37 0d 80 be
       -0.10605933 0.257673 0.11593563 -0.25010082
000380 d2 7a b9 3d 72 0a 95 3d 4f 4c 77 3e fa 46 90 be
       0.09056629 0.07277383 0.24150203 -0.2817915
000390 de aa 0c be a7 20 dd 3d 7e f3 9e be 63 cb 87 be
       -0.13737056 0.107972436 -0.31045145 -0.2652236
0003a0 2c 4b 64 3d 9b 1a 81 be 6d b9 ba bd 86 a2 39 be
       0.055735752 -0.2521561 -0.091173984 -0.18128404
0003b0 2c 19 29 bc 10 1b b4 be 94 33 e6 bd b5 c1 12 3e
       -0.010320943 -0.35176897 -0.112403065 0.14331706
0003c0 56 37 88 be 1d 54 5c 3e 2b 4b 8b be eb 3f 38 3e
       -0.26604718 0.21516462 -0.27205786 0.17993133
0003d0 6c d7 7c be 78 e9 29 be 2e f7 01 be f3 e7 08 3e
       -0.24691552 -0.16592968 -0.12691948 0.13369732
0003e0 c6 69 54 3e 57 cd 26 3e 72 96 85 3e bc aa 34 3e
       0.20743474 0.16289268 0.26091343 0.17643255
0003f0 58 bf 9e be 51 93 38 3e 09 8c 17 3e f9 31 24 3e
       -0.3100536 0.18024947 0.14799513 0.16034688

fc2.weight f4 [300, 400]
000000 ea ab ed bc b5 13 f2 bd d5 c0 c5 3e d0 b4 5e bd
       -0.02901264 -0.11820165 0.38623682 -0.054371655
000010 c6 25 1d 3d cf df 2d bc b5 0a b2 bc 02 1c 61 ba
       0.0383661 -0.010612442 -0.021733621 -0.00085872423
000020 a4 b5 9c 3d 66 97 40 3d d1 a2 7b 3e 29 e2 55 3e
       0.07651833 0.047019385 0.24573828 0.20887055
000030 7d 71 f8 bb f3 c3 70 bc 9d 9f 32 3d 9e a1 88 3e
       -0.007581888 -0.014695155 0.04360925 0.26685804
000040 6a df 06 be b6 38 0b bd 55 b5 87 3d 1c 27 f8 3d
       -0.13171163 -0.03398963 0.06626383 0.121168345
000050 a7 a0 2b 3d 23 e1 72 bd c4 f4 94 3e 40 32 95 3e
       0.041901257 -0.05929674 0.2909299 0.291399
000060 e9 f1 66 3d 1a c8 61 3d 4d 50 8f bb 38 2e 54 bc
       0.056383047 0.055122472 -0.0043735863 -0.0129504725
000070 94 4d 3f 3a f7 a1 c6 3e 63 7c de 3d 5a 62 ed bd
       0.0007297632 0.38795444 0.10863569 -0.11591025
000080 ad f5 b8 bd b6 e9 31 3d ed f9 c4 3c dc 7a 2a bd
       -0.09031234 0.043435775 0.024044955 -0.041621074
000090 cd de 09 be 6e db 1d bc 1c 55 9d bb 8e ba 4f 3d
       -0.13463898 -0.009634836 -0.0048014056 0.05071502
0000a0 1c ca cb bb 38 ad 00 bd fa ac 91 bc f0 eb b7 3e
       -0.0062191617 -0.031415194 -0.017782677 0.35922194
0000b0 c0 b9 1d bd a1 ed 1e bd 68 14 41 3d 58 55 16 bc
       -0.038507223 -0.03880084 0.0471386 -0.009175621
0000c0 aa af 8a 3e ac 01 be 3c 84 d1 e5 3b d1 dd b5 3d
       0.27087146 0.023194157 0.0070135016 0.08880199
0000d0 a3 91 64 be 10 c3 85 3d a5 6a 9f 3d 4a d3 09 3e
       -0.22321181 0.06531346 0.07784013 0.13459507
0000e0 7b c7 e3 3d d0 b6 e4 3d 6a ab 98 3d 40 a0 c3 3e
       0.11122032 0.11167681 0.0745457 0.382082
0000f0 b2 0d 4f bd f7 52 5c bd 65 c0 a8 ba 12 46 de 3d
       -0.05055017 -0.05379006 -0.0012874721 0.108532086
000100 48 1c 1b 3d dc b3 ab 3d 75 1f a7 3d 59 d1 d6 bc
       0.037868768 0.08383915 0.08160297 -0.026222872
000110 15 4d 46 bd c2 fc 18 bd 01 f6 98 bb 2f 8a 4a 3d
       -0.048413355 -0.037350424 -0.004667998 0.04944819
000120 c6 bd e5 3d 62 de dd 3d aa c0 12 bd dd 28 5d 3d
       0.11217837 0.10833432 -0.03582827 0.05399405
000130 7f f9 9d 3d 5a 87 9c be a9 da 93 3d 7b 55 cc 3c
       0.07713603 -0.30572015 0.072194405 0.024943104
000140 4a 48 f9 3d 87 c2 cc 3c df e7 94 be 14 24 d8 bd
       0.12171991 0.024995102 -0.29083154 -0.10553756
000150 b0 f3 31 be 37 be 65 3d ca 68 92 3d f8 b2 93 3d
       -0.17378116 0.056089606 0.07148893 0.0721187
000160 f6 65 bd 3c 6a cd 20 3e 4c 45 56 3c d9 e5 0f 3d
       0.023119908 0.15703359 0.013078045 0.03513131
000170 ef 0a 0b be 6c 7c e3 3d 07 62 ad 3c 1d c5 42 3e
       -0.1357839 0.11107716 0.021164907 0.19020505
000180 86 24 77 3e 0b a2 1c bd 3b b5 30 3e 86 74 9a bd
       0.24135026 -0.038240474 0.17256634 -0.07541756
000190 c4 a9 fa 3d 82 be 1c 3d 4b 52 c7 3c 53 90 90 3d
       0.122394115 0.03826762 0.024331233 0.07058778
0001a0 13 42 47 bd be a6 3c bd e2 15 b0 3d d1 a0 5d bd
       -0.048646998 -0.046057455 0.08597924 -0.054108445
0001b0 f2 f8 37 3e 90 15 ee 3d 29 88 d4 3c 8f 3e 67 3d
       0.17966059 0.116252065 0.025943832 0.056456145
0001c0 34 72 99 3b c3 88 5a 3c ab af 5d bd 8d 1f c3 bc
       0.0046828035 0.013338271 -0.05412261 -0.023818756
0001d0 4f 47 d7 3c b0 03 68 bd dc b5 16 bd f0 a7 60 bd
       0.02627912 -0.05664414 -0.03679453 -0.054847658
0001e0 ff 2e 9b bc 0f a9 53 bd 35 94 33 bb 15 c0 e1 3c
       -0.018943308 -0.0516749 -0.002740157 0.027557412
0001f0 b9 b7 ea bc 52 a3 b0 3e 75 f1 40 3e 40 d4 1c 3d
       -0.028652059 0.34499604 0.18842109 0.038288355
000200 10 49 bf 3e ff 03 2d be b8 8e 42 bd eb bb 26 3d
       0.3736043 -0.16896056 -0.04749939 0.040706556
000210 18 b8 34 bd 53 bd 8f 3e 32 84 11 be a7 07 d3 bb
       -0.044120878 0.2807413 -0.14210585 -0.006440121
000220 bc 12 98 3d a5 85 38 3c cc c6 dc bb 9f f0 09 bc
       0.07425448 0.011262332 -0.0067375656 -0.008419185
000230 1b 15 ae 3c 80 1f 82 3e d7 21 b8 3e 86 4b 9d 3d
       0.021250298 0.25414658 0.35963318 0.076804206
000240 f8 f7 ba 3c a3 3b 84 3d d9 fa 48 3c 07 8f 98 3c
       0.022823319 0.06456687 0.012266838 0.018622888
000250 67 24 08 3e 50 f2 36 be 5f 49 ad 3d d1 e3 ee bc
       0.13295136 -0.17865872 0.0846126 -0.029161366
000260 c2 52 b0 3d 6c 8b a8 3c df 3a ba 3c e6 60 32 3e
       0.08609535 0.020574294 0.02273315 0.17419776
000270 25 30 95 3d 04 28 35 3d 1d 32 1e 3d de a9 4a 3d
       0.072845735 0.044227615 0.03862201 0.049478404
000280 89 89 c7 3d 27 3f 80 3d b6 67 4a 3d 46 06 a9 3c
       0.097430296 0.06262045 0.049415313 0.020632874
000290 76 c8 e3 3c 84 ea d8 3e 95 ca 86 bc c4 66 d2 bc
       0.027805548 0.4236642 -0.01645402 -0.025683768
0002a0 a4 85 36 3d 7c c1 51 bd b9 47 64 be 0a 52 eb 3b
       0.044561043 -0.05120991 -0.22292985 0.0071814107
0002b0 8d 53 83 3b c2 a1 4b 3d 45 95 0e 3d 12 07 45 bc
       0.0040077628 0.04971481 0.034810323 -0.0120256115
0002c0 82 23 04 3e ee 22 52 3d 74 81 d2 3c 73 72 2f 3d
       0.1290417 0.051302843 0.025696494 0.042833757
0002d0 d1 5d 0f be 51 ed 5d bc 37 f1 b7 3d ba fa ac 3d
       -0.14000632 -0.01354535 0.08981555 0.0844626
0002e0 49 35 4f bd 7d 61 e1 3c 53 69 35 3e 12 b8 96 3d
       -0.050587926 0.027512306 0.17715959 0.073593274
0002f0 d9 7e 93 3c 44 9d 60 be bb 6e a2 bd 25 65 d9 3a
       0.018004822 -0.21934992 -0.079312764 0.001658593
000300 a8 b5 a9 3d 02 f9 87 3c fc 8e 97 be e7 d5 9a 3b
       0.08286601 0.016598228 -0.29601276 0.004725206
000310 a2 df a0 bd 08 2e ba bd 24 4b 92 bd 34 4d df bc
       -0.078551546 -0.09090811 -0.07143238 -0.027258493
000320 d9 8c 29 3d f7 59 ad 3d bf 5a 84 be 0e f7 85 bd
       0.04139409 0.08464425 -0.25850484 -0.065412626
000330 a7 b3 73 3d a8 57 d0 3d 48 6a cb 39 5b 33 11 bd
       0.0594975 0.10172969 0.00038798363 -0.035449367
000340 6c 82 84 be b6 bd 56 3d d3 4c 45 bc d5 db 64 bd
       -0.25880754 0.052427016 -0.012042242 -0.05587371
000350 be f3 c7 3c eb 50 28 3d 33 fb c8 3d e7 b3 03 3d
       0.024408218 0.041092794 0.098135374 0.03215399
000360 d2 ee 47 3c df 7e f8 3d 67 fe 06 bd 64 a6 9d 3c
       0.012202935 0.12133574 -0.03295746 0.01924438
000370 38 69 58 bd 02 6f 1e 3c 37 d6 51 3e 66 04 4b 3d
       -0.05283472 0.009670021 0.20491873 0.04956474
000380 e6 d6 79 3d b4 3b b7 bb c1 17 ac 3c f3 2e 28 be
       0.06099596 -0.005591834 0.02100742 -0.1642416
000390 59 c3 8b 3d 40 5a 77 bd 3a 27 64 bd ca d1 0d bd
       0.06824369 -0.060388803 -0.055701472 -0.0346239
0003a0 27 c9 45 3c 07 ea 6b 3d a8 0d 1a be bc e7 e0 bc
       0.012071884 0.057596233 -0.15044272 -0.02745425
0003b0 02 77 6f 3d 67 10 1e 3b a1 d3 dc 3c 39 48 91 bd
       0.058463104 0.0024118663 0.026956381 -0.070938535
0003c0 e3 78 a3 3c c2 23 a5 3b 9f cc c5 3b c6 a1 d4 bc
       0.019955104 0.005039663 0.0060363556 -0.025956046
0003d0 98 5d d6 bd 72 46 06 3b 1f fb 00 3d be 96 97 3d
       -0.1046707 0.0020488766 0.031489488 0.07401799
0003e0 6a 4a e3 3c 13 64 89 3d 16 8e 51 bd 6d 38 66 3d
       0.027745444 0.06708541 -0.051160894 0.056206156
0003f0 67 1d 9a bb cc a3 a1 3d bc 5b 22 3b 54 4b b1 3d
       -0.004703212 0.0789257 0.0024773916 0.08656946

fc2.bias f4 [300]
000000 d1 1b 5f 3d e9 0a 8b 3c 29 f2 38 ba 60 04 41 bd
       0.054469887 0.016972976 -0.00070551276 -0.047123313
000010 c2 df 1c 3d b5 38 c2 3d 69 43 55 3d 62 ac 5c 3d
       0.03829933 0.09483472 0.05206624 0.053875335
000020 47 e2 81 3d ce 1a 97 bc 1f 04 84 bd 42 fb 95 3c
       0.06341987 -0.018445399 -0.064460985 0.018308286
000030 a1 d6 6c bc 59 ff 90 3d 70 e6 0e 3d cc 68 58 3c
       -0.014455468 0.07079954 0.03488773 0.013208579
000040 79 38 f7 3c 84 d8 2b 3d 34 84 40 3d e9 db 68 3d
       0.030178295 0.041954532 0.04700108 0.056850348
000050 3a e0 cc 3c 28 25 86 3d ee eb 35 bb 8e 03 dc bc
       0.025009263 0.06550056 -0.0027759033 -0.026857164
000060 b2 81 84 3d 02 b5 91 3d 90 d2 c3 bb ae e1 19 bd
       0.0647005 0.071146026 -0.0059760287 -0.03756874
000070 57 7b d2 3c 10 4e 84 bc 19 4e f3 3c 38 7b 36 3c
       0.025693579 -0.016150504 0.029700326 0.011137776
000080 d9 66 6e 3c 0f 7a 2c bd 90 9a ef 3b 35 69 ca 3c
       0.014550888 -0.04210859 0.0073121265 0.02470837
000090 37 be 1a bd 23 b6 1a bc 87 88 f2 bb 34 d9 7d 3c
       -0.03777906 -0.009442839 -0.0074015292 0.01549368
0000a0 7b 3d af 3d 23 e9 e4 3c 2b b8 55 3a 14 98 7a 3b
       0.08556648 0.0279432 0.00081527483 0.0038237618
0000b0 50 a0 e2 3d 8e 59 d5 3d 6b d3 a4 3d 5a 86 10 3c
       0.110657334 0.10417472 0.08048137 0.008821094
0000c0 2d b6 ba bb 86 9d 3d bd 78 bf be bb 0b 7a 3a 3d
       -0.0056979866 -0.046292804 -0.0058211647 0.045526545
0000d0 38 6f 76 3d 9c c2 49 3d 7f 88 a0 3c 2d 48 e4 3b
       0.06016466 0.04925786 0.019596336 0.006966612
0000e0 34 f8 78 3c 4a 20 47 3d 54 08 66 bd a1 65 eb 3d
       0.015195895 0.048614778 -0.056160286 0.114939936
0000f0 67 d3 55 3d be 8b a8 3c 56 6d 9c 3d b6 3f 0d 3d
       0.052203562 0.020574447 0.07638042 0.034484588
000100 ee ff fa 3b 07 1e 7d bb 39 35 36 bc 62 8a 78 3d
       0.0076599037 -0.0038622634 -0.011121088 0.060678847
000110 6a c6 6e 3c 78 aa c0 3c 47 b4 aa 3c 04 03 79 3c
       0.014573673 0.023518786 0.020837916 0.015198473
000120 fd 71 bf bc 29 fb 1c 3d 56 ae e8 3b 96 92 9a bd
       -0.023369784 0.038325462 0.0071008606 -0.0754749
000130 f9 c7 3c 3d 2c 81 7c 3b 9c b4 20 3c 77 48 3b bc
       0.046089146 0.003852914 0.009808686 -0.011430851
000140 eb 0e 51 3d 3c 28 8a bb 2b fa a0 bb 16 75 6f bb
       0.051039618 -0.004216222 -0.004912635 -0.0036538295
000150 1a bf 15 bd c8 33 21 bd 3b 23 58 bb 0e 9d 61 3d
       -0.0365592 -0.039356023 -0.0032979983 0.05508142
000160 57 ab 38 3d ad 45 ad bd 41 3d 4d 3d 2d 94 d5 bb
       0.045085277 -0.08460555 0.050107244 -0.006517908
000170 03 b4 a2 3d 36 43 8a bc 23 10 f2 bc 12 26 5d 3d
       0.07944491 -0.016877752 -0.02954871 0.053991385
000180 92 17 fd bc 6e 04 38 3d ed f7 46 3d 2a fa 23 bd
       -0.030895028 0.0449261 0.048576284 -0.040033497
000190 35 14 79 3d b1 0f 0c 3d f4 dc ca bd 02 97 5b 3d
       0.060810287 0.034194652 -0.09905425 0.05361081
0001a0 a2 a4 a6 3d 90 07 11 bd a6 c6 a2 3c 69 06 38 bd
       0.0813687 -0.035407603 0.019870114 -0.04492799
0001b0 30 44 75 3c 57 ca a0 3d 59 0a f4 bb 7b 32 f8 bc
       0.01496987 0.07851093 -0.0074475226 -0.030297508
0001c0 1a 1a 22 3d 60 22 09 3c f6 87 d1 bc 63 a4 00 3d
       0.039575674 0.008370012 -0.025577527 0.03140677
0001d0 11 a7 fa 3c ce 9a ec ba 73 35 96 3d cf 88 4b 3d
       0.030597242 -0.0018051506 0.073344134 0.049691018
0001e0 e8 a7 0b 39 aa fd cf bc 4e 49 5b 3d 22 21 2a bc
       0.00013318623 -0.025389511 0.053536706 -0.010383876
0001f0 35 d9 a2 bc 76 3f 19 bd 1d b9 61 bc e2 21 c3 3c
       -0.019878963 -0.037414037 -0.013777045 0.023819868
000200 48 7a 1b be ab b1 8e 3c 31 6a 8d 3d 82 5b e9 3c
       -0.15183365 0.017418703 0.0690502 0.028486017
000210 e2 02 be bc 4e 59 12 3b 45 e1 2e 3d 41 0f e9 bd
       -0.023194734 0.0022331062 0.042695303 -0.113798626
000220 d1 4c 31 ba 39 d8 d7 3b 2e e7 b7 3c ea 9c 75 ba
       -0.00067634607 0.006587055 0.022449102 -0.00093693903
000230 bc 97 a9 3c 8b 8a 25 bc 8a 22 8d 3c b7 25 aa 3c
       0.020702235 -0.010103832 0.017228384 0.020769937
000240 6f 16 ca bc 81 ce 8d 3c ae 13 92 bc 55 91 75 3d
       -0.0246689 0.017310383 -0.01783165 0.059953053
000250 58 3a c4 3c 44 e7 81 3d a5 44 16 bc b0 cd 12 3a
       0.023953602 0.063429385 -0.00917164 0.0005600108
000260 22 75 cb 3c 53 85 d0 bc ba 33 27 3d b4 42 40 3d
       0.024836127 -0.025454199 0.040820815 0.046938613
000270 f3 1c 85 3d 3a 22 2c 3c b1 73 ef bb 6d 05 8d 3c
       0.06499662 0.010506207 -0.0073074927 0.017214501
000280 de 90 09 3d ac a2 12 3d c2 7d 24 bd e1 3e 10 3d
       0.03358542 0.035799667 -0.040158994 0.035216216
000290 bd c3 5e 3d 1f 63 20 3d 94 97 6c 3c 58 35 e9 3c
       0.05438589 0.03915703 0.014440436 0.02846782
0002a0 0f 4a 59 3d 5c 73 7f 3c 68 3d 62 bc 3b 92 04 3c
       0.053049143 0.015591469 -0.013808586 0.008091505
0002b0 f0 52 5e bd e1 fd 86 3d 48 17 cf 3c ce 56 1e bd
       -0.054278314 0.06591392 0.025279656 -0.038657002
0002c0 ff 94 23 3c e3 ba 9e 3b 04 df 70 bc 5c aa 13 3d
       0.009984254 0.004844056 -0.014701609 0.03605114
0002d0 4a b1 39 3d 65 5f 73 3d 22 9f 91 3b da 14 f3 3a
       0.04533509 0.059417147 0.004444019 0.0018545643
0002e0 06 65 28 bd 02 70 1e bb f2 76 3b bc f8 90 1a bd
       -0.04111197 -0.0024175649 -0.011441933 -0.03773591
0002f0 7f 5e 50 3c 82 4c 8d 3d e3 b6 f3 3b 50 4c 7d 3c
       0.012717842 0.06899358 0.0074375733 0.015460089
000300 82 c4 98 bd 57 6b 02 3d f2 ca 4a 3c 4e 33 4c 3c
       -0.07459356 0.03184065 0.0123774875 0.012463404
000310 95 6e 89 bd 06 68 16 bd 84 6f 41 3d 90 54 26 3c
       -0.06710545 -0.0367203 0.04722549 0.010151997
000320 d7 d8 47 bc c6 4c a7 3d 13 09 b3 bc c4 5f d8 3c
       -0.012197695 0.0816894 -0.021854913 0.026412852
000330 d6 0b 6a 3d 1d f3 aa 3d 19 31 44 3d 18 73 07 bd
       0.057140194 0.083471514 0.047898386 -0.033068746
000340 58 3d 12 3d ad 87 7c bc d8 0c 68 bd 02 28 f5 3c
       0.035703033 -0.015413207 -0.056652874 0.029926304
000350 ec 5f 8d 3c 99 3a 90 3d 50 10 87 bc 67 e3 72 bc
       0.017257653 0.070424266 -0.01648727 -0.014824725
000360 61 20 ea 3b 2c 3f 62 3c bc ef e3 3c bf a2 12 3d
       0.007144973 0.013809007 0.027824275 0.035799738
000370 2a d4 f4 3c c5 a9 9e 3c 58 91 24 3c 95 c3 0f 3d
       0.029886324 0.019368062 0.010044418 0.03509863
000380 6f d8 41 3d 3f f4 bd ba 31 9d 09 3d bc ed 6f 3b
       0.047325548 -0.0014492347 0.033597175 0.0036610207
000390 10 49 16 3d 9d 5e 77 bc ce 9c e2 bb 02 6f 4b bc
       0.03669077 -0.015098241 -0.006915665 -0.012416603
0003a0 6a 3d e9 bc 99 e9 d2 3c bc 90 0f bd 87 ab ab 3c
       -0.028471667 0.025746154 -0.03505014 0.020955814
0003b0 68 d2 af 3c be 62 ef 3c 90 43 2e 3d 14 99 14 3d
       0.021462634 0.029221889 0.0425449 0.0362788
0003c0 17 3d 31 3d d4 d7 bd bc ee cc 75 bc be fe a0 bc
       0.04327115 -0.023174204 -0.015002472 -0.01965272
0003d0 57 c3 35 3d 6e b7 a1 3c 5b fd a2 bc cc 07 90 3d
       0.044375744 0.019740786 -0.0198962 0.07032737
0003e0 90 6d 8e bc 13 33 81 bc 0c 91 89 bc a0 53 b7 3b
       -0.017386228 -0.015771424 -0.016792797 0.0055946857
0003f0 da a9 a5 bd 17 69 15 3d a6 f1 fd 3c be 77 ff 3b
       -0.08089037 0.036477175 0.030999016 0.007796257

fc3.weight f4 [2, 300]
000000 c2 1b 21 bd 0a 27 48 3e cb 22 16 3e 4b c7 6d ba
       -0.039333113 0.19546142 0.1466171 -0.00090705295
000010 ae a3 9d bd 29 bf 4f 3e 01 7b 44 3e 3c 6b bb bd
       -0.07697235 0.20287766 0.19187547 -0.09151313
000020 30 05 d2 bd 8f 44 93 bd 3a 21 f7 bd 3a 1f 16 3d
       -0.10254896 -0.07190811 -0.12066884 0.036650874
000030 ca 59 8b 3a 20 76 dd 3d 88 5b 80 bd b7 6c ad 3e
       0.0010631618 0.10813546 -0.06267458 0.33872005
000040 01 c4 44 be c3 ef 16 be f0 24 c5 3e e4 1c 18 3e
       -0.19215395 -0.147399 0.38504744 0.14854771
000050 ee 96 15 be 7a bd 88 bd 57 1f 28 3d 90 a0 fe bd
       -0.14608356 -0.06676765 0.041045513 -0.124329686
000060 87 84 86 3e 77 6a 78 be cc 80 1c bb 08 83 2a 3b
       0.26272985 -0.24259363 -0.002388048 0.0026018042
000070 6e 7b 22 bd f9 0b a5 bd e9 3e ce 3c 61 fd d2 39
       -0.039668493 -0.08058924 0.025176482 0.00040243103
000080 b1 0c 11 b9 e8 47 d9 bd 67 df 7f bf ec 43 aa 3e
       -0.00013833006 -0.10609418 -0.9995026 0.33254945
000090 06 36 96 bd dc 86 30 3b 17 33 c7 bd 5a c3 a2 ba
       -0.07334523 0.0026935851 -0.097265415 -0.0012417838
0000a0 03 94 5a 3e 4b 4c 58 3e bf 15 31 bd 0d 63 a5 3e
       0.21345524 0.21122853 -0.04323363 0.32302132
0000b0 c9 92 eb 3e 2b d3 01 3f 58 2f 16 3f 09 77 82 bd
       0.46010426 0.5071284 0.5866599 -0.063703604
0000c0 bb e4 9d bd 5c 3a 86 bd 54 4f 51 bd 74 ca 85 3d
       -0.077096425 -0.065541 -0.051101044 0.065327555
0000d0 cb b4 7a bc df 15 ef 3d e1 b1 cf 3d b4 c9 50 3c
       -0.015301893 0.116740935 0.101413496 0.012743402
0000e0 dc 18 85 3e bf a0 37 bf ee ce b3 be 10 51 71 be
       0.2599553 -0.71729654 -0.35118812 -0.23566079
0000f0 f4 d2 80 be d2 b9 a2 bd f3 84 7d be 4b e0 4b bd
       -0.25160944 -0.07945599 -0.24757747 -0.04977445
000100 e1 81 45 3d 75 5d 58 3e 1d 76 df 3e 45 37 02 3d
       0.048219565 0.21129401 0.436448 0.03179099
000110 f1 f3 48 bb bc 03 9c bd b3 60 81 3d a2 b2 80 ba
       -0.0030662979 -0.076179 0.06317272 -0.0009818862
000120 59 c6 a6 bd fc 9f ae 3e e2 89 5d 3e 12 c1 18 3c
       -0.081433006 0.34106433 0.2163463 0.009323375
000130 b5 0c 7a 3d b7 b1 db bd 15 f7 3f 3e 6f 3e 95 3e
       0.061047275 -0.10727256 0.18746598 0.29149196
000140 76 c1 0c 3d b8 87 a1 bc 11 c8 2d 3f a1 43 8d be
       0.034364186 -0.019718036 0.678834 -0.2759066
000150 6d f7 b4 bd 4c bf a2 3e 9a 67 8b bd ac 01 67 3f
       -0.08836255 0.31786573 -0.0680687 0.90236926
000160 8e a5 2f 3f df 2e a4 be 27 28 9e 3d 14 03 9c bd
       0.6861199 -0.3206701 0.07722502 -0.076177746
000170 a6 08 43 bd 07 0d a0 3e 0c 25 5a 3c ef d6 6d 3e
       -0.04761567 0.3125994 0.013314497 0.23226522
000180 6b eb 91 3e 3a 9b e4 bd 65 a2 15 3e 8f bf ef 3a
       0.28499922 -0.111624196 0.1461273 0.0018291342
000190 21 df 11 be 31 03 41 bd d5 b6 b7 3d 68 2d 46 3e
       -0.14245273 -0.047122184 0.08970419 0.19353259
0001a0 e6 bf e0 3e ca 9e 7d bd d8 71 83 be 92 26 27 3d
       0.43896407 -0.06191901 -0.25672793 0.040808268
0001b0 c7 e1 84 bd ae 2b 78 3e ab 3f d9 3d 48 fe 4c 3d
       -0.06488376 0.24235412 0.10607847 0.05004719
0001c0 6a 2a 91 bd b4 07 e5 3d ee 75 ac bd 17 f0 54 be
       -0.07088168 0.1118311 -0.08420931 -0.20794712
0001d0 4b de 91 bd c2 c5 37 3e c3 28 4d be 95 f2 d9 3e
       -0.07122477 0.17946532 -0.2003508 0.42567888
0001e0 45 53 5d 3e 6f de 3e 3e 96 92 3b 3e 5a 37 60 3f
       0.21613796 0.18639539 0.18317637 0.8758446
0001f0 96 f5 99 bd de a1 11 be e0 fb 3d bd c8 8c bb bd
       -0.07517545 -0.14221904 -0.046382785 -0.09157711
000200 d5 d3 69 3f 14 44 f1 bc 9f 1a 56 3e df 53 0e be
       0.91338855 -0.029451407 0.20908593 -0.13899182
000210 d1 7a e3 3d 1d 9c 65 bd bf ac 21 3e 64 26 3a bf
       0.1110741 -0.056057084 0.15788554 -0.7271483
000220 fe 22 82 3b c6 b4 8b 3e d0 b8 09 be 0c 91 43 3e
       0.0039714566 0.27286357 -0.13449407 0.190983
000230 76 68 a3 3e a4 4c 85 3b b7 71 a1 3c 52 74 a9 bd
       0.31915635 0.004067974 0.019707544 -0.082741395
000240 21 38 85 be d2 d5 00 bc 8c 52 c6 bc b9 23 c9 3e
       -0.26019385 -0.007863479 -0.024209283 0.39285067
000250 f1 5b 3a b9 5c 98 83 3e 26 67 c7 3e 24 5c 49 bd
       -0.00017772593 0.25702178 0.38945884 -0.049160138
000260 a7 87 e2 bb 12 33 b0 3e 91 ca 13 be dc 08 34 be
       -0.0069131437 0.34413964 -0.14432742 -0.17581505
000270 93 cd a9 39 bd 9e 8c 3e 65 f0 8a bd 67 7c c3 bc
       0.00032387357 0.27464858 -0.06784133 -0.02386303
000280 4b 49 30 be 6a 65 91 3d e5 e9 cc bd 38 b2 df 3d
       -0.17215459 0.07099421 -0.10005549 0.109226644
000290 6f 5d a0 3d 47 68 64 3c 64 dd ab be 5e 10 92 3e
       0.07830321 0.013940877 -0.33567345 0.28528112
0002a0 d1 fd 00 bc ee b3 a7 bd a9 ab 9b bd a2 ef f4 bd
       -0.007873015 -0.08188616 -0.07601101 -0.11959769
0002b0 d5 13 83 bf 7d 2a 07 be 01 78 36 3e 6b 4d 1a bf
       -1.0240427 -0.13199802 0.17819215 -0.6027438
0002c0 68 a7 f9 be 0c 45 a3 bd 7c d1 85 3e b2 a5 75 bd
       -0.48760533 -0.07972154 0.26136386 -0.059972472
0002d0 0b 43 cc 3e fd 33 04 be 6d fd 8e bd 6e 51 2f bb
       0.398949 -0.12910457 -0.06981931 -0.0026751417
0002e0 d0 40 a6 be 47 d6 64 3e ab 19 b1 3e 41 e0 3a 3f
       -0.32471323 0.22347365 0.34589896 0.72998434
0002f0 75 fc 87 3e a8 66 14 3e 59 0d 14 3d ee be b2 3c
       0.26559797 0.14492285 0.03614554 0.021819558
000300 44 df 83 bf c9 df 90 be 94 6b dc 3e b9 bf ad bd
       -1.030251 -0.28295735 0.43050826 -0.08483834
000310 f4 7c 3b bf b3 c2 ca 3a 1c 0c 1b 3e cf 4e 17 be
       -0.7323754 0.0015469402 0.15141338 -0.14776157
000320 eb 6d b7 3b f7 8b 1f 3e 70 6a 80 be 9f 5c 15 3e
       0.00559782 0.15580736 -0.25081205 0.14586113
000330 a7 21 24 3f 81 eb 9a 3e a9 ab 7d bd 3a 7f 17 be
       0.6411385 0.302578 -0.061931286 -0.14794627
000340 db 10 03 bd 01 81 85 bf 29 bf c6 3f 92 03 98 be
       -0.031998497 -1.0429994 1.5527087 -0.29690224
000350 a5 27 31 3e 0b 71 79 3d 0f 4e b4 bd 77 9f 6d 3d
       0.1730028 0.06089882 -0.08803951 0.058013406
000360 f4 77 b6 3d 67 bc df 3d 12 ba 4e bd 2a bc 12 bd
       0.08909598 0.10924607 -0.05047042 -0.03582398
000370 3f 3a 91 bd 9d cd a7 3e 7e 86 96 bd d7 0b 35 3b
       -0.07091188 0.32774058 -0.07349871 0.0027625465
000380 b4 73 39 3d 65 3f d5 bb c4 18 16 bd 5d 31 83 be
       0.04527636 -0.0065078014 -0.036644712 -0.256236
000390 83 72 d5 3e d4 2c da ba bd 1f ae bd 5f 24 00 3d
       0.41688928 -0.001664544 -0.08502147 0.031284686
0003a0 1f 54 d1 ba f0 11 47 be 57 7d 66 3f d7 72 97 bd
       -0.0015970505 -0.19440436 0.90035003 -0.07394951
0003b0 3c ef b1 3e ef 48 80 3e 79 20 1f 3d 1e 8b 22 3e
       0.34752834 0.25055644 0.038849328 0.15873381
0003c0 15 80 7c 3e a6 d8 2d 3d 28 31 ae bd 7e 01 89 3f
       0.24658234 0.04244294 -0.085054696 1.070358
0003d0 fb 2b fa bd 8b ea 1f 3e fb 72 fb 3b a2 a5 84 3d
       -0.1221542 0.15616815 0.007673619 0.064769045
0003e0 30 95 b2 3a f8 8e a5 3d e4 16 13 3f d3 5b 86 bd
       0.0013624784 0.0808391 0.57456803 -0.06560483
0003f0 e2 8c 94 bf ac 81 3a 3c 34 33 d2 bf 59 fa c5 3e
       -1.1605494 0.011383455 -1.6421876 0.38667563

fc3.bias f4 [2]
000000 12 fb 04 3d cb db 5d bd
       0.032466 -0.05416469
