project_3/shared_actor.pth (torch, 217786 bytes, 6 tensors)

shared_fc.weight f4 [512, 96]
0.0336739 0.12544252 -0.0051735705 -0.051842365 -0.037807122 -0.025501512 -0.026433464 -0.06482987
0.10196995 -0.19184214 -0.060101166 0.07060434 0.04619118 0.047092713 0.045839924 0.082869396
0.19756284 0.051208027 0.06405991 0.06624755 0.06591884 -0.09158115 0.08466931 -0.05638185
-0.14085288 -0.0505434 -0.0227358 0.02663589 -0.09676399 0.07165355 0.039988145 0.011458658
-0.02681063 -0.008340785 0.09429325 0.036718223 0.09186263 0.09975691 0.082973786 0.069677696
0.0064503583 0.051324166 0.08228472 -0.06625756 0.026806269 0.024876926 0.012365164 0.03862819
0.080931 0.048421774 0.09270605 0.22104171 0.01842712 -0.0070999544 -0.010607091 -0.061920114
0.0795018 -0.054606967 0.029841786 0.0933889 -0.022675168 -0.1015733 -0.010021088 0.092450276
0.07262953 0.03439583 0.019446405 -0.040880952 0.07622004 0.09934663 -0.054430522 0.032850776
-0.009214294 -0.011166713 0.037757214 0.0070756897 -0.026929813 -0.06353795 0.07183207 -0.042643875
0.056347214 0.012226252 -0.026823588 -0.07018577 0.09182879 -0.025575638 0.06496563 -0.07396747
0.08296123 0.11745517 0.014360318 -0.007145244 0.045591213 -0.05949292 -0.03580808 0.07738468
0.09585627 -0.04412868 0.12409786 -0.014215739 -0.053870067 0.12936541 -0.025281584 0.07632915
0.0915697 0.07759428 0.02696812 0.008182211 0.10448373 -0.04146091 -0.093462095 0.03172236
0.23859148 -0.06514929 0.12076564 -0.03118427 -0.05582797 -0.05937521 0.045022696 0.08269731
0.019514222 0.14172986 -0.13775928 0.07075015 -0.082983695 0.025334071 -0.02267041 -0.12438359
0.081130706 0.02736877 -0.039090574 0.07658144 -0.04926048 -0.017589336 -0.055212226 0.048513018
0.010430282 0.022388056 0.064869046 0.042881045 0.06091621 0.020175315 -0.016474873 -0.058311477
0.027032502 0.028581167 0.035465293 0.10423412 -0.06283884 0.07674945 0.019545646 0.03987803
-0.057393577 0.009434693 -0.06189777 -0.018121868 -0.023580898 0.035586275 0.045745153 0.043514736
0.0018455223 -0.06768291 -0.018707262 -0.025221424 0.004911219 -0.02673108 0.0851225 0.026450735
0.03513158 0.00022033157 0.030575585 0.020944716 0.0074814735 -0.059765518 0.09426398 0.011917271
-0.07572328 0.015892264 -0.10870561 0.030939482 0.06450944 0.003075079 0.06522127 0.04671789
0.061114613 0.014679391 -0.054321118 0.07195639 0.05828166 0.06599808 0.02061525 0.112570636
-0.01378978 0.01448877 -0.1528378 0.15360892 0.096865 0.21892188 0.057836585 0.0733655
-0.045287896 0.013017372 0.015333448 0.040304042 0.04325293 -0.06042776 -0.0714752 -0.050022583
0.24622962 -0.06798838 0.023544801 0.06302602 -0.014659313 -0.02278569 0.058954798 0.095063366
0.18867572 0.060336962 0.078659244 0.018657053 -0.023864772 0.01534817 -0.044122208 0.056166016
0.089630626 0.018526465 0.03778088 -0.021409037 -0.0460225 -0.0030424073 -0.09580042 0.0329931
-0.043918446 -0.045742903 -0.11521829 0.069289856 0.114839844 0.12579164 -0.024706949 -0.031892974
0.0029757489 -0.05968662 -0.07094385 0.2875486 -0.076561265 0.091481425 -0.10668083 -0.076348566
-0.0740589 -0.04571154 0.12935595 0.09443783 0.08090072 0.08055747 0.12782823 0.032651305
00000000: a5ed 093d 0174 003e 0e87 a9bb a958 54bd
00000010: a4db 1abd 8ce8 d0bc fe8a d8bc 86c5 84bd
00000020: 9fd5 d03d 4472 44be a42c 76bd 0299 903d
00000030: f632 3d3d 4ae4 403d a5c2 3b3d 6eb7 a93d
00000040: ea4d 4a3e 82bf 513d d831 833d ccac 873d
00000050: 7500 873d e68e bbbd 1a67 ad3d a8f0 66bd
00000060: bd3b 10be 9906 4fbd 6e40 babc 8333 da3c
00000070: 332c c6bd 19bf 923d 9cca 233d 18bd 3b3c
00000080: f7a1 dbbc caa7 08bc d21c c13d d965 163d
00000090: 7922 bc3d 5a4d cc3d 29ee a93d 2eb3 8e3d
000000a0: 875d d33b 4a39 523d e484 a83d 0bb2 87bd
000000b0: d298 db3c b2ca cb3c 4297 4a3c 9838 1e3d
000000c0: 27bf a53d e955 463d abdc bd3d c258 623e
000000d0: 79f4 963c bca6 e8bb 5dc9 2dbc f29f 7dbd
000000e0: d7d1 a23d 8eab 5fbd c376 f43c ae42 bf3d
000000f0: 46c1 b9bc aa05 d0bd 7d2f 24bc 9256 bd3d
00000100: cbbe 943d a4e2 0c3d 114e 9f3c c972 27bd
00000110: 4119 9c3d 3f76 cb3d 8af2 5ebd 898e 063d
00000120: 8df7 16bc 97f4 36bc 4fa7 1a3d 30db e73b
00000130: e99b dcbc 2f20 82bd b11c 933d 58ab 2ebd
00000140: 56cc 663d 9e50 483c 24bd dbbc 8fbd 8fbd
00000150: bc10 bc3d 0084 d1bc b30c 853d 427c 97bd
00000160: 94e7 a93d 568c f03d 8a47 6b3c a722 eabb
00000170: dabd 3a3d d9ae 73bd 7eab 12bd dc7b 9e3d
00000180: 4b50 c43d 46c0 34bd 0527 fe3d 22e9 68bc
00000190: dca6 5cbd 5e78 043e 531b cfbc 7552 9c3d
000001a0: e588 bb3d c0e9 9e3d 3fec dc3c ae0e 063c
000001b0: 91fb d53d ead2 29bd 0e69 bfbd 4eef 013d
000001c0: 5351 743e fe6c 85bd fa53 f73d 2776 ffbc
000001d0: dfab 64bd 6c33 73bd b869 383d 355d a93d
000001e0: 4adc 9f3c a221 113e c510 0dbe 74e5 903d
000001f0: 5bf3 a9bd 6689 cf3c 4cb7 b9bc d3bc febd
00000200: db27 a63d 7934 e03c 701d 20bd bbd6 9c3d
00000210: 5bc5 49bd 8317 90bc 3726 62bd 96b5 463d
00000220: c6e3 2a3c 2867 b73c 10da 843d 09a4 2f3d
00000230: 4783 793d b446 a53c 50f6 86bc 04d8 6ebd
00000240: 4473 dd3c 0d23 ea3c 0e44 113d b378 d53d
00000250: a6b1 80bd d12e 9d3d 311e a03c 2557 233d
00000260: 8715 6bbd f893 1a3c 8488 7dbd 5074 94bc
00000270: ba2c c1bc eac2 113d 455f 3b3d 823c 323d
00000280: 74e5 f13a 569d 8abd f93f 99bc 299d cebc
00000290: 4aee a03b 23fb dabc b554 ae3d 36af d83c
000002a0: 22e6 0f3d ce08 6739 a679 fa3c 4194 ab3c
000002b0: 2627 f53b b0cc 74bd 790d c13d a840 433c
000002c0: cf14 9bbd 7e30 823c 0ca1 debd cc74 fd3c
000002d0: 861d 843d 4487 493b bb92 853d 425b 3f3d
000002e0: 5153 7a3d d481 703c d27f 5ebd df5d 933d
000002f0: c0b8 6e3d 002a 873d 50e1 a83c 6f8b e63d
00000300: 88ee 61bc 4e62 6d3c 8381 1cbe a84b 1d3e
00000310: 2861 c63d 0f2d 603e 0ee6 6c3d a740 963d
00000320: cd7f 39bd d146 553c 2439 7b3c da15 253d
00000330: fc29 313d 1983 77bd 9761 92bd 7be4 4cbd
00000340: 9e23 7c3e 7e3d 8bbd 07e1 c03c c913 813d
00000350: 9d2d 70bc 0ea9 babc 967a 713d 95b0 c23d
00000360: 3534 413e e423 773d 1918 a13d add6 983c
00000370: 0e80 c3bc e476 7b3c 7db9 34bd 560e 663d
00000380: 4390 b73d d0c4 973c 20c0 1a3d 0162 afbc
00000390: 1782 3cbd 2063 47bb 0333 c4bd c623 073d
000003a0: d4e3 33bd e95c 3bbd 91f7 ebbd d7e7 8d3d
000003b0: 2731 eb3d 86cf 003e 3a66 cabc 35a2 02bd
000003c0: c804 433b f579 74bd 024b 91bd 9239 933e
000003d0: 27cc 9cbd 9d5a bb3d 7b7b dabd a35c 9cbd
000003e0: 31ac 97bd 063c 3bbd e375 043e 9f68 c13d
000003f0: 47af a53d 51fb a43d 67e5 023e 60bd 053d

shared_fc.bias f4 [512]
-0.026666723 0.027080672 -0.0044887653 0.0823807 0.05343682 -0.07491134 0.06949337 0.035344716
-0.017145952 0.10906668 -0.015692512 0.019154243 0.089262605 0.059372693 -0.038918804 -0.008675553
0.03205313 -0.06949662 0.09820935 0.08536265 0.10490596 -0.05427949 0.12863481 -0.014721225
-0.053975295 0.0679122 -0.024381008 0.113023765 0.09052101 0.05259525 0.07400698 -0.054198153
-0.018986644 0.004105315 -0.034089368 0.0506536 0.094700694 -0.03077919 -0.08050892 -0.056139596
0.08377253 0.079943776 0.04005057 -0.052895997 0.0909186 -0.06475669 0.12565246 0.08628949
0.14486483 -0.015710106 -0.022757314 -0.025103439 0.00085187156 -0.066366434 -0.04643228 0.11035388
0.019053102 0.10223261 0.041117754 -0.016550899 -0.041544497 0.020119311 0.073826514 0.07942557
-0.036148716 -0.016909527 -0.054457467 -0.028825048 0.0016047336 -0.055422623 0.11279408 0.07757876
-0.059090085 -0.025953414 0.04321491 0.04534746 0.09723006 0.03366428 0.12540774 0.028932197
0.07862859 0.032235246 0.07295385 0.08103188 0.074372634 0.06858725 -0.014617002 -0.068149656
0.10510996 -0.04117439 0.04185465 0.02497727 0.08001792 -0.009879923 0.076652035 0.011596585
-0.029000124 0.12479184 0.058810517 0.038593516 -0.08208721 0.062916026 -0.09280734 0.015182189
-0.094303854 0.0019234042 0.00603402 -0.021938037 -0.025986684 0.06093548 0.03261419 0.039295986
0.048454426 0.047681414 -0.026679965 -0.027182022 -0.10252814 0.0946885 -0.0041633327 0.081050515
0.100901574 0.059389845 -0.10521055 0.07237531 -0.10563399 0.058002498 -0.037500557 -0.0871102
-0.03181803 0.035990104 0.102327 -0.027165161 0.07621573 0.101888455 -0.09328851 0.00036438694
0.0085918065 0.012359172 -0.025410544 -0.052496288 0.04489734 0.04824729 0.042202104 0.083113566
0.06213607 -0.031392124 0.021115717 0.04035151 0.074401565 0.017963534 -0.012049877 -0.004988459
0.08547527 0.07322604 0.017623251 0.051206604 0.060257856 -0.029346399 -0.032941625 0.074192405
-0.04643812 0.087679744 0.082759105 -0.058338836 0.037874237 0.036565963 -0.04643435 -0.037216585
0.008949901 0.048398353 0.006558732 0.003976129 -0.052369237 -0.010147958 0.053510014 0.012451486
0.07560734 0.05275631 0.024853073 0.0043226993 -0.037373833 0.06016986 -0.013344262 0.14858022
-0.014699397 0.028513439 0.026848666 -0.028267559 0.054074336 0.012546805 0.048371002 -0.058872428
0.02483188 -0.015682602 -0.037119918 0.066010885 0.08508849 0.06385041 -0.040036876 0.043105457
0.015451941 0.085124 -0.04286541 0.0895953 0.029523714 -0.023939759 0.020911813 0.09430961
-0.0014112421 0.03539401 0.027630003 -0.021077355 0.097225636 0.07127173 0.09314896 0.061148178
0.1035555 0.09456546 0.025478913 -0.0463218 0.059842452 0.033277515 -0.0006877172 0.10198802
0.0103658885 0.058004234 0.08428613 0.107582115 0.0065133064 -0.024691649 0.10629496 0.103573024
0.05822287 -0.1180094 -0.005740734 -0.025562711 0.079311006 -0.05593934 0.11940836 -0.085610546
-0.0047389525 0.073120974 0.060791995 0.082640335 0.010219281 -0.030367816 0.03400393 0.021342503
-0.029826574 0.10245472 -0.041627727 0.031556237 0.112692825 0.023719305 0.08986084 -0.0061106216
00000000: 2c74 dabc 49d8 dd3c 7e16 93bb 36b7 a83d
00000010: 91e0 5a3d 1e6b 99bd 8a52 8e3d 9fc5 103d
00000020: ab75 8cbc 5a5e df3d 958d 80bc 5ce9 9c3c
00000030: 50cf b63d c830 733d 5369 1fbd e823 0ebc
00000040: 254a 033d 3e54 8ebd fc21 c93d 9dd2 ae3d
00000050: f0d8 d63d 2c54 5ebd d8b8 033e 4b31 71bc
00000060: 3315 5dbd 8d15 8b3d aeba c7bc 0179 e73d
00000070: 1463 b93d 1e6e 573d f990 973d e2fe 5dbd
00000080: e189 9bbc e185 863b 4ba1 0bbd 267a 4f3d
00000090: 70f2 c13d a424 fcbc dce1 a4bd a2f2 65bd
000000a0: ef90 ab3d 90b9 a33d 110c 243d 79a9 58bd
000000b0: 8833 ba3d 289f 84bd 0aab 003e 8bb8 b03d
000000c0: 7257 143e 7bb2 80bc 8c6d babc baa5 cdbc
000000d0: 2250 5f3a 20eb 87bd c62f 3ebd 3701 e23d
000000e0: 4015 9c3c 555f d13d 176b 283d c095 87bc
000000f0: 902a 2abd 41d1 a43c 5b32 973d e0a9 a23d
00000100: ad10 14bd d985 8abc cb0e 5fbd 8222 ecbc
00000110: ed55 d23a d502 63bd 9500 e73d 9de1 9e3d
00000120: 7208 72bd 419c d4bc 1e02 313d 42be 393d
00000130: 8e20 c73d 8ee3 093d e36a 003e 3703 ed3c
00000140: 0708 a13d 1b09 043d d468 953d 0bf4 a53d
00000150: ae50 983d 7977 8c3d 267c 6fbc 0c92 8bbd
00000160: e443 d73d 7aa6 28bd c86f 2b3d 229d cc3c
00000170: 6fe0 a33d 67df 21bc befb 9c3d 9aff 3d3c
00000180: ab91 edbc dd92 ff3d 4ce3 703d 3c14 1e3d
00000190: 571d a8bd 1eda 803d c611 bebd b7be 783c
000001a0: 6122 c1bd bc1a fc3a 07b9 c53b 66b7 b3bc
000001b0: 07e2 d4bc 7b97 793d 7596 053d d4f4 203d
000001c0: 2678 463d 964d 433d f18f dabc d5ac debc
000001d0: 46fa d1bd 0bec c13d 916c 88bb d0fd a53d
000001e0: 7ca5 ce3d c442 733d a178 d7bd 8239 943d
000001f0: a256 d8bd 0794 6d3d 2f9a 19bd d566 b2bd
00000200: 9f53 02bd 5c6a 133d d190 d13d 7989 debc
00000210: fe16 9c3d e5aa d03d 0c0e bfbd 300b bf39
00000220: a6c4 0c3c 207e 4a3c c629 d0bc 5906 57bd
00000230: 46e6 373d f39e 453d 1ddc 2c3d 7237 aa3d
00000240: 6482 7e3d 0795 00bd defa ac3c a047 253d
00000250: d95f 983d 4328 933c d96c 45bc 3a76 a3bb
00000260: a90d af3d 89f7 953d a35e 903c 04be 513d
00000270: f1d0 763d dc67 f0bc cced 06bd 30f2 973d
00000280: e635 3ebd 7091 b33d 9b7d a93d b4f4 6ebd
00000290: 0422 1b3d 31c6 153d f231 3ebd 6b70 18bd
000002a0: 9ba2 123c 5a3d 463d a2ea d63b 304a 823b
000002b0: 2081 56bd 9f43 26bc 512d 5b3d 5101 4c3c
000002c0: 05d8 9a3d 0017 583d ac98 cb3c 6ea5 8d3b
000002d0: 4e15 19bd ac74 763d e4a1 5abc 6a25 183e
000002e0: bdd5 70bc 0495 e93c bcf1 db3c 5e91 e7bc
000002f0: 0d7d 5d3d 1d91 4d3c ac20 463d 3724 71bd
00000300: 3a6c cb3c cd78 80bc 0e0b 18bd b730 873d
00000310: e042 ae3d 01c4 823d b5fd 23bd 598f 303d
00000320: 232a 7d3c 7e55 ae3d a493 2fbd be7d b73d
00000330: b7db f13c 501d c4bc 404f ab3c 6625 c13d
00000340: 6df9 b8ba 4ff9 103d 5158 e23c 6baa acbc
00000350: 3c1e c73d eaf6 913d e2c4 be3d 8376 7a3d
00000360: e814 d43d 89ab c13d 27b9 d03c eebb 3dbd
00000370: 5c1d 753d 014e 083d ec47 34ba 18df d03d
00000380: b0d5 293c d995 6d3d 359e ac3d 0354 dc3d
00000390: 936d d53b 2446 cabc 2cb1 d93d 181e d43d
000003a0: 1b7b 6e3d eaae f1bd c41c bcbb e468 d1bc
000003b0: cf6d a23d a620 65bd 5f8c f43d 9554 afbd
000003c0: 3749 9bbb 73c0 953d 0701 793d 563f a93d
000003d0: c56e 273c edc5 f8bc b447 0b3d 79d6 ae3c
000003e0: dc56 f4bc c8d3 d13d d681 2abd 1d41 013d
000003f0: 7fcb e63d fd4e c23c f608 b83d 9c3b c8bb

shared_ln.weight f4 [512]
1.2577575 1.1570601 1.214636 1.5086578 1.2261566 1.1339555 1.2304853 1.300449
1.3315673 1.227678 1.2987581 1.2938026 1.2127641 1.2603018 1.1402959 1.1732739
1.4074334 1.2031935 1.2061361 1.1309545 1.1034572 1.0971864 1.100239 1.1759226
1.2349342 1.1482881 1.2068112 1.1211438 1.2566694 1.2535145 1.2730243 1.1678318
1.1036799 1.1427983 1.1785791 1.1576097 1.2395092 1.1399528 1.2991202 1.2535615
1.1849298 1.2606549 1.1645421 1.1699691 1.1843841 1.1788479 1.1088217 1.1305697
1.2850361 1.1489116 1.16747 1.4827837 1.1958153 1.1674893 1.1383295 1.2474401
1.1670971 1.1306698 1.141092 1.0957639 1.1185849 1.1661611 1.2359415 1.1327298
1.1591125 1.1423749 1.2643883 1.0774052 1.2226653 1.2086508 1.1254241 1.1383269
1.2968062 1.1446297 1.1037235 1.2447664 1.0758548 1.1500614 1.1535553 1.1267415
1.2098166 1.1349626 1.1639879 1.2023312 1.2147449 1.3347809 1.239816 1.2381661
1.0539596 1.1620443 1.2145715 1.3768684 1.098456 1.1923891 1.2589824 1.1879301
1.1558903 1.2701416 1.1733124 1.3086534 1.1976186 1.1458364 1.2393903 1.2208254
1.2126447 1.2761348 1.3273618 1.040717 1.1426585 1.1631566 1.2015771 1.1674913
1.063144 1.2398024 1.2353084 1.2106436 1.2543597 1.3050902 1.1652641 1.1405116
1.073114 1.29015 1.2874008 1.2379067 1.1065012 1.1635947 1.1810006 1.2172986
1.2264003 1.3168907 1.1784515 1.1558107 1.1485648 1.3900392 1.1492026 1.3007836
1.1946983 1.2190474 1.2630202 1.1344224 1.1298568 1.2427478 1.2844982 1.2190542
1.2259246 1.2470152 1.1781716 1.1446028 1.0905367 1.258963 1.1825347 1.1306804
1.1197382 1.2455822 1.0707601 1.1279804 1.3456317 1.1734592 1.1401991 1.2325355
1.1997482 1.1980773 1.2504886 1.4757715 1.193917 1.1180736 1.1967076 1.4128073
1.2059453 1.2941847 1.1758242 1.2116944 1.2011164 1.2024546 1.0908158 1.2693609
1.2962834 1.1170604 1.2926317 1.2041698 1.1740147 1.2978072 1.2239217 1.2789532
1.2562628 1.0954682 1.1251074 1.1514118 1.2609689 1.1556439 1.0732263 1.2459425
1.1692522 1.4965619 1.1145315 1.4162546 1.287027 1.1917515 1.142067 1.2368835
1.0564749 1.2170454 1.2465079 1.1660014 1.1587324 1.251392 1.1927667 1.0807369
1.3131871 1.1481838 1.1494715 1.1990957 1.0648973 1.1181635 1.2035956 1.1746666
1.2804707 1.1602372 1.136317 1.0958729 1.1719722 1.1945668 1.3117203 1.3338039
1.1237216 1.2789375 1.3082786 1.1793519 1.2563848 1.2155249 1.2157528 1.4732889
1.3885702 1.3187379 1.1689045 1.1379362 1.1468819 1.225167 1.1076983 1.1922032
1.1311867 1.0981413 1.2567317 1.0313307 1.0894129 1.3424081 1.130794 1.3325478
1.2667986 1.1365588 1.1568894 1.203298 1.271801 1.1783173 1.2056113 1.1032262
00000000: 33fe a03f 8c1a 943f 3179 9b3f b31b c13f
00000010: b3f2 9c3f 7425 913f 8b80 9d3f 1d75 a63f
00000020: cc70 aa3f 8d24 9d3f b53d a63f 539b a53f
00000030: db3b 9b3f 9251 a13f 37f5 913f d72d 963f
00000040: c726 b43f 3f02 9a3f ab62 9a3f 1ec3 903f
00000050: 163e 8d3f 9b70 8c3f a2d4 8c3f a284 963f
00000060: 5312 9e3f 1bfb 923f ca78 9a3f a481 8f3f
00000070: 8bda a03f 2a73 a03f 76f2 a23f 837b 953f
00000080: 6245 8d3f 3747 923f aedb 963f 8e2c 943f
00000090: 3da8 9e3f f9e9 913f 9249 a63f b474 a03f
000000a0: c8ab 973f 245d a13f b70f 953f 8cc1 953f
000000b0: e699 973f 7de4 963f dfed 8d3f 82b6 903f
000000c0: 107c a43f 890f 933f a86f 953f dbcb bd3f
000000d0: 7a10 993f 4a70 953f c8b4 913f 1eac 9f3f
000000e0: 7063 953f cab9 903f 4d0f 923f fe41 8c3f
000000f0: ca2d 8f3f c444 953f 5533 9e3f 4afd 903f
00000100: cc5d 943f 5739 923f 7ad7 a13f 6ae8 893f
00000110: 4c80 9c3f 12b5 9a3f e60d 903f b2b4 913f
00000120: bffd a53f 3a83 923f d046 8d3f 8154 9f3f
00000130: 9cb5 893f 3635 933f b3a7 933f 1139 903f
00000140: 45db 9a3f 7446 913f 8efd 943f fde5 993f
00000150: c37c 9b3f 1ada aa3f 4ab2 9e3f 3a7c 9e3f
00000160: 26e8 863f debd 943f 1477 9b3f 393d b03f
00000170: 359a 8c3f 35a0 983f 5626 a13f 180e 983f
00000180: 37f4 933f 0094 a23f 1a2f 963f f481 a73f
00000190: 914b 993f c4aa 923f 57a4 9e3f 0244 9c3f
000001a0: f137 9b3f 6358 a33f fee6 a93f 3736 853f
000001b0: a242 923f 51e2 943f 47cd 993f 5b70 953f
000001c0: 1a15 883f d8b1 9e3f 961e 9e3f 5ff6 9a3f
000001d0: dc8e a03f 320d a73f 6027 953f 49fc 913f
000001e0: cd5b 893f a323 a53f 8dc9 a43f ba73 9e3f
000001f0: d5a1 8d3f acf0 943f 072b 973f 71d0 9b3f
00000200: affa 9c3f e08f a83f 80d7 963f 9bf1 933f
00000210: 2c04 933f ceec b13f 1219 933f 1480 a63f
00000220: e0eb 983f bf09 9c3f a5aa a13f c134 913f
00000230: 269f 903f 5c12 9f3f 706a a43f f809 9c3f
00000240: 19eb 9c3f 329e 9f3f 54ce 963f 5882 923f
00000250: b596 8b3f b325 a13f 4c5d 973f 23ba 903f
00000260: 9553 8f3f 3d6f 9f3f ab0e 893f a961 903f
00000270: a93d ac3f e933 963f 0bf2 913f b9c3 9d3f
00000280: 5991 993f 995a 993f 0310 a03f 15e6 bc3f
00000290: 46d2 983f 091d 8f3f b72d 993f dfd6 b43f
000002a0: 6a5c 9a3f d8a7 a53f 6881 963f cd18 9b3f
000002b0: 2fbe 993f 08ea 993f da9f 8b3f 6b7a a23f
000002c0: 9dec a53f d6fb 8e3f f574 a53f 3c22 9a3f
000002d0: 1d46 963f 8c1e a63f 77a9 9c3f bdb4 a33f
000002e0: 38cd a03f 4d38 8c3f 8503 903f 7661 933f
000002f0: 6e67 a13f 24ec 933f 7b5f 893f 0b7b 9f3f
00000300: 0eaa 953f 578f bf3f f8a8 8e3f d547 b53f
00000310: 4dbd a43f 508b 983f 402f 923f 3352 9e3f
00000320: 923a 873f 25c8 9b3f 928d 9f3f 893f 953f
00000330: 5851 943f 9d2d a03f 94ac 983f 9655 8a3f
00000340: 8416 a83f b0f7 923f e221 933f f87b 993f
00000350: 8e4e 883f fb1f 8f3f 6c0f 9a3f 7a5b 963f
00000360: 77e6 a33f a782 943f d672 913f 9045 8c3f
00000370: 2f03 963f 91e7 983f 73e6 a73f 16ba aa3f
00000380: 1cd6 8f3f 39b4 a33f ac75 a73f 01f5 963f
00000390: 38d1 a03f 5296 9b3f ca9d 9b3f bb94 bc3f
000003a0: abbc b13f 67cc a83f aa9e 953f e5a7 913f
000003b0: 07cd 923f 46d2 9c3f 0fc9 8d3f 1d9a 983f
000003c0: baca 903f e58f 8c3f 96dc a03f a502 843f
000003d0: e271 8b3f 07d4 ab3f dcbd 903f ed90 aa3f
000003e0: 7526 a23f c27a 913f f414 943f ab05 9a3f
000003f0: 60ca a23f 1ad3 963f 7951 9a3f 8436 8d3f

shared_ln.bias f4 [512]
0.036103602 0.04698296 -0.0060701068 0.022838354 0.02116582 -0.007765489 -0.016146135 -0.018650394
0.0079490105 0.010393916 0.027927678 0.04712453 0.04124865 -0.031015119 -0.0005909515 0.034882244
-0.046639178 0.05079092 -0.0010621992 0.008325262 0.06924002 0.04422393 0.011243646 0.0479584
0.017869947 0.08216638 0.06596616 0.026672428 0.0073957164 -0.02328426 0.014265838 0.009375278
0.020341124 -0.029864773 0.025556572 0.017544206 0.037374534 -0.0127036255 0.019749833 0.027256485
0.046877686 0.01598037 0.026703484 0.02416856 0.06831194 0.005705861 0.030372392 0.0033076678
0.028790845 -0.031641077 0.027710121 0.016537558 0.042012952 0.06067965 0.014901143 0.061443277
-0.007974487 0.01838779 0.011864227 -0.062675744 -0.0012799137 0.017208999 0.007013783 0.05625338
-0.01047844 0.029610787 0.022949586 -0.009310999 0.010169717 0.019815216 -0.04546168 0.006063347
0.006508957 0.055366356 0.042366825 -0.010442917 -0.020069009 0.050880216 0.021086678 -0.016524738
0.0912962 0.0039815493 0.06032451 0.050953776 0.056795765 0.07361876 0.02736542 0.02428001
-0.026225578 0.018178603 0.014478665 -0.0054258322 0.040883645 0.015395255 -0.038720995 0.002895755
0.042152915 0.0139854355 0.0038211036 -0.00427762 0.011451439 0.0018603917 -0.023407592 0.012026493
0.027488649 -0.0024013545 -0.025139516 -0.012778441 -0.029471418 0.015755558 0.030015793 0.023054354
-0.04143026 0.02313965 0.010094171 -0.011916115 -0.014123299 0.020519463 0.023394795 0.042225502
-0.031094987 0.01674656 -0.03888773 -0.016376099 0.030266564 -0.0013526332 0.006398064 0.055601034
-0.012953637 0.0012051795 0.047025613 0.028111093 0.044126343 -0.021016644 0.016388427 -0.007039683
0.009813963 0.063197464 -0.011501412 0.021214256 0.031454604 0.0019666255 0.03269027 -0.022076147
0.037958045 0.0041795196 -0.04685264 0.0018715737 0.014391266 0.07264998 -0.010317271 0.060649287
0.0055857603 -0.0029218877 -0.019626902 0.041195273 0.0400051 0.034794636 0.025751287 0.061310664
0.032779615 0.02769148 -0.00987051 -0.036188908 0.024619166 -0.0031195628 0.022409905 0.02025011
-0.006401398 0.05027643 0.020207122 0.053187918 0.04062899 -0.0061645466 0.013933369 0.015580174
0.046823822 0.016257782 -0.032739528 0.07889941 -0.03108093 0.04138243 -0.048555642 -0.011031684
0.07998857 -0.016724901 0.012796174 0.01866125 0.015254027 0.005529184 -0.0006885626 0.037426326
-0.022346536 0.014466714 -0.0447665 0.003900908 0.051711686 -0.052022792 -0.0086155515 0.037724014
-0.009334626 -0.035618052 0.016038783 0.02134972 -0.045736525 0.051719133 0.03175333 0.0051425938
0.037379116 0.010263572 0.016017923 0.019412003 -0.0024527465 -0.028246537 0.014775816 0.042171218
0.03984268 -0.046543982 0.02626859 0.01575967 0.016021144 0.015771953 0.05029699 0.06684479
-0.012208917 -0.006050722 0.019173633 0.0107780695 -0.004803156 -0.009198223 -0.025268877 -0.013806001
0.0007711462 0.013388711 0.024419809 0.02713534 0.032666992 0.010649797 0.019379808 0.00042387034
0.018712576 0.0042720283 0.027524244 0.022004005 0.016937314 0.057644993 0.014590755 0.014021744
0.008875668 0.016901936 0.017623331 0.013364636 0.05014973 -0.008487615 0.044235628 0.024015272
00000000: 5fe1 133d 3471 403d bfe7 c6bb 8017 bb3c
00000010: f163 ad3c a575 febb e644 84bc b6c8 98bc
00000020: 913c 023c 3e4b 2a3c 96c8 e43c a705 413d
00000030: 58f4 283d 6b13 febc 15ea 1aba afe0 0e3d
00000040: b908 3fbd 240a 503d 7e39 8bba ae66 083c
00000050: b6cd 8d3d 2724 353d 4537 383c 0770 443d
00000060: ff63 923c d946 a83d 4419 873d 2380 da3c
00000070: c457 f23b a2be bebc 43bb 693c c49a 193c
00000080: 6ea2 a63c f8a6 f4bc 045c d13c deb8 8f3c
00000090: 0a16 193d de22 50bc 67ca a13c fe48 df3c
000000a0: d102 403d 44e9 823c 44c1 da3c 25fd c53c
000000b0: 21e7 8b3d 3bf8 ba3b 86cf f83c 75c5 583b
000000c0: c7da eb3c 139a 01bd 5600 e33c c679 873c
000000d0: c615 2c3d 3a8b 783d ec23 743c f2ab 7b3d
000000e0: 6ca7 02bc fea1 963c 2d62 423c 245c 80bd
000000f0: c7c2 a7ba e3f9 8c3c e0d3 e53b f269 663d
00000100: c3ad 2bbc 5292 f23c c500 bc3c 298d 18bc
00000110: e29e 263c 8553 a23c 0736 3abd 0baf c63b
00000120: 1749 d53b d5c7 623d d688 2d3d c518 2bbc
00000130: c367 a4bc c667 503d f8bd ac3c e35e 87bc
00000140: 81f9 ba3d a877 823b d516 773d e8b4 503d
00000150: ada2 683d 6fc5 963d 722d e03c dfe6 c63c
00000160: 06d7 d6bc 4beb 943c ec37 6d3c 2ecb b1bb
00000170: 9c75 273d 613c 7c3c e899 1ebd b5c6 3d3b
00000180: 89a8 2c3d 2b23 653c 7b6b 7a3b 472b 8cbb
00000190: d19e 3b3c 63d8 f33a 47c1 bfbc c50a 453c
000001a0: e02f e13c 0b60 1dbb 63f1 cdbc ab5c 51bc
000001b0: 0b6e f1bc cd11 813c aee3 f53c 7cdc bc3c
000001c0: c7b2 29bd 5d8f bd3c 0662 253c cf3b 43bc
000001d0: 6965 67bc 6f18 a83c 71a6 bf3c a6f4 2c3d
000001e0: eaba febc 1530 893c be48 1fbd 2b27 86bc
000001f0: 96f1 f73c d74a b1ba daa6 d13b e9bd 633d
00000200: 7e3b 54bc 1df7 9d3a ee9d 403d 3c49 e63c
00000210: d3bd 343d 192b acbc 0641 863c 24ad e6bb
00000220: bfca 203c ac6d 813d 6b70 3cbc 85c9 ad3c
00000230: 8bd6 003d 80e2 003b 3ce6 053d 09d9 b4bc
00000240: e579 1b3d 5af4 883b 8ee8 3fbd 984f f53a
00000250: 58c9 6b3c 83c9 943d c509 29bc 636b 783d
00000260: c108 b73b 247d 3fbb 99c8 a0bc 60bc 283d
00000270: 63dc 233d d284 0e3d 5df4 d23c e420 7b3d
00000280: eb43 063d 3ed9 e23c ebb7 21bc d23a 14bd
00000290: 22ae c93c 9471 4cbb fa94 b73c 8fe3 a53c
000002a0: d2c2 d1bb a8ee 4d3d 6889 a53c 93db 593d
000002b0: 956a 263d f7ff c9bb c948 643c fc43 7f3c
000002c0: 56ca 3f3d 0a2f 853c e219 06bd 0496 a13d
000002d0: 6f9d febc 9f80 293d 48e2 46bd 3cbe 34bc
000002e0: 0cd1 a33d a902 89bc 0ba7 513c 7adf 983c
000002f0: 07ec 793c 282e b53b a780 34ba 594c 193d
00000300: 1510 b7bc cc05 6d3c 145d 37bd 60a6 7f3b
00000310: a2cf 533d da15 55bd 3e28 0dbc 7f84 1a3d
00000320: 42f0 18bc 3ce4 11bd c463 833c 9ce5 ae3c
00000330: 3956 3bbd 71d7 533d c80f 023d 3483 a83b
00000340: d81a 193d 8b28 283c 0538 833c ec05 9f3c
00000350: 42be 20bb 4865 e7bc 4416 723c babb 2c3d
00000360: 1432 233d e7a4 3ebd 3a31 d73c 6c1a 813c
00000370: c63e 833c 2f34 813c 3704 4e3d ece5 883d
00000380: e907 48bc 2345 c6bb 0612 9d3c 8096 303c
00000390: cb63 9dbb 25b4 16bc ad00 cfbc 9132 62bc
000003a0: bf26 4a3a 535c 5b3c 0d0c c83c ef4a de3c
000003b0: d3cd 053d 7c7c 2e3c 67c2 9e3c ea3a de39
000003c0: 1e4b 993c 5ffc 8b3b 867a e13c be41 b43c
000003d0: 1fc0 8a3c 281d 6c3d 100e 6f3c 75bb 653c
000003e0: 406b 113c ee75 8a3c ce5e 903c 59f7 5a3c
000003f0: ce69 4d3d a30f 0bbc 6b30 353d adbb c43c

actor_fc.weight f4 [6, 512]
0.18474679 0.08946601 -0.0029725062 -0.5264335 0.14137486 -0.046033207 0.13892849 0.051996164
0.015601843 -0.24006405 0.076369256 0.12966707 -0.114246204 0.13842283 0.18127507 0.07952292
0.22916563 0.22887048 -0.14871997 0.014650486 -0.07422856 -0.011530284 -0.11782761 0.23954692
-0.035175737 -0.062585495 0.19264406 -0.032609396 0.22996919 -0.11012607 0.024056278 0.15344168
0.025402144 0.04280086 0.039041035 0.03578658 -0.15279686 -0.029293299 -0.25255254 0.25103873
-0.06585642 0.2574982 0.13732351 -0.05687529 0.21404782 0.07220743 -0.037085034 -0.036544967
-0.01987946 0.077061296 0.069305904 -0.24322405 0.075727336 0.108387426 -0.14912407 -0.22113964
0.008422575 0.055336263 -0.09226396 0.16683772 0.20508642 -0.010336187 0.09957021 0.05766054
0.20946343 0.20713103 -0.11436963 -0.023229543 0.03341367 0.15940359 0.063729025 0.13925725
0.033689413 -0.08935699 0.14367332 -0.253347 0.111275785 -0.006925936 -0.08103772 -0.039019026
-0.11120537 0.14592299 -0.01867164 0.12312087 -0.15724716 0.2194423 0.0727974 -0.14603308
0.13606243 -0.002413117 0.021028895 -0.07525257 0.006004203 0.017074982 0.27168018 -0.039629508
0.16449547 0.018906936 0.16315782 -0.100679375 0.010840676 0.1416929 0.08439842 0.20478284
0.080331616 0.11821243 -0.2176777 0.089235015 0.043635193 -0.14435336 0.096799865 0.006458455
0.061592437 -0.00855523 -0.041704413 0.19117291 -0.04502078 0.07442812 -0.053740308 0.11175243
0.09461481 -0.11545878 -0.0714106 0.016021268 0.11340941 0.21038164 -0.16955961 0.10758904
-0.04702905 -0.113818265 -0.1191789 0.12841764 -0.14099535 0.105393395 0.13325179 -0.23763566
0.050841495 -0.11248838 -0.041875172 0.0031651275 0.09429136 -0.14774206 0.03266179 0.23714158
0.16148892 0.1467136 -0.06269532 0.1977895 -0.105464615 0.1662414 0.08395291 0.074532
0.12509431 0.19880332 0.0026907644 0.06277358 -0.10241918 0.033204947 -0.024339907 0.019604871
0.15745114 -0.090779744 0.30478218 -0.031602632 -0.09882619 0.14748016 0.017542362 -0.35246778
-0.13727894 0.31190827 0.15253113 -0.08426737 -0.07942903 0.1307545 0.15789163 -0.19426553
-0.13519682 0.09195304 -0.052534495 -0.034165297 -0.0099008735 -0.10387615 0.05995522 -0.2069026
0.10539327 0.1594631 -0.09271273 0.18234125 -0.0037082136 0.18298528 0.09237178 -0.20615862
0.06397589 0.4116429 -0.020493118 0.1819347 -0.09024966 0.16959058 0.024575086 -0.112517
0.060219575 0.020946613 0.09147172 -0.023214312 -0.011850016 -0.19535603 0.113048814 -0.005854091
0.24953277 0.012502229 0.07238057 -0.09447432 0.0033409938 -0.027058551 0.11218172 0.018741399
-0.22909614 0.1803305 0.008738174 -0.068279654 0.03479529 0.09002181 -0.03769756 0.043207865
0.14102198 -0.1200366 -0.0012268332 0.11143354 -0.13290317 -0.046255767 0.053267535 0.20526074
0.13590465 -0.031390287 -0.12695497 -0.038441572 -0.010131977 0.16327508 0.03240475 -0.04993093
-0.062041815 0.015597959 -0.14620855 0.06575281 -0.007751849 0.18399833 -0.041554544 0.32660815
-0.08050396 0.20180988 0.0026745389 0.13210118 0.07499295 0.23157458 -0.11463776 0.0044094957
00000000: 432e 3d3e f539 b73d 61ce 42bb 59c4 06bf
00000010: 92c4 103e 518d 3cbd 4543 0e3e eef9 543d
00000020: df9e 7f3c 5ad3 75be 7c67 9c3d 72c7 043e
00000030: eaf9 e9bd b7be 0d3e 2ca0 393e eadc a23d
00000040: 65aa 6a3e 065d 6a3e 0c4a 18be 9808 703c
00000050: 2505 98bd 84e9 3cbc 9a4f f1bd ca4b 753e
00000060: 6f14 10bd d32c 80bd 7c44 453e 6e91 05bd
00000070: 0b7d 6b3e c789 e1bd ac11 c53c d11f 1d3e
00000080: 2818 d03c f44f 2f3d 7ee9 1f3d f394 123d
00000090: c876 1cbe 80f8 efbc 914e 81be 2688 803e
000000a0: bbdf 86bd ced6 833e 899e 0c3e 10f6 68bd
000000b0: 5a2f 5b3e 7de1 933d 7ae6 17bd 2db0 15bd
000000c0: 40da a2bc 50d2 9d3d 41f0 8d3d ba0f 79be
000000d0: ef16 9b3d 3afa dd3d fbb3 18be 6e72 62be
000000e0: d7fe 093c 47a8 623d e3f4 bcbd 82d7 2a3e
000000f0: 2d02 523e 1c59 29bc 77eb cb3d 752d 6c3d
00000100: 957d 563e 281a 543e a03a eabd e24b bebc
00000110: c6dc 083d b23a 233e 5d84 823d 7499 0e3e
00000120: e9fd 093d cc00 b7bd 191f 133e b3b6 81be
00000130: 8fe4 e33d f6f2 e2bb 1bf7 a5bd 6ad2 1fbd
00000140: a4bf e3bd d66c 153e 44f5 98bc cb26 fc3d
00000150: 6605 21be 7bb5 603e ce16 953d b289 15be
00000160: f353 0b3e 6325 1ebb ca44 ac3c 051e 9abd
00000170: e8be c43b d5e0 8b3c aa19 8b3e 8d52 22bd
00000180: 8071 283e b8e2 9a3c d812 273e fd30 cebd
00000190: 179d 313c f217 113e 14d9 ac3d 98b2 513e
000001a0: e784 a43d 5c19 f23d e7e6 5ebe d9c0 b63d
000001b0: d1ba 323d 5ed1 13be 023f c63d 73a1 d33b
000001c0: 5a48 7c3d 3c2b 0cbc 3fd2 2abd d5c2 433e
000001d0: b667 38bd c56d 983d cc1e 5cbd 75de e43d
000001e0: 69c5 c13d a775 ecbd b83f 92bd 093f 833c
000001f0: 3143 e83d 496e 573e 09a1 2dbe a557 dc3d
00000200: 88a1 40bd 8d19 e9bd 1114 f4bd ea7f 033e
00000210: 1661 10be 7ed8 d73d 2873 083e c356 73be
00000220: 2c3f 503d 4f60 e6bd 4d85 2bbd 076e 4f3b
00000230: d41b c13d b249 17be 5ec8 053d 3ed5 723e
00000240: 5a5d 253e 173c 163e 6766 80bd 5589 4a3e
00000250: d5fd d7bd 303b 2a3e 81ef ab3d 3ca4 983d
00000260: b918 003e 1993 4b3e 8957 303b 6f8f 803d
00000270: 26c1 d1bd e901 083d 7c64 c7bc 659a a03c
00000280: df3a 213e bbea b9bd 690c 9c3e c371 01bd
00000290: 6365 cabd 0a05 173e 00b5 8f3c a876 b4be
000002a0: da92 0cbe 71b2 9f3e 1f31 1c3e 5f94 acbd
000002b0: b0ab a2bd 82e4 053e 58ae 213e 8bed 46be
000002c0: 0971 0abe e051 bc3d 692e 57bd e9f0 0bbd
000002d0: 4637 22bc 05bd d4bd 9b93 753d 46de 53be
000002e0: 6dd8 d73d 4b4a 233e 2ce0 bdbd aab7 3a3e
000002f0: 8005 73bb 7e60 3b3e 6a2d bd3d 3f1b 53be
00000300: cb05 833d dcc2 d23e 2fe1 a7bc 174d 3a3e
00000310: d0d4 b8bd 27a9 2d3e b151 c93c 506f e6bd
00000320: cda8 763d 3b98 ab3c 8655 bb3d f12b bebc
00000330: 9226 42bc 690b 48be 2386 e73d add3 bfbb
00000340: 8585 7f3e 26d6 4c3c 443c 943d c17b c1bd
00000350: 93f4 5a3b e5a9 ddbc 88bf e53d 9087 993c
00000360: 2e98 6abe 8fa8 383e 8f2a 0f3c 34d6 8bbd
00000370: 8285 0e3d 5b5d b83d c268 1abd bbfa 303d
00000380: 1168 103e c0d5 f5bd b1cd a0ba 4537 e43d
00000390: c517 08be b076 3dbd 0f2f 5a3d df2f 523e
000003a0: 972a 0b3e 1a93 00bd 7c00 02be e974 1dbd
000003b0: 9700 26bc 9531 273e d8ba 043d 6084 4cbd
000003c0: 8f1f 7ebd 958e 7f3c b2b7 15be 69a9 863d
000003d0: 3903 febb 0f6a 3c3e 1935 2abd 2f39 a73e
000003e0: 43df a4bd 40a7 4e3e 5147 2f3b 8845 073e
000003f0: e795 993d e321 6d3e 34c7 eabd 887d 903b

actor_fc.bias f4 [6]
0.08029146 0.06574527 0.007687933 0.02061237 -0.010769814 0.040387146
00000000: d96f a43d 75a5 863d 0eeb fb3b 46db a83c
00000010: e073 30bc fe6c 253d
