project_3/checkpoints/checkpoint_cycle_10_20241025_133609.pt (torch, 624868 bytes, 12 tensors)

shared_fc.weight f4 [512, 96]
00000000: 21ef 8cbd c300 173e edcf e53d 9c79 d73d
00000010: a7b0 7d3e 155b 043e 3aad 183e 6b06 b9bd
00000020: 53ae c53d 53ac 983d 753e 6b3d 05a4 cbbd
00000030: bc6e 3cbb c194 f23c 5144 973c 23e2 8e3d
00000040: 45ef 6e3e c5dd 7b3c 4e9b 573e e30b b93d
00000050: c76f 78bc 0c31 a03d 39be 5b3e 56d6 0b3e
00000060: 839f a63d a9b3 1d3c 1e1b 49be 49dd 2f3d
00000070: cca7 c13d b767 493e a895 a83d fbd1 cb3e
00000080: c855 ff3c 29b9 1c3e 1243 3d3e 3675 663e
00000090: f1cf 933d d237 6b3e 4f0c 0eba b596 9a3c
000000a0: dd9f f8bc bc80 003d a6ca 11bb f4e1 9ebd
000000b0: d972 3abc e4d3 53bd 6c5e 623d 306e 113e
000000c0: 2484 8a3c d7d5 d73d ef57 41bd a478 e1bd
000000d0: 6053 8f3e 94f1 a03d 9a0a dcbd ab45 a1bd
000000e0: eb5d afbd 8c35 c33d ffe5 e9bd fd27 743e
000000f0: 727f 02bd 6116 c83c 4fb8 e03d 15c9 383d
00000100: 5b88 0e3e 6480 133e 7e78 133d 7a77 c43d
00000110: 5faf 493e 270d 393e 7bf9 573e ac8f 223d
00000120: 811f 763e 5232 f3bc ae54 50bd 2c8a 033e
00000130: 1f6b 3a3e aca2 063e 374c 9c3d 9fd2 5cbd
00000140: 2085 343e e372 203d 77ec 6c3d eeca f23c
00000150: 586d 9fbd c14e a23d 377d 84bd 8b1a aa3d
00000160: d735 f83d 4094 4e3e 89cd 593c 7af5 453e
00000170: 2a56 713d 3534 8ebd c14a 4d3d 7ad4 3a3e
00000180: 1b77 a53d f8a5 a63d 451a b6bd df06 0b3e
00000190: 87f9 6ebe a490 943e 6838 35bd 99e1 cd3d
000001a0: 6580 99be 408f b0bd a262 bfbd 7968 c43d
000001b0: ea6f 83be 33c9 c33d a7c5 18bd b9c2 aa3d
000001c0: 0e80 6cbe 5a9f 393d 31b7 703d 94c5 5a3d
000001d0: 1036 cb3c 8f27 2abd c1bc 173e 9b31 1d3e
000001e0: 9323 f5bd c9cf a13c 35e8 3c3e 51ab 96bd
000001f0: ac40 5fbd e06d 393e 93c0 12bb ec0b 623d
00000200: 9017 12bc 4517 283d f358 193e ad54 f0bb
00000210: 4ac8 c0bd b0cf 0b3d 86b5 343d d1cc 943c
00000220: 2f0f cfbc 78c8 24bd a9c5 b83d 68cf 453e
00000230: 6371 a13e 5893 a53e ddf9 883d 6efa e13c
00000240: 7325 1d3e 25f2 fc3c 8df4 da3d 3212 2d3d
00000250: 57cf 433d a802 7a3d f6b9 13bd 4074 26bc
00000260: e7df 81bd 6d5d 2d3d fb10 173c ab8c 133e
00000270: e924 11bd c38f 213d 78e7 4c3d b736 c7bd
00000280: 4904 3f3e a9f9 ffbc 71c9 e53c c16b 4dbd
00000290: 17b2 493e f3f3 b43d c8e0 05bd a76c d7bd
000002a0: c195 263e 0318 193e e57a 3b3b d055 b33d
000002b0: d513 803d 4e21 593c d6d3 993d f234 043e
000002c0: 6a2a 56bd b016 80bb ab3c 013e 8c30 823d
000002d0: 16d7 08bd dbf6 a53d c545 b33d 1649 d1bd
000002e0: 7f54 e23d ee83 db3d 1783 9d3d 0b69 433e
000002f0: ba17 bbba 55b5 093e 6e33 5d3e 6ca4 013d
00000300: 2aa0 b5bc b54e 83bc c070 5c3d 0e0a b33c
00000310: 7084 d23e 1070 bdbe d401 abbd 96db 9dbd
00000320: be37 33be 1dd3 11be bf33 09bd 754c 32bd
00000330: 4855 27be 2884 2d3e de78 bbbd cebf b53d
00000340: 2433 c73d d7f0 b23d bc69 573c ceb0 473d
00000350: 5a05 78bd e9b9 8e3d 92f9 8d3d 8620 35bd
00000360: 622a 19bd b394 f03d a8c3 e3bd 725d d43b
00000370: 9d25 88bc 9a82 4a3d 6332 dfbc afdb 823a
00000380: 1ce2 b63d 8d24 a0bd 4b2c 2e3e fe4e 1a3e
00000390: 07e7 8bbd b483 82bc a70f 44bd 716a ea3d
000003a0: 038e 393e fc8f 883d cc6b b23d f448 ff3d
000003b0: 8e40 e73d 745e ecbd 84ea 9c3d c33a b83d
000003c0: 0ac4 033e 9ec7 adbd ea81 80be 2a54 a5be
000003d0: dc27 7d3d f658 a9bc 7d99 ecbd 72f6 1fbe
000003e0: e991 4dbc 4185 09bd ca5b 8bbd eaec 2e3e
000003f0: 73fd c7bd 8f31 613d 2dd9 0fbe 9fb5 8a3d
-0.06881548 0.14746384 0.11221299 0.10521242 0.24774419 0.1292537 0.1490983 -0.09034427
0.0965239 0.07454743 0.05743261 -0.099433936 -0.0028752526 0.029611947 0.018465193 0.06976726
0.23333462 0.015372698 0.21055338 0.0903547 -0.015163369 0.07821855 0.21459283 0.13655981
0.08135893 0.009625354 -0.1963925 0.042935643 0.09455833 0.1966847 0.0823167 0.3980864
0.031168833 0.15305008 0.18482617 0.2250565 0.07217396 0.22970513 -0.0005418704 0.01887069
-0.030349666 0.03137277 -0.0022246032 -0.07757941 -0.011379921 -0.051715747 0.05526583 0.1420219
0.016908713 0.105388336 -0.047203 -0.110093385 0.27993298 0.07858577 -0.107442096 -0.07874616
-0.08562835 0.09531698 -0.114208214 0.2384338 -0.031859823 0.024424734 0.10972654 0.04511364
0.13919203 0.14404446 0.036003582 0.09593101 0.19695805 0.18071423 0.21091263 0.039687797
0.24035455 -0.02968708 -0.050862007 0.12845677 0.18204926 0.13147992 0.07631724 -0.0539118
0.17628908 0.039172065 0.057842698 0.02963778 -0.077845275 0.07925177 -0.06469195 0.08305844
0.12119644 0.2017374 0.013293632 0.19331923 0.058920063 -0.069435515 0.05012012 0.18245116
0.08079358 0.08137125 -0.08891729 0.1357684 -0.23337375 0.29016602 -0.044243246 0.10052795
-0.2998077 -0.08621073 -0.093449846 0.09590239 -0.2567132 0.0955986 -0.03729787 0.08337922
-0.23095724 0.045317985 0.058768455 0.05341108 0.024806052 -0.041541632 0.14818098 0.15350954
-0.11969676 0.0197524 0.18447955 -0.07356895 -0.054505035 0.1810832 -0.0022392615 0.05518715
-0.008916751 0.041037817 0.14975338 -0.007334313 -0.09413202 0.034133613 0.044118427 0.01816407
-0.025275795 -0.040230244 0.09022076 0.193174 0.3153182 0.32338977 0.06688283 0.027585234
0.15346317 0.030877182 0.106911756 0.04225368 0.047805157 0.06103769 -0.036066018 -0.010159552
-0.06341534 0.042325426 0.009220357 0.1440913 -0.03543559 0.039443742 0.050025433 -0.09727233
0.18653978 -0.031246977 0.028050156 -0.05015159 0.19696842 0.08835592 -0.03268507 -0.10518771
0.16268064 0.14950566 0.0028607186 0.08756602 0.06253783 0.013252569 0.075111076 0.12910822
-0.052286543 -0.0039089546 0.12620799 0.06356916 -0.033408247 0.081037246 0.08753542 -0.10219018
0.110512726 0.10718523 0.07691019 0.1908304 -0.0014274039 0.13448079 0.2160165 0.031650946
-0.022171099 -0.016028741 0.053818464 0.02185538 0.41116667 -0.3699956 -0.08349958 -0.07707898
-0.17501733 -0.1424069 -0.033496615 -0.043529946 -0.16341126 0.16944945 -0.09153913 0.088744745
0.09726551 0.08737343 0.013147768 0.0487526 -0.06055198 0.06969053 0.069323674 -0.04422047
-0.037393935 0.11747112 -0.11121303 0.006480866 -0.016619498 0.049440958 -0.027245706 0.0009983684
0.08929846 -0.078194715 0.17009084 0.15069196 -0.06831174 -0.015931942 -0.04786649 0.11446083
0.1812058 0.06668088 0.08711967 0.124650866 0.1129161 -0.11541453 0.07661918 0.08995583
0.12867752 -0.084853396 -0.25099117 -0.32290775 0.06180559 -0.020672303 -0.11552713 -0.15621355
-0.012546995 -0.033574346 -0.06804617 0.17082563 -0.097651385 0.054978903 -0.1404769 0.06772923

shared_fc.bias f4 [512]
00000000: d00a 183e 693e e03d ba0c 563e 45fd b23c
00000010: b272 d43e 6b27 163e d661 a8bc ea68 24bd
00000020: fefe e53d 8b14 a1ba 2e80 483c f898 1b3e
00000030: 1d05 ad3d c12c e73d 4eb3 323e 9756 593e
00000040: 01d8 f03d b008 5a3e 4381 213e 180c d33d
00000050: 6e06 0a3e e304 bd3d 9ff6 623e 2d7b 693e
00000060: 66ff 413d ffe5 003e 8e20 22bd e82e 0e3e
00000070: a44d 16bd 0f57 093d 2f30 023e 1761 1c3e
00000080: cbed da3d 6075 7d3e 58e6 8d3d 2ea9 e73d
00000090: c837 603e 46a9 ca3c 0fe9 9b3c 4b66 523e
000000a0: 7142 b03d b6f9 49bd 0b52 ab3d ed2a 963c
000000b0: f3bd 4b3d 0c73 243e aed5 563c b4c1 a13d
000000c0: 70af bf3e ad1b 573d f9f4 e8bc ae35 583d
000000d0: 6c6f 9a3d 361a 133d 3e10 493d 0b87 883b
000000e0: 8a52 0d3e 5e32 963d 9291 a53e 48ba 073c
000000f0: 0cce 583e b26e 043e a2c3 1c3e 00cf daba
00000100: 80c5 fe3d cbf1 733e e20f e33d 356d 423e
00000110: 4a4e 253e a9c7 2a3d c36e 1a3e 707e 213e
00000120: 4d9c 153e 17de 223e 6852 863e 0087 573e
00000130: 5ee5 133e c4bd ca3e e59b 48bb f097 553d
00000140: f8c8 3d3e fa71 043d d636 2f3e ae07 583e
00000150: bfe0 5a3e 14e6 4d3e 4cac 973d f0ad 6f3e
00000160: 7343 693e 78c9 2f3e 489f 013e 27a4 193e
00000170: 6d07 dbb8 8950 0d3e 6a49 ba3d 6b35 d03d
00000180: 9a66 843e 7478 dc3e c8d7 5d3d 284f b53d
00000190: e74b 3d3e ec07 4c3a 29d4 093b 06c0 123e
000001a0: 63ed 483e b29b 873d 9380 2f3e 0405 213e
000001b0: a77d 3f3d d19f 153e a565 f33c 1a57 c83d
000001c0: 1843 6b3d 5e8a 9b3c e9bd 0a3e 8ea4 093e
000001d0: 6e25 003e 5dc4 043e 134d 9a3d 7efd d73d
000001e0: ff52 493d 5560 8f3d 9ec3 303e fdac 463e
000001f0: 29a2 2e3e a53b 0f3c dbb3 e13d ec81 863d
00000200: a969 8f3d c698 58bb 1e96 453e 1f20 3a3d
00000210: 8855 033e 7d5c 503c 721a 203e 9e29 0d3e
00000220: fb82 5fbb fdb7 183e 5d9b f83e 8e41 373e
00000230: cca1 093e 18f1 d93d ca7d 343e 0b7e 00bc
00000240: a8fd 8c3e bb23 153e c453 423e 4499 203e
00000250: 9169 ff3d e4e9 653e 866b 853e f341 963b
00000260: 2fe3 5a3e e112 5f3e 6d10 4a3e 047f 023d
00000270: 9fdd 103e 11e5 893d 70f9 d73d 744b 9f3c
00000280: e863 ce3d a63a 773d d5eb 253e b022 cdbc
00000290: eeab 163e cd83 403d 0678 183f b90f 9cbb
000002a0: 6e3d 9b3d d181 363e 0b7e dc3c be80 843c
000002b0: 6513 ca3d 3d0f 293e fa33 fe3c 6c23 353e
000002c0: f0eb 3f3e a6cc 5c3d e837 d6bd fc02 c03d
000002d0: b524 6f3e 6889 153e eb9a a83d e088 da3d
000002e0: e1e7 043d d707 ae3c 3499 383e 5fce 123e
000002f0: 2960 59bd dc3d 313e 05f5 2a3e 4fb9 dabc
00000300: 4944 8e3d f891 743e 35a1 dd3d 02f1 933d
00000310: ad52 20bd ecdd 423e f97d 503d 316d 543d
00000320: 1745 703e 5e35 093e 0afd 9e3d 0314 e43d
00000330: 13d5 283d d268 093f c35c 313d 50d1 493c
00000340: dd53 b93c ad82 323e 9c89 083e a05e 263e
00000350: 461f 173e c701 603d 2cb4 c73d 4b3b a73c
00000360: 1dea 253e d16a b73c ade8 fb3c d596 703e
00000370: 6a1c ec3d c930 6e3e c6bd c3bc 7484 f23c
00000380: 86ea c63d 47d3 c93d afed adba 44bb db3d
00000390: b041 e63d ba42 733d f912 073e a50a f43d
000003a0: 4434 623d b0d1 363e 76e7 2b3e bc2a 293d
000003b0: 850f 8e3c 5610 5c3e ab93 8e3d f37f 71bc
000003c0: e818 d93d a88e 8b3e 0b37 9f3c 9959 d33d
000003d0: 868a 363d a814 b63c a8c2 2c3e 5cd5 ae3d
000003e0: 1899 3c3d afa7 2f3e 07eb 2c3e 73e4 733e
000003f0: 839b fe3d a094 263c 4423 d33d 2fc6 283e
0.14847875 0.10949404 0.20903292 0.021849284 0.41493756 0.14663474 -0.020554464 -0.040139116
0.112302765 -0.0012289447 0.012237592 0.15195072 0.08448241 0.11287833 0.17451212 0.21224438
0.117599495 0.21292377 0.15771966 0.10305041 0.13479015 0.09229448 0.22164391 0.22800894
0.047362708 0.12587737 -0.039581828 0.13885081 -0.036695138 0.03353029 0.12713693 0.15271412
0.10689887 0.24751806 0.069287 0.11311565 0.21896279 0.024738919 0.01903203 0.20546834
0.08606423 -0.04931041 0.08365258 0.018331015 0.049741697 0.16059512 0.013112469 0.07898274
0.37438536 0.052516628 -0.028437125 0.052785568 0.07540783 0.03591367 0.049087755 0.004166489
0.13801017 0.073338255 0.32337624 0.008284159 0.2117235 0.12932852 0.15309003 -0.0016693771
0.12440014 0.23822705 0.11087014 0.18986972 0.16143146 0.041694317 0.15081315 0.15770888
0.14610405 0.15905033 0.26234746 0.21047592 0.14442965 0.39597905 -0.0030610499 0.052146852
0.18533695 0.03233526 0.17110762 0.2109668 0.21374796 0.20107299 0.0740591 0.23406196
0.22779636 0.17166698 0.12658417 0.15004025 -0.00010444117 0.13800253 0.09096034 0.10166439
0.2585953 0.43060648 0.054160863 0.088529885 0.18485986 0.0007783163 0.0021030998 0.14331064
0.19621806 0.066214934 0.17138891 0.1572457 0.04675069 0.14611746 0.029711554 0.09782238
0.057437032 0.018986877 0.13549007 0.13441679 0.12514278 0.12965532 0.07534232 0.10546397
0.049151417 0.07000796 0.17262122 0.19401927 0.17054047 0.008742248 0.11020633 0.065677494
0.07002575 -0.0033050044 0.19295546 0.04544079 0.12825596 0.012717363 0.15635088 0.13785407
-0.003410517 0.14913936 0.48556033 0.17896101 0.13440627 0.10641688 0.1762611 -0.007842551
0.27537274 0.14564411 0.18977267 0.15683466 0.12471307 0.22452503 0.26058596 0.0045854985
0.21375726 0.21784545 0.19732828 0.031859413 0.14147042 0.06733144 0.10545623 0.019445159
0.10077649 0.060358666 0.16203244 -0.025040954 0.14714023 0.047000695 0.5955814 -0.0047626165
0.07580076 0.17822959 0.02691557 0.01617467 0.098669805 0.16509719 0.031030644 0.17689294
0.18742347 0.053906105 -0.10459882 0.09375569 0.23353846 0.14603198 0.08232673 0.10670638
0.0324477 0.021243973 0.18027192 0.14336537 -0.05307022 0.17308754 0.1669503 -0.02669969
0.06946618 0.23883808 0.108217634 0.07223703 -0.039141346 0.19029969 0.050901387 0.051861946
0.23463856 0.13399264 0.07763107 0.111366294 0.04121883 0.5367557 0.043301355 0.01231797
0.022622997 0.17432661 0.13333744 0.16247034 0.14758024 0.054689195 0.09751162 0.020414015
0.16202588 0.022389801 0.030750597 0.23495038 0.11528857 0.23260798 -0.023894202 0.029604174
0.097127005 0.09854751 -0.0013269688 0.107290775 0.11242998 0.059389807 0.13190831 0.11916093
0.055225626 0.17853427 0.16787514 0.04130052 0.017341385 0.21490607 0.06961759 -0.014739978
0.106004536 0.27257276 0.019435426 0.10319824 0.0445657 0.022226647 0.1687113 0.08536789
0.04604444 0.1715381 0.16886531 0.23817615 0.12432005 0.010167271 0.10309461 0.16481851

shared_ln.weight f4 [512]
00000000: a4a4 9e3f d833 843f 5644 9a3f 19ff a33f
00000010: daae 093f 84e2 b93f 4295 cd3f 12d7 a83f
00000020: 4291 843f 71b3 af3f 804b a33f bd41 a23f
00000030: 3383 9d3f b46f 733f a40b 8d3f e8b5 7c3f
00000040: 2e64 b83f 53eb 8f3f e67d b93f f9b0 7d3f
00000050: bcf9 b63f 9ee2 a13f 193d 8e3f b804 9f3f
00000060: 7fe4 b23f c290 c13f ea41 af3f 42cd 853f
00000070: cb49 7f3f aa0e 9f3f 4fdc a83f a302 943f
00000080: 9395 963f a10c 073f 5835 e53f 98cb a43f
00000090: 31b1 143f 6656 ac3f acdd e93f a063 8a3f
000000a0: 0aff 683f 4ce4 f53f 0977 d03f a016 aa3f
000000b0: 73d1 8c3f 9b47 8e3f 8c73 cb3f e49d d53f
000000c0: df24 003f 197e 873f 50ba b73f 9e77 9a3f
000000d0: fc6c 9f3f 0adc da3f c488 493f f5ec ea3f
000000e0: a736 ad3f f970 423f 612f 243f 77c6 c03f
000000f0: 091f 6b3f 8e3a 8d3f 94e1 c73f a8e4 af3f
00000100: b6b1 903f 020b 203f 6213 d33f 11b8 a83f
00000110: a947 6c3f 47cc 7e3f 0c4f 9d3f de02 3d3f
00000120: 2439 873f d919 9d3f 6502 6f3f e522 963f
00000130: 31e6 863f b4d2 033f ec86 953f 1cc4 883f
00000140: 2b97 ab3f c6d6 8d3f 0814 9f3f 0907 913f
00000150: 9544 303f f8ba 3b3f c1a2 993f a083 6f3f
00000160: 217b 903f 5c72 2a3f ac0b 9f3f 2b10 b33f
00000170: 1e2f d13f ba75 9e3f 3a28 d63f 92c1 843f
00000180: 29cb 8f3f a002 d93e 21cf ad3f 6178 9c3f
00000190: 6fe7 933f af8f b93f 9cca 953f b1f3 b33f
000001a0: 3547 283f 4250 8d3f d74b a43f 2c7f ae3f
000001b0: b801 883f e418 833f 0017 bf3f 431a bb3f
000001c0: 071a dc3f 82eb 9d3f 4631 973f 8bfe b43f
000001d0: b675 ab3f b400 9b3f b4e7 913f 53b5 883f
000001e0: 4111 833f f8c2 a43f 21f4 843f 0b56 a63f
000001f0: 92a2 2d3f 5c17 a33f 4405 663f 1305 993f
00000200: 0ca0 9a3f 188b 8c3f 3886 a33f bced aa3f
00000210: 799b 7e3f 236a 983f 0249 4b3f 2596 963f
00000220: af15 9d3f 15e0 883f c2d6 a93e 8305 b33f
00000230: c536 a73f ea56 9b3f 0cc0 b93f 63ce a03f
00000240: 964c 503f 9a56 af3f e598 9f3f e608 a33f
00000250: b1e9 8a3f 7ce6 983f 0c62 493f 0ee6 0740
00000260: b308 823f 65bf 903f 0e04 9f3f d044 b83f
00000270: 03a3 523f 02cb a53f 8c04 b33f 5194 9b3f
00000280: 97f8 bc3f 686c ab3f 2b50 c13f f524 af3f
00000290: 73f7 8d3f 9e95 873f 158e 273f e4ca 9a3f
000002a0: f9fb b63f e449 b43f cf18 e13f 3bc6 8c3f
000002b0: 2815 813f f809 7d3f a266 9f3f 8edb cc3f
000002c0: d545 a13f c648 0040 3be2 1f40 c17d ab3f
000002d0: 67f9 853f 0f0b 9d3f b3ce 963f 1c64 933f
000002e0: c478 8c3f 8b2c 8a3f 14c0 913f 4d75 6f3f
000002f0: 19e2 c73f c450 b83f da8c a33f 3a63 d93f
00000300: 348f b33f 7078 393f 8e9f b33f bacd 8d3f
00000310: 42e8 c93f 29d2 963f fd3d 6e3f 6188 cc3f
00000320: a792 793f b166 d73f 004a c03f 9fdc cc3f
00000330: 67ba d03f a335 343f 0820 ad3f fa7e d83f
00000340: d529 aa3f 8662 453f 989e 823f 28f3 943f
00000350: 59da 323f c838 db3f 7e4f 8f3f 1862 ad3f
00000360: 71d4 bd3f 0022 903f fb3b 873f dd8f 2e3f
00000370: 6788 913f 38fe 0a3f 1472 0040 cc32 b83f
00000380: ed8b a23f bb9a 413f 2d3f d63f 359b 933f
00000390: bbf7 a13f dfe0 d23f e3c4 863f d4f3 9c3f
000003a0: 3e20 883f 88aa a43f e2c0 983f 9b52 933f
000003b0: 3f46 c03f 5206 713f c5c4 ba3f 50a2 af3f
000003c0: 4502 8d3f 98c1 633f 36bd 7c3f 1cf3 c93f
000003d0: f41d 943f f045 bb3f 4145 973f 01ee 8d3f
000003e0: d686 9f3f e4b4 a83f 87f5 8d3f c5f3 a23f
000003f0: 22c1 bd3f 9290 cc3f aab3 8b3f 063b 923f
1.2393994 1.0328321 1.2052104 1.2812225 0.5378243 1.4522252 1.6061175 1.3190634
1.0356829 1.3726636 1.2757416 1.2676312 1.2305664 0.9509232 1.1019177 0.98715067
1.4405572 1.124369 1.4491546 0.99098164 1.4294963 1.2647283 1.1112396 1.2423315
1.3975981 1.5122302 1.369199 1.0453265 0.99721974 1.242635 1.3192233 1.1563305
1.1764396 0.52753645 1.7906904 1.2874632 0.5808287 1.3463867 1.8270774 1.0811653
0.9101416 1.9210296 1.6286327 1.3288155 1.1001419 1.1115602 1.5894637 1.6688809
0.5005626 1.0585357 1.4353733 1.2067754 1.2455134 1.70984 0.7872431 1.8353564
1.3532304 0.7595363 0.64134794 1.5060567 0.9184423 1.1033494 1.5615716 1.3741655
1.1304233 0.62516797 1.649029 1.3181173 0.92296845 0.9953045 1.2289748 0.738325
1.0564313 1.2273513 0.9336303 1.1729399 1.0538999 0.5149338 1.16818 1.0684848
1.3405508 1.1081169 1.2427988 1.1330272 0.6885465 0.73332167 1.2002794 0.9356022
1.1287576 0.6658075 1.2425437 1.3989309 1.6342504 1.2379677 1.6731026 1.0371573
1.1233875 0.42384815 1.3578836 1.2224237 1.1555003 1.4496974 1.1702456 1.4058744
0.65733653 1.1040118 1.2835644 1.363256 1.0625525 1.0241971 1.4928894 1.461739
1.7195443 1.2337496 1.1811912 1.414018 1.3395298 1.210959 1.1398835 1.0680336
1.023964 1.2872 1.0387002 1.2995008 0.6782619 1.2741504 0.89851785 1.1954674
1.2080092 1.0979948 1.2775335 1.3353801 0.9945598 1.190739 0.79408276 1.176457
1.2272242 1.0693384 0.3317166 1.3986057 1.3063589 1.2135899 1.4511733 1.2562984
0.8136686 1.3698304 1.2468535 1.273709 1.0852567 1.1945338 0.7866523 2.1234164
1.0158905 1.1308409 1.2423112 1.4396 0.82279986 1.2952578 1.3985763 1.2154638
1.4763364 1.3392458 1.510259 1.3683153 1.109114 1.0592535 0.65451175 1.2093167
1.4295646 1.408505 1.7585696 1.0997995 1.0084581 0.98843336 1.2453196 1.6004503
1.2599436 2.0044417 2.498183 1.3397752 1.0466737 1.2269 1.178183 1.1514926
1.0974355 1.0794843 1.1386743 0.9353836 1.5615875 1.4399648 1.277736 1.6983407
1.4028077 0.724494 1.4033067 1.1078408 1.5774004 1.1782886 0.93063337 1.597912
0.974894 1.6828214 1.5022583 1.6004828 1.6306885 0.70394343 1.35254 1.691375
1.3294016 0.7710346 1.0204649 1.1636705 0.6986442 1.7126703 1.1196134 1.3545561
1.4830457 1.1260376 1.056518 0.6818827 1.1369752 0.5429416 2.0069628 1.4390502
1.2698952 0.75626725 1.673803 1.153174 1.2653726 1.6474875 1.0528835 1.226191
1.063484 1.2864542 1.1933863 1.1509584 1.5021437 0.9415027 1.4591299 1.3721409
1.1016318 0.88967276 0.9872621 1.5777316 1.1571641 1.4630718 1.181801 1.1088258
1.2463024 1.3180203 1.1090554 1.2730643 1.4824564 1.5981619 1.0914204 1.1424263

shared_ln.bias f4 [512]
00000000: cf11 febd a90e c2bd 68aa 0abe 099c 6cbe
00000010: eb56 dabe 3f38 f8bd 0ecf 23bd 04dc 30be
00000020: b8ff 16be 143e a7bd 0ecf 99bd 0be4 29be
00000030: 9da2 32be e8f2 e5bd 2b44 17be ce2a 03be
00000040: 8c0c 46be b2eb c7bd 5003 72be 08e7 13be
00000050: dc8d a83c 5b06 e9bc 7ecd 2abc d428 05bc
00000060: 22df 1bbd b9fe d2bc 8eac 82bd 755d 40be
00000070: c8f5 54be f504 55bd f28d a1bd 6b64 b2bd
00000080: 6f40 0cbe baa6 e7be f7e9 4cbe 6db8 21bd
00000090: 6183 f0be 93de 1dbe e8af c9bd 0f8d febc
000000a0: f9ad 72be 04d0 88be cef1 40be 76ad 54bd
000000b0: 53fb 47be 301d cdbd 95c2 44be eb0e 19bd
000000c0: 2a08 08bf a18b 09be 7a01 52be e217 36be
000000d0: a8bf 02bd 55b2 58be 8a08 35be fbee 05bc
000000e0: a795 84be cc7b 8ebe e456 93be 6eb1 04be
000000f0: f4ce 49be 4f08 37bd b5f0 b5bc b00e c7bd
00000100: 0fb0 57be 2df7 bcbe 9b33 37be 8822 b7bd
00000110: 1249 86be 6ca7 17be 51a6 1ebe 824f 66be
00000120: 9e99 eebd e0dd 95bd 862b 1cbe c440 d0bc
00000130: 77d7 3fbe 6163 f0be 181f eebd c201 97bb
00000140: d1da b9bd c563 31be aa84 07bd 8ef9 fcbd
00000150: 97b3 acbe b207 64be 6464 0cbd 382a 0cbe
00000160: 0242 abbd 482e adbe 22e8 95bd 09d0 23be
00000170: 56a2 a2be cc35 22be 5ef2 d0bd f316 a8bd
00000180: b1e2 8ebc bb7f 03bf 51b9 1bbe bef0 94bc
00000190: 30bf 7ebe 5861 6bbe ec3a 9dbd cb3a f9bc
000001a0: 59e9 a1be 03a3 60bd 3852 22bd 09d9 b9bd
000001b0: 4b5d 4abe 22ed 30be 7636 743d f925 eabd
000001c0: 8991 bcbd dcbd a8bd c840 d7bd cbb8 b0bd
000001d0: 02ec 75bd 5a00 c4bd 8931 f9bd f07d edbd
000001e0: d7a5 4ebe b8e4 e5bd 9bac 04be 51df 50bd
000001f0: c1bd d9be 6c47 91be e0cb 40be c1ed 9abd
00000200: 9d47 a4bd afe9 5bbd 6ff2 57be f550 04be
00000210: 4538 53be b8e2 11be 7e0b 7ebe cf66 a7bc
00000220: ad7c 0fbe e05e 41be f915 1ebf a7ff e4bd
00000230: bdc2 ebbd e792 48bd 255e 90bd 9dee 2abd
00000240: c4fb 2cbe f333 e5bc 7de1 2ebd a034 93bb
00000250: 2b72 17be f904 44bd 7dc4 32be a642 04be
00000260: ea98 98bd 1731 19be 72cb a6bd 3a64 2cbd
00000270: f659 b4be 11d8 f8bd 824c c1bd d44c 32be
00000280: 0adb cebd 18ec 0dbd ce7d 553c 31c0 4bbe
00000290: 4065 07be 5415 1dbe f977 abbe 815a 19be
000002a0: 276c 92bd 0f37 37bd dcd7 52bd 11da 16be
000002b0: 9874 45be 095a 5fbd 923f 13be ed11 f4bd
000002c0: 9c46 f5bd d4ed 2abe df2b ccbe 5051 1cbe
000002d0: cebd 10be 9635 67bd c708 a7bc 01e5 b9bd
000002e0: d7f0 0abe acdb 21be b418 08be a139 54be
000002f0: 95ff f8bd c409 be3d 9f0a 61be 9c04 d3bd
00000300: 0d03 56be 389b 5ebe e552 0cbe a747 1ebe
00000310: ea73 0fbe 0bdd 17be 3504 06be 0ac2 68be
00000320: 4d4b 36bd 47f6 5bbe bbfd a6bd 8059 89be
00000330: 20c8 20be c51f 9bbe cd6e 82be 5d17 05be
00000340: 1d37 d4bd 5df3 90be 38e4 38be 625b 81bc
00000350: 0e89 85be 8321 00be 9234 1fbe d6b1 6dbe
00000360: f879 dfbd b610 bfbd 00af b4bd 9bf7 8cbe
00000370: 5c0a f6bd 889c ecbe e25d a7be 94ed 51be
00000380: c47d d9bd ddad cbbe 5204 75bd 44eb 48bd
00000390: c313 21be 9d11 ccbd 3db6 4abe 7671 97bd
000003a0: 7826 d8bd 723f 5bbd 9be3 b8bc 76ec 45be
000003b0: 1648 eabd d6e3 2cbe 6268 25bd 0d2a 6ebe
000003c0: fb54 0abe 09e1 17be b363 3ebe dbcf 0ebe
000003d0: 86b6 94bd 4a63 06be 1117 05bd 739c 62be
000003e0: 0825 8abd abe0 cabd 0772 19be 8548 9d3d
000003f0: 958f 263d 825d 01be 4206 01be 46e6 7abd
-0.124057405 -0.094754525 -0.13541567 -0.23106398 -0.42644438 -0.12120103 -0.039992385 -0.1727143
-0.14745986 -0.08166137 -0.07510196 -0.16590898 -0.17444845 -0.11227971 -0.14772098 -0.12809297
-0.19340724 -0.09761752 -0.23634076 -0.144436 0.020575456 -0.028445413 -0.01042497 -0.00812741
-0.038054593 -0.025756227 -0.063805684 -0.18785651 -0.20796883 -0.05200668 -0.07888402 -0.087105595
-0.13696454 -0.4524439 -0.20011126 -0.039482523 -0.46975234 -0.15416937 -0.098480046 -0.031073121
-0.23699178 -0.26721203 -0.18842241 -0.051923238 -0.19529466 -0.10015333 -0.19214852 -0.037367743
-0.5313746 -0.1343217 -0.20508376 -0.17782548 -0.03192106 -0.21161778 -0.17679039 -0.008174653
-0.25895426 -0.27828825 -0.2877723 -0.12958309 -0.19707853 -0.044685658 -0.022209505 -0.09719598
-0.21063255 -0.3690733 -0.1789078 -0.08942133 -0.26227623 -0.1480996 -0.15493132 -0.22491267
-0.11650394 -0.0731771 -0.15250978 -0.025421508 -0.18734537 -0.4695082 -0.116270244 -0.004608364
-0.09074939 -0.17323215 -0.033085503 -0.12352286 -0.33730766 -0.2226856 -0.034275427 -0.1368798
-0.08362199 -0.33824372 -0.073196664 -0.15997328 -0.31764477 -0.15840834 -0.10202478 -0.08207502
-0.01744208 -0.51366776 -0.15207411 -0.018181201 -0.2487762 -0.22986352 -0.07677254 -0.030423542
-0.31623343 -0.05484296 -0.03962919 -0.09074599 -0.19762151 -0.17277959 0.05962225 -0.11433024
-0.09207446 -0.08239338 -0.10510403 -0.086289965 -0.060039528 -0.095703796 -0.12167651 -0.11596286
-0.2018045 -0.11225265 -0.12956469 -0.05099422 -0.42527583 -0.28374803 -0.18827772 -0.07564879
-0.08021472 -0.053689655 -0.21088575 -0.12921508 -0.20626934 -0.14246643 -0.24809071 -0.020434765
-0.14012404 -0.18883848 -0.6175228 -0.11181574 -0.11511753 -0.048968222 -0.07049207 -0.041731466
-0.16892916 -0.027978873 -0.04269551 -0.0044923574 -0.14789645 -0.047856305 -0.17457767 -0.1291605
-0.07451041 -0.14960133 -0.08144273 -0.04208777 -0.35224885 -0.121505864 -0.09438421 -0.1741212
-0.10100372 -0.034648985 0.013030482 -0.19897534 -0.13222218 -0.15340167 -0.3348997 -0.14975931
-0.07149535 -0.044730242 -0.05147539 -0.14731623 -0.19282758 -0.054529224 -0.14379719 -0.119174816
-0.11976358 -0.16692287 -0.3987722 -0.15265393 -0.14134905 -0.056447588 -0.020389928 -0.09076882
-0.13568436 -0.15806454 -0.13290673 -0.20725109 -0.121581234 0.092792064 -0.21976708 -0.103036135
-0.20899601 -0.21738899 -0.13703497 -0.1545702 -0.14009061 -0.14830415 -0.13087542 -0.2273027
-0.044505406 -0.21480666 -0.08153864 -0.26826096 -0.15701342 -0.30297676 -0.2547516 -0.12997194
-0.103620745 -0.2831067 -0.18055809 -0.015790645 -0.26081127 -0.12512784 -0.15547398 -0.2321237
-0.109119356 -0.09329359 -0.08822441 -0.27532658 -0.12013695 -0.46213174 -0.32688814 -0.20500785
-0.10619691 -0.39781085 -0.059818573 -0.04905249 -0.15730195 -0.09964297 -0.19796081 -0.07394688
-0.10554212 -0.053527303 -0.022569468 -0.19328484 -0.114395306 -0.16883788 -0.04038275 -0.23258229
-0.1350898 -0.14831938 -0.1859272 -0.13946478 -0.07261376 -0.13123813 -0.0324927 -0.22129993
-0.067453444 -0.09906133 -0.14984904 0.07679848 0.040664274 -0.12633327 -0.12600043 -0.061254762

actor_fc.weight f4 [6, 512]
00000000: e1bb b23e c44b 0d3c 4318 263e b94d 053f
00000010: ea56 7a3d 4e0f ba3d 506e 483e bd13 4c3e
00000020: 33a4 ba3d 358c bcbe bc7f 973d 1bdd 823e
00000030: 205a 063e 9005 bc3d a78b f23d 709c d1b9
00000040: b8ba 1c3f 2973 0e3e 9004 143f e6d3 ea3d
00000050: df65 2f3e 8ca6 7e3e 7d3b 113d 2f10 adbd
00000060: 6196 293e 243a 0c3f 8b2a 783e d83c a03d
00000070: 870c 743d f1e1 9ebe c764 40bc 1ec0 df3d
00000080: 7a2f 3d3e 52fe 1d3d 1617 02bc 9a5e 733e
00000090: 3181 343d 0b68 bdbe f110 063f 502b 293e
000000a0: 9924 0d3e ede9 40bd c8eb b83e babb ae3d
000000b0: 25cd 633e 7dff 303d 50ae 3dbe d37f c73e
000000c0: 9a83 233d cc6b ecbd 9820 083e 09bc ac3e
000000d0: d2c1 623d 58d7 d2be fcfe ad3c f55e 2c3f
000000e0: 95aa 1f3e a247 ecbc b46b 3a3d 385e d63d
000000f0: 05d3 a7bd 37a4 553e d28f 213e aaa6 153e
00000100: 11ee b73e 77c5 8c3d 4445 20bf f7dd cdbd
00000110: a559 293e 6c06 103e 86d2 ea3d 9c28 8e3d
00000120: f612 683e 2be6 32be d3f8 003c db19 5abe
00000130: 6195 91bc 95f4 fd3c b99b 6ebd 2d48 0d3e
00000140: 070a 9abe 5b6e 2e3e 03bd 29bd 64c2 773e
00000150: d5c8 1a3d d44d 1b3d 414e 4dbe ee2a 293e
00000160: 65a3 1d3e 03e2 853d 5db0 a63d 3755 a73e
00000170: 42da ed3e f54f b4bd 1c12 483e fba5 a63d
00000180: 2764 2d3e d368 393c ddbf 173d b794 383e
00000190: cbbf d53e 26cf be3d 0296 473e 06c0 d7be
000001a0: b72b 393d 6669 393e 0df6 6ebd 93f8 023f
000001b0: d1a8 843e 70b7 223e eebf 0fbf 1ac9 a7bd
000001c0: 0eec 3bbe 6e63 8bbe a749 41bc 0a06 013e
000001d0: 969f bf3d 4ea7 373e 2d0b 993d 1fae 593e
000001e0: 22ea dfbc e40a 31be 1b14 debd e200 b73e
000001f0: b721 b63b 6984 04bf d86d 97bc e50e 1b3e
00000200: bfc4 493e 17ef 54bd e1d3 d83d ce1c 983e
00000210: 688a 853c 57f7 5fbd 81d0 bc3d 8ca2 9ebd
00000220: ecfe 6a3d 46cb 113e 90d0 973d 854b 073f
00000230: 3ad3 5e3a c566 4dbe 57d2 cbbc b119 89be
00000240: bf3d 9d3d 0cbf edbc 79e3 aa3e 378b a3bd
00000250: ea04 42be 4bdf 073e 7caa 7d3d cd80 373d
00000260: cd93 d93d 07c5 8e3e b551 893e a825 5dbe
00000270: 200d 053e a7b0 31be fd77 e83e b406 7c3e
00000280: 4b92 15bf 5b6c c4bb f729 e53e 2b82 d83e
00000290: 1e8c 0d3e eaf1 3a3e b923 d33d 0669 97be
000002a0: 3d7c 13b9 aa6f bc3e 15b2 1bbf e6cb 763d
000002b0: f9e4 d4bb 9463 b73d 6bf3 bfbd 2359 1abe
000002c0: b430 41bd 36ab a73e 90b7 053f af52 953d
000002d0: d7c9 f43d 1527 9fbd 08f4 233e c4e4 6ebe
000002e0: 428e ff3d ae7e 683e 58d0 283e c97c 4a3e
000002f0: c723 c93e f441 e1be 30c1 383e 05fc 2dbf
00000300: f67d 013f c1c2 633d b392 c9be 0dea 533d
00000310: edd4 18be d340 6e3e 5dd8 043d 3fef 763d
00000320: 29ca 243d 55c8 dc3d 1e48 86be 9bf6 35bf
00000330: cbd9 04bd a7bf 913d 3635 913e 4a5d 163e
00000340: 76f5 81bd 1437 bd3d b7b4 3f3e 484e 453e
00000350: a5c0 733d 15e9 36bf a5ab 8b3e 7e83 4e3e
00000360: 688b babe fea8 24bd 4827 3c3e 40c1 803d
00000370: be13 7f3d 7e90 b33c 5f4d 253f 066c 0abf
00000380: 2476 b73e bf7e 9bbc f25a 7dbe 2d23 8b3e
00000390: f480 643d 36bd 173f c916 493e 769d ff3d
000003a0: 58c1 8dbd 87bf 6c3e 9f35 4a3e 9c3a 213e
000003b0: dc92 df3e b4f3 65bd ba58 2f3d 19ed c5bd
000003c0: 2356 8abd a3ee a23d fcb0 1b3e af00 8cbd
000003d0: 0bef 27be 181e 5bbe a2ea 6bbd 7243 b63e
000003e0: edda 1bbe 1645 933e e254 983d ab59 23be
000003f0: 24fd 88be 2d37 b4bd 2050 023e eae9 733e
0.34908965 0.008624021 0.16220193 0.5207172 0.061118044 0.090849504 0.19573331 0.19929405
0.0911335 -0.3682572 0.0739741 0.25559315 0.13120317 0.091807485 0.11843043 -0.0003998014
0.6122241 0.13911118 0.5781946 0.11466198 0.17128704 0.2486822 0.035457123 -0.084503524
0.16561271 0.54776216 0.24234979 0.07824105 0.05958226 -0.31031755 -0.011742777 0.10925315
0.18475142 0.038572617 -0.007940074 0.23766556 0.04406852 -0.3699344 0.523696 0.16520429
0.13783492 -0.04709809 0.36117387 0.085319 0.22246225 0.043212403 -0.18523526 0.3896471
0.039920427 -0.11543998 0.13293684 0.3373721 0.055360623 -0.4117992 0.02123975 0.6733239
0.15592416 -0.028842751 0.04551287 0.104671896 -0.08194546 0.20863424 0.1577752 0.14614359
0.35923818 0.06873601 -0.6260569 -0.10052102 0.16538103 0.1406495 0.114659354 0.069413394
0.22663483 -0.17470615 0.007871824 -0.21298926 -0.017771425 0.031000415 -0.058253977 0.13797064
-0.30085775 0.17034285 -0.04144002 0.24195248 0.037789185 0.03791602 -0.20049383 0.16520283
0.15394361 0.06537249 0.081391074 0.326822 0.4645558 -0.08804313 0.19538158 0.08137127
0.16932736 0.011316496 0.03704821 0.1802548 0.4174789 0.09316854 0.19490817 -0.4213869
0.045207705 0.18106613 -0.05834012 0.51160544 0.25910047 0.15890288 -0.56152236 -0.08192654
-0.18351766 -0.27224296 -0.011797345 0.1259996 0.093566105 0.17934915 0.07472835 0.21257828
-0.027333323 -0.1728931 -0.108436786 0.3574286 0.0055582183 -0.5176454 -0.018484995 0.151424
0.19703959 -0.051985826 0.10587288 0.29709476 0.016301349 -0.05467924 0.092194565 -0.07745847
0.05737202 0.14237699 0.07412827 0.5284961 0.0008500103 -0.20058735 -0.024880571 -0.26777413
0.07677793 -0.029021762 0.33376673 -0.079855375 -0.18947187 0.13268773 0.061930165 0.04480057
0.10623894 0.27884695 0.2682015 -0.21596396 0.12993288 -0.17352544 0.45404044 0.24611932
-0.5842635 -0.0059943623 0.4475858 0.4228681 0.13822982 0.18256345 0.10309548 -0.29572314
-0.00014065295 0.36803943 -0.60818607 0.060253046 -0.006497022 0.0895454 -0.093726 -0.15073065
-0.047165588 0.3274781 0.5223322 0.07291161 0.119525604 -0.07771126 0.1601106 -0.23329455
0.124783054 0.22704574 0.16485727 0.19774164 0.39285108 -0.4399563 0.18042445 -0.67962676
0.50582826 0.055605654 -0.39369735 0.05173688 -0.14924975 0.23266916 0.032432903 0.060286757
0.040231857 0.10780398 -0.26226896 -0.71079415 -0.032434266 0.07116633 0.2836091 0.14684024
-0.06345646 0.09239021 0.18721281 0.19268143 0.059509892 -0.71449405 0.27279392 0.20167348
-0.36434484 -0.040200226 0.1837436 0.062868595 0.062274687 0.021919485 0.64571184 -0.5407108
0.35832322 -0.018981336 -0.24741724 0.27175274 0.05578704 0.5927309 0.19637598 0.12481205
-0.06921643 0.23119937 0.19747017 0.15745014 0.43666732 -0.056140617 0.042809226 -0.096643634
-0.067547105 0.079556726 0.15204233 -0.06836068 -0.16399781 -0.21398199 -0.05759681 0.35598332
-0.15220232 0.28763646 0.07438065 -0.15952174 -0.2675563 -0.087995864 0.12725878 0.238197

actor_fc.bias f4 [6]
00000000: 5438 9d3d b551 85bc 343c 1f3d 3650 0a3d
00000010: dd59 82bd c8bd c93d
0.07676759 -0.016274313 0.038875774 0.0337679 -0.06364796 0.09850651

fc1.weight f4 [512, 192]
00000000: c150 2c40 e650 bb3e 0c3f fc3f 3199 d13f
00000010: 861a b640 f631 a440 abbd ddbe 12b1 36bd
00000020: 9eb2 cdbf e22e 693e 43b8 14bd 3d27 c3bc
00000030: c5d7 a4bf 4356 4540 e176 15bd 5670 8dbd
00000040: e008 d3bf c8d6 0abd 0651 4740 18d6 dc3f
00000050: 3b9e 0a3d 4e6f 9cbc d6b2 5840 fd93 473f
00000060: fba1 5140 beab bebf d318 163f 448c 303f
00000070: deb9 92bc 2239 3d40 dace 1440 1525 25bf
00000080: 5637 1a40 baa7 8d3f 6f4c 3c40 1f81 9b3f
00000090: 5fc9 3640 c7dd 4c3e 89af 3f3d 1b5b d73f
000000a0: 5977 503f 8f3b aabe e6eb 1f40 48f5 f53f
000000b0: 3caf 1e40 bf53 8b40 7fe9 f13f f9ea a93f
000000c0: 0119 f53e d1d4 3740 1f4a 5e3f 43a4 3940
000000d0: bc16 ee3f ecbc cdbc b5ce 1fc0 4aaa 04c0
000000e0: baa4 313c c31c 10bd 7c21 1ac0 63ec 4340
000000f0: 7997 703c 4ad6 4cbd 9e9a 57c0 30c3 553d
00000100: db2b d43f b536 dd3f 07a0 293d 9458 233d
00000110: ba03 7440 4ef1 b03f ce67 3440 ae96 50bf
00000120: 47da 2a3f 8649 b13f db50 933d 11ac 5940
00000130: e5d1 ccbe 0297 2fc0 2eb2 3540 51f0 eb3f
00000140: 5619 2040 374f 6abd 4068 ee3e ba00 8b3f
00000150: 3750 983b 6b72 c33f 6d53 1d40 bb78 84be
00000160: f028 3a40 1a12 1240 6850 2740 bfe1 0240
00000170: 9278 9d3f 5806 943d 9a29 4240 6e69 6040
00000180: f54c f03f 6926 a53f 3f0b ec3e 83a0 3240
00000190: af03 603f 4f24 3640 4aa9 e93f eedb 2b3d
000001a0: 77e7 1cc0 0a65 05c0 07e8 423d 41fc 54bd
000001b0: d086 21c0 5133 4740 cadc 0abc e01c 6c3d
000001c0: 285d 54c0 1837 423b e3b4 c93f 07b4 dd3f
000001d0: d405 55bd c6d2 20bc c448 6e40 c6ba a43f
000001e0: a4a9 3a40 3216 49bf 13a9 233f 6e19 b43f
000001f0: ede6 ea3b 15c8 5540 5f90 aabe 0289 2fc0
00000200: 240e 3440 11a0 e43f da60 1840 50f2 debc
00000210: 52b2 063f f56a 7c3f 67ca 93bd 6beb b53f
00000220: 7d98 1b40 b3cd 8bbe 243b 3b40 1ee5 0d40
00000230: 66b5 2540 ce88 0940 7f60 2940 7807 a33e
00000240: 8ed4 0040 e380 c73f 22b4 b940 1843 a240
00000250: 31ec b2be d6cc 40bd a4b7 c7bf a766 823e
00000260: 490d 093d 6ee9 623d 270a a7bf 43b1 4a40
00000270: 9e30 663d 2c80 cb3c e4c3 d9bf 0862 70bc
00000280: 3488 4940 7a3c cd3f 6194 c83c 2ebd 873c
00000290: 321e 5940 27f5 4e3f 1db2 5540 f4f9 afbf
000002a0: 7316 193f fa44 403f a44d 3a3d 8451 3f40
000002b0: 800b 1140 ef3d 34bf 9a15 1740 2a84 8f3f
000002c0: 3325 3840 472a 8f3f 9be0 3b40 fb0d c63d
000002d0: 7497 52bd 899d dd3f 01f0 713f 13d4 97be
000002e0: 92f2 2140 3c06 ef3f 3c21 1f40 754f 8e40
000002f0: 76d5 92bf ae1f 25be 9ffd 6940 60f3 6840
00000300: 4e39 5640 efcb 4740 03be 3240 eae8 8640
00000310: 02db 813f 5b26 7040 5a4c 5d40 1d71 ed3c
00000320: 9bb3 2ec0 c22f 33c0 71db ab3c 8950 843d
00000330: 0d64 edbf 72aa 8a40 4fdf 813d 3725 773b
00000340: 7f2f e6bf f5fe 7f3c 8b34 9a40 1d13 3b40
00000350: 83d1 373d 71a4 77bd 193d ce40 0c08 8b3f
00000360: 10c9 2e40 cbbc c1be 8f97 fabf 2218 243f
00000370: b149 7abd 5900 8940 2df8 2b3f b44e 1cc0
00000380: 422f 7640 20ac 1140 cf81 fd3f 8bfc 393e
00000390: 8dd2 b73e 9697 053e 737c c3bc 6952 0e40
000003a0: fb0d bb3f 755b 78bf 16d9 7940 13d5 0b40
000003b0: c4d0 5a40 3b75 8140 54e6 7240 40ec 3640
000003c0: 3e17 2740 aeaf 8b40 49eb 74bf 45f2 1c40
000003d0: 9d46 7c40 deeb 8bbd 6e67 3dc0 0864 29c0
000003e0: 6c7c 833d c66d 52bc 4e9d fdbf 844f 5e40
000003f0: 680a 503d 210b 91bb ac87 32c0 2055 683d
2.6924288 0.36585158 1.970674 1.6374875 5.6907377 5.1310987 -0.43308768 -0.04460246
-1.6070135 0.2277179 -0.03630854 -0.023822421 -1.2878348 3.08339 -0.036490325 -0.06906192
-1.6487083 -0.033896238 3.1143203 1.7252836 0.033842307 -0.019096043 3.3859153 0.7796019
3.2755115 -1.4896162 0.5863163 0.6896403 -0.017910894 2.956612 2.3251252 -0.6450971
2.4096274 1.1066811 2.9421651 1.214878 2.8560407 0.20006476 0.046798263 1.6824678
0.8143211 -0.33248565 2.498773 1.9215479 2.4794455 4.353973 1.8899382 1.3274833
0.4787064 2.8723643 0.8683185 2.9006507 1.8600688 -0.025114499 -2.4969914 -2.0728936
0.0108424965 -0.03518368 -2.4082937 3.061303 0.014684551 -0.05000905 -3.368812 0.0521881
1.6575884 1.728232 0.04141238 0.039879397 3.8127275 1.382364 2.8188357 -0.8147992
0.66739315 1.3850563 0.07193156 3.401127 -0.40003887 -2.7435918 2.8390002 1.8432714
2.5015464 -0.05720445 0.4656391 1.0859597 0.004648234 1.5269293 2.458217 -0.2587336
2.9087486 2.2823548 2.6142826 2.0450284 1.230242 0.072277725 3.0337892 3.506435
1.8773485 1.2902347 0.4610233 2.7910469 0.8750562 2.845966 1.8254788 0.04195779
-2.4516275 -2.084292 0.04758456 -0.05199838 -2.5238533 3.112507 -0.008475492 0.057644725
-3.3181858 0.002963489 1.5758327 1.7320565 -0.05200751 -0.009815877 3.7231913 1.2869499
2.916604 -0.7854949 0.6392986 1.407026 0.007168642 3.340337 -0.3331327 -2.7427373
2.813363 1.7861348 2.3809114 -0.027215153 0.52615845 0.98600703 -0.072163396 1.4212469
2.4311821 -0.27305374 2.9254847 2.2171092 2.5891967 2.148975 2.6465147 0.31841636
2.0129733 1.5586208 5.803239 5.07069 -0.34945825 -0.047070347 -1.5602918 0.25468943
0.033459935 0.055398397 -1.3049973 3.1670692 0.05619871 0.02484139 -1.7012906 -0.01467181
3.1489382 1.6034081 0.024484815 0.0165697 3.392468 0.8084282 3.3389962 -1.3748155
0.5979988 0.7510525 0.0454842 2.9893503 2.266327 -0.70407003 2.3606935 1.1212208
2.8772705 1.1184777 2.9355838 0.09670635 -0.05141397 1.7313701 0.9450684 -0.29653987
2.5304303 1.8673778 2.4864035 4.4471993 -1.1471393 -0.16125366 3.6561048 3.6398544
3.3472476 3.121822 2.7928474 4.215932 1.0144961 3.752341 3.4577851 0.0289846
-2.7297122 -2.79979 0.020978661 0.06460673 -1.8546158 4.3333063 0.06341421 0.003771139
-1.7983245 0.015624751 4.818914 2.9230416 0.04487754 -0.060459558 6.444958 1.0861831
2.731022 -0.3783935 -1.9577502 0.64099324 -0.061105434 4.2812924 0.6717556 -2.4423037
3.8466344 2.2761307 1.980524 0.18162744 0.35902825 0.13046107 -0.023863053 2.22378
1.4613642 -0.9701455 3.9038749 2.18488 3.418992 4.0455604 3.795308 2.8581696
2.6107936 4.3651953 -0.95671517 2.452287 3.94181 -0.068320975 -2.9594378 -2.6467304
0.06420216 -0.012843555 -1.981363 3.4736032 0.050791174 -0.0044263755 -2.7895308 0.056721807

fc1.bias f4 [512]
00000000: 4916 7740 5f78 dd40 09c1 ce40 b2a5 8440
00000010: 380d 3140 7344 0f40 1087 3a40 6374 e340
00000020: e7a6 6b40 eb4a bc40 87b2 6440 3d1d 4e40
00000030: b50b 5a40 6765 3340 5dc4 e240 c8f5 0441
00000040: 5034 0840 eece d240 181b f440 2afd ec40
00000050: cf42 3340 71df 4740 38ae c040 d80d d540
00000060: ffc2 d340 7f5a 6a40 3ee3 e740 f45f e040
00000070: 54c7 8e40 b674 1440 e833 4c40 3456 5c40
00000080: a9f3 e540 2d9d d640 0556 9e40 7bb1 e840
00000090: 2ddc b440 870a 8c40 8a0d b440 7e30 b340
000000a0: d91c 3940 4d61 9340 cc30 b940 c43e 3440
000000b0: 39a5 4940 8240 e540 01b1 e140 dfcb d640
000000c0: c39f b440 a3ee de40 0f13 a940 bdbc 9e40
000000d0: 9e56 cc40 d7e6 8940 90e2 4940 3d72 3140
000000e0: c727 7b40 028b f140 4f01 8740 0758 9b40
000000f0: 0c34 0040 0a8a db40 c929 8340 8f90 c040
00000100: 5c8b 9640 6f8c 7540 10d7 de40 ff84 be40
00000110: a94c 7240 ddea 5440 de9c 8940 118e 8a40
00000120: e0ff 5b40 82df b040 c05e 4a40 7faf db40
00000130: 17f4 9c40 50a7 c940 508f 7f40 1944 8940
00000140: da7b b840 daa6 3c40 ec9f 4040 2a66 9940
00000150: 5762 e540 0261 8d40 126a 9140 da94 0c40
00000160: 917b 8a40 ab6e ac40 f5b4 8740 6dfc e340
00000170: 7c30 4b40 b70c 9d40 5d7f 9c40 0df5 eb40
00000180: e31a dd40 0f55 e640 57fd e140 5d78 7a40
00000190: 2a37 ce40 ce5d 6140 b163 ee40 aa04 c440
000001a0: 7961 7d40 6a05 3b40 b37f 0540 44b9 b140
000001b0: bcd3 da40 babf 9740 1fa2 4a40 ae2f ef40
000001c0: d2bb 6940 8f72 e940 77c6 8040 4f2a e240
000001d0: 4a72 6b40 f463 ea40 28dd a140 ffa8 d940
000001e0: 2dd5 4640 cb9f f940 51e3 da40 74be 2740
000001f0: e8b9 5940 3c6d d040 c7be e640 174e a440
00000200: df66 2740 c02d de40 4935 e640 6f3c ed40
00000210: 04eb e740 3f94 5440 9818 8640 1670 0b40
00000220: 0d95 dc40 603b 4a40 467e 6840 077f e740
00000230: 66a9 ef40 ba97 9e40 b7aa e440 f618 ea40
00000240: ef67 3940 e6b4 0d40 bc6e 8940 356b 7d40
00000250: 491f ed40 0b3f ed40 6c00 e340 689a ab40
00000260: 5ba2 1b40 02e2 7340 8d42 7a40 ef3d 8c40
00000270: 8024 de40 010e 0441 b737 cc40 e620 6140
00000280: 4be5 bc40 a232 6840 7767 fc40 dddb 2740
00000290: b8ca 0f40 208a da40 0522 e540 19ee d140
000002a0: 6db5 9240 4764 de40 d45b 5d40 023c b740
000002b0: 9394 9740 665e e240 0bf6 4b40 e86c e640
000002c0: f573 b640 dc5b e440 c78e 6d40 54f2 bb40
000002d0: a341 e840 cad8 f240 27b0 4c40 e81b ab40
000002e0: 2621 8940 a665 be40 b4dd 1240 679e e840
000002f0: 5b19 c640 c01a 6840 3233 e740 fda9 ef40
00000300: bc10 6140 5392 4740 fce6 4a40 9a05 8a40
00000310: 5c5b 0f40 85e7 d540 ab10 6540 9817 7c40
00000320: 17de 6340 67ce a740 32ab e73f a55b 4240
00000330: f2e3 f740 f15f af40 de74 e440 cb80 e640
00000340: dd5a f140 9cd1 e040 fa25 2b40 594a 8740
00000350: 9f2f 3840 f270 1f40 04f7 e140 113d d940
00000360: 1620 c740 6483 6940 6746 e240 e2d9 d940
00000370: 0c2e c540 c0e3 2140 9554 cd40 7acb 7540
00000380: 324b 6e40 52e9 6240 8b56 e240 f897 7140
00000390: 818d ed40 1c46 d540 21df e640 1036 6f40
000003a0: ca64 d940 bfb2 e740 9e58 e040 2fb5 7440
000003b0: b736 ea40 f87b db40 6965 8b40 0b18 d040
000003c0: 394d ed40 1f86 8e40 b2e3 0040 2bdd 3840
000003d0: 0740 c840 2d3e ee40 9bd2 5e40 b952 2940
000003e0: 6c7a 8140 e2ea 3940 fbf0 ac40 695e 3640
000003f0: 4a78 6640 f8f4 8040 03ff 7f40 5644 d440
3.8607352 6.9209437 6.461064 4.1452265 2.7664318 2.2385528 2.9144936 7.1079574
3.682062 5.8841453 3.5733964 3.2205346 3.4069645 2.803064 7.08647 8.310005
2.128193 6.58776 7.6283073 7.405904 2.8009527 3.1230128 6.021267 6.65794
6.617553 3.6617734 7.2464895 7.011713 4.461832 2.3196235 3.190668 3.4427614
7.1859937 6.7066865 4.9480004 7.271665 5.651877 4.376285 5.6266527 5.5996695
2.8923857 4.6056275 5.7872066 2.816331 3.1507094 7.1641245 7.052857 6.7123866
5.644502 6.9666305 5.2835765 4.9605393 6.3855734 4.3094287 3.1544533 2.7725976
3.9243028 7.5482187 4.2189097 4.8544955 2.0031767 6.8606005 4.0988507 6.0176463
4.7045116 3.8366964 6.9637527 5.953735 3.785929 3.326835 4.300399 4.329842
3.4374924 5.5272837 3.162033 6.865173 4.904796 6.301674 3.993122 4.2895627
5.7651186 2.9476838 3.0097609 4.793721 7.1682544 4.418092 4.544198 2.1965852
4.327584 5.3885093 4.2408395 7.1245637 3.1748343 4.907802 4.8905473 7.3736634
6.909532 7.197883 7.0621753 3.9135964 6.444234 3.5213504 7.4496694 6.1255693
3.9590743 2.9222054 2.0859191 5.5538654 6.8383465 4.742154 3.166145 7.4745703
3.6520886 7.295234 4.0242267 7.0676646 3.6788507 7.3247013 5.0582466 6.8018794
3.1067612 7.800756 6.8402486 2.6209993 3.4019718 6.5133343 7.2107882 5.1345325
2.6156538 6.9430847 7.1940045 7.413627 7.2474384 3.3215482 4.190502 2.1787162
6.8931947 3.159874 3.632707 7.2342563 7.4894285 4.9560213 7.145839 7.315547
2.8969686 2.2141662 4.2947674 3.9596684 7.410069 7.4139457 7.0938015 5.3625984
2.4317844 3.8106694 3.910312 4.3825603 6.9419556 8.253419 6.381801 3.517633
5.90299 3.6280904 7.88763 2.6227944 2.246748 6.829361 7.160403 6.5603147
4.5846467 6.949741 3.4587297 5.726075 4.7368865 7.0740232 3.1868923 7.200794
5.701655 7.1362133 3.7118394 5.873331 7.2580123 7.5889635 3.1982515 5.3471565
4.2852964 5.9499083 2.2947817 7.269336 6.190595 3.6266327 7.2249994 7.4895005
3.5166464 3.118306 3.1703482 4.313184 2.2399511 6.6845117 3.5791423 3.93894
3.5604303 5.2439456 1.809912 3.0368435 7.7465754 5.4804616 7.139266 7.203222
7.5423417 7.025587 2.674193 4.2278256 2.8779066 2.4912686 7.0614033 6.7887044
6.2226667 3.6486444 7.071094 6.807847 6.161871 2.5295258 6.416575 3.8405442
3.7233396 3.5454907 7.0730643 3.7749004 7.4235234 6.6648083 7.2147374 3.7376747
6.7935534 7.2405696 7.0108175 3.8235586 7.319179 6.858883 4.356129 6.502935
7.4156766 4.453872 2.0138974 2.888499 6.257816 7.44509 3.4816043 2.645674
4.046194 2.904961 5.4044166 2.8495123 3.6010919 4.0299034 3.9999397 6.633342

ln1.weight f4 [512]
00000000: df91 0940 c189 5f3e 14a5 7dbd a9a2 9a3e
00000010: 0865 de3e 416d d03f c171 0040 75fc a33e
00000020: 6228 6540 dc78 533e c9fd 8f40 326d fb3f
00000030: 1b29 ef3f 1b0d c63f 0eb8 983e 917c d03d
00000040: d8f0 b53f 1913 d73e 5767 a83e ebaf ae3e
00000050: eb73 903e 3e8c bb3f edc0 0c3e bbe0 bf3e
00000060: 84c1 9b3e 0f3d 213f dfb2 983e f6dc 873e
00000070: 7ce8 0b40 e661 a03f 5c4f cb3e e4b7 c13e
00000080: 9125 a43e 5a33 0e3e dfd9 383f 33ca a63e
00000090: f4c7 9cbc a01f 0f40 94ce 083f cbbe bc3f
000000a0: 868c b53f cd4b b63f 9c6c 0e3f d8ef f73f
000000b0: 9f1b f63f cecc 753e 3551 513e 11a9 503e
000000c0: b047 8a3e e395 8d3e 607b 153d c22b 2b3f
000000d0: e440 093e 8c79 963f fc5b e13f 5348 383f
000000e0: 04ea e73d 4300 9c3e 4462 5a40 f762 6d3e
000000f0: fe72 2d3f 6d97 1fbc a0f5 ec3f 90dd c8bc
00000100: 1e29 783f 7b81 2f3f ad62 9d3e eed7 043c
00000110: 89ff 2140 7897 0540 4944 c93f 76dd 2d40
00000120: 957d f33f bfe9 5b3c 9574 e53f a4f1 9c3e
00000130: f447 ba3f 2fb9 073c 63c7 0940 ce58 053e
00000140: e0b0 ce3d b336 5a3f bc9d 8a3f 0a34 313f
00000150: 4546 7b3e 9656 213e e06b 3640 e207 513f
00000160: 2e5c 2f3f 1685 ef3e b604 d73f 9589 df3d
00000170: 9789 7c3f dedc ba3e dbaa b33d 7794 bd3e
00000180: 9109 ab3e fbbb 343e a6fd a93e e18e a93f
00000190: 995c b53e 7eac 5240 36a9 b83e 7f67 d03e
000001a0: cb79 063e 2a6a 573f a8c3 523f 188b fc3e
000001b0: c266 be3e c599 0e3f 8c9b c53f 4125 ad3e
000001c0: 3990 fc3e de34 133e b263 4f3f 09a1 453e
000001d0: 1e3b 683f 7883 fe3c fb35 853f 5f74 4e3c
000001e0: 6dd8 973f c399 853e 2934 9b3e d99b 913f
000001f0: 0c3a a43e a4c7 e63e 4ddb 953e 6cb6 5b3d
00000200: c16d 803f 6b31 a63e 9457 8a3e 492c ad3e
00000210: 492a 243e 8199 c940 b7fd 503f f35a f63f
00000220: 9d3c 943e de37 553f 7ded 4f40 6ca2 aa3e
00000230: 8d09 783e 8592 0b3e bd59 b23e d766 093e
00000240: 27cd 0f3f c089 c43f aa44 6140 2228 2d3f
00000250: 80a4 ac3e ba30 a63e 5706 a83e c9f0 4f3e
00000260: 9c5c 8e40 5e66 b23f 83b1 bb3f 258a b33b
00000270: b4e3 6d3e 79a6 663e d747 113d e8d4 4040
00000280: f896 e73d 7930 9440 e6c2 6d3d 10d2 f73f
00000290: ffb4 7e3f 63a2 bc3e 5a00 803e 2d47 8e3e
000002a0: 7b30 693f 2ea0 793e fa24 3c3f eb43 ac3e
000002b0: e7ed 513f 5e5c 9a3e 1f88 843f e14f 993e
000002c0: 60a0 693e 5164 9f3e ab98 443d 86fd 603d
000002d0: eef9 a83e b120 813e 4203 be3f 0eff cf3e
000002e0: b52e d63e befe ae3d aedb 8a3f acc7 9d3e
000002f0: 55ed ac3e 3e43 b23f d0d6 bd3c 8894 aa3e
00000300: bbba 4140 4ffe 3140 4157 6c3f 4972 cf3e
00000310: b79e b13f 613c 1f3e eba9 2e3f fcc3 ab3f
00000320: fd11 fa3e 9dcd 8a3c b39b 8f3f e5c0 bc3f
00000330: 5703 743e 8a8c 183e bd07 7f3e fbb3 613e
00000340: 9724 a93e 0182 b03e 5001 f23f 4a7a 2c40
00000350: dfcb 513f 1df1 313f 93c7 9e3e 9d36 8f3e
00000360: a872 103f 4527 0c3f ecc7 783e 9c8e a73e
00000370: 318b 993d dd7d 073f b8cd bc3d 09df a83f
00000380: dd75 1540 f119 3f3f e3ec c23e af7a 7440
00000390: 3b8f ac3e 938f cf3e fd8d 993e 5ce8 723f
000003a0: 3c05 833e 59aa 9c3e cdc6 ab3e 8d55 ab3e
000003b0: 0a78 a13e e912 c83e 330f 0e3f 7e14 783e
000003c0: 24dd a73e b8d5 d23f 30e1 a43f d590 1b3f
000003d0: 3c43 f33e 9f72 a43e abae 4a40 81c4 963f
000003e0: fbf3 c33f 4d37 663f 01a2 6e3d 6100 ef3e
000003f0: 0f3a 0b40 e7b8 1c3f 3e77 513f 8fe3 b83e
2.1495283 0.21829893 -0.06192501 0.30202225 0.43436456 1.6283342 2.006943 0.32028547
3.5805898 0.20651573 4.4997296 1.9642699 1.8684419 1.547275 0.29827923 0.10180009
1.4214125 0.42006758 0.32891342 0.3411859 0.28213438 1.4652174 0.1374547 0.37476143
0.30421078 0.62983793 0.29823968 0.26535767 2.1860647 1.2529876 0.39708984 0.3783561
0.3205991 0.13886777 0.72207445 0.3257614 -0.019138314 2.2363052 0.53440213 1.4745725
1.4183509 1.4241883 0.55634475 1.937007 1.9227179 0.24003908 0.20441134 0.20376994
0.27007818 0.27653417 0.036494613 0.66863644 0.1340366 1.1755843 1.7606196 0.7198536
0.11323932 0.3046895 3.4122477 0.23182283 0.6775359 -0.009740693 1.8512459 -0.024519712
0.9693774 0.68556947 0.30739346 0.008108122 2.5312216 2.08737 1.5723964 2.716642
1.90227 0.013422429 1.7926203 0.30653107 1.4553208 0.008283897 2.1527946 0.13022158
0.1009233 0.85239714 1.0829387 0.6922003 0.24538524 0.15755686 2.8503342 0.81652653
0.6850003 0.46781224 1.6798313 0.109149136 0.98647445 0.36496633 0.087728225 0.37027332
0.33405736 0.17649834 0.3320133 1.3246728 0.3542221 3.291778 0.36066598 0.4070396
0.13132398 0.8414637 0.823298 0.4932487 0.37187773 0.55703384 1.5438094 0.33817485
0.49328783 0.14375636 0.810115 0.19299711 0.90715206 0.031068549 1.0407099 0.012600987
1.1862923 0.26093873 0.30313233 1.1375686 0.32075536 0.4507419 0.29268876 0.053640768
1.0033494 0.32459578 0.27019942 0.3382285 0.16031756 6.2999883 0.8163714 1.9246505
0.28952494 0.8328837 3.2488701 0.33327043 0.24222393 0.13630112 0.3483409 0.13418137
0.5617241 1.5354538 3.519816 0.6763936 0.33719254 0.3245905 0.32817337 0.20306696
4.448805 1.393749 1.4663547 0.0054791146 0.23231393 0.22524442 0.035468902 3.0129948
0.11308092 4.630917 0.058047198 1.9360981 0.9949493 0.3684264 0.25000268 0.27788678
0.910896 0.2437751 0.7349392 0.33645567 0.82003635 0.30148596 1.0354041 0.29943755
0.22815084 0.31131223 0.047997158 0.05492928 0.3300318 0.25220254 1.4844744 0.4062428
0.4183251 0.08544682 1.0848291 0.308164 0.3377482 1.3926771 0.02317372 0.33316445
3.0270221 2.7811468 0.9232064 0.4051688 1.3876561 0.15550376 0.68228024 1.3419185
0.4884185 0.016943747 1.1219391 1.4746367 0.23829399 0.14897361 0.24905296 0.22041313
0.33035728 0.34474185 1.890665 2.694964 0.8195171 0.69508535 0.31011638 0.27971354
0.5642495 0.5474742 0.24295014 0.3272599 0.07497252 0.5292643 0.09218925 1.3193065
2.3353188 0.7464896 0.38071355 3.819988 0.33703026 0.40539226 0.2999114 0.948858
0.2558993 0.30598715 0.3355011 0.33463708 0.31536895 0.39076927 0.5549194 0.24226567
0.32785904 1.6471472 1.2881222 0.6076787 0.47512233 0.321187 3.166911 1.1778718
1.5308832 0.8992813 0.058259968 0.46679977 2.1754186 0.6121964 0.81822574 0.36111113
