project_3/checkpoints/checkpoint_cycle_11_20241025_142013.pt (torch, 624868 bytes, 12 tensors)

shared_fc.weight f4 [512, 96]
00000000: 8aab 86bd a8ff 183e fc50 fd3d 5dad dc3d
00000010: bac5 763e 290a 003e d52c 173e 6b06 b9bd
00000020: 4101 c73d 6654 803d 753e 6b3d 05a4 cbbd
00000030: 5bbb d23b e248 063d 5144 973c 23e2 8e3d
00000040: 09a7 703e c5dd 7b3c 2875 573e eb03 ad3d
00000050: c76f 78bc 0c31 a03d ad32 613e 7d5b 163e
00000060: 0c8b b13d 4010 7b3c 1073 4abe 3704 343d
00000070: cca7 c13d 65bc 4e3e 7c12 cc3d b86c cc3e
00000080: 1c4d 193d aaee 203e 3ed6 413e d797 693e
00000090: 40df 8b3d e415 703e 4f0c 0eba 0258 c43c
000000a0: 548e a2bc daab c43c 6bdc 96bb 5a50 8dbd
000000b0: 4af1 b6bb 84f6 54bd 447c 8d3d f60b 163e
000000c0: 127c 353c b2d2 d83d 5d02 1bbd 2694 debd
000000d0: f0ef 8f3e 94f1 a03d ba5b dfbd 5412 acbd
000000e0: eb5d afbd 8c35 c33d d62c fbbd 6259 7c3e
000000f0: 727f 02bd 6116 c83c 2e20 de3d 15c9 383d
00000100: f658 173e 2dd6 0d3e 7e78 133d 7a77 c43d
00000110: 724c 4d3e b9ed 383e 98f6 583e 19b1 443d
00000120: aaf0 833e 41b4 d8bc ae54 50bd f022 0d3e
00000130: faa3 2f3e 6e94 043e 8881 a53d 1031 21bd
00000140: 28ff 393e f26b 2b3d 7c85 703d 865f e73c
00000150: 586d 9fbd 0d2f a73d f8a3 96bd 1d39 bc3d
00000160: bafc 003e 8667 503e 0af3 c13b db06 4a3e
00000170: a1a1 8b3d 021f 9abd f50e 483d dfb1 403e
00000180: a9b3 b13d a133 a93d 50bb acbd 11fe 0f3e
00000190: 83b0 6cbe a67c 983e 793e 18bd 99e1 cd3d
000001a0: 72ee 9bbe 835b c1bd a262 bfbd 7968 c43d
000001b0: ffd3 83be 6573 d13d a7c5 18bd b9c2 aa3d
000001c0: 3035 6fbe 5a9f 393d 5de3 7c3d 6bbb 503d
000001d0: 1036 cb3c 8f27 2abd d6b0 1d3e 3d05 233e
000001e0: 4ebc e7bd 7212 bf3c 3c24 4a3e 0a77 8fbd
000001f0: ac40 5fbd 7d36 3f3e a257 99bb 5cb1 523d
00000200: 7ccf 5cbb fcf5 373d 7adb 153e 58cc 84bc
00000210: 9e87 b0bd 398f 1b3d 86b5 343d 4dbe 833c
00000220: 9ebc b6bc d2a2 19bd cc8f ca3d 3505 4f3e
00000230: 31ee a53e 9a59 aa3e 1ed8 9d3d 79a4 113d
00000240: 05eb 0e3e 34e3 313d 3ffd de3d e9ea 323d
00000250: 9ce3 743d a802 7a3d b5fe 33bd beaf 8cbc
00000260: e7df 81bd 6d5d 2d3d 2ee8 543c 107c 163e
00000270: e924 11bd c38f 213d be5c 653d b736 c7bd
00000280: e119 453e 2d6a 05bd 71c9 e53c c16b 4dbd
00000290: 94f9 4f3e 5418 c53d a182 eebc 3078 c6bd
000002a0: 2c03 253e edfb 1b3e e57a 3b3b a2d8 c33d
000002b0: cf9a 843d c31e 463c d6e6 a53d b5cc 063e
000002c0: efad 6fbd 9a3a 02bc 61ce 083e 180c 8a3d
000002d0: 16d7 08bd 08cb 9e3d f5c9 b73d 4ba2 c9bd
000002e0: 966c f03d 9f6c e33d 28df af3d 5cc8 4f3e
000002f0: 8e3b 44bb 5e05 093e e2ec 623e a754 1e3d
00000300: 902c 88bc 042d 8ebc bb9f 203d 357d 443b
00000310: b826 cf3e 48c9 bebe 454b a9bd 96db 9dbd
00000320: c91f 26be 9154 0dbe bf33 09bd 754c 32bd
00000330: cf48 24be a100 253e de78 bbbd cebf b53d
00000340: dc8a c73d d7f0 b23d 9ee4 103c eb55 613d
00000350: 5a05 78bd e9b9 8e3d d158 8d3d 3835 5abd
00000360: 8105 3dbd 05d0 f73d 6d58 e5bd 8c8e fb3b
00000370: 9d25 88bc c2b8 473d 6b65 3abd 6e63 c1bb
00000380: bf60 b73d 18a0 aebd f61e 283e be2a 143e
00000390: cb41 a1bd 8204 69bc a70f 44bd 8c74 e73d
000003a0: f3f6 3a3e 8b6b 963d c2bc a53d b67b ec3d
000003b0: 1947 e23d 0200 eabd 7d97 913d ef18 9e3d
000003c0: 3569 033e e237 adbd fdae 88be f97b 9fbe
000003d0: 262d 643d f658 a9bc b8f2 fdbd 0221 1ebe
000003e0: e991 4dbc 4185 09bd 151d 89bd d82e 2c3e
000003f0: 73fd c7bd 8f31 613d c35c 00be 9fb5 8a3d
-0.06575687 0.14941275 0.12368962 0.10775254 0.24098864 0.12503876 0.14763196 -0.09034427
0.09717036 0.06266098 0.05743261 -0.099433936 0.006431026 0.03278435 0.018465193 0.06976726
0.23501219 0.015372698 0.21040785 0.08448013 -0.015163369 0.07821855 0.21991988 0.14683338
0.08669099 0.0153236985 -0.19770455 0.043949332 0.09455833 0.20189054 0.09964463 0.39926696
0.037427053 0.15716043 0.18929383 0.22811829 0.06829691 0.2344585 -0.0005418704 0.023967747
-0.019843258 0.024007726 -0.0046039126 -0.069000915 -0.005582963 -0.051992908 0.069084674 0.14653
0.011076944 0.10587062 -0.03784405 -0.10868101 0.28112745 0.07858577 -0.10906167 -0.08401933
-0.08562835 0.09531698 -0.12264411 0.24643472 -0.031859823 0.024424734 0.108459815 0.04511364
0.1478003 0.13851233 0.036003582 0.09593101 0.20048693 0.18059434 0.21187818 0.048020456
0.2576955 -0.02645314 -0.050862007 0.13782859 0.17152396 0.12947246 0.08081347 -0.03935343
0.1816374 0.04185099 0.05872105 0.028243791 -0.077845275 0.08163271 -0.07355493 0.09190581
0.12596408 0.20351991 0.005918865 0.19729178 0.06817938 -0.075254455 0.04884239 0.18817852
0.086768456 0.082618006 -0.084341645 0.14061762 -0.23114209 0.297826 -0.037168954 0.10052795
-0.30455357 -0.094412826 -0.093449846 0.09590239 -0.25747678 0.10227088 -0.03729787 0.08337922
-0.23360133 0.045317985 0.061740268 0.050959986 0.024806052 -0.041541632 0.15399489 0.15919967
-0.11315213 0.023324225 0.19740385 -0.07005127 -0.054505035 0.1867313 -0.004679636 0.051438674
-0.0033693006 0.044912323 0.14634505 -0.01621072 -0.08619617 0.037978385 0.044118427 0.016081953
-0.022306737 -0.037508793 0.09890708 0.2021683 0.32408288 0.33271486 0.07707237 0.035557244
0.1395684 0.04342957 0.108881466 0.04368106 0.059787378 0.06103769 -0.04394408 -0.017173644
-0.06341534 0.042325426 0.012994809 0.14695764 -0.03543559 0.039443742 0.05599665 -0.09727233
0.19248153 -0.03257196 0.028050156 -0.05015159 0.2031005 0.09623781 -0.029115023 -0.09690893
0.16114491 0.15232821 0.0028607186 0.09562804 0.0647484 0.012092295 0.08100669 0.13164027
-0.058515485 -0.007948542 0.13359977 0.06740588 -0.033408247 0.07753569 0.08974067 -0.09845408
0.11739461 0.11104702 0.085874856 0.20291275 -0.0029942724 0.13380954 0.22160676 0.03865495
-0.016622812 -0.01735545 0.03921483 0.0029981856 0.40459228 -0.3726294 -0.0826631 -0.07707898
-0.16223063 -0.13801791 -0.033496615 -0.043529946 -0.160434 0.16113521 -0.09153913 0.088744745
0.09743282 0.08737343 0.008843569 0.05501358 -0.06055198 0.06969053 0.06901706 -0.05327341
-0.046147827 0.121002235 -0.111985065 0.007676905 -0.016619498 0.048760183 -0.045506876 -0.0059017455
0.08954 -0.08526629 0.1641806 0.1446943 -0.07873877 -0.014222266 -0.04786649 0.113015264
0.18258266 0.07344731 0.08092643 0.115470335 0.11048717 -0.11425783 0.07108972 0.077195995
0.12833102 -0.084579244 -0.26696005 -0.3114927 0.05570712 -0.020672303 -0.123998106 -0.15442279
-0.012546995 -0.033574346 -0.06695 0.16814744 -0.097651385 0.054978903 -0.12535386 0.06772923

shared_fc.bias f4 [512]
00000000: 2758 1b3e 91ec ec3d d002 503e d54a a73c
00000010: e2a6 d73e eda3 1a3e 7632 9cbc b25b 1ebd
00000020: 1935 ea3d 601d 30bb 2e09 793c abc5 233e
00000030: 3325 ab3d 1cb6 e53d ec16 333e 8c8b 633e
00000040: cfcc eb3d a7c0 563e a627 1e3e 450a da3d
00000050: 1b3c 0e3e 42bd bf3d 3bc2 633e 4c7c 6b3e
00000060: 50c8 473d 9bee 023e aefc 08bd ee9f 143e
00000070: 810c 24bd 3a84 3c3d 919d 023e 2580 193e
00000080: 3087 d53d d57d 823e b801 8e3d c48b f23d
00000090: 9e7e 663e 8ed8 d83c 0ad8 bf3c e6d1 503e
000000a0: 2a7d b93d 9b96 4bbd f7bb a23d ade6 b13c
000000b0: f5e0 5d3d 480f 273e 8d7c 133c de6a 973d
000000c0: 74b4 c03e b670 4e3d f10a b0bc 3dad 6e3d
000000d0: d9f9 923d e2fd 1c3d 89a2 553d 3def a03b
000000e0: 49a1 0c3e d667 983d e163 a63e 885b 9d3b
000000f0: 3e8f 5c3e 264b 043e 3a17 243e a533 febb
00000100: 8478 013e 253e 753e 363a ce3d 52ed 413e
00000110: 57c1 253e b3cd 2c3d 9aa9 193e abeb 223e
00000120: 0a0a 193e 2fcb 213e 9c87 843e b952 563e
00000130: 09ec 0c3e c338 c93e a2c7 94bb 0f56 613d
00000140: dae7 3d3e 0c08 113d 0702 283e 1903 543e
00000150: e35d 583e 2f97 4f3e 01a6 8e3d ba05 703e
00000160: 25c5 6c3e 25be 303e f587 063e 0f88 1b3e
00000170: f354 383b 0048 103e 2dcc c03d 9968 d23d
00000180: 1ab6 833e 8d44 df3e 572f 513d db95 b93d
00000190: fbe5 403e b7dc a03b 336a 0cbb b395 153e
000001a0: 6b2e 4b3e 03d1 8b3d 16b5 313e 25c2 203e
000001b0: 8b1b 4d3d ce67 123e e809 013d a48f cd3d
000001c0: 490d 653d a578 9d3c bc96 103e cae6 063e
000001d0: 4e08 fd3d f6f5 003e 15dc a63d 01d2 d83d
000001e0: 6f64 473d 5e73 903d 76bf 2e3e a455 483e
000001f0: d32a 323e 4b47 c53b 8532 e73d c570 893d
00000200: 6d28 9b3d 8d40 09bc ac2b 463e a759 433d
00000210: 7694 043e e3c4 953c 560c 213e 9ce4 0c3e
00000220: e4d7 453b 12c1 163e 43df fa3e e93a 353e
00000230: 0811 0d3e 57fe d43d ddc2 353e 145c 98bb
00000240: 5df4 8a3e 1a57 1c3e b73f 483e da1a 263e
00000250: 34ad 053e d518 693e 2877 843e 27d1 ea3b
00000260: 624e 5b3e e323 643e 0396 4e3e 0cb9 e23c
00000270: dadb 103e f4d5 923d 4fcb d83d e465 bf3c
00000280: 5869 c93d b7cf 743d 1081 253e f028 4bbc
00000290: 5dc6 173e 999e 493d 5c12 153f b76f a83a
000002a0: 5420 a03d a2cd 343e 8e9c c33c f11b 993c
000002b0: 91c4 c83d 28e7 293e 9a67 f73c d784 3a3e
000002c0: 6b57 453e 45b8 6c3d fd88 dfbd f91d c03d
000002d0: f6ea 743e 7f66 153e 5ec6 8f3d ac8f dd3d
000002e0: d8c5 fe3c a5ee b63c 262b 343e 22be 0b3e
000002f0: a3f4 5cbd 856a 353e 7afe 283e f90f e7bc
00000300: ecce 893d 32bd 733e 9f04 d73d c933 ad3d
00000310: 285d 3ebd 25d3 403e da1b 663d 839a 643d
00000320: 3239 713e 3ece 063e 07b1 9c3d f356 ee3d
00000330: 4152 253d 3ad5 053f 609f 2f3d 293a e13b
00000340: 383b ff3c fa92 343e 9f89 093e fb97 263e
00000350: 561c 183e b0fd 603d 73f2 c33d 5273 d33c
00000360: 9bb4 263e 2326 8c3c 796a 093d e30b 703e
00000370: c1fb e63d 8549 733e 426b a2bc 3355 ca3c
00000380: 158c bc3d 869f d83d e7ed 15bb 3ad6 de3d
00000390: 1ec7 e83d 60c2 753d e5e6 063e 4d48 ff3d
000003a0: f66e 593d 902c 373e 718b 343e d1e9 3b3d
000003b0: 0a08 b43c 0e61 633e 8bc4 923d f521 adbc
000003c0: a94c e13d bb7d 8c3e 5897 b63c 36c2 dd3d
000003d0: be9f 3e3d 0847 853c 0d9f 2c3e ef10 c13d
000003e0: 5dac 393d 7d06 383e 0141 303e 2812 753e
000003f0: 58ba 013e 173c 7d3c 1c75 dd3d cd71 273e
0.15170346 0.11568559 0.20313573 0.020421425 0.4211951 0.15101595 -0.01906703 -0.038661666
0.11435909 -0.0026872978 0.0151999425 0.15993373 0.083567046 0.11216375 0.17489213 0.22221202
0.115136735 0.20971929 0.15444812 0.1064649 0.13890116 0.0936227 0.22242062 0.22996634
0.048775017 0.12786333 -0.0334441 0.14514133 -0.040050987 0.04602454 0.1275542 0.1499029
0.104261756 0.25486627 0.069339216 0.118430644 0.22509238 0.026470449 0.023418445 0.2039257
0.09057076 -0.049704175 0.07946008 0.02171644 0.054169614 0.16314423 0.009001863 0.0739343
0.37637675 0.05040046 -0.021489592 0.05827068 0.07176561 0.03832806 0.05215696 0.004911332
0.137334 0.0744168 0.32498077 0.004802171 0.21539018 0.12919292 0.16024485 -0.0077576214
0.1264363 0.23949488 0.100696966 0.18938187 0.16187035 0.042188358 0.15006104 0.15910213
0.14945236 0.15800165 0.25884712 0.20929994 0.13761915 0.39301118 -0.0045403996 0.055013712
0.18545476 0.035408065 0.16407023 0.20704307 0.21129565 0.20272516 0.069652565 0.23439685
0.2312208 0.17260034 0.13137801 0.15188621 0.0028126806 0.14089966 0.094139434 0.10273857
0.2572487 0.43606988 0.051070537 0.09061786 0.1883773 0.0049091238 -0.0021425604 0.14607887
0.19841926 0.06826975 0.17354235 0.1569906 0.050075095 0.14297411 0.031503588 0.10037163
0.055920873 0.019222567 0.1412 0.13173977 0.123550996 0.12593827 0.08147446 0.1058693
0.048679765 0.070532545 0.17065224 0.1956392 0.17399149 0.0060204617 0.11288933 0.06710962
0.0757607 -0.0083772065 0.19352597 0.04769292 0.12947258 0.01828236 0.15727362 0.13759083
0.0030188495 0.14722088 0.4899846 0.17698254 0.13776028 0.10400074 0.17750116 -0.0046496484
0.2713956 0.15267602 0.19555555 0.1622118 0.13054353 0.22763379 0.2587216 0.007166046
0.2141662 0.22279315 0.20174412 0.027676128 0.14146367 0.071697146 0.10585653 0.023364015
0.09834546 0.059768405 0.16162515 -0.012399897 0.14821763 0.049223516 0.5823114 0.0012850676
0.07818666 0.17656568 0.023878362 0.018690081 0.09803117 0.16592085 0.030200768 0.18214737
0.19271629 0.05779292 -0.109148 0.09380717 0.23917755 0.1458988 0.070202574 0.10818419
0.031100199 0.022330591 0.17594585 0.13646749 -0.05394424 0.17716415 0.16503325 -0.028205859
0.0672892 0.23802641 0.10498928 0.08457143 -0.04647556 0.18830545 0.056178905 0.055811416
0.23556975 0.13164613 0.07650953 0.11637678 0.040361647 0.5227848 0.0428766 0.0068733883
0.031156167 0.17634192 0.13431405 0.16268913 0.1485456 0.054929435 0.09567728 0.025811825
0.16279833 0.017108029 0.033548806 0.23442034 0.11278487 0.23758514 -0.019826535 0.02469883
0.09206406 0.10577302 -0.0022877397 0.10880704 0.113661036 0.059999824 0.13174017 0.12464962
0.053084336 0.17888093 0.17631318 0.04587728 0.02197649 0.22204992 0.07166394 -0.021134356
0.1100095 0.27439675 0.022288963 0.108280584 0.04653906 0.016269222 0.16857548 0.09427058
0.045330394 0.17971225 0.17212297 0.23932707 0.12668741 0.015456221 0.108133525 0.16352005

shared_ln.weight f4 [512]
00000000: 0f13 a03f 38e8 843f bff5 993f eac3 a33f
00000010: 0994 093f 0f6e ba3f da8b cd3f 3694 a93f
00000020: 2f1e 853f 9339 af3f 133f a43f 2ea0 a33f
00000030: 9af0 9d3f 6452 733f 9492 8d3f bccd 7c3f
00000040: c01d b93f 12fd 8f3f 254f bb3f 87c1 7c3f
00000050: b81a b73f 1ce4 a13f 9cb8 8e3f 1650 9f3f
00000060: b7c4 b33f b0df c13f 41d6 af3f b2e6 853f
00000070: 27f8 7f3f b256 a03f 57cf a83f 6aa1 943f
00000080: f110 973f 9778 073f 6768 e63f 9ef6 a43f
00000090: 92bb 133f d50a ad3f a772 e93f 9a06 893f
000000a0: 2649 693f a158 f63f 3284 d03f 0538 aa3f
000000b0: 8bfb 8c3f 1bf1 8e3f 1ef8 cb3f 7253 d63f
000000c0: dce4 fe3e 2c41 873f a8f6 b83f b779 9b3f
000000d0: 95c6 9f3f bd10 db3f 63d0 4a3f 770b ec3f
000000e0: 56ce ae3f 0666 423f b1c1 233f 9629 c03f
000000f0: 00bd 6a3f 5ff7 8c3f 4158 c83f 7748 af3f
00000100: 5b22 913f d997 1e3f d268 d23f 3da9 a73f
00000110: 40ff 6b3f 13c2 7f3f 1574 9d3f b8cd 3c3f
00000120: 0b8e 873f bfaa 9c3f a432 6f3f 415e 953f
00000130: 27d5 863f 9725 033f 25e6 953f c117 893f
00000140: e9bb ab3f 8a9f 8d3f c3ce 9e3f 1dd0 903f
00000150: 5bd5 313f 3880 3c3f e8ba 993f 8b0c 6f3f
00000160: 9209 913f c194 283f 1637 a03f 0843 b33f
00000170: 1eab d23f 1fb6 9e3f 1596 d63f 499b 843f
00000180: 5b9e 8f3f 43f4 d93e ebe5 ad3f 04cf 9c3f
00000190: be34 953f ae7d b93f 111d 953f 9add b33f
000001a0: 4926 283f a370 8d3f 7319 a53f 9313 ae3f
000001b0: 4dff 873f eb6a 823f 810a c03f 4f7a bb3f
000001c0: 4f64 dc3f 4f7e 9d3f b6ff 973f 3663 b53f
000001d0: d52f ab3f 53ce 9a3f b70e 933f 0a84 883f
000001e0: 7781 833f 6677 a43f 5757 853f a936 a73f
000001f0: 18db 2c3f e26f a43f 84cb 663f 0a87 983f
00000200: b67d 9b3f 6e44 8c3f 02c1 a33f f49e ab3f
00000210: 0ddc 7e3f 2eaa 983f 20f1 483f d8a2 963f
00000220: 9409 9e3f eccb 883f a57b a93e 5389 b23f
00000230: ec85 a83f 187b 9b3f acd6 b93f d498 a03f
00000240: 0a51 4f3f be30 b03f 595f a03f 37a6 a33f
00000250: c070 8b3f 7f8c 993f 37c2 473f 3364 0840
00000260: 845d 823f 456d 913f 6e52 9f3f 607e b83f
00000270: 69e5 523f 2027 a63f 75d4 b23f d31a 9c3f
00000280: 465d bd3f 7843 ab3f 9740 c13f 1b00 b13f
00000290: 9a17 8e3f ac49 883f db3f 263f 23b9 9b3f
000002a0: 6ed2 b73f 3397 b43f dd89 e13f bc03 8d3f
000002b0: 2244 813f bebf 7d3f a5e8 9f3f 1a9c cd3f
000002c0: 4250 a23f dae1 0040 0266 2040 ff87 ab3f
000002d0: e0da 863f c230 9d3f 4512 963f 2b7e 933f
000002e0: b295 8c3f b821 8a3f 649e 913f 9934 6e3f
000002f0: 235a c73f 8eb4 b73f 1e4a a43f 558b d93f
00000300: 9ced b33f 2ff4 373f c556 b33f 518d 8e3f
00000310: 1979 c93f 080a 963f 48ff 6e3f b1b1 cd3f
00000320: 6eb9 793f 067d d73f 84a1 c03f cc96 cd3f
00000330: 3ab8 d03f b916 333f b556 ad3f d7f1 d83f
00000340: 2bd5 ab3f bb32 443f bbfd 823f aa61 943f
00000350: b895 323f f1cc dc3f 7afd 8f3f 75a9 ad3f
00000360: d728 be3f b4f5 8f3f 57e6 873f 4a5f 2d3f
00000370: c46c 923f 10a8 0a3f 990e 0140 06eb b73f
00000380: 8e3d a33f 2b20 423f eda9 d73f cb45 933f
00000390: 9b2e a23f c535 d43f ca81 863f f692 9d3f
000003a0: aad9 883f f60b a43f 65d2 993f 16b1 933f
000003b0: 4338 c13f afb4 723f 92ff ba3f b637 b03f
000003c0: 72cc 8c3f 353f 653f d3e5 7b3f 90d1 ca3f
000003d0: 0922 953f 1235 bb3f 9073 973f 19ff 8f3f
000003e0: 4f67 9f3f 5a5e a93f 4b41 8e3f 1ffa a23f
000003f0: 5e92 bd3f 70a0 cd3f 720e 8c3f 04fe 913f
1.2505816 1.0383368 1.2028121 1.2794163 0.5374151 1.4564837 1.6058304 1.3248355
1.0399836 1.3689445 1.2831749 1.2783258 1.2339051 0.95047593 1.1060357 0.98751426
1.4462204 1.1249106 1.4633528 0.987328 1.4305029 1.2647738 1.1150088 1.2446315
1.4044408 1.5146389 1.373726 1.0461028 0.99988025 1.2526457 1.3188275 1.161176
1.1802045 0.5291838 1.8000611 1.2887762 0.57708085 1.3518931 1.8238114 1.070514
0.9112724 1.9245797 1.6290343 1.3298346 1.1014265 1.116733 1.5935094 1.6744215
0.4978398 1.0566764 1.4450274 1.214652 1.2482477 1.7114483 0.7922422 1.8440999
1.3656719 0.75936925 0.63967425 1.5012691 0.9169464 1.1012992 1.5651933 1.369399
1.133861 0.6195045 1.6438239 1.3098522 0.92186356 0.9990551 1.230105 0.737514
1.0590223 1.2239608 0.93436646 1.1669389 1.0533799 0.5122923 1.171086 1.0710374
1.3416721 1.1064312 1.2406849 1.1313511 0.6946618 0.73633146 1.2010164 0.93378514
1.1331046 0.6585198 1.2516811 1.4004831 1.6458471 1.2399329 1.6764551 1.0359889
1.1220201 0.4256917 1.358579 1.2250676 1.1656721 1.4491479 1.1649495 1.4052002
0.6568342 1.1049999 1.2898391 1.3599724 1.0624787 1.0188879 1.5003206 1.4646701
1.7218112 1.2304171 1.1874912 1.4170902 1.3373972 1.2094215 1.1488866 1.0665295
1.0273885 1.2848938 1.0417279 1.3063556 0.6752181 1.2846644 0.9015429 1.1916211
1.2147739 1.0958383 1.2793276 1.3407884 0.9955452 1.1926935 0.7849293 1.1768446
1.2346673 1.0687232 0.33102146 1.3948158 1.316587 1.214694 1.4518638 1.254664
0.8098303 1.3764875 1.2529098 1.27851 1.0893784 1.1996001 0.78030723 2.1311157
1.0184789 1.1361471 1.244703 1.4413567 0.823813 1.298069 1.3971087 1.2195686
1.479409 1.3379965 1.5097836 1.3828157 1.1100953 1.0647483 0.64941186 1.2165874
1.4361093 1.4108642 1.7620198 1.1016765 1.0098917 0.991207 1.2492872 1.6063263
1.2680743 2.013785 2.506226 1.3400878 1.0535545 1.2280505 1.1724325 1.1522878
1.0983183 1.079154 1.1376462 0.9304901 1.5574383 1.4351976 1.2835119 1.6995646
1.4056888 0.7185697 1.4010855 1.1136876 1.5740081 1.1721811 0.9335828 1.6069852
0.9754857 1.6835029 1.5049291 1.6061645 1.6306221 0.6995655 1.3542086 1.6948804
1.3424429 0.7663991 1.0233682 1.1592305 0.697597 1.7250043 1.124923 1.3567339
1.4856213 1.1246858 1.0617169 0.67723525 1.1439443 0.54162693 2.016516 1.4368598
1.275316 0.75830334 1.6848732 1.1505674 1.2670473 1.6578909 1.0508358 1.2310474
1.0691426 1.281615 1.2017332 1.1538417 1.5095295 0.9480695 1.4609244 1.3767002
1.0999892 0.8954957 0.9839756 1.5845203 1.1651012 1.4625571 1.1832142 1.1249725
1.2453402 1.3231919 1.1113676 1.2732581 1.4810293 1.6064587 1.0941908 1.1405644

shared_ln.bias f4 [512]
00000000: cdd5 f0bd 14b2 b2bd 78bd 13be c970 72be
00000010: c98c d9be 3b48 f6bd f579 14bd 0c41 32be
00000020: d3e2 15be 9caf a8bd 93b5 8fbd e9d3 23be
00000030: 45ca 33be b6ec edbd 20ff 18be 93cb f0bd
00000040: f2a6 46be 328a cdbd bf29 75be 6aae 17be
00000050: ff51 c33c 94b4 d2bc 7ffd 12bc 5b52 debb
00000060: fd52 19bd d450 d0bc be47 76bd bf12 40be
00000070: 4108 5abe 3488 1cbd 3417 a7bd 9f96 babd
00000080: a1b9 10be 8807 e7be dd6a 4fbe 5ccd 0abd
00000090: 431a f3be 31dd 1dbe 48b2 c0bd 592c 11bd
000000a0: 1968 71be 965d 89be 0f9e 4cbe 8462 55bd
000000b0: 69e0 45be 40f6 c5bd 98c9 4ebe 197a 2ebd
000000c0: 47da 08bf 2655 0ebe a9fe 4bbe 4451 2ebe
000000d0: 87de 14bd 7ba7 57be dd16 33be 4736 1ebc
000000e0: 8d02 86be 3ee1 8dbe 3e3e 95be f855 0cbe
000000f0: 0d4d 48be 4771 41bd 2226 82bc b8c5 d7bd
00000100: a34a 54be 2f64 bfbe cc68 3fbe 3a2c bbbd
00000110: e8b8 88be 354c 18be 430d 21be 5233 67be
00000120: b0eb eabd 4f24 9cbd 0250 21be 77d2 cdbc
00000130: 4250 46be f695 f1be d495 edbd d894 5cbb
00000140: d7e0 babd 2828 2dbe 3f64 27bd a71d 05be
00000150: ec82 adbe 4e2d 63be 8c7f 1ebd 9018 09be
00000160: 4070 aabd fdf7 b0be a36f 8ebd d0e9 1fbe
00000170: c8ae a2be 379f 1ebe 8dde d8bd 4fbf a9bd
00000180: e3e2 abbc f2d0 03bf 1bd1 21be 0d05 92bc
00000190: 26e8 7cbe c61b 6bbe d7aa abbd aa45 d2bc
000001a0: 5e33 a2be a480 64bd 1e1a 1bbd ee20 bebd
000001b0: cc4e 48be ab7e 36be f9b8 833d a04a e6bd
000001c0: 4b58 bfbd ffaf a9bd 46ff c7bd 5138 bbbd
000001d0: 1bb9 7abd facc d0bd 9f56 eebd 74d8 f1bd
000001e0: f9ba 4cbe c5f0 e3bd 71b5 07be 615a 58bd
000001f0: 6508 dcbe 7232 93be f159 3ebe 1230 98bd
00000200: fcbc 99bd 5f9c 67bd ffa8 5cbe c50b 02be
00000210: d1f0 53be fd90 0dbe 16b0 82be 1a9d b7bc
00000220: 526d 0cbe 502b 42be bd5b 1ebf 88d7 ecbd
00000230: 6b90 e7bd 4b17 4fbd ae8a 93bd 2cbf 15bd
00000240: b8f5 30be 3ec4 9fbc edfb 19bd dc82 8b3a
00000250: ad4a 12be cfd9 41bd 1b83 38be 758b 05be
00000260: 21d8 9ebd e010 17be 3315 a2bd 6202 40bd
00000270: b82c b5be 3d3a eebd 2b1d c1bd d0f2 2fbe
00000280: fd09 d9bd fdd1 05bd 365f 463c 6931 42be
00000290: f591 06be f92e 20be 7c52 aebe 53c0 18be
000002a0: 3dc7 8cbd ef24 3dbd 7bd1 64bd ced3 16be
000002b0: 1844 48be 902c 5bbd f24d 11be bc43 eabd
000002c0: 68b9 ecbd 2dde 26be 1f39 cebe d42c 1fbe
000002d0: 042f 10be 0fbd 64bd 025d 00bd dea5 b6bd
000002e0: 3d1e 13be 6d88 1fbe 4884 0fbe 1390 5bbe
000002f0: c4e4 fdbd 7d4e c53d 81d2 61be 10ae d6bd
00000300: 1d0f 56be c24a 62be d201 13be bcbd 15be
00000310: e586 18be 443e 1bbe f7b3 00be 5adf 66be
00000320: ee45 2cbd d1a2 60be e388 a8bd a28c 86be
00000330: fc9a 22be d9b7 9ebe 1905 82be a3af 0fbe
00000340: 6274 c3bd 4da0 93be 747a 3bbe c9c0 83bc
00000350: f2d5 87be 76fb 03be b94a 20be b7f7 6ebe
00000360: 2b6b debd 610b ccbd f869 b1bd cd99 90be
00000370: 3632 f8bd 760f edbe ca0b a7be 6f16 5bbe
00000380: 93ea e3bd b777 cbbe 4685 6dbd d8bd 52bd
00000390: 3386 21be bba6 ccbd cdff 4bbe 14d5 8abd
000003a0: 03be d5bd e87f 59bd d03f 74bc 80e9 41be
000003b0: 5b72 dfbd ab0a 27be b88c 23bd 7998 7bbe
000003c0: fefc 05be c4b8 18be 464b 3fbe 30c4 0dbe
000003d0: 205b 8bbd 4ea8 0bbe 91df 03bd 5929 5cbe
000003e0: 5d31 8cbd d325 b9bd 7a8d 17be 35bc a03d
000003f0: 7fdd 383d 0650 00be 01f2 f7bd 11f5 81bd
-0.11759529 -0.08725372 -0.14427745 -0.23675837 -0.42490223 -0.120254956 -0.03624912 -0.17407626
-0.14637308 -0.0823662 -0.070170544 -0.15998806 -0.17557628 -0.11617415 -0.14941072 -0.11757579
-0.19399622 -0.10036124 -0.23941706 -0.14812627 0.02384281 -0.025720872 -0.008971571 -0.00678472
-0.03743266 -0.025429167 -0.060127012 -0.18757151 -0.21292211 -0.03821583 -0.081587225 -0.0911076
-0.14133312 -0.45122933 -0.20255609 -0.033887252 -0.47480974 -0.15416409 -0.094090044 -0.035442684
-0.23574866 -0.26829213 -0.1998217 -0.052095905 -0.19323887 -0.09666109 -0.2019409 -0.04259691
-0.53458065 -0.13899669 -0.19921364 -0.17023188 -0.03634503 -0.21059982 -0.1748919 -0.009656495
-0.2617382 -0.2771091 -0.2914905 -0.1370467 -0.19560643 -0.04722717 -0.015887324 -0.10535759
-0.20731597 -0.37381122 -0.1869232 -0.09139295 -0.26703572 -0.1487282 -0.15727715 -0.22578171
-0.11470735 -0.07624113 -0.15753177 -0.025124772 -0.19366553 -0.47184724 -0.11600843 -0.0033658054
-0.09124916 -0.1690985 -0.040867086 -0.12999593 -0.33888948 -0.22185251 -0.038695857 -0.13388276
-0.08322191 -0.345642 -0.06954887 -0.15616536 -0.31773973 -0.15490423 -0.10589323 -0.08288442
-0.020982211 -0.514907 -0.15802424 -0.017824674 -0.24697933 -0.22959813 -0.083821945 -0.025667984
-0.31679815 -0.055786744 -0.037866704 -0.092836246 -0.19561309 -0.17821757 0.06431765 -0.11244702
-0.093430124 -0.08285522 -0.097654864 -0.09141601 -0.061211687 -0.10195346 -0.116376154 -0.11808863
-0.199932 -0.111299075 -0.13252808 -0.052820567 -0.42975155 -0.28749424 -0.18588997 -0.07431044
-0.07506749 -0.05654561 -0.21548842 -0.12699802 -0.20697333 -0.1382484 -0.25524968 -0.022413779
-0.13713577 -0.18961835 -0.6185873 -0.11564547 -0.113068424 -0.050559323 -0.072041854 -0.03655927
-0.17281234 -0.019502755 -0.03759377 0.0010643858 -0.14286299 -0.04732686 -0.18018763 -0.1304148
-0.07756067 -0.14752531 -0.079142 -0.046877272 -0.3538568 -0.11632202 -0.094293915 -0.1718247
-0.10597608 -0.032670964 0.012107661 -0.18964161 -0.13141616 -0.15642919 -0.34047306 -0.14917116
-0.06873939 -0.0461778 -0.05586384 -0.14729235 -0.19557226 -0.053509295 -0.1418989 -0.114387006
-0.11558801 -0.16295691 -0.40277955 -0.15544444 -0.14080435 -0.055844363 -0.0313387 -0.089183554
-0.14367004 -0.15579386 -0.14015305 -0.21441679 -0.12397149 0.09634111 -0.22052957 -0.104824185
-0.20904203 -0.2209883 -0.14356163 -0.14623159 -0.14895208 -0.15160471 -0.12568651 -0.2254614
-0.042058878 -0.2193711 -0.08229234 -0.2627917 -0.15879434 -0.3099964 -0.25394514 -0.14031844
-0.09543683 -0.28833237 -0.18308431 -0.016083138 -0.26530415 -0.12888893 -0.15653504 -0.23336683
-0.108602844 -0.09963108 -0.0866279 -0.2824234 -0.12118952 -0.46300858 -0.32626182 -0.21395276
-0.11128726 -0.39739773 -0.057988428 -0.05145058 -0.15773849 -0.09992739 -0.19921799 -0.06778923
-0.104366325 -0.053100497 -0.014907792 -0.1893673 -0.109104834 -0.16312663 -0.03992912 -0.24569882
-0.1308479 -0.14914232 -0.18681058 -0.13844371 -0.0680449 -0.13638422 -0.03219563 -0.21500148
-0.06845353 -0.090404175 -0.14800063 0.07848398 0.04513311 -0.12530527 -0.121067055 -0.06345571

actor_fc.weight f4 [6, 512]
00000000: e3e9 b63e 5125 2d3c 4983 2a3e 7322 063f
00000010: 54b6 633d 0fa5 cb3d da04 503e bbed 4d3e
00000020: 3c4f c53d bb0e b7be 7c59 a53d 1567 873e
00000030: 9882 083e b35d c53d 98dc f53d 833d 143b
00000040: a35c 1e3f df77 123e 9ad4 1a3f f286 ec3d
00000050: 8edd 2d3e 9dcb 7e3e 2925 393d 7295 a0bd
00000060: 4d87 393e 032a 0d3f b04c 7c3e d908 a43d
00000070: 1998 833d f609 a5be ac08 a8bb cf21 e93d
00000080: 2170 413e c502 083d a6f1 e7ba 4d44 773e
00000090: d8d4 273d 8136 c1be e9dc 073f 79da 2d3e
000000a0: 78d8 0f3e 0fb5 2fbd 750c c13e ecf4 ac3d
000000b0: 4843 653e b6dd 3b3d 55c0 42be 360c ca3e
000000c0: 1b01 253d 2189 e9bd 83b8 0f3e aaaa ab3e
000000d0: 142e 693d 0901 d3be b411 8f3c dea9 303f
000000e0: e97c 253e 178d cdbc 40a7 3b3d 0086 053e
000000f0: b219 9ebd 5984 543e a344 283e 1d53 183e
00000100: 6356 ba3e dc39 893d 6df5 1ebf de23 bebd
00000110: 6009 2c3e 909f 163e a4ab ed3d 11b7 8b3d
00000120: 0028 6d3e d8df 20be e144 1a3c d80c 53be
00000130: cad4 5ebc 2a11 fb3c 7004 72bd 2429 133e
00000140: ffe4 9abe 567c 2e3e 3e85 19bd 14b9 7a3e
00000150: 02d0 583d d2a5 0d3d c96f 48be 6f65 273e
00000160: 4cb6 1f3e 3d0a 883d 5ae6 ae3d 1bd1 a83e
00000170: c2c2 f73e 6c71 b7bd 1677 503e 962a a83d
00000180: 4313 2e3e 4529 e23b 3e07 243d 4268 3c3e
00000190: 7b27 dc3e d373 bd3d 9ee9 473e 7ac1 d6be
000001a0: 6fde 283d bc3d 3c3e 7282 71bd 5455 023f
000001b0: 8e19 843e c150 253e 1dfc 10bf e48e a2bd
000001c0: c022 2ebe 6704 85be db8f 83bc 66e0 003e
000001d0: eb8e c13d c949 323e 96d0 aa3d d0e0 633e
000001e0: bc8d eebc f23d 29be 1e2d e1bd ba64 bc3e
000001f0: 321a 14bb 75dc 08bf 2013 9ebc dbf9 223e
00000200: a458 563e 7e67 36bd 2503 df3d 3c78 993e
00000210: d23a 953c e368 46bd 3808 bb3d 502b 95bd
00000220: a272 803d b458 113e 324b 8c3d 03b1 063f
00000230: d747 153c 67d2 45be 70f2 afbc 0650 87be
00000240: aed2 9a3d f770 04bd 2a3a ad3e 4cae 9bbd
00000250: 9e32 44be e58c 0a3e 3162 723d ea3b 763d
00000260: f9c8 e53d 3277 903e f574 8d3e a3d9 55be
00000270: 9b71 093e 470f 2fbe 5f11 e73e 710d 813e
00000280: 9284 17bf b594 eeb9 ae42 e93e 14c3 e33e
00000290: 9a75 123e d02d 443e 7904 d33d 7fc2 9bbe
000002a0: eb6a fc3b 9399 bf3e 4b8d 1bbf f8e6 553d
000002b0: b85d 82bb 1332 b13d 3fd3 cbbd e306 16be
000002c0: 414f 5ebd 3441 ae3e da2e 043f 7929 913d
000002d0: d780 043e 6c90 94bd 9c07 263e 5f0f 6bbe
000002e0: 02b4 063e f54d 693e 6d7c 243e 4d16 4a3e
000002f0: cbe4 cc3e 0704 ddbe 0b95 3b3e fb26 2dbf
00000300: 33f0 023f 15d3 5f3d 1ded c5be ad19 593d
00000310: 73e0 07be 8c7f 733e d8e0 153d 8c5b 803d
00000320: 94aa 1e3d 3d09 de3d e943 89be 777e 37bf
00000330: b509 d1bc d69f 943d 862e 903e 8361 173e
00000340: bab9 7ebd 9be3 b83d 745a 4f3e 6928 453e
00000350: 5232 863d e48d 39bf be34 913e ff8a 4c3e
00000360: 52e4 b7be fe8f ffbc feae 463e 3b0c 7c3d
00000370: c1fd 913d e948 ce3c b4af 273f dd01 09bf
00000380: ca99 ba3e 9097 d63a e41a 79be 022e 8b3e
00000390: 5d60 723d 6b15 1a3f 69ec 4e3e 969c 043e
000003a0: 1716 98bd 354c 6f3e b345 513e a129 233e
000003b0: 54a5 e23e 7d68 6cbd 0993 423d 9f6c c4bd
000003c0: 2d29 7cbd 1597 a23d 9d2a 193e edad 88bd
000003d0: 14e7 27be 3dd2 58be 1c1b 72bd 5c1c bd3e
000003e0: 85c3 1cbe 920a 953e cdae a43d 3ec3 1fbe
000003f0: b401 85be 420e 9fbd 61b6 fa3d 0264 733e
0.35725316 0.010567979 0.16651644 0.52396315 0.055593804 0.09943592 0.2031435 0.20110218
0.096342534 -0.35753426 0.080737084 0.26445833 0.13331068 0.09637012 0.120049655 0.0022619672
0.618601 0.1430354 0.60480654 0.11549176 0.16979048 0.2488236 0.045201454 -0.078410044
0.1811802 0.5514223 0.24638629 0.080095 0.06425495 -0.32234162 -0.005127987 0.113834016
0.1889043 0.033205766 -0.0017695918 0.24147148 0.040974468 -0.37736896 0.5307146 0.16977872
0.1404742 -0.04289728 0.37704816 0.08445153 0.22388947 0.045865737 -0.19018681 0.3946244
0.040284257 -0.114031084 0.1403523 0.33528644 0.05692871 -0.41211727 0.017464496 0.69009197
0.1616093 -0.025091691 0.0458138 0.13039398 -0.07719745 0.20753612 0.16432433 0.14875455
0.36394033 0.06700489 -0.6209324 -0.09284185 0.16800451 0.14709306 0.116050035 0.068220265
0.2315979 -0.1571039 0.009415836 -0.20610368 -0.013600538 0.030647833 -0.059086263 0.14371163
-0.30252835 0.17039618 -0.037480585 0.24484664 0.052932747 0.034581967 -0.19573893 0.16347288
0.15596884 0.06642578 0.0854003 0.32972035 0.48390776 -0.089571804 0.20357928 0.082112476
0.16999535 0.0069018924 0.04004597 0.18399146 0.4299887 0.09250607 0.19522712 -0.41944486
0.041227754 0.18382925 -0.058962293 0.5091145 0.25800747 0.16144086 -0.56634694 -0.079374105
-0.17005444 -0.2597992 -0.016059807 0.12585601 0.094510876 0.1741096 0.08340566 0.22253728
-0.029120319 -0.16527537 -0.109949335 0.36795598 -0.0022598621 -0.5346139 -0.019296229 0.15915625
0.20932251 -0.04453229 0.10889272 0.29974544 0.018216524 -0.04843987 0.09132427 -0.07283652
0.062718645 0.14193994 0.0685028 0.5261385 0.009111366 -0.19318543 -0.021477908 -0.2642824
0.07559715 -0.032334294 0.33833438 -0.07601604 -0.19159934 0.1353031 0.059175674 0.060115732
0.11219973 0.2821594 0.27628294 -0.20883803 0.13422243 -0.17095672 0.4513044 0.25205567
-0.5918666 -0.00045505693 0.45558685 0.4448477 0.14302674 0.19158101 0.103035875 -0.30421826
0.0077031753 0.37421855 -0.6076247 0.052222222 -0.0039784573 0.08652129 -0.09952401 -0.14651065
-0.0542748 0.3403412 0.5163399 0.070879884 0.12939773 -0.07254109 0.1621384 -0.22955082
0.13154605 0.22783644 0.1606309 0.1973507 0.40018305 -0.43167135 0.18318574 -0.67637604
0.51147765 0.054644663 -0.38657466 0.053003002 -0.13269214 0.23779124 0.03659138 0.06267461
0.038736895 0.10841606 -0.26809624 -0.71677345 -0.025517324 0.07257049 0.28160495 0.14783292
-0.06218884 0.09027787 0.20249349 0.19253697 0.065525666 -0.7248213 0.28360552 0.19974898
-0.35916382 -0.03119659 0.19402692 0.0615351 0.07128478 0.02518125 0.65502477 -0.5351847
0.36445457 0.0016372073 -0.24326664 0.2718354 0.05917393 0.6018893 0.20207371 0.12950358
-0.07426088 0.23368914 0.20436744 0.15933849 0.4426676 -0.057716835 0.047503505 -0.0959103
-0.061562706 0.07938973 0.14957662 -0.06673799 -0.16396743 -0.2117395 -0.059107885 0.369357
-0.1530896 0.29109627 0.08041153 -0.15601823 -0.25977862 -0.07766391 0.12241817 0.23768619

actor_fc.bias f4 [6]
00000000: 3f08 9a3d 6a63 24bc 6072 2f3d be9d 0e3d
00000010: e444 74bd 3c7a cd3d
0.07521104 -0.010033468 0.042833686 0.034818403 -0.05963601 0.1003308

fc1.weight f4 [512, 192]
00000000: 3419 3640 69cc 9a3f 0079 ef3f 73e4 0740
00000010: 28c0 b740 fa58 bb40 4acf 24bd 12b1 36bd
00000020: 104e dabf 57d7 c3be 43b8 14bd 3d27 c3bc
00000030: 4246 02c0 41e3 6e40 e176 15bd 5670 8dbd
00000040: eaee cebf c8d6 0abd d0d5 6b40 93f0 0840
00000050: 3b9e 0a3d 4e6f 9cbc d255 9140 3f80 9b3f
00000060: e90b 7940 239f 95bf f66d 993e a24e 883f
00000070: deb9 92bc b41e 6b40 0e28 1440 7646 8dbf
00000080: 1e37 4240 f603 b13f d114 5140 708a 9a3f
00000090: e22d 4240 8bfc 0d3f 89af 3f3d bf63 0440
000000a0: f9ad 863f d626 59bf b318 3340 e432 2140
000000b0: fa35 4d40 ea08 9740 427d c53f 499e d43f
000000c0: 2f51 a23f 164c 6540 28ad 593f f166 4c40
000000d0: bb7d f23f ecbc cdbc 819e 47c0 0a39 06c0
000000e0: baa4 313c c31c 10bd df91 3ec0 4154 7440
000000f0: 7997 703c 4ad6 4cbd 09dc 6bc0 30c3 553d
00000100: 3ba9 0840 b579 0640 07a0 293d 9458 233d
00000110: bd01 9a40 4883 d33f 632e 4f40 bb84 82bf
00000120: 3b67 873f 6145 ec3f db50 933d c06e 6740
00000130: 2a31 b7be 81b1 49c0 44b2 5340 b92b f43f
00000140: 4389 3440 d455 963e d0d7 f73e 5fc1 963f
00000150: 3750 983b 3bb4 f93f 118c 2540 92ab 31bf
00000160: 6f32 5e40 0258 2c40 a677 4a40 7022 3840
00000170: de12 923f 4c2d 59be bc98 8140 0caa 9340
00000180: b8e0 c33f b9d9 cf3f c30d a03f c817 6040
00000190: 4e66 5b3f fde6 4840 4d10 ee3f eedb 2b3d
000001a0: 43b7 44c0 cef3 06c0 07e8 423d 41fc 54bd
000001b0: 33f7 45c0 2f9b 7740 cadc 0abc e01c 6c3d
000001c0: 939e 68c0 1837 423b 9e6d 0340 49b8 0640
000001d0: d405 55bd c6d2 20bc 5124 9740 ba4c c73f
000001e0: 3970 5540 0d89 7dbf 7fce 833f 4915 ef3f
000001f0: ede6 ea3b be8a 6340 65f0 94be 81a3 49c0
00000200: 3a0e 5240 61db ec3f c7d0 2c40 b4b0 a53e
00000210: de69 0b3f 25f6 893f 67ca 93bd 452d ec3f
00000220: 21d1 2340 4056 35bf a344 5f40 062b 2840
00000230: a4dc 4840 7ec9 3e40 f228 3340 19ba 943f
00000240: 2ce3 f43f 48d8 0240 c459 bb40 1c6a b940
00000250: dabf 313d d6cc 40bd 1653 d4bf 3108 b6be
00000260: 490d 093d 6ee9 623d 845f 03c0 413e 7440
00000270: 9e30 663d 2c80 cb3c eea9 d5bf 0862 70bc
00000280: fe0c 6e40 f922 0140 6194 c83c 2ebd 873c
00000290: 788b 9140 d130 9f3f 0b1c 7d40 a7ed 86bf
000002a0: 0069 9f3e 342b 903f a44d 3a3d 1637 6d40
000002b0: b464 1040 fad2 94bf 6215 3f40 76e0 b23f
000002c0: 95ed 4c40 9833 8e3f 1e45 4740 230d e73e
000002d0: 7497 52bd e684 0740 7b6a 973f 5ef3 4fbf
000002e0: 5f1f 3540 4ebb 1d40 faa7 4d40 a004 9a40
000002f0: c26f 87bf c122 fc3d 6bf1 9440 d3fd 9040
00000300: c37e 7440 6206 6340 b264 6040 771a 9f40
00000310: e6a8 613f ee91 7d40 bfdf 8c40 1d71 ed3c
00000320: f892 62c0 42d4 5fc0 71db ab3c 8950 843d
00000330: 4fe5 2cc0 fcfd 9e40 4fdf 813d 3725 773b
00000340: de4a f2bf f5fe 7f3c 87c7 b040 acaa 6340
00000350: 83d1 373d 71a4 77bd f5fd f240 5d08 dc3f
00000360: 5c27 4f40 4e98 36be 10de 15c0 c154 913f
00000370: b149 7abd 2552 a340 3bde 5c3f 14d2 30c0
00000380: 210e 8e40 890b 1840 54e1 0140 1933 ae3d
00000390: f2b4 933e 4df9 fa3e 737c c3bc ab12 2140
000003a0: 71e8 b83f 5828 a5bf 45c2 9540 53fb 2640
000003b0: eb62 8440 b5b5 9840 c07a 9340 1bc9 4b40
000003c0: 6f61 5440 847e a140 0d2c 5fbf 8b7f 1d40
000003d0: 6b26 9740 deeb 8bbd 2aab 58c0 5272 49c0
000003e0: 6c7c 833d c66d 52bc 3803 1ec0 36df 7840
000003f0: 680a 503d 210b 91bb 781e 3dc0 2055 683d
2.8452883 1.2093631 1.8708801 2.1233184 5.7422066 5.8546114 -0.04023675 -0.04460246
-1.7055073 -0.3825023 -0.03630854 -0.023822421 -2.0355382 3.7326205 -0.036490325 -0.06906192
-1.6166661 -0.033896238 3.684925 2.1396835 0.033842307 -0.019096043 4.541726 1.2148513
3.891352 -1.168919 0.29966706 1.0648997 -0.017910894 3.673749 2.3149447 -1.1037128
3.034614 1.3829334 3.2668955 1.2073498 3.0340505 0.55463475 0.046798263 2.068588
1.0521842 -0.84824884 2.7983825 2.518731 3.2064195 4.719838 1.5428851 1.6610805
1.2681025 3.582769 0.8502984 3.193783 1.894462 -0.025114499 -3.1190493 -2.0972314
0.0108424965 -0.03518368 -2.9776533 3.8176425 0.014684551 -0.05000905 -3.6853049 0.0521881
2.135329 2.1011784 0.04141238 0.039879397 4.812712 1.6524439 3.2372062 -1.0196756
1.0578378 1.8458673 0.07193156 3.6161346 -0.35779697 -3.151459 3.3077555 1.9075843
2.8208778 0.29362357 0.4840684 1.1777762 0.004648234 1.9508127 2.586674 -0.6940242
3.4718282 2.6928716 3.1635528 2.877102 1.1412008 -0.21208686 4.0498943 4.6145077
1.5302954 1.6238319 1.25042 3.5014515 0.8570298 3.1390984 1.8598725 0.04195779
-3.0736854 -2.1086307 0.04758456 -0.05199838 -3.0932128 3.8688467 -0.008475492 0.057644725
-3.6346786 0.002963489 2.0535655 2.1049979 -0.05200751 -0.009815877 4.723183 1.557029
3.3349745 -0.9903725 1.0297393 1.8678371 0.007168642 3.5553432 -0.29089656 -3.1506045
3.2821183 1.8504449 2.7002428 0.32361376 0.54458416 1.0778242 -0.072163396 1.8451315
2.5596392 -0.7083473 3.4885643 2.627626 3.1384668 2.981048 2.799374 1.1619292
1.9131827 2.0444508 5.8547077 5.794203 0.043395855 -0.047070347 -1.6587856 -0.35553125
0.033459935 0.055398397 -2.0527048 3.8162997 0.05619871 0.02484139 -1.6692483 -0.01467181
3.719543 2.0177596 0.024484815 0.0165697 4.548275 1.2436773 3.9548366 -1.0541276
0.31134796 1.1263185 0.0454842 3.7064872 2.2561464 -1.1626885 2.98568 1.397475
3.2020009 1.1109495 3.1135936 0.4512721 -0.05141397 2.1174865 1.182937 -0.81230724
2.8300397 2.4645572 3.2133775 4.8130646 -1.0580981 0.12311316 4.65447 4.5309844
3.820237 3.5472646 3.506146 4.9719806 0.88148344 3.9620318 4.4023128 0.0289846
-3.5402203 -3.4973302 0.020978661 0.06460673 -2.701496 4.968504 0.06341421 0.003771139
-1.8929098 0.015624751 5.5243564 3.557292 0.04487754 -0.060459558 7.5935006 1.7190052
3.2367773 -0.17831537 -2.3416786 1.135399 -0.061105434 5.1037774 0.86276597 -2.7628222
4.4392247 2.375704 2.029378 0.0850584 0.28848988 0.49018326 -0.023863053 2.5167644
1.4445935 -1.2902937 4.6799645 2.6090896 4.137075 4.772181 4.608734 3.1841495
3.3184469 5.046694 -0.8717659 2.4609096 4.7234397 -0.068320975 -3.385447 -3.1476026
0.06420216 -0.012843555 -2.4689465 3.8886237 0.050791174 -0.0044263755 -2.9549847 0.056721807

fc1.bias f4 [512]
00000000: 2b7a 9c40 7bbf 0341 0e3e ff40 4e89 b240
00000010: 864a 3f40 0371 1940 d485 6940 a591 0741
00000020: a7a4 9c40 5663 e940 bdb6 8940 88f1 7440
00000030: 08f8 9940 2341 5240 6917 0741 efd9 1441
00000040: 50d0 2d40 eb36 0041 e4e7 0d41 1724 0b41
00000050: 28c8 8140 d317 8840 a60d f140 e392 0041
00000060: 611a 0041 55b4 8240 691a 0941 4e62 0541
00000070: 95e8 9f40 4642 6940 0adb 8f40 b4f4 8040
00000080: de09 0741 14a3 0141 7660 cc40 fd19 0941
00000090: 30da e540 825f ab40 00b5 e140 296c d340
000000a0: 51dd 6a40 5c93 bc40 d1a4 e740 6bbf 4c40
000000b0: 05b3 6540 7716 0741 5714 0641 0b38 0241
000000c0: 5c0d e340 1db5 0541 77a5 ce40 bc2c cf40
000000d0: f50f fa40 a204 b740 290a 7940 fc88 7740
000000e0: ba06 b140 17a1 0c41 ebf8 ac40 e5da cb40
000000f0: ddb7 3540 a167 0741 d4d4 aa40 e039 f140
00000100: 6b9e c540 d274 8f40 d530 0541 0427 ec40
00000110: f97a 9640 b1ce 7940 caf9 b140 1142 a640
00000120: adff 7740 cf67 d640 8133 6940 3e49 0241
00000130: eb48 bf40 eea8 f640 e3b1 9b40 69ab b740
00000140: e77c eb40 516b 5540 4b84 4c40 ff40 ba40
00000150: 329b 0641 ca76 b440 7e00 bb40 c9ef 4640
00000160: c5c1 a540 06c6 d940 3085 b340 d9d6 0641
00000170: 0e94 6540 e37f cc40 2401 c340 5a36 0a41
00000180: cc70 0441 98e7 0741 7833 0641 6b21 9140
00000190: f576 fd40 fc24 9740 1cc5 0b41 e8bf f240
000001a0: d96f b340 b77f 7440 952f 2940 e6e0 e440
000001b0: 0077 0241 e8c8 ca40 1a23 8d40 c0e7 0b41
000001c0: 7bbe 7140 c78b 0941 dd44 ae40 bc99 0641
000001d0: a6cc 9d40 8c56 0a41 c4a2 b140 469d 0241
000001e0: ec47 6c40 18ef 0f41 11c3 0341 83cf 5640
000001f0: 6fff 8e40 f3d2 fd40 4309 0941 c8ff c540
00000200: 08ad 4740 e15c 0441 4ce4 0741 35e1 0a41
00000210: 3d7a 0941 e599 8e40 867d 9740 f500 2840
00000220: 3fa1 0441 25a5 8340 25c8 9c40 e3c3 0841
00000230: d326 0b41 2b86 cd40 30b5 0741 486d 0541
00000240: 0598 8e40 bbf8 3840 cf85 a940 fa5c 9440
00000250: f264 0a41 afa7 0b41 180e 0741 f484 c340
00000260: ea70 4140 dfa0 8040 8234 9640 1167 b440
00000270: 2bb6 0441 544b 1541 5f87 f640 2996 9940
00000280: 1466 ec40 2f7a 9340 c157 1041 f48a 3c40
00000290: 0ba0 2340 662d 0441 5ea3 0741 950e fd40
000002a0: 052e c140 2a85 0241 a470 7340 7c2a e540
000002b0: 3401 c640 88c0 0641 1cee 6f40 1426 0841
000002c0: 06e1 e340 c228 0741 21c5 ac40 42cb e340
000002d0: 2da4 0841 2687 0d41 52af 7640 6f31 dc40
000002e0: 7d4f b440 d1ba d440 761d 5540 f55d 0941
000002f0: dd95 f340 d0b9 8640 bbc5 0841 2f25 0c41
00000300: 29a6 8b40 767a 8140 3cd4 8640 42bd b340
00000310: fe68 2440 2f5d fd40 b58c 7640 6372 a540
00000320: ccaf 9040 6b05 d940 ff89 fc3f 9333 8340
00000330: 99cc 0e41 b43d de40 4ecd 0741 048c 0841
00000340: 6bcc 0c41 618c 0541 02d2 4c40 566d a540
00000350: 22e2 5740 7a79 3c40 d938 0641 b5d6 0241
00000360: 741d f540 f7c3 8e40 7e9f 0641 0a97 0241
00000370: 1fed f440 4869 5e40 1c84 f940 2729 8340
00000380: 5069 9240 8f3d 8240 09e3 0641 2e54 9b40
00000390: 8b22 0b41 c2e8 0041 bda7 0841 fd12 8840
000003a0: 6f7a 0141 71aa 0841 0259 0541 29d9 9f40
000003b0: cc13 0a41 3ba9 0441 4487 a440 6099 fc40
000003c0: 3404 0b41 4c46 9f40 20b4 1640 4652 8040
000003d0: a27c f640 78d8 0b41 25a8 9440 e39a 7340
000003e0: da8e 9740 d06e 6340 07eb d340 e4b9 5840
000003f0: 0df0 8140 f45b ac40 76db a040 44f3 0041
4.889913 8.234248 7.976325 5.579261 2.9889235 2.3975227 3.6487932 8.473058
4.895099 7.293376 4.303557 3.827242 4.8115273 3.2852256 8.443215 9.303206
2.7158394 8.013408 8.869114 8.696311 4.055683 4.252908 7.532916 8.035861
8.00644 4.084513 8.568948 8.3365 4.9971414 3.64467 4.495488 4.029871
8.439909 8.102314 6.386775 8.568845 7.182884 5.3554087 7.0533447 6.606953
3.669758 5.892988 7.238869 3.1991832 3.5890515 8.442985 8.379966 8.138682
7.095381 8.356717 6.4576983 6.4742107 7.814448 5.7193155 3.8912451 3.8677359
5.532071 8.789329 5.4053855 6.3704705 2.8393471 8.4628 5.33848 7.538315
6.175588 4.4830103 8.324422 7.3797626 4.7025113 3.9032404 5.561742 5.1955647
3.8749802 6.700172 3.6437685 8.142881 5.977651 7.7081213 4.8654647 5.739674
7.358997 3.334675 3.1955745 5.820434 8.4128895 5.6395006 5.84381 3.1083853
5.1799035 6.805423 5.6100082 8.427453 3.5871615 6.390611 6.093889 8.638269
8.277538 8.494041 8.387566 4.5353293 7.920771 4.7232647 8.735622 7.585926
5.6074033 3.820295 2.6435292 7.1524534 8.154053 6.3370247 4.410535 8.74408
3.777251 8.596625 5.445906 8.412533 4.9312315 8.64613 5.551119 8.163397
3.6918898 8.9958725 8.235124 3.3564155 4.468681 7.9320006 8.564761 6.1874733
3.119936 8.2726755 8.493237 8.679982 8.592343 4.456286 4.7340727 2.6250584
8.289367 4.1139092 4.8994317 8.547824 8.696979 6.422628 8.481735 8.33918
4.456057 2.8901813 5.297584 4.6363497 8.649645 8.728438 8.440941 6.1099796
3.0225167 4.0196376 4.6939096 5.6375813 8.294475 9.330891 7.704025 4.79958
7.3874607 4.608665 9.021424 2.945981 2.5566432 8.261084 8.477385 7.90803
6.0368676 8.157511 3.80375 7.161436 6.187647 8.422005 3.748908 8.509296
7.1212187 8.447451 5.3990636 7.1185617 8.540082 8.845495 3.8544507 6.8810344
5.634703 6.6478047 3.3299232 8.585439 7.612044 4.210182 8.548274 8.759078
4.364033 4.046199 4.2134075 5.6168528 2.5689082 7.917625 3.852338 5.170213
4.5214596 6.7819114 1.9729613 4.1000457 8.924951 6.945032 8.487623 8.5341835
8.799907 8.346772 3.2003179 5.1695967 3.373177 2.9449143 8.388879 8.177419
7.6598454 4.4614215 8.4139385 8.161875 7.6539454 3.4751759 7.7973766 4.0987735
4.5753555 4.0700145 8.4304285 4.854026 8.695933 8.056826 8.540952 4.252318
8.092391 8.541612 8.33423 4.995259 8.629833 8.291316 5.141512 7.8937225
8.688526 4.977331 2.354744 4.010043 7.702714 8.740349 4.6455255 3.8063285
4.736188 3.5536385 6.62244 3.3863459 4.060553 5.3862247 5.0267897 8.059391

ln1.weight f4 [512]
00000000: 96cf 1c40 c189 5f3e 14a5 7dbd e598 853e
00000010: caec 0c3f 3bec cd3f b9a8 d73f 75fc a33e
00000020: c671 7040 853d 4d3e ca38 8c40 3ec1 dc3f
00000030: c4f0 fd3f 43ed b03f 0eb8 983e 917c d03d
00000040: 1604 a03f 1913 d73e 5767 a83e ebaf ae3e
00000050: 46da 413e 5f70 cb3f edc0 0c3e bbe0 bf3e
00000060: 84c1 9b3e 3d74 253f dfb2 983e f6dc 873e
00000070: bbc3 0640 27b0 ab3f 5c4f cb3e dab0 ea3e
00000080: 9125 a43e 5a33 0e3e aac2 303f 33ca a63e
00000090: f4c7 9cbc d63c 2f40 94ce 083f de19 bd3f
000000a0: 1d41 ad3f bc37 b23f 9c6c 0e3f a066 c53f
000000b0: c3ea 8d3f cecc 753e 3551 513e 11a9 503e
000000c0: b047 8a3e e395 8d3e 651e a53c 0e0a 233f
000000d0: e440 093e 7ef5 8a3f 21f9 f93f aebc be3e
000000e0: 1049 c83c 4300 9c3e 68db 6840 f762 6d3e
000000f0: f848 a53e 6d97 1fbc a351 f13f 90dd c8bc
00000100: fba3 573f f6c9 133f ad62 9d3e eed7 043c
00000110: 9ba7 1340 b021 0240 0a19 963f c61a 1d40
00000120: ce6d e83f 5f16 f83b aabf c33f a4f1 9c3e
00000130: 6aa7 d33f 2fb9 073c 3176 5940 d4d3 cc3d
00000140: e0b0 ce3d cc03 603f da3d 973f 5692 333f
00000150: 4546 7b3e a339 9f3e cd83 3240 71cd 393f
00000160: b163 3b3f 1685 ef3e bcc4 c63f 9589 df3d
00000170: f58a 883f dedc ba3e dbaa b33d 7794 bd3e
00000180: 9109 ab3e fbbb 343e a6fd a93e c674 823f
00000190: 995c b53e 06e8 6340 36a9 b83e 6b0e c23e
000001a0: 103b d33d 6fee 833f 0027 413f 8847 ec3e
000001b0: c266 be3e 5d94 043f 8d90 d03f 4125 ad3e
000001c0: 7900 183f de34 133e b263 4f3f 09a1 453e
000001d0: 1483 983f 7883 fe3c 7f7c d23f 5f74 4e3c
000001e0: 0b4e e83f c399 853e 2934 9b3e eae5 943f
000001f0: bc02 b03f a4c7 e63e 4ddb 953e 5e1a fb3c
00000200: 9bae 633f 6b31 a63e 9457 8a3e 492c ad3e
00000210: 492a 243e 46df cf40 6635 573f 6348 f23f
00000220: 9d3c 943e b134 a23f 1cdf 5240 6ca2 aa3e
00000230: 8d09 783e 8592 0b3e bd59 b23e d766 093e
00000240: 46de d53e 86b9 7d3f 3237 7a40 58e4 183f
00000250: 80a4 ac3e ba30 a63e 5706 a83e 5af5 a03e
00000260: 99c6 be40 73ac a13f 103e cd3f 258a b33b
00000270: b4e3 6d3e 79a6 663e d747 113d 427b 4a40
00000280: f896 e73d 6147 9040 e6c2 6d3d d430 f63f
00000290: 2ba6 6a3f 63a2 bc3e 5a00 803e 2d47 8e3e
000002a0: 6eef 583f 2ea0 793e 4bd5 313f a518 9f3e
000002b0: 9acc 493f 5e5c 9a3e a0ba 8a3f e14f 993e
000002c0: 60a0 693e 5164 9f3e ab98 443d 86fd 603d
000002d0: eef9 a83e b120 813e 2bb7 163f 0eff cf3e
000002e0: cac2 b83e 3830 2b3e 72a6 b53f acc7 9d3e
000002f0: 55ed ac3e 78e1 a23f d0d6 bd3c 8894 aa3e
00000300: a12c 5440 8a3a 1f40 dbc6 b13f debb 213f
00000310: 9aa0 a73f 613c 1f3e 31aa 4c3f 1f59 cd3f
00000320: 2e5f 123f 9dcd 8a3c 6196 973f 42b9 d73f
00000330: 5703 743e 8a8c 183e bd07 7f3e fbb3 613e
00000340: 9724 a93e 0182 b03e a612 c93f 88f6 3a40
00000350: 2129 513f 5330 343f 93c7 9e3e 9d36 8f3e
00000360: a872 103f 9f7e 293f ecc7 783e 9c8e a73e
00000370: 318b 993d b119 343f b8cd bc3d abc7 8c3f
00000380: 34ed 2740 48cd 523f e3ec c23e 0a65 8940
00000390: 3b8f ac3e 938f cf3e fd8d 993e 93fa 6c3f
000003a0: 3c05 833e 59aa 9c3e cdc6 ab3e ebd5 003f
000003b0: 0a78 a13e e912 c83e 3e8c 883f 7e14 783e
000003c0: 24dd a73e 74cb d33f 0e18 803f ce3d 143f
000003d0: 3c43 f33e 9f72 a43e 67e6 4b40 f6a8 813f
000003e0: 170e d43f 7614 1d3f 01a2 6e3d 2457 223f
000003f0: f565 ab3f 2258 fb3e fad5 303f 8fe3 b83e
2.45017 0.21829893 -0.06192501 0.26093212 0.5504881 1.6087717 1.6848365 0.32028547
3.7569442 0.20042999 4.3819323 1.7246473 1.9839101 1.3822407 0.29827923 0.10180009
1.2501247 0.42006758 0.32891342 0.3411859 0.18930921 1.5893668 0.1374547 0.37476143
0.30421078 0.6463049 0.29823968 0.26535767 2.1056964 1.3413132 0.39708984 0.45838052
0.3205991 0.13886777 0.69047034 0.3257614 -0.019138314 2.7380881 0.53440213 1.4773519
1.3535496 1.3923259 0.55634475 1.5421944 1.1087269 0.24003908 0.20441134 0.20376994
0.27007818 0.27653417 0.020156095 0.6368722 0.1340366 1.0856168 1.9529153 0.37253326
0.024448901 0.3046895 3.6383915 0.23182283 0.32282233 -0.009740693 1.8853039 -0.024519712
0.8423459 0.5773004 0.30739346 0.008108122 2.3071048 2.0333061 1.1726391 2.4547591
1.815851 0.007571026 1.5292866 0.30653107 1.6535466 0.008283897 3.3978388 0.100013405
0.1009233 0.87505794 1.1815751 0.70145166 0.24538524 0.3109866 2.7892945 0.72579104
0.7319899 0.46781224 1.5528789 0.109149136 1.0667406 0.36496633 0.087728225 0.37027332
0.33405736 0.17649834 0.3320133 1.0191886 0.3542221 3.5610366 0.36066598 0.37901625
0.10314 1.0307139 0.75450134 0.46148324 0.37187773 0.51788884 1.6294113 0.33817485
0.5937572 0.14375636 0.810115 0.19299711 1.1915002 0.031068549 1.6444243 0.012600987
1.8148817 0.26093873 0.30313233 1.1632664 1.3750834 0.4507419 0.29268876 0.030652221
0.889383 0.32459578 0.27019942 0.3382285 0.16031756 6.496005 0.84065855 1.8928341
0.28952494 1.267233 3.2948675 0.33327043 0.24222393 0.13630112 0.3483409 0.13418137
0.41771144 0.9911121 3.9096189 0.59723425 0.33719254 0.3245905 0.32817337 0.31437188
5.961743 1.2630752 1.6034565 0.0054791146 0.23231393 0.22524442 0.035468902 3.163773
0.11308092 4.5087132 0.058047198 1.9233651 0.916598 0.3684264 0.25000268 0.27788678
0.8474034 0.2437751 0.69466084 0.3107349 0.7882782 0.30148596 1.0838203 0.29943755
0.22815084 0.31131223 0.047997158 0.05492928 0.3300318 0.25220254 0.5887324 0.4062428
0.36086112 0.16717613 1.419142 0.308164 0.3377482 1.2725058 0.02317372 0.33316445
3.315224 2.487948 1.3888811 0.6317729 1.3095887 0.15550376 0.7994719 1.6042823
0.5717648 0.016943747 1.1842767 1.6853411 0.23829399 0.14897361 0.24905296 0.22041313
0.33035728 0.34474185 1.5708816 2.921297 0.8170338 0.70386237 0.31011638 0.27971354
0.5642495 0.66208833 0.24295014 0.3272599 0.07497252 0.703517 0.09218925 1.0998434
2.6238527 0.82344484 0.38071355 4.293584 0.33703026 0.40539226 0.2999114 0.92569846
0.2558993 0.30598715 0.3355011 0.5032641 0.31536895 0.39076927 1.0667799 0.24226567
0.32785904 1.6546464 1.0007341 0.57906806 0.47512233 0.321187 3.1859376 1.0129688
1.65668 0.61359346 0.058259968 0.63414216 1.339049 0.49090677 0.690765 0.36111113
