project_3/checkpoints/checkpoint_cycle_12_20241025_150609.pt (torch, 624868 bytes, 12 tensors)

shared_fc.weight f4 [512, 96]
000000 ed f3 86 bd 92 a5 1d 3e 2e df f9 3d 08 5d ea 3d
       -0.06589494 0.15395191 0.12200771 0.114435256
000010 00 1f 7d 3e 84 09 08 3e 54 30 18 3e 6b 06 b9 bd
       0.24718857 0.1328488 0.14862186 -0.09034427
000020 23 5b d2 3d ce 33 66 3d 75 3e 6b 3d 05 a4 cb bd
       0.10271289 0.05620175 0.05743261 -0.099433936
000030 c2 a9 33 b9 ff f6 0a 3d 51 44 97 3c 23 e2 8e 3d
       -0.0001713401 0.03392696 0.018465193 0.06976726
000040 b5 44 7e 3e c5 dd 7b 3c 3c b7 54 3e ab d2 a4 3d
       0.24830897 0.015372698 0.20773023 0.08047994
000050 c7 6f 78 bc 0c 31 a0 3d 3c ca 61 3e 63 4c 1b 3e
       -0.015163369 0.07821855 0.22049803 0.15165858
000060 f5 05 be 3d 4e 22 99 3c a5 55 49 be cb 16 3d 3d
       0.0927848 0.018693116 -0.19661577 0.046164315
000070 cc a7 c1 3d 0e fe 50 3e 89 32 d4 3d 5d 0f cb 3e
       0.09455833 0.20409414 0.10361201 0.3966016
000080 29 2d 2e 3d 58 56 23 3e 4d a8 3c 3e 83 cf 6b 3e
       0.042523537 0.15950906 0.18423577 0.23028378
000090 2a c4 6d 3d 92 b1 70 3e 4f 0c 0e ba 89 2a 86 3c
       0.058048405 0.23505238 -0.0005418704 0.016377704
0000a0 c1 8b 8b bc 94 4e 5c 3c 8d ae 34 bc ee 91 76 bd
       -0.017034413 0.013446469 -0.011027944 -0.060197763
0000b0 2b 91 a4 ba 39 65 4c bd 8b 33 90 3d fe 6b 2d 3e
       -0.001255547 -0.04990122 0.07041081 0.16935727
0000c0 17 36 ec ba f7 76 dc 3d a4 79 85 bc 15 8e d0 bd
       -0.0018021491 0.10764878 -0.016293354 -0.1018335
0000d0 fa 1d 93 3e 94 f1 a0 3d 71 21 ce bd a8 dc af bd
       0.28733808 0.07858577 -0.10064972 -0.08587009
0000e0 eb 5d af bd 8c 35 c3 3d 09 b1 f6 bd f2 58 79 3e
       -0.08562835 0.09531698 -0.120454855 0.24350336
0000f0 72 7f 02 bd 61 16 c8 3c 8b a6 ec 3d 15 c9 38 3d
       -0.031859823 0.024424734 0.11555203 0.04511364
000100 9c 11 1a 3e 6b ed 08 3e 7e 78 13 3d 7a 77 c4 3d
       0.1504578 0.13371818 0.036003582 0.09593101
000110 26 1a 51 3e 26 9e 3e 3e 2b b4 55 3e 09 51 50 3d
       0.20420131 0.18615016 0.2086951 0.05085853
000120 d3 44 88 3e bf 22 d9 bc ae 54 50 bd f6 e7 0d 3e
       0.2661501 -0.026505826 -0.050862007 0.13858017
000130 37 1c 32 3e 23 45 eb 3d 1b 52 b6 3d 48 37 06 bd
       0.17393576 0.11487796 0.08902379 -0.032767564
000140 ec 3a 40 3e 93 47 33 3d 2f 70 76 3d b7 b1 0c 3d
       0.18772477 0.04376943 0.06016558 0.03434917
000150 58 6d 9f bd e9 90 a9 3d a5 e3 89 bd 3c 2c ad 3d
       -0.077845275 0.082795925 -0.06732873 0.08455703
000160 03 05 fd 3d 2c ab 55 3e 47 d3 10 3c d8 b6 50 3e
       0.123544715 0.20866078 0.008839435 0.2038225
000170 f4 fe 8e 3d d7 47 9f bd 91 a4 50 3d 5d 4f 48 3e
       0.06982222 -0.07777374 0.050938193 0.19561525
000180 a7 cf ab 3d 0d 16 9c 3d 59 f7 ab bd 53 30 13 3e
       0.08389216 0.07621393 -0.08396787 0.14373903
000190 e6 ea 6b be 85 4a 9a 3e 3d a6 39 bd 99 e1 cd 3d
       -0.23038825 0.3013498 -0.045324553 0.10052795
0001a0 56 9b 9d be ec 38 ba bd a2 62 bf bd 79 68 c4 3d
       -0.30782574 -0.09092888 -0.093449846 0.09590239
0001b0 c0 27 87 be 38 89 d2 3d a7 c5 18 bd b9 c2 aa 3d
       -0.26397514 0.10280079 -0.03729787 0.08337922
0001c0 55 ee 76 be 5a 9f 39 3d fd bb 73 3d 15 3d 61 3d
       -0.24114354 0.045317985 0.05950545 0.054989893
0001d0 10 36 cb 3c 8f 27 2a bd d3 31 1b 3e 79 c2 1e 3e
       0.024806052 -0.041541632 0.15155725 0.15503873
0001e0 ce 38 f7 bd f9 8a 48 3c 48 de 3f 3e c8 19 93 bd
       -0.120713815 0.012240165 0.18737137 -0.07182652
0001f0 ac 40 5f bd 82 5b 39 3e 78 42 03 bc 89 a3 55 3d
       -0.054505035 0.18101314 -0.008011453 0.052157912
000200 df 28 5f bb f5 62 50 3d 16 6f 1b 3e 3a 75 fa bb
       -0.003405146 0.050875623 0.15179095 -0.007643369
000210 74 c1 ad bd 83 17 09 3d 86 b5 34 3d c2 5a 93 3c
       -0.08484164 0.03346969 0.044118427 0.017987613
000220 59 20 c1 bc 6b 76 16 bd 26 19 ce 3d 94 20 4f 3e
       -0.023574995 -0.036734026 0.100633904 0.20227271
000230 97 cb a5 3e 87 b3 ab 3e 98 2c ba 3d d2 2d c7 3c
       0.3238189 0.33535406 0.09090537 0.024313841
000240 0f c8 0e 3e 92 d5 29 3d 78 e8 db 3d 39 59 39 3d
       0.13943504 0.041463442 0.10737699 0.045251105
000250 4c dc 68 3d a8 02 7a 3d 27 ca 49 bd dd 1a e6 bb
       0.056850716 0.06103769 -0.049265053 -0.0070222453
000260 e7 df 81 bd 6d 5d 2d 3d 13 a7 97 3c 49 24 18 3e
       -0.06341534 0.042325426 0.018512284 0.14857592
000270 e9 24 11 bd c3 8f 21 3d c2 ae 73 3d b7 36 c7 bd
       -0.03543559 0.039443742 0.059492834 -0.09727233
000280 ef 11 41 3e 2e 7f d6 bc 71 c9 e5 3c c1 6b 4d bd
       0.18854497 -0.02618369 0.028050156 -0.05015159
000290 2e bb 4c 3e 2e 65 c1 3d ca dd fe bc 22 a0 c9 bd
       0.19993278 0.094431266 -0.031111617 -0.09844996
0002a0 45 40 1a 3e 84 13 18 3e e5 7a 3b 3b 0c 55 c0 3d
       0.1506358 0.14851195 0.0028607186 0.093912214
0002b0 8a 35 95 3d 3a 38 4f 3c 61 3b a4 3d 1b e1 03 3e
       0.072856024 0.012647683 0.08019138 0.1287884
0002c0 05 d5 59 bd 7c 61 7c bb bc b0 15 3e 49 d1 95 3d
       -0.053181667 -0.0038510254 0.146182 0.073153086
0002d0 16 d7 08 bd 77 77 a2 3d cc 36 c4 3d fb 4c c8 bd
       -0.033408247 0.07932942 0.09580764 -0.09780308
0002e0 80 41 ff 3d 29 7a cb 3d c6 19 ad 3d e7 05 50 3e
       0.12463665 0.099354096 0.084521815 0.20314752
0002f0 c9 0f d4 bb 36 a0 05 3e 66 48 62 3e cf 5a 0e 3d
       -0.0064716083 0.13049397 0.2209793 0.03475457
000300 47 4d 59 bc 86 60 fb bc 17 5f 2c 3d 3e 00 38 3b
       -0.013263053 -0.030685674 0.042082872 0.0028076316
000310 ec db ce 3e 7b 2c c6 be 8c d9 93 bd 96 db 9d bd
       0.40402162 -0.3870581 -0.07219228 -0.07707898
000320 64 01 2c be 63 38 07 be bf 33 09 bd 75 4c 32 bd
       -0.16797405 -0.13205104 -0.033496615 -0.043529946
000330 8d 72 28 be 06 70 27 3e de 78 bb bd ce bf b5 3d
       -0.16449948 0.16351327 -0.09153913 0.088744745
000340 d4 8a b8 3d d7 f0 b2 3d 0d f8 93 3c f5 ed 58 3d
       0.09010854 0.08737343 0.018062616 0.05296131
000350 5a 05 78 bd e9 b9 8e 3d 86 6b 94 3d 49 dc 60 bd
       -0.06055198 0.06969053 0.07247071 -0.05489758
000360 10 7b 37 bd dd 3b f7 3d ec 6d d0 bd 93 19 f5 3b
       -0.044795096 0.12071965 -0.10177216 0.0074798553
000370 9d 25 88 bc 37 50 23 3d 53 af 4b bd fc 90 b7 bb
       -0.016619498 0.03987142 -0.04972775 -0.0056020003
000380 28 c9 b9 3d c7 c4 af bd 5d 80 22 3e 60 35 0f 3e
       0.09071571 -0.08582454 0.15869279 0.13985205
000390 6b cc c3 bd e0 a5 aa bc a7 0f 44 bd f4 27 e6 3d
       -0.09560474 -0.020831048 -0.04786649 0.11238089
0003a0 de ff 39 3e e7 22 9c 3d 2e 01 a3 3d 62 7f f2 3d
       0.18164012 0.076238446 0.079592094 0.118407026
0003b0 f0 ae e9 3d 04 15 d2 bd e1 54 99 3d 25 fc a8 3d
       0.1141032 -0.10257915 0.074868925 0.08251218
0003c0 b6 ee e9 3d 5f fe ab bd 4e 88 8b be e8 f2 9b be
       0.114224836 -0.08398127 -0.2725243 -0.3045876
0003d0 1a ff 49 3d f6 58 a9 bc 9b 98 00 be 39 6a 1e be
       0.04931555 -0.020672303 -0.12558214 -0.15470208
0003e0 e9 91 4d bc 41 85 09 bd 0e dd 8a bd 7c 4d 2f 3e
       -0.012546995 -0.033574346 -0.06780444 0.17119402
0003f0 73 fd c7 bd 8f 31 61 3d fc 2f eb bd 9f b5 8a 3d
       -0.097651385 0.054978903 -0.11483762 0.06772923

shared_fc.bias f4 [512]
000000 a6 99 1e 3e 98 1e e9 3d 94 20 57 3e de a9 dd 3c
       0.154883 0.113827884 0.21008521 0.027058538
000010 38 58 d9 3e 11 3a 1d 3e 3f ea cb bc 8e 3b 01 bd
       0.42450118 0.15354182 -0.02489197 -0.031550936
000020 aa 9d fd 3d f6 3e f0 bb 7a 8a 88 3c 42 a5 22 3e
       0.12383588 -0.0073317243 0.016667593 0.15883353
000030 bd 70 a8 3d 8e be f1 3d 14 86 34 3e 33 3b 60 3e
       0.08224628 0.118039235 0.17629272 0.21897583
000040 ae 56 ec 3d 84 fb 59 3e 51 59 20 3e 26 14 00 3e
       0.1153997 0.21287352 0.15659072 0.12507686
000050 70 49 11 3e a2 83 b0 3d 24 bd 68 3e 17 d2 70 3e
       0.1418817 0.08618857 0.22728401 0.23517643
000060 55 4b 47 3d 1e 55 00 3e 42 b2 1c bd ae 60 1b 3e
       0.048655827 0.1253247 -0.038255937 0.15173599
000070 bd af 0f bd ad c9 34 3d 1a 34 01 3e ae 49 15 3e
       -0.035079706 0.044137646 0.12617531 0.14578888
000080 6d 71 e1 3d 6c de 83 3e 44 56 9f 3d 25 ae f2 3d
       0.110079624 0.25755632 0.07780126 0.11849622
000090 f1 1a 6b 3e 39 07 cc 3c b7 b8 df 3c a6 86 50 3e
       0.22959496 0.024905788 0.027309759 0.20363864
0000a0 33 2b b8 3d 04 c2 55 bd bf 98 aa 3d d6 9f 9b 3c
       0.089926146 -0.05218698 0.08329915 0.018997114
0000b0 c5 50 5b 3d f5 5e 28 3e 14 36 03 3c 93 8d 92 3d
       0.053543825 0.16442473 0.008008499 0.071559094
0000c0 9b a1 c0 3e 44 b0 25 3d ee 78 8a bc 49 2d 69 3d
       0.37623295 0.040451303 -0.016903367 0.056927953
0000d0 c3 e1 85 3d 5b f1 1d 3d 5e 17 6a 3d 3e c2 a8 3a
       0.06537201 0.038560253 0.05715119 0.0012875271
0000e0 97 b1 0b 3e 8a c5 8b 3d be 81 a9 3e 54 cb 5e 3c
       0.13641964 0.06824787 0.33106798 0.013598282
0000f0 22 aa 54 3e d1 48 06 3e 40 56 24 3e ba 73 07 3b
       0.20768026 0.13113715 0.16048527 0.0020668344
000100 ae d9 01 3e 6f 23 79 3e 7f 7c d0 3d 74 12 46 3e
       0.12680694 0.24329923 0.10179996 0.19342977
000110 2f d7 2f 3e 47 c6 42 3d 22 1c 1e 3e 86 2c 29 3e
       0.1717193 0.047552373 0.1544042 0.1652089
000120 c4 c4 1a 3e a4 7e 25 3e a5 63 84 3e e5 7d 55 3e
       0.15114123 0.16161591 0.25857273 0.20848806
000130 b1 50 0c 3e b2 44 c6 3e 26 a6 75 bb a2 88 68 3d
       0.13702656 0.38724285 -0.0037483065 0.05677093
000140 f0 a6 3e 3e 9b 82 05 3d d3 76 1f 3e 34 32 58 3e
       0.18618369 0.03259526 0.15572672 0.21112901
000150 dc 81 5c 3e b1 28 51 3e 85 89 8d 3d 14 1b 72 3e
       0.21533912 0.20425679 0.069109954 0.23643142
000160 0b c7 6b 3e e5 a0 36 3e a4 6e 07 3e ea 0d 17 3e
       0.23025148 0.17834814 0.132258 0.14751402
000170 7f c2 4e 3b ec e6 0f 3e 44 6f d0 3d 4b 17 de 3d
       0.0031549034 0.14052933 0.10177472 0.108442865
000180 5b 89 89 3e 65 64 e0 3e 71 03 65 3d 9b dd b8 3d
       0.26862606 0.43826595 0.055911485 0.09026643
000190 19 35 40 3e 49 83 40 3c b6 82 a9 b9 d1 7f 18 3e
       0.18770255 0.011750051 -0.0003233158 0.14892508
0001a0 d4 f9 4d 3e 9a f4 90 3d 38 47 2f 3e 8c af 18 3e
       0.20114833 0.07077904 0.17117012 0.14910716
0001b0 90 10 5e 3d 53 86 16 3e 2d d9 fb 3c f2 4b d0 3d
       0.054215014 0.14699678 0.030743206 0.101707354
0001c0 4a ee 6c 3d f3 17 a5 3c ea 61 0b 3e 2b 3a 06 3e
       0.057844438 0.020153021 0.1361157 0.13108127
0001d0 3a 29 fc 3d 08 02 05 3e 5c 81 b8 3d 29 20 e2 3d
       0.12312551 0.12989056 0.09009048 0.1104129
0001e0 76 e3 40 3d e8 36 86 3d dd ed 37 3e 78 31 4f 3e
       0.047091924 0.06553441 0.17961831 0.20233715
0001f0 f2 a3 38 3e 6e 8b 04 3c e7 1f ed 3d 89 ac 96 3d
       0.1803129 0.008089883 0.115783505 0.07357127
000200 ad da a2 3d 9d 40 9d bb 45 d0 48 3e 71 30 5b 3d
       0.07951865 -0.0047989623 0.19610699 0.053512994
000210 26 81 08 3e 08 fb 90 3c 02 82 2a 3e cb df 06 3e
       0.13330516 0.017697826 0.16651157 0.13171308
000220 31 0f 8a ba c6 fe 1b 3e 41 18 f8 3e da 29 38 3e
       -0.0010533092 0.15233907 0.48456004 0.17984715
000230 1a c6 09 3e 4d de cc 3d 9c 40 36 3e 89 5d 03 bc
       0.13454476 0.10003338 0.17798084 -0.008017906
000240 75 d1 8d 3e 85 28 17 3e 55 14 4f 3e 81 62 26 3e
       0.27698866 0.1476155 0.202226 0.16248514
000250 13 4a 05 3e 09 d0 69 3e 8e c9 8a 3e 3a 4d dd 3b
       0.13016538 0.22833265 0.271069 0.006753591
000260 61 1b 5f 3e 6a 4c 60 3e 21 bb 54 3e 52 e0 f5 3c
       0.21787788 0.2190415 0.20774509 0.03001419
000270 b7 66 19 3e b7 13 90 3d c2 e1 db 3d 86 de 97 3c
       0.14980589 0.0703501 0.10736419 0.018538725
000280 e7 f4 d2 3d 52 7c 7e 3d 26 2c 22 3e 1d 04 99 bc
       0.10300618 0.06213028 0.15837154 -0.01867872
000290 22 f3 12 3e d0 c8 51 3d fa 51 13 3f 6d 83 7b ba
       0.1435056 0.0512169 0.5754696 -0.0009594474
0002a0 20 d8 a5 3d 86 eb 36 3e f8 63 ba 3c 17 f5 9a 3c
       0.08097863 0.17863283 0.022752747 0.018915696
0002b0 ae ee c9 3d 7b 1a 2b 3e ec 0a df 3c 2e 41 3c 3e
       0.09859978 0.1670932 0.027226888 0.18384239
0002c0 77 1d 45 3e 01 a6 69 3d e6 cb db bd f0 cd bf 3d
       0.19249521 0.05704308 -0.1073225 0.09365451
0002d0 37 97 7c 3e ed f4 13 3e 91 41 98 3d d6 ff dd 3d
       0.24667059 0.144489 0.07434381 0.108398125
0002e0 ad bb 23 3d 6b ee a4 3c 1b 75 3a 3e 50 9a 10 3e
       0.039973903 0.020133218 0.18208735 0.14121366
0002f0 1c 37 5f bd 7b 36 34 3e b3 7c 2a 3e ed e7 d5 bc
       -0.054495916 0.17598908 0.16649131 -0.026111567
000300 49 39 84 3d e1 d5 7a 3e 82 54 db 3d 09 b3 b3 3d
       0.06456239 0.24495651 0.10709478 0.087743826
000310 5d f2 2f bd 5b 14 48 3e 7c fa 74 3d 91 88 5c 3d
       -0.042955745 0.19539015 0.059809193 0.053841177
000320 03 34 76 3e 3e 30 09 3e 31 1c a2 3d 74 3f e5 3d
       0.24043278 0.13397309 0.07915533 0.11193743
000330 9c f2 26 3d 3f 51 04 3f 4b ed 3e 3d 79 fc 4e 3a
       0.040758714 0.5168647 0.04661302 0.0007895898
000340 08 81 0d 3d fe ed 3c 3e 0b 0b 10 3e ee f4 26 3e
       0.034546882 0.18450162 0.14066713 0.16304371
000350 40 7d 22 3e c8 d3 70 3d 6d 2d c7 3d 65 f5 ca 3c
       0.15868092 0.05879572 0.09725461 0.024775216
000360 7b c4 25 3e 36 48 6a 3c 3a aa 1b 3d a8 a7 75 3e
       0.16188233 0.014299443 0.038004138 0.23989737
000370 3c 24 ef 3d 6e 35 77 3e 27 3d 9b bc 93 7d fa 3c
       0.11676833 0.24141476 -0.018950058 0.030577457
000380 f9 f8 c3 3d d9 ae d8 3d 7d d1 fe 3a b0 52 e9 3d
       0.09568972 0.105802245 0.0019441094 0.113927245
000390 a0 dd ef 3d 50 b8 74 3d 3f ae 08 3e 35 61 fc 3d
       0.117121935 0.059746087 0.1334772 0.12323228
0003a0 70 06 3c 3d 6e b2 34 3e 67 ec 39 3e 85 be 1a 3d
       0.045904577 0.1764619 0.18156587 0.03777935
0003b0 73 4e b6 3c 82 ae 5c 3e 68 25 a8 3d 84 86 7f bc
       0.022254204 0.21550944 0.0821026 -0.015596036
0003c0 4e 4d e2 3d 24 22 8d 3e b1 4e d1 3c d2 0d e8 3d
       0.11049901 0.2756511 0.025550218 0.11330761
0003d0 5f 10 4f 3d 48 86 4b 3c 66 00 28 3e 95 e7 c4 3d
       0.050552722 0.012422152 0.16406402 0.09614483
0003e0 05 79 44 3d af c5 34 3e 85 42 38 3e 8f a8 78 3e
       0.047966976 0.17653535 0.17994125 0.2428305
0003f0 1d fe 00 3e a0 63 5e 3c 52 8d d5 3d a2 8b 2d 3e
       0.12596937 0.013573557 0.10427345 0.16947797

shared_ln.weight f4 [512]
000000 22 cb a0 3f 3e 5f 85 3f 88 b1 9b 3f 75 7c a4 3f
       1.2561991 1.0419691 1.2163553 1.2850481
000010 99 d8 0b 3f 4e 23 bb 3f 98 c8 cb 3f 37 ca aa 3f
       0.54627377 1.4620149 1.5920591 1.3342961
000020 68 ba 86 3f 95 6f b0 3f 2d f9 a4 3f 13 60 a4 3f
       1.0525637 1.3784052 1.2888542 1.284182
000030 79 3c 9e 3f 52 05 75 3f 12 e7 8d 3f 21 f6 7c 3f
       1.2362205 0.95711243 1.1086142 0.9881306
000040 50 00 ba 3f 97 53 90 3f 42 13 bc 3f 17 b2 80 3f
       1.4531345 1.127551 1.4693377 1.0054349
000050 3d d2 b6 3f e0 62 a1 3f f3 a7 8f 3f 39 d6 9f 3f
       1.428291 1.2608299 1.1223129 1.248725
000060 1b f4 b3 3f 22 93 c1 3f 8d 65 af 3f bd 45 86 3f
       1.405887 1.5123026 1.3702866 1.0490032
000070 8a 95 80 3f fb 36 a0 3f 85 f4 a8 3f 4f 47 94 3f
       1.0045636 1.2516779 1.3199621 1.1584262
000080 91 d1 97 3f 97 79 08 3f 08 26 e7 3f 0e be a4 3f
       1.186083 0.5331053 1.8058481 1.28705
000090 15 d3 13 3f 30 ef ac 3f b2 26 ea 3f d4 be 89 3f
       0.5774396 1.3510494 1.8293059 1.0761361
0000a0 cc b6 68 3f 54 e5 f5 3f 76 f5 d0 3f 6d ce aa 3f
       0.90903926 1.921061 1.6324909 1.3344246
0000b0 10 12 8d 3f 93 88 8f 3f 2b 35 cd 3f 23 3b d7 3f
       1.1021137 1.1213554 1.603185 1.6814922
0000c0 4b 41 01 3f c6 31 86 3f f0 f4 b9 3f 6c 0c 9c 3f
       0.50490254 1.048394 1.4527874 1.2191291
0000d0 b1 fa 9f 3f c6 52 db 3f 1c 78 4c 3f fc c2 eb 3f
       1.249838 1.7134635 0.7987077 1.841888
0000e0 86 6a af 3f af 26 41 3f 9d 67 25 3f 43 46 c1 3f
       1.3704383 0.7544965 0.64611226 1.5099567
0000f0 e5 2c 69 3f 5d 55 8d 3f 68 b0 c8 3f c8 7d b0 3f
       0.9108413 1.1041676 1.5678835 1.3788385
000100 b8 3b 91 3f fa 85 1f 3f 38 9e d2 3f d6 76 a9 3f
       1.134635 0.62313807 1.6454535 1.3239391
000110 db 1e 6e 3f 31 d3 7f 3f 7b 37 9e 3f 6b 30 3f 3f
       0.9301583 0.9993163 1.2360681 0.74683255
000120 41 3d 88 3f 15 8a 9c 3f ca c4 70 3f 82 9e 94 3f
       1.0643693 1.2229639 0.94050276 1.1610873
000130 92 0e 87 3f 7d 7f 01 3f 7e f8 95 3f fc 65 8a 3f
       1.0551322 0.50585157 1.1716459 1.0812373
000140 ce 95 ac 3f 8f a2 8d 3f ad b3 9e 3f 21 1d 92 3f
       1.3483217 1.1065234 1.2398583 1.141514
000150 d6 3d 32 3f ec 92 3c 3f 1e 35 99 3f 9f 52 70 3f
       0.69625604 0.73661685 1.1969335 0.9387607
000160 19 d0 91 3f 22 5d 29 3f b4 92 a0 3f ca d5 b2 3f
       1.1391631 0.66157734 1.254477 1.3971493
000170 ab a1 d3 3f 9a ed 9e 3f d8 6a d8 3f 3f fe 84 3f
       1.6533712 1.241626 1.6907606 1.039009
000180 b7 fb 8f 3f 52 80 dc 3e f8 d6 ad 3f 40 1b 9c 3f
       1.1248692 0.4306665 1.3581228 1.2195816
000190 a3 d5 95 3f d7 b4 b9 3f 9c e2 94 3f 2b 8f b4 3f
       1.1705822 1.4508313 1.1631656 1.4106191
0001a0 4d 8d 28 3f 4a e6 8d 3f af 7f a5 3f 62 b6 ae 3f
       0.6584061 1.1085904 1.2929591 1.3649409
0001b0 83 37 88 3f fc 4b 82 3f 77 d4 bf 3f b2 0b bc 3f
       1.0641941 1.0179439 1.4986714 1.4691069
0001c0 55 0b dc 3f 6d 81 9d 3f d8 bb 96 3f 21 a5 b5 3f
       1.7190958 1.2305123 1.1776075 1.4191018
0001d0 f9 26 ac 3f f1 16 9a 3f ca 77 93 3f 6b 8a 88 3f
       1.3449394 1.2038251 1.1520932 1.0667242
0001e0 e4 aa 83 3f 98 c3 a3 3f 6e fc 85 3f a7 32 a7 3f
       1.0286527 1.2794065 1.046766 1.3062333
0001f0 a0 87 2d 3f d3 6e a5 3f 36 bb 66 3f af c2 99 3f
       0.6778507 1.2924446 0.9012941 1.2012538
000200 97 e2 9b 3f 50 c5 8d 3f 37 ac a3 3f 91 c9 ab 3f
       1.2178525 1.107584 1.2786931 1.3420888
000210 95 4d 7e 3f 76 18 98 3f 55 3c 4b 3f a4 e4 97 3f
       0.9933713 1.1882465 0.79388934 1.186665
000220 a4 7c 9d 3f 79 40 89 3f 6d 2e aa 3e 1b ee b2 3f
       1.2303662 1.07228 0.33238545 1.3978914
000230 d0 c1 a8 3f 5f 92 9b 3f 58 17 ba 3f 4d 40 a1 3f
       1.3184147 1.2154044 1.4538374 1.2597748
000240 dd c6 50 3f 31 45 b0 3f 29 5b a1 3f 92 6d a3 3f
       0.8155344 1.3771116 1.2605945 1.2767813
000250 ca 53 8b 3f 58 e5 99 3f 36 20 4b 3f 34 b2 08 40
       1.0884945 1.2023115 0.79346025 2.1358767
000260 93 fb 82 3f 04 67 90 3f c6 d9 9f 3f d6 5f b9 3f
       1.0233024 1.1281438 1.2488334 1.4482372
000270 27 07 55 3f 6d 04 a6 3f 7b 9e b2 3f c9 1c 9d 3f
       0.8321404 1.2970101 1.3954614 1.227441
000280 d6 a5 bd 3f 78 21 ab 3f 03 f8 c0 3f 3f 93 b0 3f
       1.4816234 1.3369589 1.5075687 1.3794936
000290 19 bc 8e 3f 4c c3 88 3f d9 11 28 3f 8c 80 9c 3f
       1.1151153 1.06846 0.65652233 1.2226729
0002a0 c2 01 b9 3f 89 94 b4 3f da 5d e2 3f 44 8c 8c 3f
       1.4453661 1.4107829 1.7684891 1.0980306
0002b0 50 4a 82 3f 4a 31 7f 3f 96 ea 9f 3f 71 ce cd 3f
       1.0178928 0.99684584 1.2493465 1.6078626
0002c0 bc c0 a2 3f 93 21 01 40 33 a8 20 40 6e 6e ab 3f
       1.2715068 2.0176742 2.510266 1.3393075
0002d0 95 0e 88 3f cf 20 9c 3f d9 09 97 3f 44 c5 93 3f
       1.062945 1.2197512 1.179988 1.1544576
0002e0 31 03 8e 3f c3 80 8a 3f 8d 78 92 3f c1 97 6f 3f
       1.1094724 1.0820545 1.1443039 0.93590933
0002f0 12 c9 c7 3f 92 50 b7 3f 36 18 a4 3f f6 9c d9 3f
       1.5608237 1.4321463 1.2819889 1.7001026
000300 be 64 b4 3f 7e 65 39 3f 05 b8 b3 3f a7 58 8e 3f
       1.4093244 0.7242049 1.4040533 1.1120805
000310 1a 7c c9 3f c9 2b 97 3f 4a 88 70 3f 3e e3 cd 3f
       1.5740998 1.1810237 0.9395796 1.6084974
000320 18 a5 7b 3f bd b2 d7 3f 78 05 c2 3f 6d 3e ce 3f
       0.9829879 1.6851422 1.5157919 1.6112801
000330 fb d0 d0 3f c8 18 34 3f 36 a5 ad 3f 33 01 d8 3f
       1.6313776 0.70350313 1.3566043 1.6875366
000340 55 9f ac 3f 5e c9 45 3f dd 16 84 3f d1 2a 95 3f
       1.3486124 0.77260387 1.0319477 1.1653692
000350 2c e6 34 3f c4 25 dd 3f 84 8f 90 3f cf 31 ad 3f
       0.70663714 1.727715 1.1293797 1.3530825
000360 1a 13 bd 3f 68 f2 8f 3f e3 cc 88 3f 22 75 2f 3f
       1.4771454 1.1245852 1.0687526 0.68538105
000370 bf d4 92 3f 3d 68 09 3f c4 43 01 40 01 d0 b8 3f
       1.1471175 0.5367468 2.019761 1.4438478
000380 e4 a7 a3 3f 0b a1 41 3f e5 74 d8 3f 52 71 93 3f
       1.2785611 0.7563636 1.6910673 1.1518958
000390 87 dd a2 3f 95 72 d4 3f 49 73 86 3f 6b 9a 9d 3f
       1.2723855 1.6597468 1.0503932 1.231275
0003a0 09 1c 88 3f 44 7b a4 3f 67 6b 9a 3f a5 62 93 3f
       1.0633556 1.2850118 1.2064027 1.1514479
0003b0 3e 8b c1 3f 07 39 71 3f ee 62 bc 3f aa 98 b0 3f
       1.5120618 0.9422764 1.4717691 1.3796589
0003c0 d5 dc 8c 3f bb 9c 65 3f ab c6 7b 3f b3 e4 ca 3f
       1.1004893 0.89692277 0.9835002 1.5851043
0003d0 a7 23 95 3f e1 55 bb 3f 5a 51 97 3f 36 41 90 3f
       1.1651505 1.4635583 1.1821702 1.1269901
0003e0 96 91 9f 3f c0 17 a9 3f 67 bb 8f 3f d8 36 a3 3f
       1.2466304 1.3210373 1.1229066 1.2751112
0003f0 c3 2d be 3f 4f 53 ce 3f b0 0e 8b 3f 8a eb 92 3f
       1.4857715 1.6119174 1.0863857 1.1478131

shared_ln.bias f4 [512]
000000 2c 79 ed bd 83 51 b9 bd 83 25 0d be fe 3f 6c be
       -0.11595377 -0.0904875 -0.13783841 -0.23071286
000010 6a c7 d5 be 6a b9 f2 bd 06 61 18 bd 47 1d 2c be
       -0.41753703 -0.11851771 -0.037201904 -0.16808043
000020 6e c6 0b be ef d6 b5 bd 61 c2 8e bd 71 f7 25 be
       -0.13649914 -0.08878886 -0.069706686 -0.16207673
000030 ca 4c 38 be 6c 77 e8 bd 78 b0 18 be 2d c1 fb bd
       -0.17998043 -0.11350903 -0.14911067 -0.12292705
000040 c4 4a 47 be be ec c9 bd 56 57 74 be c1 b4 05 be
       -0.19462115 -0.09859608 -0.23861441 -0.13057233
000050 20 5c d9 3c c6 6f 13 bd ef e4 87 bb ac e5 09 bb
       0.026533186 -0.035995267 -0.004147164 -0.0021041436
000060 5b c8 1d bd 19 e0 00 bd 07 92 84 bd f7 6b 3f be
       -0.038521152 -0.031463716 -0.06473165 -0.18693529
000070 44 df 56 be 1a 39 2f bd cc 1f ac bd 6e 95 c9 bd
       -0.20983607 -0.042779066 -0.08404502 -0.098429546
000080 e4 4e 0e be 9d 62 e6 be 34 82 46 be 8f 0c 16 bd
       -0.13897282 -0.4499711 -0.19385606 -0.03663307
000090 8a 01 f3 be 3c 91 1b be b7 34 ba bd 48 6b 19 bd
       -0.47462112 -0.15192121 -0.09092086 -0.037455827
0000a0 69 a6 78 be a6 0a 8b be ee 21 4d be 4e db 62 bd
       -0.2428223 -0.27156562 -0.20032474 -0.055384926
0000b0 cb c5 49 be 47 06 c5 bd 0d 48 52 be c1 95 3c bd
       -0.19704358 -0.09620338 -0.20535298 -0.046041254
0000c0 56 ca 07 bf a6 0f 1e be fe f5 47 be 07 96 2f be
       -0.53043115 -0.15435657 -0.19527432 -0.17147075
0000d0 a5 98 2d bd c7 96 57 be 3b a0 2f be c0 9f 69 bc
       -0.0423819 -0.2105361 -0.17150967 -0.014259279
0000e0 b1 f1 85 be a6 dd 93 be 92 57 92 be 34 82 03 be
       -0.26160958 -0.28880042 -0.28582436 -0.12842637
0000f0 5d 5b 54 be 26 f8 3d bd e2 62 72 bc 6d 8b c6 bd
       -0.20737977 -0.04637923 -0.014794083 -0.09694562
000100 05 10 55 be 6c ad bd be a6 35 40 be a5 75 b7 bd
       -0.20806892 -0.37046373 -0.18770465 -0.08957986
000110 8f 16 85 be b5 4b 14 be 4c d5 1c be 61 9d 5d be
       -0.25993773 -0.14482005 -0.15315741 -0.21642067
000120 88 33 e5 bd 4d ea 99 bd 89 e3 22 be 13 4e cf bc
       -0.111914694 -0.075153925 -0.1590711 -0.025305783
000130 6b b1 49 be 5a c0 f5 be cb 85 f1 bd 33 22 46 ba
       -0.19696586 -0.47998315 -0.11793097 -0.00075581967
000140 3b 1c b8 bd d3 91 32 be b5 d2 51 bd f8 32 01 be
       -0.089897595 -0.1743844 -0.051226337 -0.126171
000150 42 99 ad be 1d e2 64 be 25 b8 26 bd 89 4a 08 be
       -0.3390599 -0.2235188 -0.040702958 -0.13309683
000160 53 ca b2 bd e6 75 b0 be 1a eb 8e bd 92 3e 24 be
       -0.087299965 -0.3446495 -0.06978436 -0.16039494
000170 b4 a9 a6 be cc 09 20 be 00 3b d0 bd 75 d4 9e bd
       -0.32551348 -0.15628737 -0.10167503 -0.07755367
000180 a8 5f 53 bc 23 1a 03 bf 48 14 24 be 53 1c cf bc
       -0.012901224 -0.51211756 -0.16023362 -0.02528206
000190 b0 19 80 be 6c 9d 65 be e8 a9 b7 bd b7 d8 a5 bc
       -0.25019598 -0.22423333 -0.08967954 -0.02024494
0001a0 54 da a1 be 10 dd 60 bd c1 03 25 bd 4b 8b cb bd
       -0.31611884 -0.05489832 -0.040286783 -0.099386774
0001b0 07 23 46 be a5 3b 3b be e7 a7 7c 3d bd fc e0 bd
       -0.193493 -0.18284471 0.06168356 -0.10985706
0001c0 53 bf ba bd bd f7 a7 bd 94 fe d5 bd b6 30 c1 bd
       -0.091185234 -0.08201549 -0.104489475 -0.09433119
0001d0 e1 ce 7a bd e3 e1 d2 bd 15 9c e0 bd a5 d1 f0 bd
       -0.06123245 -0.10296991 -0.1096727 -0.117587365
0001e0 6c 41 4c be 8e dd f2 bd 11 57 fe bd 98 be 49 bd
       -0.19946831 -0.118586645 -0.1241895 -0.04925403
0001f0 73 80 da be ab 92 92 be 95 87 3c be 2e 4e 8a bd
       -0.42676124 -0.28627524 -0.18411095 -0.06753193
000200 ee 71 9b bd 4f 65 64 bd a5 3f 60 be 42 8a fc bd
       -0.0759009 -0.055760678 -0.21899278 -0.12331058
000210 91 56 52 be 8e 9d 10 be 5e e0 7d be 58 46 e0 bc
       -0.20540835 -0.14122602 -0.2479262 -0.027377293
000220 7f f5 11 be 56 52 40 be a2 df 1e bf d4 15 e7 bd
       -0.14253806 -0.18781409 -0.62059987 -0.1128346
000230 10 9f f2 bd 6b 90 68 bd b4 9f 92 bd 55 46 1c bd
       -0.11846745 -0.056778353 -0.07159367 -0.03815301
000240 d2 da 2a be 4b f6 cc bc 7d ca f6 bc 05 8a a0 3a
       -0.16685036 -0.025019785 -0.03012585 0.0012248164
000250 6e db 12 be 94 7d 49 bd b1 a9 2b be 71 54 08 be
       -0.14341518 -0.049192026 -0.16763951 -0.13313462
000260 54 c1 9d bd ad fe 1d be 0f 1d 94 bd b4 83 34 bd
       -0.0770289 -0.15429182 -0.07232105 -0.044070914
000270 9e c7 b2 be 8b cc f2 bd ad 82 c1 bd a2 d5 36 be
       -0.3491792 -0.1185542 -0.094487526 -0.17854932
000280 a7 b8 d3 bd ae 4b 07 bd 59 67 f6 3b 89 0b 4c be
       -0.10337954 -0.03303116 0.007519644 -0.19926275
000290 3b 30 0c be 5a 07 23 be b7 77 aa be ba 6f 18 be
       -0.13690273 -0.15920773 -0.3329446 -0.1488637
0002a0 94 81 8b bd d0 4c 42 bd a6 95 66 bd 49 ec 17 be
       -0.068118244 -0.047436535 -0.05629506 -0.1483623
0002b0 c7 fc 48 be bc 1f 60 bd 91 ea 14 be d0 2a e9 bd
       -0.19627677 -0.054717764 -0.14542605 -0.11385119
0002c0 5c 69 e8 bd 8f 6f 2a be ef f2 cd be af 8c 20 be
       -0.11348221 -0.16644119 -0.40224406 -0.15678667
0002d0 1f fb 0a be 38 b9 72 bd 04 ce f7 bc 74 c5 b9 bd
       -0.13572358 -0.05925867 -0.030249603 -0.09070864
0002e0 1c 3b 0f be d3 bb 25 be 63 e5 0a be 90 3e 59 be
       -0.13987392 -0.1618493 -0.13564067 -0.21215272
0002f0 90 20 01 be 27 15 c3 3d e6 96 68 be ad fb d0 bd
       -0.12610078 0.09525519 -0.22713813 -0.10204253
000300 78 05 58 be bc b1 5b be be 16 15 be fe f8 15 be
       -0.21095836 -0.21454519 -0.14559457 -0.14645764
000310 32 b4 13 be 4b d0 19 be 87 49 fc bd e9 20 6b be
       -0.14424208 -0.15020864 -0.12318712 -0.22961773
000320 d0 10 19 bd 4f bc 5e be 09 86 a1 bd 84 c7 87 be
       -0.03736955 -0.21751522 -0.07886893 -0.26519406
000330 16 87 23 be bb 8f 9c be e2 05 82 be 85 d3 1d be
       -0.159695 -0.30578408 -0.25395113 -0.1541272
000340 6b dd be bd 6d 56 91 be 0c 63 37 be 0f 13 84 bc
       -0.09319576 -0.2838625 -0.17908877 -0.01612237
000350 ad 57 83 be d2 6c ff bd 7f 43 1f be 83 aa 72 be
       -0.2565283 -0.12471928 -0.15553091 -0.23697858
000360 6f a1 df bd aa 47 da bd 69 4c a8 bd b7 f0 8c be
       -0.10919463 -0.106582 -0.08217699 -0.275274
000370 93 6b f1 bd eb 72 ef be c2 9d a6 be af 0b 5a be
       -0.11788096 -0.46767363 -0.32542235 -0.2129352
000380 d9 6b d7 bd 81 0f cd be fb 40 58 bd be 76 49 bd
       -0.10518617 -0.4005089 -0.052796345 -0.049185507
000390 ae af 20 be 8b ce ce bd a2 d2 4b be 81 16 8f bd
       -0.15692016 -0.10097989 -0.19904569 -0.06986714
0003a0 3f 80 e9 bd b9 49 69 bd 09 5b 24 bc 76 1f 4c be
       -0.11401414 -0.056955073 -0.01003147 -0.19933876
0003b0 9c 27 dd bd 78 8d 30 be 57 67 f6 bc 84 f8 79 be
       -0.107985705 -0.17241466 -0.030078573 -0.24411207
0003c0 66 2a 07 be b6 61 1b be de cd 44 be 0e 2a 09 be
       -0.13199767 -0.15173993 -0.19219157 -0.13394949
0003d0 10 0d 82 bd 92 23 0c be 05 f9 12 bd 14 17 5d be
       -0.06350148 -0.13685444 -0.035882015 -0.21590835
0003e0 06 23 86 bd cc 48 c6 bd b6 de 11 be 7f 57 a4 3d
       -0.06549649 -0.09681854 -0.14245114 0.08024501
0003f0 14 ea 37 3d 63 a3 07 be 4b 22 01 be cc 1d 69 bd
       0.04490097 -0.13245921 -0.12610738 -0.056913182

actor_fc.weight f4 [6, 512]
000000 2c fb b8 3e de 52 54 3c 3b 6b 36 3e 89 9a 07 3f
       0.3612913 0.01295921 0.17814343 0.52970177
000010 82 56 74 3d 05 2e c7 3d 8d 13 59 3e 4f 83 5b 3e
       0.059652813 0.097255744 0.21198864 0.21436809
000020 21 e2 d0 3d 22 76 ba be 73 2f a4 3d 13 1b 87 3e
       0.10199381 -0.36418253 0.08016863 0.26387843
000030 ce ee 0b 3e 60 5d d2 3d a9 ff 06 3e 05 8f 84 3b
       0.13665316 0.10271716 0.13183464 0.0040453696
000040 5c 9a 20 3f 5f cd 16 3e bd bd 1c 3f 6b 25 02 3e
       0.62735534 0.1472678 0.6122702 0.12709586
000050 4e a1 30 3e e6 0f 7e 3e 99 7b 46 3d 5f 5e 97 bd
       0.17249033 0.24810752 0.048457716 -0.07391047
000060 73 5f 37 3e d3 4e 0d 3f b7 d7 7c 3e b9 c6 a3 3d
       0.17907505 0.551984 0.24691664 0.07996888
000070 f0 7c 88 3d 8a 42 a7 be 29 8d 92 ba af 8e ec 3d
       0.06664455 -0.32667953 -0.0011180985 0.11550652
000080 37 e5 4a 3e 43 91 21 3d 4d 53 59 3c e2 9d 76 3e
       0.19814001 0.039445173 0.013264489 0.24083665
000090 69 13 44 3d 80 dc c0 be 31 8b 09 3f c1 2f 36 3e
       0.047870073 -0.37668228 0.53728014 0.17791654
0000a0 72 cb 17 3e d8 24 12 bd d3 a0 c9 3e ad b4 a9 3d
       0.14823702 -0.03567967 0.39380512 0.08286414
0000b0 f8 92 69 3e 31 6c 50 3d 24 9c 47 be 8d 75 ce 3e
       0.2280997 0.05088443 -0.19493157 0.4032406
0000c0 1a 65 4a 3d 9c 9d d9 bd 4e ae 14 3e f7 5b a7 3e
       0.049412824 -0.10625765 0.14519617 0.3268735
0000d0 b1 de 87 3d 4f 5f d5 be 88 93 a8 3c dc 24 33 3f
       0.06634272 -0.41674277 0.02057816 0.6997812
0000e0 73 1a 2c 3e 10 19 7e bc cd d5 4e 3d 94 d3 0e 3e
       0.16806965 -0.015508905 0.050496865 0.13947898
0000f0 d2 d0 99 bd 50 f7 58 3e 92 fe 2f 3e e1 8c 1f 3e
       -0.075105324 0.21188092 0.17186955 0.15581085
000100 53 66 bb 3e 04 25 98 3d d6 3d 20 bf e2 1f d0 bd
       0.36601505 0.07428935 -0.62594354 -0.10162331
000110 3b 41 38 3e bd 32 19 3e 95 3f e9 3d 59 bd 98 3d
       0.17993633 0.14960761 0.113890804 0.0745799
000120 5f 8d 77 3e 1b 11 0e be eb ed a6 3b db ae 47 be
       0.24175023 -0.13873713 0.00509428 -0.19500296
000130 07 b3 ca ba 90 0e 15 3d a7 0a 5d bd bd bb 18 3e
       -0.0015464731 0.03639084 -0.053965237 0.14915366
000140 00 f1 9d be 71 69 34 3e 05 cd 18 bd 40 2e 84 3e
       -0.3084793 0.17618348 -0.037304897 0.25816536
000150 f1 bb 83 3d 3a 0d 27 3d f2 04 41 be 5e 3c 2a 3e
       0.06432331 0.0407841 -0.18849543 0.16624591
000160 1f e3 26 3e 0d b8 97 3d 38 a7 ae 3d 01 eb a6 3e
       0.16297577 0.07408152 0.08527988 0.3260117
000170 79 f3 fc 3e 9b 7b b4 bd 0d 93 53 3e fb 82 ab 3d
       0.49404505 -0.08812638 0.20661564 0.08374592
000180 ba e8 34 3e 88 05 4e 3c 54 f9 2b 3d ec 3a 3c 3e
       0.17666903 0.012574561 0.041985825 0.18381852
000190 01 7e e0 3e fa d6 c5 3d 4d 41 4b 3e 43 24 d9 be
       0.43846133 0.09660144 0.19849129 -0.42410478
0001a0 b1 8a 40 3d 57 d5 42 3e 9d ab 40 bd 3e db 03 3f
       0.047007266 0.19026695 -0.047038663 0.5150641
0001b0 5a d9 85 3e 83 ea 28 3e 1a 31 10 bf 7a 35 96 bd
       0.2614239 0.16495709 -0.56324923 -0.073344186
0001c0 6a 5d 33 be f1 70 81 be 22 7b 51 bc 04 bb 05 3e
       -0.17516103 -0.2528148 -0.012785705 0.13059622
0001d0 c4 32 d2 3d e7 6b 31 3e 9f 64 a7 3d c2 ed 68 3e
       0.10263589 0.17326318 0.08173489 0.22746947
0001e0 93 27 ab bc 12 d6 1d be 4d d8 e1 bd 24 0a bc 3e
       -0.020892894 -0.15413693 -0.11027584 0.36726487
0001f0 e9 0a a5 3b af 69 0b bf e5 d6 7b bc 9a fc 27 3e
       0.005036701 -0.54458135 -0.015371059 0.16404954
000200 fe 97 5c 3e e3 88 2f bd c0 e1 e2 3d 55 df 9e 3e
       0.21542355 -0.042855155 0.11078215 0.31029764
000210 7e 36 be 3c 0e 63 11 bd 4a 6c c1 3d 4d 7e 94 bd
       0.023219343 -0.035494857 0.094444826 -0.072506525
000220 aa 92 98 3d 05 9c 13 3e 63 7f 95 3d c3 fb 07 3f
       0.07449849 0.14414985 0.07299688 0.5311853
000230 1d 34 1c 3c 30 ef 41 be e5 83 81 bc 5a bd 87 be
       0.009533909 -0.18938899 -0.015809963 -0.2651165
000240 3a b5 a9 3d a6 92 f8 bc 94 4b b0 3e 42 7d 95 bd
       0.08286519 -0.030343365 0.34432662 -0.07299282
000250 94 2b 40 be 6d 1f 0e 3e b7 eb 80 3d 0e 29 87 3d
       -0.18766624 0.13879175 0.06294959 0.065996274
000260 57 78 f5 3d 51 e0 96 3e d6 a9 89 3e 6d 09 56 be
       0.11985844 0.29468015 0.26887387 -0.20902033
000270 e4 78 1a 3e 76 1f 28 be e3 ee e5 3e e3 56 85 3e
       0.15085179 -0.16418251 0.4490882 0.26042852
000280 7c 90 18 bf c8 b5 4c 3b 98 5c ea 3e 54 02 e5 3e
       -0.59595466 0.003123628 0.45773768 0.4472834
000290 a8 a4 1e 3e ac d9 4d 3e 68 55 e2 3d 70 f3 98 be
       0.15492499 0.20102566 0.11051446 -0.29873228
0002a0 5f 1b 54 3c f3 d4 c3 3e 6c 6b 1a bf d7 5f 66 3d
       0.012945979 0.38248405 -0.6032016 0.056243744
0002b0 54 1e 85 bb 4e 92 c7 3d ff 30 db bd b6 39 15 be
       -0.0040624533 0.09744702 -0.10702705 -0.14572796
0002c0 86 4c 4a bd 63 9e b2 3e 56 73 01 3f 92 b4 9c 3d
       -0.049389385 0.34886464 0.50566614 0.076516286
0002d0 3d c3 13 3e 22 f6 5c bd c5 83 2b 3e ed 66 6b be
       0.14429946 -0.053945668 0.16749485 -0.22988482
0002e0 8e 13 12 3e c8 60 6d 3e 4f fc 22 3e 65 4f 56 3e
       0.14265272 0.2318145 0.1591656 0.20928724
0002f0 46 49 d2 3e 10 b8 d8 be 4d d8 3c 3e 3d 39 2b bf
       0.41071528 -0.4232793 0.18441887 -0.66884214
000300 6e 6c 03 3f c7 98 7d 3d db 79 c4 be 71 ad 6c 3d
       0.51337326 0.061913278 -0.38374218 0.057782594
000310 e0 98 fc bd 04 48 80 3e bc 4b 23 3d 1b 78 a6 3d
       -0.12333846 0.25054944 0.039867148 0.08128377
000320 f5 ad 39 3d 53 90 f0 3d d2 c5 89 be be 8e 39 bf
       0.045331914 0.11746278 -0.26908737 -0.7248343
000330 67 9c 6b bc 77 26 a3 3d 69 62 95 3e a3 6c 18 3e
       -0.014380551 0.07966321 0.29176643 0.14885192
000340 3b 94 7c bd dd d8 ca 3d fe 30 53 3e 6a 5b 4d 3e
       -0.0616648 0.09904645 0.20624158 0.20054403
000350 96 f9 98 3d 7c a8 39 bf b0 ab 95 3e ba c1 47 3e
       0.0746948 -0.7252271 0.2923255 0.19507495
000360 06 30 b3 be 59 38 b1 bc 19 99 4f 3e ab ed 89 3d
       -0.34997576 -0.021633314 0.20273246 0.06734785
000370 dd 6b 9e 3d 40 d5 07 3d e8 25 2a 3f a2 f6 0b bf
       0.07735417 0.033162355 0.6646409 -0.54673207
000380 26 66 bc 3e 4a 61 9e 3b 51 66 73 be 0a 5c 8c 3e
       0.36796683 0.004833375 -0.237695 0.2741397
000390 61 52 73 3d 6a c5 1a 3f 2d 4d 4d 3e 91 f6 09 3e
       0.059404735 0.6045748 0.20048971 0.13472964
0003a0 52 c7 8a bd ff 3a 7a 3e 73 20 5a 3e 4f 40 2c 3e
       -0.067762986 0.24436568 0.21301441 0.16821407
0003b0 ee df e2 3e 9f 41 61 bd 4c c9 5b 3d 4d 20 b9 bd
       0.4431147 -0.05499422 0.05365877 -0.09039364
0003c0 7c 0a 78 bd a6 15 b0 3d 87 ba 1c 3e 15 3b 66 bd
       -0.060556874 0.08597879 0.1530553 -0.05620869
0003d0 93 35 28 be 9d 34 5a be 6f c5 72 bd 08 7e bb 3e
       -0.16426687 -0.21309133 -0.05927032 0.36619592
0003e0 ba fc 1a be ac 14 96 3e b0 96 af 3d 3c 77 18 be
       -0.1513547 0.29312646 0.08573663 -0.14889234
0003f0 88 3c 87 be d9 f9 a0 bd d2 78 03 3e e9 82 79 3e
       -0.2641337 -0.07860155 0.12839058 0.24366345

actor_fc.bias f4 [6]
000000 32 e7 a4 3d cf de 74 bc f9 ce 3d 3d 10 a6 21 3d
       0.080519095 -0.0149457 0.046339963 0.03946501
000010 ab db 7e bd 23 38 d2 3d
       -0.06222121 0.102646135

fc1.weight f4 [512, 192]
000000 1e 31 38 40 11 ae e0 3f a5 8a 1b 40 89 bb ec 3f
       2.8779979 1.7553121 2.4303372 1.8494731
000010 fa 0f cb 40 19 e0 cf 40 d1 b1 4d 3f 12 b1 36 bd
       6.3457003 6.4961057 0.8034945 -0.04460246
000020 f4 25 ce bf cb 31 76 bf 43 b8 14 bd 3d 27 c3 bc
       -1.6105332 -0.9616973 -0.03630854 -0.023822421
000030 cc c0 3f c0 31 bc 8e 40 e1 76 15 bd 56 70 8d bd
       -2.9961424 4.4604726 -0.036490325 -0.06906192
000040 07 9d cb bf c8 d6 0a bd 59 75 92 40 20 f8 29 40
       -1.5907296 -0.033896238 4.5768247 2.6557693
000050 3b 9e 0a 3d 4e 6f 9c bc b1 19 b6 40 fb 5b af 3f
       0.033842307 -0.019096043 5.690636 1.3699945
000060 e6 89 91 40 79 88 92 bf 80 73 1f 3f e6 13 f6 3f
       4.5480833 -1.1447898 0.62285614 1.9224823
000070 de b9 92 bc 20 46 9c 40 81 ad 0c 40 3a 39 fe bf
       -0.017910894 4.88356 2.1980898 -1.9861214
000080 05 fe 66 40 fa a7 ab 3f ef 6c 6e 40 c3 3d b4 3f
       3.6092541 1.3410637 3.7253988 1.4081348
000090 b9 99 41 40 26 f0 7f 3f 89 af 3f 3d 4e d4 13 40
       3.0250075 0.9997581 0.046798263 2.309833
0000a0 57 67 a7 3f 9d cc 80 bf 26 3e 55 40 44 a3 47 40
       1.3078412 -1.0062443 3.3319182 3.11934
0000b0 63 46 7d 40 19 a0 b0 40 53 da e5 3f d6 61 1e 40
       3.957421 5.519543 1.7957252 2.4747214
0000c0 71 9d 99 3f ee 73 64 40 02 14 85 3f 9a 04 4b 40
       1.2001172 3.5695758 1.0396731 3.1721559
0000d0 6a 2e e8 3f ec bc cd bc ef 97 80 c0 a1 13 2c c0
       1.8139164 -0.025114499 -4.0185466 -2.688698
0000e0 ba a4 31 3c c3 1c 10 bd 66 3e 40 c0 05 33 91 40
       0.0108424965 -0.03518368 -3.0038085 4.537478
0000f0 79 97 70 3c 4a d6 4c bd be 8f 89 c0 30 c3 55 3d
       0.014684551 -0.05000905 -4.2987967 0.0521881
000100 7b 3f 35 40 14 ae 26 40 07 a0 29 3d 94 58 23 3d
       2.8319995 2.604375 0.04141238 0.039879397
000110 3b e7 bd 40 0a 73 ba 3f 19 d2 8c 40 97 b8 60 bf
       5.9344764 1.4566357 4.4006467 -0.8778166
000120 ad 95 c8 3f e1 11 31 40 db 50 93 3d 60 02 89 40
       1.5670677 2.7667162 0.07193156 4.28154
000130 07 a4 1d 3f 83 61 7b c0 8a 10 75 40 ce e7 02 40
       0.6157841 -3.9278266 3.8291345 2.0453982
000140 31 bb 4f 40 0a 3f 95 3e 8d c9 34 3f 4d 24 ae 3f
       3.2458003 0.29149657 0.7062004 1.3604828
000150 37 50 98 3b 4c fb 0b 40 c6 3a 41 40 ef 54 8c bf
       0.004648234 2.187213 3.0192122 -1.096342
000160 e5 08 59 40 d8 c1 60 40 c1 1a 5e 40 db 71 62 40
       3.3911679 3.5118313 3.470383 3.5381992
000170 77 e0 66 3f 18 1d a2 3e cb f6 ab 40 ff 56 b8 40
       0.90186256 0.31662822 5.373876 5.7606196
000180 d3 3d e4 3f 94 ff 1b 40 05 5a 97 3f a0 3f 5f 40
       1.7831367 2.4374743 1.1824347 3.4882584
000190 ac f0 85 3f a6 84 47 40 18 c1 e3 3f ee db 2b 3d
       1.0464072 3.1174712 1.7793303 0.04195779
0001a0 c9 48 7e c0 61 ce 2c c0 07 e8 42 3d 41 fc 54 bd
       -3.9731925 -2.7000964 0.04758456 -0.05199838
0001b0 ba a3 47 c0 63 d6 92 40 ca dc 0a bc e0 1c 6c 3d
       -3.119368 4.5886703 -0.008475492 0.057644725
0001c0 13 f1 87 c0 18 37 42 3b dd 03 30 40 a8 ec 26 40
       -4.248178 0.002963489 2.7502358 2.6081944
0001d0 d4 05 55 bd c6 d2 20 bc cf 09 bb 40 9a 3c ae 3f
       -0.05200751 -0.009815877 5.8449473 1.3612244
0001e0 f3 f2 8f 40 e9 37 59 bf f1 fc c4 3f c5 79 32 40
       4.498407 -0.8485094 1.5389692 2.7886822
0001f0 ed e6 ea 3b 5c 10 87 40 9b c4 2e 3f 8f 53 7b c0
       0.007168642 4.220747 0.68268746 -3.926975
000200 80 6c 73 40 fd 7f fe 3f b5 02 48 40 f4 99 a4 3e
       3.8034973 1.9882809 3.1251652 0.32148707
000210 61 47 44 3f 0f 59 a1 3f 67 ca 93 bd b0 37 05 40
       0.76671416 1.2605304 -0.072163396 2.081524
000220 d6 7f 3f 40 27 2a 8e bf 19 1b 5a 40 dc 94 5c 40
       2.9921775 -1.1106614 3.407904 3.4465857
000230 bf 7f 5c 40 e9 18 69 40 dc 40 35 40 bb 9b da 3f
       3.445297 3.6421454 2.8320837 1.7078775
000240 d9 3f 1e 40 41 a3 e2 3f 96 a9 ce 40 3b f1 cd 40
       2.472647 1.7706071 6.4582014 6.435697
000250 f5 1a 63 3f d6 cc 40 bd e6 2a c8 bf 3f 4a 6f bf
       0.8871301 -0.047070347 -1.5638092 -0.93472666
000260 49 0d 09 3d 6e e9 62 3d 0e da 40 c0 b7 69 91 40
       0.033459935 0.055398397 -3.013309 4.5441546
000270 9e 30 66 3d 2c 80 cb 3c 0b 58 d2 bf 08 62 70 bc
       0.05619871 0.02484139 -1.6433119 -0.01467181
000280 35 91 93 40 86 2a 22 40 61 94 c8 3c 2e bd 87 3c
       4.6114755 2.5338454 0.024484815 0.0165697
000290 57 4f b6 40 81 0c b3 3f f4 91 93 40 0c d7 83 bf
       5.697185 1.3988191 4.6115665 -1.0300002
0002a0 0e 71 22 3f 0b f0 fd 3f a4 4d 3a 3d 5c 52 9d 40
       0.6345376 1.983888 0.0454842 4.9163036
0002b0 27 ea 08 40 dc e2 02 c0 49 dc 63 40 7a 84 ad 3f
       2.1392915 -2.0450964 3.5603201 1.3556054
0002c0 b3 45 6a 40 f3 e6 a7 3f f5 b0 46 40 14 7a 65 3f
       3.660504 1.3117355 3.1045506 0.896394
0002d0 74 97 52 bd 42 f5 16 40 01 24 b8 3f ae 65 78 bf
       -0.05141397 2.3587193 1.4385988 -0.9703015
0002e0 d2 44 57 40 ae 2b 44 40 63 b8 7d 40 cf 9b b3 40
       3.3635755 3.065166 3.964379 5.6127696
0002f0 0b 9a 51 bf 0d ab cf be 42 fc b2 40 7a 58 b3 40
       -0.81875676 -0.4056019 5.593293 5.6045504
000300 6c de 94 40 57 cd 89 40 68 ae 86 40 c7 ac b8 40
       4.652151 4.306316 4.20879 5.771091
000310 10 1f a6 3f dc 38 81 40 21 77 a3 40 1d 71 ed 3c
       1.297823 4.038191 5.108292 0.0289846
000320 c3 ad 88 c0 40 93 8c c0 71 db ab 3c 89 50 84 3d
       -4.271211 -4.392975 0.020978661 0.06460673
000330 09 ac 5e c0 87 32 c7 40 4f df 81 3d 37 25 77 3b
       -3.4792502 6.224918 0.06341421 0.003771139
000340 e3 60 f4 bf f5 fe 7f 3c dc 16 d6 40 cc 5c 88 40
       -1.9092067 0.015624751 6.6902905 4.2613277
000350 83 d1 37 3d 71 a4 77 bd 30 f0 10 41 f1 1b 37 40
       0.04487754 -0.060459558 9.05864 2.8610804
000360 8b 54 65 40 0a 29 57 be 6b 3e 1b c0 7f 23 db 3f
       3.583285 -0.21011749 -2.4256847 1.7120208
000370 b1 49 7a bd 9c f9 c4 40 23 70 85 3f 6f 77 53 c0
       -0.061105434 6.15547 1.0424846 -3.3041646
000380 57 70 a5 40 e8 a0 1f 40 2e 65 0f 40 61 3e 83 3d
       5.1699634 2.494196 2.2405505 0.06408382
000390 9c a9 83 3e 5b 1b 4b 3f 73 7c c3 bc bb 1b 35 40
       0.2571534 0.79338616 -0.023863053 2.8298175
0003a0 e0 33 d4 3f b2 4d 9c bf 31 a3 b5 40 43 9e 4e 40
       1.6578331 -1.2211211 5.676171 3.2284095
0003b0 ac 16 a6 40 ce 11 bd 40 25 73 b1 40 64 8b 7d 40
       5.1902676 5.9084234 5.5453057 3.9616327
0003c0 25 69 80 40 e4 57 b4 40 b7 32 3f bf 1e a0 06 40
       4.012835 5.635729 -0.7468676 2.1035228
0003d0 72 20 b8 40 de eb 8b bd da 86 82 c0 3d 9b 84 c0
       5.7539606 -0.068320975 -4.0789614 -4.14395
0003e0 6c 7c 83 3d c6 6d 52 bc 0d e3 39 c0 e8 71 8e 40
       0.06420216 -0.012843555 -2.904483 4.4514046
0003f0 68 0a 50 3d 21 0b 91 bb a4 ee 5a c0 20 55 68 3d
       0.050791174 -0.0044263755 -3.4208155 0.056721807

fc1.bias f4 [512]
000000 e8 5e c1 40 5c a4 1d 41 82 14 19 41 97 a4 ec 40
       6.042835 9.852627 9.567507 7.3950915
000010 b3 c4 85 40 b8 2f 44 40 1e 4e 8f 40 da 68 21 41
       4.180261 3.0654125 4.478286 10.088099
000020 78 bc c3 40 c8 09 10 41 88 8f af 40 77 60 8a 40
       6.1167564 9.002388 5.486271 4.3242755
000030 cb 32 c8 40 4d d6 62 40 93 0e 21 41 d1 54 28 41
       6.2562003 3.54433 10.066058 10.520707
000040 fe cd 4c 40 09 5f 1b 41 1f 35 25 41 b0 c4 23 41
       3.2000728 9.710702 10.325469 10.235519
000050 f7 aa b0 40 67 67 b3 40 7f eb 13 41 65 d9 1b 41
       5.5208697 5.6063724 9.244994 9.740575
000060 6f 7e 1b 41 37 13 a4 40 35 96 22 41 07 1c 1f 41
       9.718368 5.1273456 10.161672 9.944343
000070 0b be b6 40 dc 5b a1 40 35 43 c3 40 d9 79 ac 40
       5.7106986 5.0424633 6.101954 5.389874
000080 d6 ce 1f 41 73 fa 1c 41 2d 3a 01 41 2c cb 21 41
       9.987997 9.811145 8.076703 10.1121025
000090 76 a2 0e 41 26 29 d5 40 fd 77 0a 41 3e 9c 06 41
       8.914663 6.661273 8.654294 8.413145
0000a0 fb 55 8b 40 e8 75 f0 40 d4 7f 0f 41 93 e7 66 40
       4.3542457 7.514393 8.968708 3.6078842
0000b0 12 0f 94 40 a6 84 1f 41 8c df 1f 41 f9 5f 1b 41
       4.6268396 9.969885 9.992077 9.710931
0000c0 72 f6 0d 41 7d 9b 1f 41 e6 69 f9 40 d5 ec 02 41
       8.872667 9.975461 7.794177 8.18282
0000d0 9f 04 18 41 50 9f ed 40 9d e3 8e 40 33 1c a2 40
       9.501128 7.4256973 4.465285 5.0659423
0000e0 6c 66 ec 40 d7 fc 23 41 c9 32 d8 40 ab c4 03 41
       7.3875027 10.2492285 6.7561994 8.235515
0000f0 b0 79 5f 40 70 e9 1e 41 69 f2 da 40 f5 cf 13 41
       3.4918022 9.931992 6.842091 9.238271
000100 b5 65 e5 40 16 26 b1 40 8a 03 1f 41 95 8b 11 41
       7.1686654 5.535899 9.938364 9.096578
000110 ec 18 b6 40 c7 5c 95 40 5a e5 e0 40 47 c1 d1 40
       5.690542 4.6675754 7.027997 6.5548434
000120 ab 14 8a 40 a0 0f ff 40 1b 09 8c 40 3c b3 1c 41
       4.315023 7.9706573 4.3761115 9.793758
000130 07 38 ed 40 41 fe 15 41 9c d0 bc 40 9c ea ee 40
       7.4130893 9.374574 5.900465 7.466139
000140 c2 37 10 41 ff c1 86 40 64 16 81 40 5b da ef 40
       9.013613 4.211181 4.033983 7.4954047
000150 5f 42 1d 41 25 c3 ec 40 85 a4 e3 40 4a b9 80 40
       9.828704 7.3988214 7.113833 4.0226183
000160 82 8f cb 40 11 70 08 41 6e 6b e7 40 7b cc 1f 41
       6.361268 8.52736 7.231864 9.987422
000170 93 36 81 40 6b e3 02 41 36 8a f4 40 52 77 22 41
       4.037912 8.180522 7.6418715 10.154131
000180 76 73 1e 41 fa 20 21 41 36 b2 1f 41 93 fb a7 40
       9.903189 10.070551 9.981009 5.2494597
000190 98 d9 15 41 ee 29 c1 40 86 00 24 41 45 ad 15 41
       9.365623 6.0363684 10.250128 9.354802
0001a0 7e 0b d7 40 30 bf 8f 40 01 26 50 40 1b 64 0b 41
       6.720153 4.4920883 3.2523196 8.71194
0001b0 80 8a 1c 41 dc 97 04 41 00 81 b9 40 d0 5c 23 41
       9.783813 8.287075 5.796997 10.210159
0001c0 78 fc ab 40 b0 75 22 41 73 55 e3 40 f0 72 20 41
       5.374569 10.153732 7.104181 10.028061
0001d0 37 20 b5 40 8d 22 23 41 01 92 c3 40 52 e9 1b 41
       5.6601825 10.195935 6.1115727 9.744463
0001e0 dc ac 94 40 8a 27 26 41 de 32 1c 41 ed 91 6b 40
       4.646101 10.384653 9.762419 3.6807816
0001f0 39 52 9f 40 05 6e 1a 41 4e 8f 21 41 aa fc f2 40
       4.978787 9.65186 10.0974865 7.593343
000200 de 8a 72 40 af ea 1d 41 fc 0b 21 41 d2 86 22 41
       3.7897258 9.869796 10.065426 10.157915
000210 fa a3 22 41 df 0c b5 40 1b 93 b4 40 64 00 3e 40
       10.165033 5.657821 5.642957 2.9687738
000220 27 c7 1e 41 d5 a7 b7 40 54 63 c6 40 ec f8 21 41
       9.923621 5.7392373 6.199625 10.123272
000230 6c b1 22 41 d3 5a 02 41 63 12 21 41 48 08 1c 41
       10.168316 8.147174 10.066989 9.752022
000240 67 1f bd 40 ce fa 69 40 3e fb d1 40 9a 25 b5 40
       5.9100833 3.655933 6.561919 5.66084
000250 81 df 22 41 5f 24 24 41 ed 7a 20 41 79 9c e6 40
       10.179566 10.25888 10.030011 7.2066007
000260 fc 7b 7c 40 4c 43 8e 40 23 ee ad 40 68 83 e7 40
       3.9450674 4.445715 5.4353194 7.234791
000270 bc fa 1e 41 49 79 2a 41 44 7a 15 41 1e b2 c9 40
       9.936214 10.654611 9.34235 6.302993
000280 f9 3c 12 41 42 ec c0 40 4c 52 25 41 05 56 66 40
       9.139886 6.02884 10.332592 3.5990002
000290 01 86 46 40 10 2e 1e 41 07 ef 20 41 b9 b8 19 41
       3.101929 9.886246 10.058356 9.607598
0002a0 da 61 f5 40 ad 74 1b 41 f4 64 96 40 be 9e 0e 41
       7.668195 9.715985 4.6998234 8.913755
0002b0 79 f0 fb 40 16 97 20 41 58 ce 93 40 85 09 21 41
       7.8731046 10.036886 4.6189384 10.064824
0002c0 ec 68 0d 41 98 95 20 41 a8 71 eb 40 81 5c 0b 41
       8.838116 10.036522 7.357624 8.710084
0002d0 36 89 21 41 06 d6 24 41 81 cd 8b 40 dc c2 0a 41
       10.095999 10.302252 4.368836 8.672573
0002e0 87 22 ed 40 42 31 ee 40 5b a4 73 40 1c 26 22 41
       7.410465 7.443513 3.8069065 10.134304
0002f0 d0 95 15 41 1d 44 95 40 bc 87 21 41 d8 25 24 41
       9.349075 4.6645646 10.095638 10.259239
000300 b1 bc a7 40 f3 86 9d 40 c3 cd ae 40 22 66 d9 40
       5.2417836 4.9227233 5.4626174 6.7937174
000310 b9 5f 40 40 53 ac 17 41 66 91 8d 40 2a 22 d8 40
       3.0058424 9.479571 4.423999 6.7541704
000320 74 a8 ae 40 69 e6 08 41 dc fb 14 40 c0 98 a9 40
       5.458063 8.5562525 2.3278723 5.2998962
000330 2d fe 24 41 a0 f6 0b 41 62 58 20 41 84 e1 21 41
       10.312055 8.747711 10.021578 10.117558
000340 18 71 24 41 8e c3 1e 41 9b 74 69 40 54 bb cf 40
       10.277611 9.922743 3.647742 6.491617
000350 ba 88 86 40 75 40 72 40 61 02 1f 41 fa 48 1d 41
       4.2041903 3.7851841 9.938081 9.830317
000360 18 dd 16 41 2a 04 ab 40 6d 48 20 41 09 b0 1c 41
       9.428978 5.3442583 10.017682 9.792977
000370 f1 3b 15 41 67 6c 9c 40 65 8b 16 41 37 2d 99 40
       9.327134 4.8882327 9.409032 4.7867694
000380 dd c4 bb 40 8e 7c 9e 40 2c ea 1f 41 78 8f c3 40
       5.867781 4.9527044 9.994671 6.1112633
000390 eb d4 22 41 19 ba 1b 41 3d fc 21 41 80 22 9d 40
       10.176982 9.732934 10.124082 4.9104614
0003a0 a9 80 1b 41 7e 34 21 41 ac db 1e 41 85 26 b3 40
       9.718911 10.075315 9.928631 5.598452
0003b0 cf 72 22 41 92 a6 1d 41 e2 82 b5 40 b4 a5 18 41
       10.153029 9.853167 5.672227 9.540455
0003c0 6e eb 22 41 19 1b b1 40 0d 78 45 40 20 be 98 40
       10.182478 5.534558 3.0854523 4.7732086
0003d0 a6 51 17 41 3c 14 24 41 b3 ac bf 40 fb db 8a 40
       9.457434 10.25494 5.9898314 4.339353
0003e0 59 30 ae 40 d3 25 86 40 6e 3a 03 41 4d be 6e 40
       5.443402 4.192117 8.201765 3.730365
0003f0 90 6b 94 40 aa c6 e1 40 31 b4 ca 40 f4 59 1c 41
       4.63813 7.055501 6.334496 9.771961
