project_3/checkpoints/checkpoint_cycle_08_20241025_120758.pt (torch, 624850 bytes, 12 tensors)

shared_fc.weight f4 [512, 96]
-0.07118941 0.14884195 0.1179335 0.096682094 0.2577224 0.124792226 0.1422844 -0.09034427
0.087294154 0.09488061 0.05743261 -0.099433936 0.0031104018 0.03486795 0.018465193 0.06976726
0.2189602 0.015372698 0.20527595 0.09981571 -0.015163369 0.07821855 0.21557666 0.15344264
0.08370483 0.0064404877 -0.17886735 0.0517354 0.09455833 0.18288915 0.07547203 0.3776985
0.03185503 0.15338233 0.17184256 0.22210117 0.070383854 0.2237571 -0.0005418704 0.022500684
-0.012416834 0.047240872 0.013967188 -0.08847901 -0.022787707 -0.052105322 0.035610307 0.14177783
0.036605533 0.11315893 -0.057863597 -0.104337856 0.26158547 0.07858577 -0.10763065 -0.084358506
-0.08562835 0.09531698 -0.116211005 0.2441353 -0.031859823 0.024424734 0.11526122 0.04511364
0.13787134 0.15049173 0.036003582 0.09593101 0.19691764 0.19634752 0.20654759 0.027140085
0.21946229 -0.033789244 -0.050862007 0.10850157 0.18790074 0.145296 0.076151825 -0.052243732
0.18215987 0.050739054 0.05723113 0.03518396 -0.077845275 0.07853119 -0.06958183 0.07282949
0.12910135 0.2094311 0.018674491 0.20550829 0.06309113 -0.06045249 0.051512808 0.17848973
0.08516267 0.07690188 -0.10329162 0.14202867 -0.24948268 0.28545734 -0.036067575 0.10052795
-0.30466694 -0.0740767 -0.093449846 0.09590239 -0.24915387 0.089542575 -0.03729787 0.08337922
-0.2202693 0.045317985 0.05342435 0.045260638 0.024806052 -0.041541632 0.1370693 0.13139707
-0.12381759 0.032712672 0.15507138 -0.07228276 -0.054505035 0.18785766 0.0072592087 0.069639556
-0.014182467 0.039216135 0.14622684 -0.015799655 -0.094747834 0.02628349 0.044118427 0.007940988
-0.029457817 -0.04247527 0.08591076 0.17642483 0.30329517 0.3033108 0.06179268 0.017071005
0.14236802 0.035244703 0.096205756 0.041883152 0.039700657 0.06103769 -0.029640483 -0.0009500777
-0.06341534 0.042325426 0.01821057 0.1329712 -0.03543559 0.039443742 0.042511817 -0.09727233
0.17922294 -0.034670394 0.028050156 -0.05015159 0.1914011 0.07352514 -0.04882705 -0.10975186
0.14174323 0.14351423 0.0028607186 0.08808284 0.052906793 0.013405138 0.07472035 0.12375454
-0.051623262 -0.0011123805 0.1152887 0.06750172 -0.033408247 0.07769383 0.088233955 -0.10690321
0.10118748 0.099649236 0.08344504 0.1871854 0.008784559 0.13930546 0.20553802 0.020828938
-0.022777185 -0.0018794456 0.057051852 0.03479225 0.41757804 -0.3487027 -0.12118415 -0.07707898
-0.17410213 -0.14705618 -0.033496615 -0.043529946 -0.16289616 0.1661054 -0.09153913 0.088744745
0.11933801 0.08737343 0.028791059 0.067923546 -0.06055198 0.06969053 0.066255 -0.033625063
-0.048926454 0.09928395 -0.094006225 -0.01596072 -0.016619498 0.0602776 -0.011298262 0.013317259
0.08141771 -0.090946235 0.16898179 0.14976922 -0.071257226 -0.008181826 -0.04786649 0.12619859
0.18006302 0.058175534 0.08711265 0.12861763 0.098649144 -0.11147001 0.08339952 0.10508168
0.124122426 -0.0965167 -0.28372163 -0.32271448 0.07275665 -0.020672303 -0.11164621 -0.1569437
-0.012546995 -0.033574346 -0.06851587 0.17595538 -0.097651385 0.054978903 -0.15275313 0.06772923
00000000: c1cb 91bd 066a 183e 1e87 f13d 4301 c63d
00000010: 31f4 833e 1193 ff3d 00b3 113e 6b06 b9bd
00000020: 47c7 b23d c450 c23d 753e 6b3d 05a4 cbbd
00000030: e2d7 4b3b b2d1 0e3d 5144 973c 23e2 8e3d
00000040: 1a37 603e c5dd 7b3c dc33 523e 2e6c cc3d
00000050: c76f 78bc 0c31 a03d 21c0 5c3e 1120 1d3e
00000060: 706d ab3d ba0a d33b 0129 37be 80e8 533d
00000070: cca7 c13d 4b47 3b3e 1491 9a3d b361 c13e
00000080: 6c7a 023d 4210 1d3e 7ff7 2f3e 7d6e 633e
00000090: 6925 903d 9520 653e 4f0c 0eba 5b53 b83c
000000a0: fa6f 4bbc a57f 413d a2d6 643c 7c34 b5bd
000000b0: 49ad babc 646c 55bd 1ddc 113d 352e 113e
000000c0: afef 153d debf e73d 6102 6dbd 16af d5bd
000000d0: 88ee 853e 94f1 a03d 756d dcbd 27c4 acbd
000000e0: eb5d afbd 8c35 c33d 0900 eebd 9bfe 793e
000000f0: 727f 02bd 6116 c83c 130e ec3d 15c9 383d
00000100: 252e 0d3e 811a 1a3e 7e78 133d 7a77 c43d
00000110: c7a4 493e 530f 493e 3681 533e e254 de3c
00000120: b9ba 603e 9766 0abd ae54 50bd 1236 de3d
00000130: 0d69 403e 7ac8 143e 7df5 9b3d 86fd 55bd
00000140: 1e88 3a3e c1d3 4f3d 306b 6a3d 0e1d 103d
00000150: 586d 9fbd f6d4 a03d eb80 8ebd a127 953d
00000160: 2533 043e 1b75 563e 3ffb 983c c470 523e
00000170: ec35 813d 089d 77bd 18ff 523d 03c6 363e
00000180: c469 ae3d bc7e 9d3d 8f8a d3bd f76f 113e
00000190: 6378 7fbe 7727 923e 98bb 13bd 99e1 cd3d
000001a0: 4efd 9bbe 86b5 97bd a262 bfbd 7968 c43d
000001b0: 3122 7fbe 1962 b73d a7c5 18bd b9c2 aa3d
000001c0: 468e 61be 5a9f 393d 7ed3 5a3d 3863 393d
000001d0: 1036 cb3c 8f27 2abd e55b 0c3e f48c 063e
000001e0: 1494 fdbd b9fd 053d 08cb 1e3e fc08 94bd
000001f0: ac40 5fbd c25d 403e a8de ed3b 2f9f 8e3d
00000200: 945d 68bc 19a1 203d 7dbc 153e 476e 81bc
00000210: 270b c2bd 7950 d73c 86b5 343d eb1a 023c
00000220: 8551 f1bc 8cfa 2dbd fbf1 af3d b6a8 343e
00000230: 8149 9b3e 8e4b 9b3e 521a 7d3d 7ed8 8b3c
00000240: ecc8 113e c05c 103d 8607 c53d ab8d 2b3d
00000250: 289d 223d a802 7a3d 99d0 f2bc a30e 79ba
00000260: e7df 81bd 6d5d 2d3d 552e 953c 9a29 083e
00000270: e924 11bd c38f 213d df20 2e3d b736 c7bd
00000280: 3886 373e 8b02 0ebd 71c9 e53c c16b 4dbd
00000290: a6fe 433e 5994 963d dffe 47bd 95c5 e0bd
000002a0: 2325 113e 65f5 123e e57a 3b3b c764 b43d
000002b0: cbb4 583d 39a1 5b3c fc06 993d 0573 fd3d
000002c0: ea72 53bd 4ccd 91ba 7b1c ec3d 573e 8a3d
000002d0: 16d7 08bd f11d 9f3d 01b4 b43d 12f0 dabd
000002e0: 623b cf3d e614 cc3d 3ce5 aa3d 88ad 3f3e
000002f0: 1ced 0f3c 17a6 0e3e 8f78 523e 73a1 aa3c
00000300: 3897 babc bb57 f6ba 34af 693d 5182 0e3d
00000310: cacc d53e 2989 b2be 652f f8bd 96db 9dbd
00000320: d447 32be e595 16be bf33 09bd 754c 32bd
00000330: 40ce 26be 8917 2a3e de78 bbbd cebf b53d
00000340: 7d67 f43d d7f0 b23d 3adb eb3c 801b 8b3d
00000350: 5a05 78bd e9b9 8e3d b4b0 873d 6fba 09bd
00000360: 1b67 48bd 6255 cb3d 5686 c0bd 0ec0 82bc
00000370: 9d25 88bc a5e5 763d 581c 39bc a230 5a3c
00000380: 54be a63d 0542 babd 9009 2d3e 1a5d 193e
00000390: 4fef 91bd 110d 06bc a70f 44bd 343a 013e
000003a0: 7162 383e 7849 6e3d 1e68 b23d 57b4 033e
000003b0: 9008 ca3d 634a e4bd 5ecd aa3d 1035 d73d
000003c0: e633 fe3d 8caa c5bd f643 91be d53a a5be
000003d0: 7001 953d f658 a9bc c5a6 e4bd d9b5 20be
000003e0: e991 4dbc 4185 09bd 0c52 8cbd a62d 343e
000003f0: 73fd c7bd 8f31 613d 516b 1cbe 9fb5 8a3d

shared_fc.bias f4 [512]
0.15231577 0.10208044 0.20287715 0.02904308 0.41517428 0.15036486 -0.028334608 -0.04047836
0.11424229 -0.002760641 0.005257654 0.15227963 0.08057609 0.10500535 0.1723045 0.2154012
0.106727496 0.212188 0.1460785 0.1097419 0.13678119 0.08764402 0.217891 0.21875624
0.04024623 0.11794373 -0.041830715 0.15923707 -0.046316087 0.03219274 0.12542903 0.15440401
0.097869284 0.24846819 0.069523126 0.111767344 0.21067527 0.014258285 0.024032252 0.2046716
0.08391389 -0.041372444 0.07276674 0.019240275 0.044131346 0.15885746 0.0136456005 0.07477266
0.37314856 0.053742245 -0.03139917 0.04982643 0.06904152 0.03546353 0.048462074 -0.0010088988
0.13843438 0.07358386 0.31575722 0.010945313 0.20998058 0.124308944 0.15415356 -0.003957616
0.12549633 0.23555885 0.1107218 0.19175155 0.16009913 0.04304377 0.15100364 0.14852233
0.14613567 0.15300618 0.26304448 0.2163483 0.14143237 0.40443245 -0.0066777975 0.05185701
0.17987706 0.02628083 0.15923412 0.20463924 0.21364053 0.18595368 0.072406426 0.23766185
0.21680973 0.16143909 0.12790033 0.1473632 -0.0049617225 0.14106281 0.09373035 0.10103121
0.25521517 0.42931947 0.053596273 0.08875961 0.17975765 0.006770579 0.004470029 0.13993487
0.18223837 0.0583074 0.17166664 0.15639652 0.033249404 0.14466994 0.035195947 0.094130486
0.060949184 0.018412584 0.12904717 0.13226648 0.12055573 0.13191222 0.074292384 0.102601506
0.04516513 0.067256354 0.16879538 0.19359407 0.1864367 0.0020843216 0.09763419 0.05673118
0.06771483 -0.0018820903 0.18361846 0.048000596 0.12727904 0.010848352 0.14958094 0.13775152
-0.004100635 0.14107299 0.49848178 0.16501004 0.13792321 0.10143617 0.17484769 -0.012301203
0.26890245 0.15219532 0.1819128 0.15989283 0.11950328 0.21530816 0.25652623 0.0063604834
0.21068089 0.22462155 0.195375 0.02758541 0.13360445 0.060752124 0.110649884 0.013867866
0.093198836 0.06062719 0.15974927 -0.024909945 0.14778657 0.04903336 0.6394021 -0.0019989598
0.07356143 0.17422913 0.026319422 0.011539803 0.093481146 0.16317038 0.04168417 0.17573155
0.1826006 0.049561318 -0.10611659 0.0873999 0.23787604 0.14992143 0.0806938 0.11186051
0.023116501 0.029905498 0.17095554 0.14011702 -0.053668607 0.17531303 0.15146102 -0.027096782
0.070408754 0.23056729 0.104488745 0.0788774 -0.04199093 0.18221462 0.04903946 0.053060744
0.22633082 0.11596343 0.07801695 0.108654775 0.044560764 0.57715666 0.04555487 0.011608865
0.018514775 0.1780802 0.13800605 0.15621631 0.1433429 0.052686848 0.09091435 0.015020407
0.16161682 0.021239378 0.022246933 0.23049237 0.10954152 0.21949236 -0.025089862 0.023176122
0.086733505 0.10330601 -0.0047872956 0.10947644 0.11152176 0.056931842 0.1288633 0.11761461
0.04375636 0.16776612 0.1741304 0.034996185 0.013259937 0.21866556 0.0733341 -0.002810269
0.1061181 0.25820142 0.02112726 0.09946538 0.047871664 0.01298789 0.16059428 0.093620665
0.05660128 0.16604213 0.1666084 0.23699783 0.12370018 0.0061273747 0.094731756 0.16080298
00000000: aaf8 1b3e 8d0f d13d 07bf 4f3e c1eb ed3c
00000010: b991 d43e 3ff9 193e fb1d e8bc a3cc 25bd
00000020: ddf7 e93d dfeb 34bb 6648 ac3b 31ef 1b3e
00000030: 1405 a53d 0c0d d73d 9770 303e 2292 5c3e
00000040: f293 da3d d047 593e 9a95 153e 5cc0 e03d
00000050: 5e10 0c3e b57e b33d d11e 5f3e a301 603e
00000060: 3bd9 243d 7b8c f13d af56 2bbd 0b0f 233e
00000070: f0b5 3dbd 89dc 033d 7870 003e 161c 1e3e
00000080: b16f c83d 726e 7e3e 2462 8e3d 47e6 e43d
00000090: 42bb 573e 959b 693c 49df c43c 6f95 513e
000000a0: 0cdb ab3d 2776 29bd bb06 953d c89d 9d3c
000000b0: 12c3 343d 88ab 223e cc91 5f3c 6922 993d
000000c0: 540d bf3e d420 5c3d 6b9c 00bd cc16 4c3d
000000d0: a465 8d3d 3542 113d 2b80 463d 073d 84ba
000000e0: bec1 0d3e 23b3 963d eeaa a13e f853 333c
000000f0: 2605 573e b095 fe3d 6eda 1d3e e4ae 81bb
00000100: 1c82 003e 5736 713e 1cc2 e23d 855a 443e
00000110: 07f1 233e aa4e 303d b3a0 1a3e 3d16 183e
00000120: 97a4 153e a7ad 1c3e c4ad 863e 698a 5d3e
00000130: a6d3 103e c511 cf3e 6dd1 dabb 0468 543d
00000140: b131 383e e54a d73c 450e 233e f38c 513e
00000150: 95c4 5a3e a46a 3e3e d249 943d a15d 733e
00000160: 5f03 5e3e 4a50 253e 4ef8 023e 61e6 163e
00000170: f295 a2bb c572 103e b3f5 bf3d 73e9 ce3d
00000180: 90ab 823e c3cf db3e c487 5b3d 99c7 b53d
00000190: 6412 383e bcdb dd3b 5279 923b 164b 0f3e
000001a0: b29c 3a3e bed3 6e3d 61c9 2f3e 6926 203e
000001b0: 8730 083d 5b24 143e a029 103d 7cc7 c03d
000001c0: daa5 793d fdd5 963c f124 043e dd70 073e
000001d0: ece5 f63d ff13 073e 9b26 983d bd20 d23d
000001e0: 12ff 383d b3bd 893d b2d8 2c3e 863d 463e
000001f0: 43e9 3e3e 1d99 083b 6ff4 c73d f45e 683d
00000200: 13ae 8a3d 79b0 f6ba 7a06 3c3e 469c 443d
00000210: 7055 023e 49bd 313c bf2b 193e bc0e 0d3e
00000220: 9f5e 86bb 7075 103e 0139 ff3e 64f8 283e
00000230: be3b 0d3e c4bd cf3d 460b 333e fc8a 49bc
00000240: 95ad 893e 17d9 1b3e 5947 3a3e f2ba 233e
00000250: 23be f43d be79 5c3e 6857 833e 9a6b d03b
00000260: bbbc 573e 3103 663e 6210 483e ccfa e13c
00000270: 9bcf 083e 38d7 783d 689c e23d 0c36 633c
00000280: 08df be3d 3754 783d 5095 233e f10f ccbc
00000290: 5d55 173e 34d7 483d dbaf 233f fb00 03bb
000002a0: 60a7 963d 1f69 323e d49b d73c 7111 3d3c
000002b0: 0b73 bf3d 2316 273e 05bd 2a3d f9f2 333e
000002c0: a7fb 3a3e cf00 4b3d a853 d9bd b8fe b23d
000002d0: c795 733e 0185 193e ca42 a53d 2017 e53d
000002e0: d15e bd3c 60fc f43c f80e 2f3e d67a 0f3e
000002f0: 9dd3 5bbd 4285 333e 9918 1b3e 12fa ddbc
00000300: 7732 903d d519 6c3e 32fe d53d 798a a13d
00000310: aefe 2bbd 7896 3a3e 9add 483d 3956 593d
00000320: 44c3 673e 3c7e ed3d 5ac7 9f3d 6586 de3d
00000330: 5985 363d 8ac0 133f be97 3a3d 1c33 3e3c
00000340: 4cac 973c a85a 363e 7551 0d3e 2bf7 1f3e
00000350: 7bc8 123e 2ace 573d 4d31 ba3d 2718 763c
00000360: e17e 253e 34fe ad3c 333f b63c 3106 6c3e
00000370: 4e57 e03d 9bc2 603e 4189 cdbc dadb bd3c
00000380: 56a1 b13d 1a92 d33d bfde 9cbb 2f35 e03d
00000390: 8565 e43d 5d31 693d bef4 033e eedf f03d
000003a0: de39 333d e2ca 2b3e 3d4f 323e 2958 0f3d
000003b0: 3540 593c dde9 5f3e 3030 963d 7d2c 38bb
000003c0: 7254 d93d fa32 843e 1313 ad3c 81b4 cb3d
000003d0: 1415 443d 29cb 543c d472 243e 31bc bf3d
000003e0: bed6 673d f306 2a3e 649b 2a3e 8faf 723e
000003f0: 8556 fd3d 25c8 c83b b902 c23d 89a9 243e

shared_ln.weight f4 [512]
1.2168337 1.0278851 1.1973696 1.2866408 0.5353675 1.4538825 1.6160085 1.31097
1.0351194 1.3686632 1.268525 1.2579304 1.224165 0.9392108 1.0992275 0.98363745
1.4287922 1.1026828 1.4292328 1.0082421 1.428944 1.2619799 1.1037096 1.2327405
1.3822794 1.4917146 1.3707505 1.0524387 0.9837636 1.2357017 1.3122749 1.1525178
1.167431 0.5340194 1.7792298 1.2864463 0.6008557 1.3376764 1.8055054 1.0827845
0.9092235 1.9209726 1.6138879 1.3213964 1.0995182 1.0981075 1.5720923 1.6587943
0.49750248 1.0587759 1.4336445 1.1942916 1.2350184 1.6986718 0.78453094 1.8133311
1.3462763 0.767452 0.64454514 1.5060023 0.91987056 1.0932696 1.5592669 1.3611789
1.1238004 0.627944 1.6340483 1.3372414 0.91077995 0.99000263 1.2234479 0.7294239
1.0386388 1.2329205 0.9299705 1.1802565 1.0472558 0.52080667 1.1616747 1.072783
1.3319042 1.0932698 1.233655 1.1164877 0.6816274 0.7235428 1.1871283 0.9379708
1.1183432 0.66791177 1.235907 1.3881989 1.6077394 1.2434411 1.6695397 1.0372204
1.1153033 0.42813018 1.3537105 1.2189913 1.1573689 1.443277 1.1698165 1.3937912
0.64688617 1.101271 1.2846628 1.3565551 1.0549133 1.0187289 1.4877225 1.4510332
1.7098329 1.2324055 1.1721609 1.4040257 1.3315566 1.21444 1.1452259 1.0550687
1.0174744 1.277694 1.0317006 1.2931693 0.69394386 1.2582445 0.89203423 1.1800237
1.2042457 1.0965931 1.2618389 1.3316118 0.9926105 1.1888938 0.79234314 1.169075
1.2156584 1.0587237 0.34472856 1.3904631 1.3155158 1.2055215 1.4332873 1.2476507
0.80401874 1.3660244 1.2427843 1.2659432 1.0656209 1.1836274 0.77704734 2.1032023
1.0169417 1.1427095 1.244927 1.4104162 0.827825 1.2865436 1.3951535 1.2019517
1.463068 1.339907 1.4933306 1.3566064 1.0988805 1.0565407 0.6481474 1.2154249
1.4216901 1.3974832 1.7448812 1.0993944 1.0023932 0.99376 1.2602493 1.5954632
1.2513317 1.9809186 2.4719484 1.3242091 1.0357218 1.2404115 1.1683289 1.1593378
1.0953406 1.0664665 1.1233749 0.9329016 1.5558617 1.4381218 1.255122 1.6893947
1.3865173 0.7154206 1.3854157 1.1212155 1.560356 1.1727821 0.9363076 1.5937618
0.9692835 1.6596428 1.4892021 1.5883956 1.6329366 0.70078856 1.3413162 1.6757585
1.3141893 0.77043974 1.0113716 1.151548 0.7024651 1.6899785 1.1127303 1.3397927
1.4876637 1.1320118 1.0518852 0.67843276 1.1232046 0.5500166 1.9924091 1.4274721
1.2545731 0.77077794 1.655949 1.1534392 1.2561646 1.6285377 1.0469463 1.2118816
1.0613631 1.2849152 1.1817958 1.1406475 1.4952378 0.94063133 1.4397143 1.3675069
1.09335 0.8803701 0.993095 1.5657609 1.1508204 1.4620771 1.1695681 1.1025773
1.246609 1.303748 1.100821 1.2699616 1.4801513 1.5921391 1.0896924 1.1302161
00000000: 35c1 9b3f bd91 833f 6843 993f a5b0 a43f
00000010: d80d 093f d218 ba3f 5ed9 ce3f ddcd a73f
00000020: cb7e 843f 5b30 af3f 075f a23f dd03 a13f
00000030: 70b1 9c3f 1e70 703f 7db3 8c3f aacf 7b3f
00000040: aae2 b63f b624 8d3f 1af1 b63f 140e 813f
00000050: a3e7 b63f 8f88 a13f 5b46 8d3f 71ca 9d3f
00000060: 88ee b03f 81f0 be3f c174 af3f 50b6 863f
00000070: eed7 7b3f 792b 9e3f a0f8 a73f b485 933f
00000080: 616e 953f 7fb5 083f cdbd e33f 46aa a43f
00000090: aed1 193f fb38 ab3f cd1a e73f af98 8a3f
000000a0: dfc2 683f 6ee2 f53f e193 ce3f 8423 a93f
000000b0: 03bd 8c3f c98e 8c3f 523a c93f 5f53 d43f
000000c0: a5b8 fe3e f885 873f aa81 b73f 8cde 983f
000000d0: 1515 9e3f 146e d93f 05d7 483f 3c1b e83f
000000e0: c852 ac3f bc77 443f e900 253f afc4 c03f
000000f0: a37c 6b3f 42f0 8b3f 0f96 c73f 1c3b ae3f
00000100: b1d8 8f3f f0c0 203f 7f28 d13f ba2a ab3f
00000110: e028 693f d070 7d3f f199 9c3f 86bb 3a3f
00000120: 1ef2 843f 57d0 9d3f 8c12 6e3f a512 973f
00000130: 7a0c 863f 9653 053f c2b1 943f f450 893f
00000140: d67b aa3f 44f0 8b3f 68e8 9d3f 12e9 8e3f
00000150: 227f 2e3f 1a3a 393f d2f3 973f db1e 703f
00000160: df25 8f3f 44fc 2a3f 3332 9e3f 80b0 b13f
00000170: 68ca cd3f 1429 9f3f 7ab3 d53f a3c3 843f
00000180: 42c2 8e3f e133 db3e 6346 ad3f e807 9c3f
00000190: aa24 943f 4dbd b83f 8cbc 953f c067 b23f
000001a0: 559a 253f 73f6 8c3f d56f a43f 99a3 ad3f
000001b0: 6607 873f b565 823f b16d be3f 75bb b93f
000001c0: cedb da3f 77bf 9d3f 5e09 963f 1db7 b33f
000001d0: 7270 aa3f c572 9b3f c396 923f 7e0c 873f
000001e0: 9a3c 823f 7a8b a33f c40e 843f 9286 a53f
000001f0: 4ea6 313f 280e a13f 5b5c 643f 040b 973f
00000200: b924 9a3f 2a5d 8c3f f083 a13f 4172 aa3f
00000210: b91b 7e3f ac2d 983f 00d7 4a3f 40a4 953f
00000220: b29a 9b3f 4284 873f 4380 b03e b2fa b13f
00000230: d262 a83f 874e 9a3f f575 b73f 05b3 9f3f
00000240: 2cd4 4d3f e3d9 ae3f 8e13 9f3f 6d0a a23f
00000250: 4466 883f 1a81 973f 93ec 463f de9a 0640
00000260: 252b 823f 4e44 923f c559 9f3f 8588 b43f
00000270: 57ec 533f 76ad a43f 6494 b23f 8ed9 993f
00000280: d045 bb3f 1382 ab3f 7525 bf3f 47a5 ad3f
00000290: 1ea8 8c3f ba3c 873f fdec 253f 0b93 9b3f
000002a0: f1f9 b53f bbe0 b23f 4458 df3f f5b8 8c3f
000002b0: 6c4e 803f 0e67 7e3f d94f a13f 2338 cc3f
000002c0: a32b a03f be8e fd3f 6734 1e40 af7f a93f
000002d0: 8892 843f cec5 9e3f cd8b 953f 2e65 943f
000002e0: 1f34 8c3f f981 883f c0ca 8f3f a4d2 6e3f
000002f0: 7a26 c73f 6014 b83f d6a7 a03f 163e d83f
00000300: 6679 b13f ce25 373f 4d55 b13f fd83 8f3f
00000310: bfb9 c73f b91d 963f dbb1 6f3f 6300 cc3f
00000320: f722 783f 2d6f d43f 2d9e be3f 8c50 cb3f
00000330: 1104 d13f e166 333f 40b0 ab3f 417f d63f
00000340: 5b37 a83f 8a3b 453f a074 813f ed65 933f
00000350: c1d4 333f 3751 d83f f26d 8e3f 547e ab3f
00000360: c46b be3f c3e5 903f 2da4 863f c5ad 2d3f
00000370: 2bc5 8f3f e3cd 0c3f 4307 ff3f 68b7 b63f
00000380: da95 a03f b451 453f 23f6 d33f e5a3 933f
00000390: 00ca a03f ec73 d03f 5602 863f f01e 9b3f
000003a0: bfda 873f 1a78 a43f 1645 973f bd00 923f
000003b0: f463 bf3f 37cd 703f 8f48 b83f 770a af3f
000003c0: e5f2 8b3f ef5f 613f 793b 7e3f da6a c83f
000003d0: 154e 933f 5825 bb3f 68b4 953f 4121 8d3f
000003e0: e290 9f3f 37e1 a63f b4e7 8c3f 1a8e a23f
000003f0: 9975 bd3f 37cb cb3f 0a7b 8b3f ecaa 903f

shared_ln.bias f4 [512]
-0.12717561 -0.10199528 -0.13662058 -0.22708905 -0.4315773 -0.10774661 -0.044436004 -0.16777906
-0.14237736 -0.08058844 -0.082931004 -0.17174627 -0.17528033 -0.114409685 -0.14463672 -0.12263174
-0.20453523 -0.09524582 -0.23970255 -0.12998833 0.024625389 -0.035967216 -0.013242791 -0.021970218
-0.044848084 -0.028709108 -0.069199026 -0.15764314 -0.21479018 -0.047275867 -0.07860549 -0.08022967
-0.14447363 -0.44844174 -0.19414598 -0.044895116 -0.44989446 -0.16078986 -0.09638191 -0.03153851
-0.23501204 -0.25835556 -0.19915582 -0.050590258 -0.19102275 -0.10036688 -0.19196218 -0.035745468
-0.53273004 -0.12689127 -0.19953163 -0.18271197 -0.033004873 -0.2096648 -0.16998115 -0.00813471
-0.2528165 -0.27049854 -0.2878868 -0.12537251 -0.191889 -0.052377596 -0.021941874 -0.0937482
-0.21246104 -0.37101784 -0.17601296 -0.07933759 -0.26358357 -0.14579594 -0.15425238 -0.23301898
-0.10863447 -0.07568533 -0.1515182 -0.014485463 -0.18663841 -0.4664185 -0.11698063 -0.0028686246
-0.09866101 -0.17889443 -0.04354905 -0.12949325 -0.33285362 -0.23524214 -0.03876552 -0.13308018
-0.091926284 -0.33742148 -0.06474885 -0.16584475 -0.3142033 -0.15288116 -0.09799822 -0.083911665
-0.019532071 -0.5063295 -0.14664912 -0.017391928 -0.24651374 -0.22329195 -0.07442474 -0.034816697
-0.32282984 -0.058595758 -0.034758933 -0.09556331 -0.2126807 -0.17231442 0.07015194 -0.11564519
-0.08559779 -0.080438666 -0.11039475 -0.08274281 -0.066545255 -0.08952038 -0.114537425 -0.118993945
-0.20929508 -0.11203297 -0.12618802 -0.054554455 -0.4055257 -0.2795324 -0.19104683 -0.08486648
-0.06917199 -0.050831117 -0.21306735 -0.11816456 -0.20039247 -0.1397559 -0.2509762 -0.01557072
-0.1371588 -0.19537465 -0.60621715 -0.1254191 -0.11156188 -0.054413505 -0.07203946 -0.050051216
-0.18015696 -0.021142676 -0.049753234 -0.0049335593 -0.1518227 -0.053315017 -0.18662378 -0.12633984
-0.07096926 -0.13611878 -0.083758935 -0.044428427 -0.34070686 -0.12890175 -0.09480304 -0.1699752
-0.108142 -0.033909444 0.011636405 -0.19948116 -0.12544082 -0.14499812 -0.33934397 -0.14306387
-0.07227244 -0.046929974 -0.051056113 -0.15030038 -0.19776286 -0.05442166 -0.13258137 -0.116421424
-0.11986258 -0.16432251 -0.40092003 -0.15845788 -0.1322956 -0.049695667 -0.020971246 -0.08199023
-0.12592183 -0.1509674 -0.14056396 -0.21108836 -0.12022706 0.10443352 -0.23012339 -0.107078545
-0.20697673 -0.22435534 -0.1357861 -0.13374029 -0.14428838 -0.15539825 -0.12742995 -0.2190144
-0.054514527 -0.23376545 -0.07957201 -0.26153785 -0.1492532 -0.3066498 -0.2516016 -0.1289983
-0.10345368 -0.2792087 -0.17208633 -0.023848288 -0.2569581 -0.118623964 -0.1598901 -0.22664012
-0.111875504 -0.090197355 -0.09511671 -0.2812626 -0.12417092 -0.45739186 -0.3124293 -0.20002732
-0.12429138 -0.37519377 -0.06802028 -0.048347782 -0.15813455 -0.09901931 -0.20026173 -0.07300212
-0.11275434 -0.05952804 -0.01578049 -0.20057608 -0.11334609 -0.15706597 -0.034526452 -0.21700948
-0.13320845 -0.15487368 -0.17529199 -0.14165771 -0.06807924 -0.14042656 -0.037977852 -0.2071929
-0.058853198 -0.10391316 -0.14904451 0.078658365 0.038065262 -0.12234792 -0.13474965 -0.06456145
00000000: 533a 02be e7e2 d0bd 44e6 0bbe 088a 68be
00000010: b3f7 dcbe 41aa dcbd 8702 36bd 46ce 2bbe
00000020: 5fcb 11be 8d0b a5bd bbd7 a9bd 41de 2fbe
00000030: b07c 33be a04f eabd a61b 14be 5a26 fbbd
00000040: af71 51be 3e10 c3bd 9674 75be a91b 05be
00000050: 2fbb c93c 5c52 13bd 4bf8 58bc e3fa b3bc
00000060: a0b2 37bd 5d2f ebbc 38b8 8dbd 346d 21be
00000070: f5f1 5bbe 57a4 41bd eafb a0bd 744f a4bd
00000080: e5f0 13be 289a e5be 34ce 46be f1e3 37bd
00000090: 9158 e6be 19a6 24be e163 c5bd 862e 01bd
000000a0: ffa6 70be 2e47 84be 81ef 4bbe bb37 4fbd
000000b0: 789b 43be 278d cdbd bc91 44be d769 12bd
000000c0: ff60 08bf c9ef 01be 0552 4cbe d918 3bbe
000000d0: 1e30 07bd 5fb2 56be 8a0f 2ebe 7247 05bc
000000e0: 2a71 81be c97e 8abe e665 93be a761 00be
000000f0: 8d7e 44be e489 56bd 72bf b3bc 0eff bfbd
00000100: 638f 59be 0df6 bdbe be3c 34be bf7b a2bd
00000110: 6df4 86be 884b 15be 56f4 1dbe 879c 6ebe
00000120: c07b debd e900 9bbd 9627 1bbe 6f54 6dbc
00000130: 241e 3fbe 68ce eebe 8a93 efbd 89ff 3bbb
00000140: c90e cabd 1a30 37be 7d60 32bd e199 04be
00000150: ca6b aabe 51e3 70be 98c8 1ebd 2c46 08be
00000160: d943 bcbd 82c2 acbe 0c9b 84bd 35d3 29be
00000170: 41df a0be e18c 1cbe 4ab3 c8bd e1d9 abbd
00000180: b901 a0bc cf9e 01bf 302b 16be 8479 8ebc
00000190: 196e 7cbe a5a6 64be 006c 98bd f49b 0ebd
000001a0: f449 a5be 1b02 70bd 625f 0ebd b2b6 c3bd
000001b0: f8c8 59be 3173 30be d2ab 8f3d 63d7 ecbd
000001c0: e54d afbd 07bd a4bd a516 e2bd 1075 a9bd
000001d0: e148 88bd 7656 b7bd 9992 eabd 19b3 f3bd
000001e0: 7351 56be 8b71 e5bd 6f37 01be 7e74 5fbd
000001f0: 11a1 cfbe df1e 8fbe c8a1 43be 7ace adbd
00000200: 0baa 8dbd 4a34 50bd 542e 5abe 4300 f2bd
00000210: af33 4dbe 2c1c 0fbe f47f 80be 551c 7fbc
00000220: 5b73 0cbe 4b10 48be 0c31 1bbf dd6d 00be
00000230: 8e7a e4bd b2e0 5ebd 6d89 93bd 8102 4dbd
00000240: 117b 38be 6833 adbc 0cca 4bbd b2a9 a1bb
00000250: 6977 1bbe d960 5abd 4e1a 3fbe 3b5f 01be
00000260: 5558 91bd b962 0bbe ce89 abbd 95fa 35bd
00000270: 2171 aebe d2fe 03be 1928 c2bd fb0d 2ebe
00000280: 8e79 ddbd a1e4 0abd 9fa6 3e3c ca44 4cbe
00000290: 8f73 00be 637a 14be 7ebe adbe 567f 12be
000002a0: 9303 94bd a539 40bd 3720 51bd 58e8 19be
000002b0: 5982 4abe 3fe9 5ebd 69c3 07be 5b6e eebd
000002c0: 837a f5bd 2944 28be 6445 cdbe c842 22be
000002d0: 7f78 07be af8d 4bbd e4cb abbc 7eea a7bd
000002e0: a7f1 00be 3397 1abe 00f0 0fbe 8c27 58be
000002f0: 9b39 f6bd 3ee1 d53d 77a5 6bbe ff4b dbbd
00000300: b5f1 53be 68bd 65be 830b 0bbe 37f3 08be
00000310: 55c0 13be b820 1fbe ff7c 02be 5045 60be
00000320: a04a 5fbd 3660 6fbe a6f6 a2bd 4ae8 85be
00000330: d5d5 18be 3401 9dbe edd1 80be 2118 04be
00000340: 86df d3bd 71f4 8ebe 6637 30be 7c5d c3bc
00000350: 0390 83be 1ff1 f2bd 3bba 23be 5914 68be
00000360: fc1e e5bd 64b9 b8bd 8dcc c2bd a701 90be
00000370: 534d febd 442f eabe bcf6 9fbe f6d3 4cbe
00000380: 7b8c febd 6619 c0be 374e 8bbd 5308 46bd
00000390: 06ee 21be a3ca cabd 6911 4dbe 2382 95bd
000003a0: bfeb e6bd add3 73bd 1646 81bc d163 4dbe
000003b0: ff21 e8bd e7d5 20be 9c6b 0dbd bc37 5ebe
000003c0: cc67 08be 3597 1ebe be7f 33be b80e 11be
000003d0: 216d 8bbd fbcb 0fbe aa8e 1bbd 602a 54be
000003e0: 0d10 71bd 6cd0 d4bd 209f 18be a317 a13d
000003f0: 52ea 1b3d 8c91 fabd d0fb 09be cb38 84bd

actor_fc.weight f4 [6, 512]
0.3262236 -0.011420441 0.15682289 0.5124308 0.045094542 0.0850062 0.20023441 0.18489988
0.09245896 -0.36016047 0.06269793 0.24114214 0.123721845 0.07948081 0.11801105 -0.0053276075
0.5971604 0.13629 0.54981345 0.103313275 0.16915193 0.24434471 0.033126652 -0.08050293
0.16154304 0.52172387 0.24480459 0.07236608 0.05394381 -0.2917467 -0.029519608 0.0970874
0.17622204 0.02052737 -0.014021117 0.23353763 0.026655471 -0.35818776 0.49757904 0.16889252
0.12548605 -0.047095157 0.33894625 0.07097849 0.20627776 0.038990974 -0.1876634 0.36735088
0.022479549 -0.1179027 0.12277039 0.32718205 0.037400424 -0.38822192 0.010268442 0.6248805
0.13825797 -0.04894891 0.032552235 0.10197913 -0.08370276 0.19688423 0.14316562 0.13787211
0.35002518 0.05714935 -0.61409014 -0.10302052 0.13280813 0.13993044 0.11682419 0.05606286
0.20925109 -0.19971023 0.0058280355 -0.22415712 -0.032518797 0.02022378 -0.06050971 0.14665389
-0.29845595 0.16183828 -0.03578673 0.21566175 0.02524024 0.027391711 -0.1945745 0.15784588
0.1382209 0.04837063 0.06782769 0.31821656 0.4446864 -0.097265184 0.16628097 0.07122539
0.15426113 -0.0033889501 0.029802362 0.16810738 0.3957554 0.089455396 0.18929978 -0.4116586
0.031887446 0.17434448 -0.07683473 0.4993986 0.24839424 0.14489311 -0.5608377 -0.09799856
-0.19442996 -0.2817872 -0.0026491233 0.10454062 0.0910239 0.17537077 0.07288851 0.18527815
-0.036922254 -0.16632648 -0.10781969 0.34608686 -0.015527075 -0.48507425 -0.017147247 0.14292894
0.1802221 -0.05836075 0.0919434 0.27824226 0.010269352 -0.05579997 0.08215305 -0.09127158
0.05464887 0.13336469 0.06089756 0.51731664 -0.014649612 -0.20097625 -0.017027846 -0.2655176
0.06763634 -0.04499085 0.3364055 -0.0866985 -0.17806241 0.12600729 0.05264657 0.0068336884
0.08835564 0.27399856 0.25609076 -0.22085012 0.11851735 -0.17276482 0.44617128 0.24218234
-0.5704124 -0.01556029 0.43903136 0.40831888 0.1309021 0.16071802 0.089268126 -0.29409
-0.020215603 0.34710208 -0.59853655 0.05450598 -6.0039627e-05 0.08930528 -0.10616515 -0.15931724
-0.06117166 0.2657491 0.5286439 0.078222975 0.10027989 -0.102404155 0.14972697 -0.24479537
0.14142306 0.2046156 0.15038583 0.18162894 0.37673277 -0.44308951 0.16714428 -0.68363774
0.4925744 0.044093277 -0.37821326 0.0526039 -0.15361933 0.22330554 0.034559317 0.034356087
0.025971662 0.102322854 -0.24480678 -0.6891777 -0.04599174 0.05788569 0.252821 0.13835786
-0.08939525 0.07344138 0.16468124 0.17738195 0.045050897 -0.6976318 0.26445505 0.18764223
-0.3747225 -0.041968796 0.17673026 0.047205333 0.054299306 0.0094503965 0.6251087 -0.52342033
0.34841865 -0.045310818 -0.23990716 0.27481046 0.060543742 0.57370603 0.18593407 0.11581795
-0.068660505 0.19941741 0.19604532 0.15231769 0.4196834 -0.06685217 0.025650542 -0.0995373
-0.06866311 0.068452485 0.15180112 -0.08026623 -0.16537662 -0.21808912 -0.05514627 0.34904802
-0.14788714 0.27840388 0.05316625 -0.17086712 -0.27156636 -0.09381352 0.1259893 0.21801403
00000000: c806 a73e cd1c 3bbc 2e96 203e aa2e 033f
00000010: 0eb5 383d bb17 ae3d 400a 4d3e 6556 3d3e
00000020: 205b bd3d f466 b8be c667 803d f7ed 763e
00000030: e161 fd3d d6c6 a23d c7af f13d 3693 aebb
00000040: 81df 183f 9b8f 0b3e 93c0 0c3f e995 d33d
00000050: 2a36 2d3e 8035 7a3e d0af 073d b8de a4bd
00000060: 8a6b 253e b28f 053f 0eae 7a3e ab34 943d
00000070: 2ff4 5c3d d35f 95be 1bd3 f1bc c2d5 c63d
00000080: 8d73 343e 0429 a83c d4b8 65bc 7d24 6f3e
00000090: 935c da3c 6364 b7be aec2 fe3e 29f2 2c3e
000000a0: 6a7f 003e dae6 40bd 5d8a ad3e 2c5d 913d
000000b0: 7a3a 533e 00b5 1f3d d62a 40be 6a15 bc3e
000000c0: 0827 b83c f976 f1bd 0b6f fb3d 6884 a73e
000000d0: 3031 193d 06c5 c6be f83c 283c 2bf8 1f3f
000000e0: 7f93 0d3e a77e 48bd 7e55 053d 6fda d03d
000000f0: 5a6c abbd 059c 493e 029a 123e 592e 0d3e
00000100: 8036 b33e 7015 6a3d 0335 1dbf 6cfc d2bd
00000110: dbfe 073e ed49 0f3e 8541 ef3d 2ba2 653d
00000120: eb45 563e d780 4cbe 1bf9 be3b 7289 65be
00000130: 6e32 05bd 57ac a53c 08d9 77bd 702c 163e
00000140: 38cf 98be efb8 253e 1b95 12bd 6fd6 5c3e
00000150: 9fc4 ce3c 9564 e03c 8a3e 47be 5aa2 213e
00000160: c889 0d3e 4820 463d 3ee9 8a3d 48ed a23e
00000170: f0ad e33e f832 c7bd 8f45 2a3e 9ede 913d
00000180: a1f6 1d3e 2619 5ebb 1524 f43c 5724 2c3e
00000190: 74a0 ca3e 6434 b73d cdd7 413e ebc4 d2be
000001a0: 699c 023d 5c87 323e 875b 9dbd 2cb1 ff3e
000001b0: 0f5b 7e3e dc5e 143e 0f93 0fbf 78b3 c8bd
000001c0: a618 47be 6946 90be ea9c 2dbb 6519 d63d
000001d0: bd6a ba3d 6594 333e 9246 953d 8eb9 3d3e
000001e0: ca3b 17bd 7d51 2abe 92d0 dcbd 4c32 b13e
000001f0: 4665 7ebc a75b f8be 6278 8cbc f75b 123e
00000200: 248c 383e af0b 6fbd d24c bc3d c575 8e3e
00000210: c940 283c 828e 64bd dc3f a83d 98ec babd
00000220: 7ed7 5f3d c190 083e b86f 793d dd6e 043f
00000230: ed04 70bc b8cc 4dbe fb7d 8bbc ecf1 87be
00000240: ec84 8a3d 5348 38bd 573d ac3e fc8e b1bd
00000250: fe55 36be 0e08 013e eea3 573d 22ed df3b
00000260: cdf3 b43d 8a49 8c3e 541e 833e 8926 62be
00000270: 39b9 f23d 43e9 30be 9070 e43e a6fe 773e
00000280: 8c06 12bf 96f0 7ebc b8c8 e03e 2c0f d13e
00000290: 330b 063e 4493 243e 35d2 b63d f792 96be
000002a0: 319b a5bc 5db7 b13e b139 19bf aa41 5f3d
000002b0: 0fd3 7bb8 b0e5 b63d 1d6d d9bd 0f24 23be
000002c0: 228f 7abd 4410 883e 3555 073f 5e33 a03d
000002d0: 8b5f cd3d 45b9 d1bd 0752 193e a3ab 7abe
000002e0: 35d1 103e c086 513e befe 193e f0fc 393e
000002f0: 1ee3 c03e a1dc e2be df27 2b3e e202 2fbf
00000300: b632 fc3e 279b 343d 2ba5 c1be 3077 573d
00000310: 634e 1dbe 35aa 643e 128e 0d3d f8b8 0c3d
00000320: 86c2 d43c a58e d13d a1ae 7abe f36d 30bf
00000330: d661 3cbd 8c19 6d3d c171 813e afad 0d3e
00000340: db14 b7bd 6f68 963d 33a2 283e 9da3 353e
00000350: 4a87 383d ff97 32bf a766 873e 4925 403e
00000360: a1db bfbe 79e7 2bbd c7f8 343e 615a 413d
00000370: f368 5e3d d6d5 1a3c 2007 203f e0fe 05bf
00000380: ee63 b23e d697 39bd 39aa 75be f5b3 8c3e
00000390: b7fc 773d 66de 123f 8065 3e3e f631 ed3d
000003a0: e19d 8cbd 1434 4c3e 1bc0 483e 2bf9 1b3e
000003b0: bee0 d63e cae9 88bd 1621 d23c 36da cbbd
000003c0: 3f9f 8cbd d130 8c3d c171 1b3e 9f62 a4bd
000003d0: 7d58 29be c152 5fbe 0ee1 61bd 6cb6 b23e
000003e0: ba6f 17be f48a 8e3e dbc4 593d caf7 2ebe
000003f0: bf0a 8bbe 4e21 c0bd 5703 013e 123f 5f3e

actor_fc.bias f4 [6]
0.063939214 -0.019585548 0.03248162 0.027949892 -0.056804936 0.09647407
00000000: 90f2 823d df71 a0bc 720b 053d 2cf7 e43c
00000010: 4bac 68bd 3294 c53d

fc1.weight f4 [512, 192]
1.8856705 0.49074727 0.4779869 0.5090348 4.9718103 3.9803278 -0.7773357 -0.04460246
-0.8039402 1.047785 -0.03630854 -0.023822421 -0.3906426 1.3281629 -0.036490325 -0.06906192
-1.3114475 -0.033896238 1.8595035 0.64291865 0.033842307 -0.019096043 1.7354766 -0.39255735
2.683316 -0.7440823 0.45438913 0.3526598 -0.017910894 2.0925071 2.1481962 -0.13405329
1.586686 0.34124607 2.1948254 1.4999188 2.5951328 0.065212995 0.046798263 1.0674382
0.3250228 -0.48514366 0.62106544 1.0203997 1.026256 2.7858138 0.64755875 0.55946976
0.33412078 1.634344 1.0174142 1.8778309 0.5604869 -0.025114499 -1.4528741 -0.9784719
0.0108424965 -0.03518368 -1.5241424 1.8794339 0.014684551 -0.05000905 -2.8056357 0.0521881
0.66404545 0.75156164 0.04141238 0.039879397 2.0555704 0.34275857 1.7955521 -0.22400631
0.44100124 0.72444874 0.07193156 2.2842817 -0.6464377 -1.2676343 1.910096 0.9578828
2.2879174 0.5152072 0.00014228155 0.8872232 0.004648234 1.1039646 2.0321975 0.1430377
1.3706678 1.6052363 1.4149348 0.9450033 0.96094704 -0.15373929 1.3496251 1.9066799
0.6349706 0.52222604 0.3164348 1.5530361 1.0241523 1.8231646 0.52589697 0.04195779
-1.407509 -0.98987836 0.04758456 -0.05199838 -1.6397115 1.9306462 -0.008475492 0.057644725
-2.7550094 0.002963489 0.58228827 0.75538945 -0.05200751 -0.009815877 1.9660391 0.2473518
1.8933343 -0.19469969 0.4129092 0.74641424 0.007168642 2.2234917 -0.57953507 -1.2667762
1.8844689 0.9007464 2.1672823 0.54519844 0.06065653 0.7872723 -0.072163396 0.99828124
2.0051649 0.12871718 1.3874034 1.5399845 1.3898503 1.0489572 1.8397325 0.44331062
0.520267 0.43016446 5.0843115 3.919924 -0.6937056 -0.047070347 -0.757221 1.0747547
0.033459935 0.055398397 -0.4078144 1.4118543 0.05619871 0.02484139 -1.3640298 -0.01467181
1.894139 0.52104837 0.024484815 0.0165697 1.7420295 -0.3637317 2.7468007 -0.6292837
0.46607384 0.41406807 0.0454842 2.1252453 2.0894094 -0.19302161 1.5377566 0.35578632
2.1299307 1.4035186 2.674676 -0.03814466 -0.05141397 1.1163415 0.455779 -0.44919732
0.65272266 0.96622825 1.0332123 2.8790216 -0.87785006 0.06476868 1.7865173 1.9241183
2.466647 2.1116579 1.4138803 3.0202618 0.04737375 3.1721473 2.1706316 0.0289846
-1.7634208 -1.8916693 0.020978661 0.06460673 -0.9901902 2.7504728 0.06341421 0.003771139
-1.6801907 0.015624751 3.1172283 2.3341944 0.04487754 -0.060459558 4.339753 -0.19403039
1.8342899 -0.65343654 -1.801104 -0.057022024 -0.061105434 2.6684163 0.4851356 -1.8072451
2.7446592 1.8622894 1.3815297 0.23903649 0.2697955 -0.24252462 -0.023863053 1.5769129
1.179604 -0.6967517 2.7111206 1.1911143 2.4504604 2.6809382 2.718783 1.8110659
1.6391168 3.0787404 -0.90025747 2.3627853 2.434584 -0.068320975 -1.9801601 -1.7107408
0.06420216 -0.012843555 -1.1260552 2.1566806 0.050791174 -0.0044263755 -2.4550915 0.056721807
00000000: a75d f13f 3a43 fb3e b3ba f43e 1b50 023f
00000010: 1219 9f40 b1bd 7e40 79ff 46bf 12b1 36bd
00000020: 06cf 4dbf d21d 863f 43b8 14bd 3d27 c3bc
00000030: 4f02 c8be 3e01 aa3f e176 15bd 5670 8dbd
00000040: 83dd a7bf c8d6 0abd 3604 ee3f 5196 243f
00000050: 3b9e 0a3d 4e6f 9cbc 1924 de3f 47fd c8be
00000060: 73bb 2b40 2d7c 3ebf b1a5 e83e d38f b43e
00000070: deb9 92bc a3eb 0540 0c7c 0940 4445 09be
00000080: 8718 cb3f ceb7 ae3e 0578 0c40 57fd bf3f
00000090: a816 2640 648e 853d 89af 3f3d d1a1 883f
000000a0: 6369 a63e c064 f8be 25fe 1e3f 759c 823f
000000b0: 5b5c 833f c64a 3240 69c6 253f 6939 0f3f
000000c0: e111 ab3e 2f32 d13f a13a 823f c35c f03f
000000d0: 127c 0f3f ecbc cdbc c7f7 b9bf 227d 7abf
000000e0: baa4 313c c31c 10bd 1917 c3bf 4a91 f03f
000000f0: 7997 703c 4ad6 4cbd 898f 33c0 30c3 553d
00000100: e2fe 293f 5866 403f 07a0 293d 9458 233d
00000110: 778e 0340 0d7e af3e a7d4 e53f e961 65be
00000120: eaca e13e 7975 393f db50 933d ac31 1240
00000130: f17c 25bf d741 a2bf 077e f43f cf37 753f
00000140: 3d6d 1240 9ee4 033f 6a31 1539 0f21 633f
00000150: 3750 983b b64e 8d3f 860f 0240 7a78 123e
00000160: 0b72 af3f 6278 cd3f 951c b53f bceb 713f
00000170: a000 763f d56d 1dbe 84c0 ac3f 160e f43f
00000180: 6f8d 223f 9bb0 053f be03 a23e e3c9 c63f
00000190: 6c17 833f 755d e93f 2fa1 063f eedb 2b3d
000001a0: 4129 b4bf ab68 7dbf 07e8 423d 41fc 54bd
000001b0: 11e2 d1bf 6a1f f73f cadc 0abc e01c 6c3d
000001c0: 1352 30c0 1837 423b d810 153f 3461 413f
000001d0: d405 55bd c6d2 20bc 2ba7 fb3f ca49 7d3e
000001e0: c758 f23f 5b5f 47be d668 d33e 0115 3f3f
000001f0: ede6 ea3b b04d 0e40 695c 14bf b925 a2bf
00000200: 4736 f13f 5197 663f c1b4 0a40 2092 0b3f
00000210: fb72 783d ad8a 493f 67ca 93bd 5c8f 7f3f
00000220: 9f54 0040 70ce 033e 6f96 b13f 361e c53f
00000230: 9de6 b13f 3b44 863f 5b7c eb3f 9cf9 e23e
00000240: 3830 053f 843e dc3e aeb2 a240 09e0 7a40
00000250: b196 31bf d6cc 40bd 3cd9 41bf 9091 893f
00000260: 490d 093d 6ee9 623d 0dcd d0be a4b7 b43f
00000270: 9e30 663d 2c80 cb3c 8798 aebf 0862 70bc
00000280: 2673 f23f 6d63 053f 6194 c83c 2ebd 873c
00000290: d3fa de3f 0b3b babe 95cb 2f40 bd18 21bf
000002a0: 3ba1 ee3e bb00 d43e a44d 3a3d 0504 0840
000002b0: e2b8 0540 75a7 45be 35d5 c43f a029 b63e
000002c0: c950 0840 7fa6 b33f e42d 2b40 933d 1cbd
000002d0: 7497 52bd 47e4 8e3f dd5b e93e 31fd e5be
000002e0: d518 273f bc5a 773f 4d40 843f e441 3840
000002f0: c8ba 60bf 71a5 843d 99ac e43f 8249 f63f
00000300: 8bdd 1d40 6725 0740 08fa b43f f84b 4140
00000310: fa0a 423d 7604 4b40 a1eb 0a40 1d71 ed3c
00000320: c6b7 e1bf 3822 f2bf 71db ab3c 8950 843d
00000330: 1b7d 7dbf bf07 3040 4fdf 813d 3725 773b
00000340: 7d10 d7bf f5fe 7f3c ab80 4740 7163 1540
00000350: 83d1 373d 71a4 77bd 42df 8a40 e7af 46be
00000360: 03ca ea3f 9e47 27bf 938a e6bf ed8f 69bd
00000370: b149 7abd 55c7 2a40 b263 f83e cf53 e7bf
00000380: 7fa8 2f40 805f ee3f f7d5 b03f fbc5 743e
00000390: a322 8a3e 6058 78be 737c c3bc 48d8 c93f
000003a0: 44fd 963f 525e 32bf 0083 2d40 6f76 983f
000003b0: 58d4 1c40 7e94 2b40 8a00 2e40 02d1 e73f
000003c0: 94ce d13f 150a 4540 4677 66bf e037 1740
000003d0: 39d0 1b40 deeb 8bbd e375 fdbf 8ef9 dabf
000003e0: 6c7c 833d c66d 52bc 9422 90bf 0e07 0a40
000003f0: 680a 503d 210b 91bb 3820 1dc0 2055 683d

fc1.bias f4 [512]
1.9620942 4.580884 3.986245 2.514672 1.5344887 1.3740344 1.9637488 4.784276
2.0327723 3.6133988 2.1653066 2.139173 2.5399883 2.0038335 4.813445 5.926524
1.3602339 4.2607627 5.3375773 5.159527 1.6691816 2.129736 3.5731895 4.413253
4.2729144 2.6059272 4.954429 4.7459745 3.770872 1.9264145 1.4892491 2.454826
4.9327273 4.334682 2.7360828 4.9813313 3.1991649 2.5917869 3.4269726 3.3767228
1.8548455 2.6396286 3.54847 1.9407386 1.9743426 4.893803 4.8152766 4.3582654
3.3435996 4.6512885 3.523941 2.7472603 4.0672956 2.3163965 1.9286511 1.9692572
2.2696369 5.2643456 2.57789 2.7995493 1.2670218 4.9264393 2.2958875 3.6355202
2.4533782 2.8371198 4.662934 3.6119404 2.0566308 2.348279 2.8778546 3.202455
2.7063456 3.7114458 2.156956 4.564886 3.3953996 3.9837818 2.3693278 1.8719283
3.273509 2.3937309 2.3118134 2.5924993 4.889759 2.1794083 2.8459067 1.3106036
3.0605834 3.133815 2.3878098 4.844487 2.4409788 2.5184338 3.1492918 5.095761
4.6187625 4.9384933 4.7893324 2.6830573 3.9558663 1.7391104 5.174736 3.7382758
2.204955 1.7976605 1.2621646 3.032696 4.631469 2.7356803 1.7531813 5.166197
2.8098545 4.878023 2.245029 4.7917776 2.4224286 4.895738 3.4514835 4.3968315
2.068048 5.5020037 4.4068685 2.1099508 1.5136874 4.201887 4.878133 3.4772835
2.0894344 4.6867595 4.935647 5.121242 4.890042 1.61515 3.5441644 1.5406648
4.5509796 2.2085264 1.9847771 4.9561853 5.2530746 2.7047045 4.867704 5.3799753
1.8270156 1.8438432 2.4118705 2.9305763 5.1579733 5.0967417 4.7434354 4.280516
1.5115703 2.930061 2.320283 2.4978342 4.6714587 5.9441595 4.2354283 2.1271267
3.5875595 2.885874 5.544032 1.779789 1.5931058 4.389544 4.9154444 4.3656287
3.0672274 4.8921337 2.7553833 3.4697 2.5460439 4.805615 2.4176693 4.934347
3.4012468 4.905826 1.5138805 3.8898318 4.9959273 5.298896 2.3449101 2.9557183
1.6796703 4.357267 1.8032857 4.977862 3.9616623 2.0783446 4.8053665 5.2039785
2.2529726 1.9800291 1.6005744 2.193659 1.3622304 4.57676 1.8871793 2.145205
2.3942606 2.8615832 1.3178042 2.0949292 5.4828086 3.1520605 4.8042016 4.9080663
5.268696 4.7183404 1.8049321 2.6097386 1.9072105 1.4156183 4.6943665 4.5053153
3.874971 2.3880744 4.811842 4.525388 3.7296886 1.1960604 4.038644 2.928965
1.8617646 2.2982821 4.7571707 1.8566238 5.135849 4.366833 4.9510193 2.8798988
4.6044245 4.958804 4.725523 2.5340016 5.0050645 4.4704337 2.382759 4.174337
5.12727 3.4379952 1.4102689 1.463974 3.9432137 5.162078 2.0136387 1.5465139
2.1744578 2.3656242 3.4793727 1.7462537 1.6364502 2.233981 1.9811748 4.292625
00000000: e725 fb3f 9a96 9240 a31e 7f40 63f0 2040
00000010: 206a c43f 5ce0 af3f 1f5c fb3f ca18 9940
00000020: f118 0240 ed41 6740 6294 0a40 36e8 0840
00000030: 2b8f 2240 cf3e 0040 be07 9a40 16a6 bd40
00000040: 251c ae3f 2b58 8840 6fcd aa40 d81a a540
00000050: bea7 d53f 984d 0840 23af 6440 5e39 8d40
00000060: b7bb 8840 83c7 2640 af8a 9e40 06df 9740
00000070: f855 7140 c094 f63f b79f be3f df1b 1d40
00000080: e7d8 9d40 b7b5 8a40 fb1b 2f40 1167 9f40
00000090: 1ebf 4c40 d6df 2540 8553 5b40 3a1c 5840
000000a0: 946b ed3f adef 2840 221a 6340 1f6a f83f
000000b0: 42b7 fc3f 099a 9c40 bf16 9a40 e976 8b40
000000c0: 89fd 5540 5bd7 9440 4088 6140 1dd3 2f40
000000d0: 4927 8240 d73f 1440 0ade f63f 9f10 fc3f
000000e0: bb41 1140 8575 a840 26fc 2440 d12b 3340
000000f0: c52d a23f 64a5 9d40 d2ef 1240 5dac 6840
00000100: 2604 1d40 5f93 3540 c136 9540 082a 6740
00000110: d79f 0340 344a 1640 c52e 3840 06f5 4c40
00000120: c434 2d40 5488 6d40 910b 0a40 8c13 9240
00000130: 3a4e 5940 48f6 7e40 11a3 1740 599b ef3f
00000140: 2c81 5140 e332 1940 c0f4 1340 82eb 2540
00000150: e878 9c40 6d7b 0b40 5623 3640 dcc1 a73f
00000160: 99e0 4340 6d90 4840 e0d1 1840 0a06 9b40
00000170: ff38 1c40 052e 2140 ff8d 4940 7910 a340
00000180: e7cc 9340 2308 9e40 3642 9940 36b7 2b40
00000190: ea2c 7d40 2b9b de3f 7097 a540 e93f 6f40
000001a0: fc1d 0d40 bd19 e63f 9c8e a13f b117 4240
000001b0: fe34 9440 6315 2f40 3f68 e03f 7c51 a540
000001c0: a8d4 3340 c418 9c40 8eae 0f40 3e56 9940
000001d0: 1209 1b40 e3a9 9c40 1be5 5c40 d8b2 8c40
000001e0: e65a 0440 6a10 b040 1105 8d40 6f09 0740
000001f0: 82c0 c13f dc75 8640 aa19 9c40 d08b 5e40
00000200: 4bb9 0540 eff9 9540 d2f0 9d40 37e1 a340
00000210: 397b 9c40 3cbd ce3f 97d3 6240 8134 c53f
00000220: a0a1 9140 7f58 0d40 2d0d fe3f 1299 9e40
00000230: 3019 a840 e119 2d40 3bc4 9b40 c228 ac40
00000240: a6db e93f 0e03 ec3f 165c 1a40 908e 3b40
00000250: 1e0e a540 8218 a340 39ca 9740 fdf9 8840
00000260: 237b c13f 1f86 3b40 847f 1440 84dc 1f40
00000270: 977c 9540 8e36 be40 a188 8740 d822 0840
00000280: 939a 6540 29b2 3840 b668 b140 20d0 e33f
00000290: e4ea cb3f 2577 8c40 524b 9d40 3bb3 8b40
000002a0: 744d 4440 5c8c 9c40 3358 3040 910f 5e40
000002b0: 62f2 2240 99c7 9940 18bb 1a40 2ce6 9d40
000002c0: 07ae 5940 87fc 9c40 d6c6 c13f 01f3 7840
000002d0: a3de 9f40 8e90 a940 0213 1640 7d2a 3d40
000002e0: 70ff d63f bb6e 8b40 11d2 e63f a54a 9f40
000002f0: e08b 7d40 9903 0540 90c5 9940 fe86 a640
00000300: b430 1040 9871 fd3f 9fdf cc3f e964 0c40
00000310: 915d ae3f d174 9240 178f f13f 0a4b 0940
00000320: 913b 1940 2e24 3740 cfad a83f 5213 0640
00000330: 2b73 af40 5cbb 4940 05bc 9940 e10e 9d40
00000340: 2899 a840 a5fc 9640 0408 e73f f505 2740
00000350: 791f f43f fb32 b53f 4038 9640 8b2b 9040
00000360: 86ff 7740 36d6 1840 9cfa 9940 facf 9040
00000370: 38b3 6e40 8218 993f 923c 8140 2a74 3b40
00000380: 4d4e ee3f 0e17 1340 be3a 9840 d9a5 ed3f
00000390: e058 a440 19bd 8b40 c06e 9e40 4350 3840
000003a0: 7257 9340 86ae 9e40 7c37 9740 152d 2240
000003b0: 7d29 a040 cb0d 8f40 207f 1840 2b94 8540
000003c0: 9912 a440 1d08 5c40 b183 b43f 8063 bb3f
000003d0: 9d5d 7c40 be2f a540 75df 0040 2bf4 c53f
000003e0: 512a 0b40 6366 1740 0bae 5e40 3e85 df3f
000003f0: 3377 d13f 8bf9 0e40 2397 fd3f 2f5d 8940

ln1.weight f4 [512]
2.6650698 0.21829893 0.15429367 1.2337042 0.77892405 2.8797743 2.169333 0.32028547
2.4630153 0.21159159 4.614659 1.9640275 2.1149096 1.7543234 0.29827923 0.10180009
2.1531327 0.42006758 0.32891342 0.3411859 0.8737149 1.9878505 0.1374547 0.37476143
0.3325968 0.65128714 0.29823968 0.26535767 0.977792 0.82151455 0.39708984 1.4051176
0.3205991 0.13886777 0.73743033 0.3257614 0.2123919 1.746625 0.55658 1.4947677
1.2347045 1.6248418 0.55634475 1.6879696 2.0471196 0.24003908 0.20441134 0.20376994
0.33359373 0.27653417 0.027517483 0.8375804 0.1340366 1.283019 1.6353134 1.4512482
1.0052731 0.3046895 2.4444337 0.19789217 0.86398333 0.22724028 1.6451155 0.15322864
1.0011411 1.7481935 0.30739346 0.008108122 2.635487 1.4599812 1.2841867 0.97942084
1.0954499 0.074479714 1.4178524 0.30653107 1.0920566 0.008283897 1.5661635 0.706628
0.28329536 0.7245611 1.3772509 0.9448668 0.24538524 0.5912904 1.6947289 1.2333138
0.75668675 0.51407886 1.5993122 0.109149136 1.2557695 0.42778522 0.087728225 0.37027332
0.33405736 0.17649834 0.3320133 0.61137885 0.3542221 2.3416803 0.36066598 0.4259577
0.9779165 0.99234605 0.6458396 0.5250119 0.37187773 0.6977479 1.2383046 0.33817485
0.5205807 0.14375636 1.1825448 0.19299711 1.20522 0.031068549 0.8498111 0.012600987
1.4956648 0.26093873 0.30313233 0.936258 0.8747481 0.4507419 0.29268876 0.010722002
1.2488595 0.32459578 0.27019942 0.3382285 0.16031756 6.022896 0.7497068 1.4947892
0.28952494 1.795743 3.195301 0.33327043 0.24222393 0.16805439 0.3483409 0.13418137
2.1955056 1.8868465 1.1633521 0.8038654 0.33719254 0.3245905 0.32817337 0.25629368
3.0181239 1.5238504 1.3046806 0.03617851 0.23231393 0.22524442 0.035468902 1.9450881
0.1440294 1.2711979 0.058047198 2.5706944 1.793186 0.3684264 0.25000268 0.27788678
0.74415505 0.2437751 0.89012825 0.36805964 0.8762999 0.30148596 1.3523387 0.29943755
0.24933873 0.31131223 0.9859395 0.05492928 0.3300318 0.25220254 0.5669182 0.4144322
0.4810497 0.121897 1.4955319 0.308164 0.3377482 2.031138 0.02317372 0.33316445
1.7779441 2.0682936 0.7604335 0.54890895 2.3326354 0.15550376 1.1153624 1.3608596
0.63979816 0.016943747 2.1367896 1.0929656 0.23829399 0.14897361 0.24905296 0.22041313
0.33035728 0.34474185 2.7196412 1.87229 0.86828715 1.0570455 0.31011638 0.27971354
0.5642495 1.3760873 0.24295014 0.3272599 0.07497252 1.2168367 0.09218925 1.0977472
0.9446243 1.8204408 0.38071355 2.144582 0.33703026 0.40539226 0.2999114 1.6992753
0.2558993 0.30598715 0.3355011 0.580198 0.31536895 0.39076927 0.8586594 0.24226567
0.32785904 0.7912719 1.5027591 1.0445788 0.47512233 0.321187 0.94025606 1.9762515
0.92282254 1.4224362 0.058259968 0.8448242 1.8405876 0.5294499 1.0303566 0.36111113
00000000: 8190 2a40 c189 5f3e 29ff 1d3e 05ea 9d3f
00000010: 9167 473f 394e 3840 5ad6 0a40 75fc a33e
00000020: 0ba2 1d40 77ab 583e 49ab 9340 4165 fb3f
00000030: ae5a 0740 ab8d e03f 0eb8 983e 917c d03d
00000040: edcc 0940 1913 d73e 5767 a83e ebaf ae3e
00000050: c8ab 5f3f e371 fe3f edc0 0c3e bbe0 bf3e
00000060: 214a aa3e c1ba 263f dfb2 983e f6dc 873e
00000070: 9450 7a3f c74e 523f 5c4f cb3e e5da b33f
00000080: 9125 a43e 5a33 0e3e 3cc8 3c3f 33ca a63e
00000090: 437d 593e 6891 df3f 077c 0e3f 8c54 bf3f
000000a0: cc0a 9e3f d1fa cf3f 9c6c 0e3f 630f d83f
000000b0: 0204 0340 cecc 753e 3551 513e 11a9 503e
000000c0: cccc aa3e e395 8d3e 586c e13c ab6b 563f
000000d0: e440 093e f739 a43f f351 d13f 80c2 b93f
000000e0: caac 803f 4300 9c3e 9a71 1c40 3fa4 4a3e
000000f0: 032e 5d3f adb1 683e 2593 d23f f8e7 1c3e
00000100: 6425 803f cec4 df3f ad62 9d3e eed7 043c
00000110: d2ab 2840 aae0 ba3f 3b60 a43f 53bb 7a3f
00000120: b437 8c3f d288 983d 307c b53f a4f1 9c3e
00000130: 83c8 8b3f 2fb9 073c 0c78 c83f 93e5 343f
00000140: 170c 913e d67c 393f c249 b03f cae2 713f
00000150: 4546 7b3e cf5e 173f e0ec d83f 3add 9d3f
00000160: 39b6 413f ac9a 033f 43b6 cc3f 9589 df3d
00000170: 0ebd a03f aa06 db3e dbaa b33d 7794 bd3e
00000180: 9109 ab3e fbbb 343e a6fd a93e 5383 1c3f
00000190: 995c b53e 17de 1540 36a9 b83e 2117 da3e
000001a0: bc58 7a3f 640a 7e3f be55 253f 2e67 063f
000001b0: c266 be3e 9b9f 323f c480 9e3f 4125 ad3e
000001c0: c744 053f de34 133e a15d 973f 09a1 453e
000001d0: a644 9a3f 7883 fe3c 388d 593f 5f74 4e3c
000001e0: f271 bf3f c399 853e 2934 9b3e 9bae 6f3f
000001f0: 7eef 5f3f a4c7 e63e 4ddb 953e 56ab 2f3c
00000200: a1da 9f3f 6b31 a63e 9457 8a3e 492c ad3e
00000210: 492a 243e 90bb c040 c9ec 3f3f 4155 bf3f
00000220: 9d3c 943e e8da e53f d07f 4c40 6ca2 aa3e
00000230: 8d09 783e 7316 2c3e bd59 b23e d766 093e
00000240: 2a83 0c40 3084 f13f b9e8 943f 1fca 4d3f
00000250: 80a4 ac3e ba30 a63e 5706 a83e ed38 833e
00000260: f128 4140 880d c33f c6ff a63f eb2f 143d
00000270: b4e3 6d3e 79a6 663e d747 113d a6f8 f83f
00000280: 717c 133e 9db6 a23f e6c2 6d3d 4286 2440
00000290: 1e87 e53f 63a2 bc3e 5a00 803e 2d47 8e3e
000002a0: f280 3e3f 2ea0 793e 72df 633f 5072 bc3e
000002b0: 3155 603f 5e5c 9a3e 6f19 ad3f e14f 993e
000002c0: a752 7f3e 5164 9f3e 8866 7c3f 86fd 603d
000002d0: eef9 a83e b120 813e 8d21 113f 7530 d43e
000002e0: 254c f63e 22a5 f93d 976d bf3f acc7 9d3e
000002f0: 55ed ac3e 2afe 0140 d0d6 bd3c 8894 aa3e
00000300: ac93 e33f ec5e 0440 c5ab 423f 4c85 0c3f
00000310: e649 1540 613c 1f3e 32c4 8e3f a630 ae3f
00000320: d0c9 233f 9dcd 8a3c 29c1 0840 4ce6 8b3f
00000330: 5703 743e 8a8c 183e bd07 7f3e fbb3 613e
00000340: 9724 a93e 0182 b03e 9a0e 2e40 33a7 ef3f
00000350: 1148 5e3f 444d 873f 93c7 9e3e 9d36 8f3e
00000360: a872 103f a123 b03f ecc7 783e 9c8e a73e
00000370: 318b 993d 4ec1 9b3f b8cd bc3d fb82 8c3f
00000380: e6d2 713f 3404 e93f e3ec c23e d540 0940
00000390: 3b8f ac3e 938f cf3e fd8d 993e da81 d93f
000003a0: 3c05 833e 59aa 9c3e cdc6 ab3e db87 143f
000003b0: 0a78 a13e e912 c83e 1ad1 5b3f 7e14 783e
000003c0: 24dd a73e cc90 4a3f 695a c03f c2b4 853f
000003d0: 3c43 f33e 9f72 a43e 9fb4 703f cff5 fc3f
000003e0: 193e 6c3f 6412 b63f 01a2 6e3d 6646 583f
000003f0: 6098 eb3f 078a 073f bae2 833f 8fe3 b83e
