project_3/checkpoints/checkpoint_cycle_13_20241025_155223.pt (torch, 624868 bytes, 12 tensors)

shared_fc.weight f4 [512, 96]
-0.054617953 0.1486593 0.118996866 0.11200783 0.2418728 0.13087419 0.14465491 -0.09034427
0.10063322 0.06544077 0.05743261 -0.099433936 0.0028213938 0.033015978 0.018465193 0.06976726
0.24739195 0.015372698 0.20481569 0.081985444 -0.015163369 0.07821855 0.22080845 0.15893929
0.09340937 0.02055381 -0.20329525 0.046717145 0.09455833 0.20639461 0.10488161 0.39771515
0.044181574 0.160088 0.19037195 0.23630545 0.054961056 0.23983297 -0.0005418704 0.016031375
-0.014979013 0.01647315 -0.009289164 -0.07208673 -0.0007582207 -0.05526054 0.06813985 0.1633658
-0.0041811857 0.11111914 -0.008215774 -0.10199607 0.2970797 0.07858577 -0.09602873 -0.08685517
-0.08562835 0.09531698 -0.12676914 0.24290079 -0.031859823 0.024424734 0.113642424 0.04511364
0.1485149 0.12854253 0.036003582 0.09593101 0.20119622 0.188759 0.20873106 0.050108273
0.27695704 -0.024713473 -0.050862007 0.13806078 0.16857639 0.12151132 0.08745765 -0.03377002
0.19221097 0.045019396 0.06101879 0.03636966 -0.077845275 0.08123717 -0.0758034 0.08304457
0.12022804 0.21018153 0.0048408215 0.1955256 0.07399077 -0.06999594 0.049625237 0.19071034
0.10538464 0.08455665 -0.09713085 0.13452797 -0.23294039 0.29700282 -0.047962826 0.10052795
-0.30616707 -0.088385746 -0.093449846 0.09590239 -0.2710053 0.10491148 -0.03729787 0.08337922
-0.25457537 0.045317985 0.061695658 0.06236229 0.024806052 -0.041541632 0.15681191 0.16284597
-0.11428465 0.01732986 0.18547508 -0.06581599 -0.054505035 0.19026604 -0.022577917 0.040137492
-0.0002417062 0.05165043 0.14994404 -0.011864396 -0.07616151 0.03597541 0.044118427 0.021365883
-0.01642233 -0.04188035 0.10559503 0.208474 0.32739857 0.3410216 0.09917634 0.032288417
0.13834433 0.038752735 0.10367977 0.04124947 0.057245523 0.06103769 -0.057900216 -0.017030515
-0.06341534 0.042325426 0.010441193 0.15192018 -0.03543559 0.039443742 0.056775417 -0.09727233
0.18727818 -0.022058832 0.028050156 -0.05015159 0.20350862 0.099639945 -0.020929191 -0.088744245
0.14527005 0.15440112 0.0028607186 0.10197693 0.073491886 0.002245059 0.08161921 0.13038905
-0.058987446 -0.011909452 0.14730142 0.07248194 -0.033408247 0.076284185 0.1019516 -0.10341775
0.12619272 0.10711074 0.09611387 0.20687024 -0.011005573 0.13439366 0.22806914 0.040966425
-0.016414102 -0.046428885 0.038615517 -0.0005571729 0.4044832 -0.3940738 -0.076304756 -0.07707898
-0.16831973 -0.121743955 -0.033496615 -0.043529946 -0.15573147 0.15812793 -0.09153913 0.088744745
0.084384084 0.08737343 0.017464269 0.046006806 -0.06055198 0.06969053 0.06891232 -0.06864025
-0.056902703 0.11228862 -0.10806492 0.007121449 -0.016619498 0.04255223 -0.055790443 -0.0017965846
0.0891025 -0.077579744 0.14938669 0.13256568 -0.09758617 -0.03583223 -0.04786649 0.106840074
0.18054426 0.087998874 0.07157285 0.1110648 0.10977627 -0.10293622 0.06100795 0.07883728
0.11553352 -0.08247298 -0.27624023 -0.31936523 0.053828318 -0.020672303 -0.11882528 -0.14655821
-0.012546995 -0.033574346 -0.06630127 0.16752 -0.097651385 0.054978903 -0.1285998 0.06772923
00000000: 13b7 5fbd 253a 183e a1b4 f33d 5c64 e53d
00000010: 81ad 773e e203 063e 6b20 143e 6b06 b9bd
00000020: ca18 ce3d cf05 863d 753e 6b3d 05a4 cbbd
00000030: 22e7 383b c33b 073d 5144 973c 23e2 8e3d
00000040: 5154 7d3e c5dd 7b3c 34bb 513e fce7 a73d
00000050: c76f 78bc 0c31 a03d 9c1b 623e fbc0 223e
00000060: 694d bf3d 7760 a83c a12c 50be 7a5a 3f3d
00000070: cca7 c13d 1c59 533e 2bcc d63d 52a1 cb3e
00000080: bdf7 343d 1cee 233e ddf0 423e 0efa 713e
00000090: d81e 613d c696 753e 4f0c 0eba 3b54 833c
000000a0: 896a 75bc b3f2 863c 9431 18bc 35a2 93bd
000000b0: 54c3 46ba e058 62bd e88c 8b3d 5d49 273e
000000c0: 5402 89bb 6f92 e33d 749b 06bc 51e3 d0bd
000000d0: d51a 983e 94f1 a03d b6aa c4bd 20e1 b1bd
000000e0: eb5d afbd 8c35 c33d c5cf 01be fcba 783e
000000f0: 727f 02bd 6116 c83c 5cbd e83d 15c9 383d
00000100: 4a14 183e a7a0 033e 7e78 133d 7a77 c43d
00000110: 6206 4e3e 0a4a 413e 98bd 553e 553e 4d3d
00000120: 50cd 8d3e e973 cabc ae54 50bd ce5f 0d3e
00000130: 4a9f 2c3e edda f83d ff1c b33d 6f52 0abd
00000140: f4d2 443e 4266 383d d7ee 793d 5af8 143d
00000150: 586d 9fbd ac5f a63d d03e 9bbd 4613 aa3d
00000160: 1e3a f63d d439 573e c19f 9e3b dd37 483e
00000170: 7988 973d 085a 8fbd d543 4b3d 9249 433e
00000180: e7d3 d73d 092c ad3d 8aec c6bd b3c1 093e
00000190: ed87 6ebe c110 983e ab74 44bd 99e1 cd3d
000001a0: eec1 9cbe 9603 b5bd a262 bfbd 7968 c43d
000001b0: 35c1 8abe d4db d63d a7c5 18bd b9c2 aa3d
000001c0: b457 82be 5a9f 393d 96b4 7c3d 9a6f 7f3d
000001d0: 1036 cb3c 8f27 2abd 4d93 203e 18c1 263e
000001e0: 120e eabd 5af7 8d3c 2eed 3d3e 89ca 86bd
000001f0: ac40 5fbd 1ad5 423e 53f5 b8bc 3667 243d
00000200: 8472 7db9 678f 533d ee8a 193e e262 42bc
00000210: 91fa 9bbd f45a 133d 86b5 343d 8107 af3c
00000220: 1f88 86bc bb8a 2bbd 3542 d83d 357a 553e
00000230: c9a0 a73e 629a ae3e f71c cb3d dc40 043d
00000240: 23aa 0d3e 30bb 1e3d 0f56 d43d 34f5 283d
00000250: 487a 6a3d a802 7a3d c728 6dbd 9483 8bbc
00000260: e7df 81bd 6d5d 2d3d 8a11 2b3c f790 1b3e
00000270: e924 11bd c38f 213d 578d 683d b736 c7bd
00000280: dac5 3f3e b9b4 b4bc 71c9 e53c c16b 4dbd
00000290: 9064 503e 0710 cc3d b273 abbc 8bbf b5bd
000002a0: acc1 143e 541b 1e3e e57a 3b3b 48d9 d03d
000002b0: ea82 963d d721 133b f927 a73d b584 053e
000002c0: d29c 71bd dd1f 43bc 2fd6 163e 6971 943d
000002d0: 16d7 08bd e23a 9c3d 00cc d03d afcc d3bd
000002e0: aa38 013e e05c db3d 59d7 c43d cbd5 533e
000002f0: b850 34bc 7e9e 093e f58a 693e 69cc 273d
00000300: de76 86bc 372c 3ebd 4e2b 1e3d 3e0f 12ba
00000310: 6c18 cf3e 0bc4 c9be ab45 9cbd 96db 9dbd
00000320: 025c 2cbe e554 f9bd bf33 09bd 754c 32bd
00000330: 1278 1fbe 4aec 213e de78 bbbd cebf b53d
00000340: 90d1 ac3d d7f0 b23d 3a11 8f3c a271 3c3d
00000350: 5a05 78bd e9b9 8e3d e721 8d3d 4293 8cbd
00000360: cf12 69bd 93f7 e53d 2451 ddbd 0b5b e93b
00000370: 9d25 88bc 3f4b 2e3d 8584 64bd 607b ebba
00000380: 5f7b b63d 21e2 9ebd d3f8 183e 4cbf 073e
00000390: 42db c7bd d1c4 12bd a70f 44bd f8ce da3d
000003a0: 98e0 383e c138 b43d c994 923d f175 e33d
000003b0: 62d2 e03d 3ad0 d2bd 79e3 793d 7175 a13d
000003c0: d79c ec3d 98e7 a8bd 5c6f 8dbe d783 a3be
000003d0: 157b 5c3d f658 a9bc ab5a f3bd 5b13 16be
000003e0: e991 4dbc 4185 09bd f6c8 87bd 5d8a 2b3e
000003f0: 73fd c7bd 8f31 613d aaaf 03be 9fb5 8a3d

shared_fc.bias f4 [512]
0.15205932 0.11926354 0.20673066 0.031518515 0.42585588 0.1515883 -0.023075162 -0.031853028
0.11528279 0.00069103274 0.015642343 0.15771353 0.081287265 0.113558024 0.18509893 0.21808322
0.11386611 0.21624658 0.15427992 0.11409759 0.13773508 0.08993771 0.22741714 0.23730448
0.052913122 0.12651286 -0.03788129 0.15204154 -0.03263405 0.042285528 0.1269546 0.1446799
0.11015316 0.25975084 0.07719715 0.118428394 0.23322488 0.022836966 0.030622378 0.19695409
0.08921067 -0.05768279 0.09074473 0.019351704 0.055166557 0.16747327 0.007846961 0.07906923
0.37884918 0.04762636 -0.017210143 0.056555584 0.07390115 0.037692465 0.0576415 -0.0006377687
0.13961059 0.07220055 0.3334218 0.0051802224 0.2071981 0.1316693 0.16513295 0.00019943793
0.12702185 0.24617678 0.09936835 0.19201782 0.17215179 0.0449727 0.15307601 0.1669873
0.15314037 0.16128135 0.2579409 0.20938091 0.14006376 0.38783443 0.0003026623 0.058296617
0.18397142 0.033536952 0.16752426 0.20842156 0.21488513 0.20876744 0.07182594 0.22873768
0.22467425 0.17813301 0.13365228 0.14794222 0.008332634 0.13841249 0.103218876 0.10543618
0.2643666 0.4408004 0.05525717 0.09663897 0.19645636 0.01473476 0.0042439713 0.14907095
0.2046527 0.07291286 0.17018913 0.15697987 0.05220313 0.13929653 0.03524185 0.10057988
0.06031376 0.02202538 0.1312792 0.13128674 0.12497314 0.12829873 0.09327578 0.11704216
0.049777593 0.056462657 0.17591147 0.19842707 0.1829026 0.008372711 0.11691542 0.07947162
0.08775546 -0.009239213 0.2025678 0.055155233 0.13531972 0.020129634 0.16604495 0.13401055
0.0020520587 0.1570019 0.4863092 0.17847046 0.13623077 0.10132642 0.18058485 -0.011546108
0.27975562 0.14539364 0.20241112 0.16531965 0.12570512 0.22338064 0.27178824 0.010128571
0.21624967 0.22709553 0.20406239 0.037715685 0.15200344 0.07289415 0.10428466 0.020971503
0.10075193 0.063680634 0.15519956 -0.019052684 0.14942235 0.054082233 0.5664408 -0.0032517347
0.08361545 0.17450812 0.024756059 0.020460563 0.098739706 0.16945821 0.030477978 0.18008752
0.1921391 0.05813328 -0.1119148 0.095308885 0.23718517 0.14206456 0.078728415 0.107927285
0.040343337 0.02860291 0.18286549 0.14253089 -0.05549214 0.1728015 0.16685492 -0.02582729
0.062112138 0.24914654 0.10646836 0.09628407 -0.045123365 0.20038669 0.06569142 0.06402173
0.24235228 0.13976844 0.076145545 0.113067776 0.04135573 0.50611997 0.04717632 0.00042175566
0.03264145 0.183676 0.13826407 0.16491573 0.15613139 0.06272881 0.09449574 0.022123039
0.16062696 0.020107582 0.0399615 0.24243821 0.120747685 0.24432647 -0.017668666 0.02716297
0.09215628 0.113433965 0.008569238 0.11415122 0.116582595 0.062054124 0.12919305 0.12297273
0.04550558 0.17946887 0.18352485 0.047554273 0.027616857 0.21978097 0.08557329 -0.018776203
0.110509835 0.27937102 0.024889596 0.1128858 0.049234014 0.014152668 0.16585445 0.09645866
0.042563066 0.17116034 0.17329653 0.24314943 0.12822807 0.017209468 0.10172466 0.17007601
00000000: 70b5 1b3e 7140 f43d 34b1 533e 8f19 013d
00000010: c809 da3e f739 1b3e 1f08 bdbc 5278 02bd
00000020: 6219 ec3d 6c26 353a 5f24 803c a87f 213e
00000030: f079 a63d 1c91 e83d 938a 3d3e 3551 5f3e
00000040: a332 e93d be6f 5d3e 8efb 1d3e ffab e93d
00000050: 6d0a 0d3e 4331 b83d 0ae0 683e f2ff 723e
00000060: 6ebb 583d 968c 013e 6929 1bbd c7b0 1b3e
00000070: 48ab 05bd 9733 2d3d 6300 023e f826 143e
00000080: fb97 e13d 10fe 843e 8a19 9e3d 968a f23d
00000090: 81d2 6e3e 9714 bb3c c8db fa3c 55ae 493e
000000a0: 15b4 b63d ca44 6cbd 5fd8 b93d 7787 9e3c
000000b0: 54f6 613d 1d7e 2b3e 8a90 003c 0cef a13d
000000c0: 85f8 c13e dc13 433d 49fc 8cbc d4a6 673d
000000d0: 7c59 973d 6a63 1a3d 7e19 6c3d ef2f 27ba
000000e0: 14f6 0e3e e2dd 933d 43b6 aa3e dbbe a93b
000000f0: bd2b 543e 51d4 063e 9d18 293e 3620 5139
00000100: 0412 023e c415 7c3e a281 cb3d 52a0 443e
00000110: 8f48 303e 4b35 383d f5bf 1c3e b8fe 2a3e
00000120: d4d0 1c3e f026 253e d410 843e f367 563e
00000130: e06c 0f3e 3c92 c63e a5ae 9e39 6fc8 6e3d
00000140: 0163 3c3e 0b5e 093d 7b8b 2b3e 766c 553e
00000150: d90a 5c3e 22c7 553e 7a19 933d 363a 6a3e
00000160: 0211 663e 8068 363e 25dc 083e 2a7e 173e
00000170: 9a85 083c 01bc 0d3e 6b64 d33d edee d73d
00000180: 0f5b 873e 97b0 e13e 5855 623d a7ea c53d
00000190: db2b 493e 106a 713c 0311 8b3b 0ea6 183e
000001a0: 7a90 513e 5653 953d 0f46 2e3e 55bf 203e
000001b0: f3d2 553d c0a3 0e3e c259 103d d3fc cd3d
000001c0: 900b 773d 926e b43c 0e6e 063e 0870 063e
000001d0: ebf1 ff3d be60 033e 5f07 bf3d cdb3 ef3d
000001e0: 97e3 4b3d 6345 673d 2322 343e 7730 4b3e
000001f0: d24a 3b3e b22d 093c 5a71 ef3d 04c2 a23d
00000200: 22b9 b33d 1160 17bc ef6d 4f3e 74ea 613d
00000210: 4191 0a3e e7e6 a43c b007 2a3e 103a 093e
00000220: d57b 063b 1bc5 203e 85fd f83e f6c0 363e
00000230: 1480 0b3e 3a84 cf3d 3ceb 383e e32b 3dbc
00000240: 213c 8f3e 12e2 143e dc44 4f3e 8e49 293e
00000250: d8b8 003e e5bd 643e d427 8b3e 4ef2 253c
00000260: 8e70 5d3e bb8b 683e bbf5 503e c37b 1a3d
00000270: caa6 1b3e 8749 953d 3293 d53d 6ecc ab3c
00000280: 0757 ce3d fe6a 823d a2ec 1e3e 6014 9cbc
00000290: 2c02 193e 5585 5d3d 4402 113f 0e1b 55bb
000002a0: 943e ab3d 42b2 323e 38cd ca3c e99c a73c
000002b0: 0b38 ca3d 7486 2d3e f4ac f93c dd68 383e
000002c0: 1dc0 443e 2a1d 6e3d 9633 e5bd 4e31 c33d
000002d0: abe0 723e 5f79 113e 5d3c a13d fb08 dd3d
000002e0: 0e3f 253d a650 ea3c 1741 3b3e 9ef3 113e
000002f0: ba4b 63bd e0f2 303e 04dc 2a3e c193 d3bc
00000300: 4c69 7e3d 4520 7f3e 150c da3d 9530 c53d
00000310: 47d3 38bd 2b32 4d3e 3989 863d d31d 833d
00000320: 322b 783e 751f 0f3e 32f2 9b3d 1490 e73d
00000330: a064 293d 1491 013f f53b 413d 161f dd39
00000340: 0bb3 053d 9015 3c3e 1995 0d3e abdf 283e
00000350: e8e0 1f3e f677 803d fc86 c13d 603b b53c
00000360: 657b 243e a8b8 a43c abae 233d b941 783e
00000370: 904a f73d b830 7a3e e1bd 90bc e084 de3c
00000380: 6fbc bc3d 1150 e83d fd65 0c3c 1dc8 e93d
00000390: dbc2 ee3d 772c 7e3d 2f4b 043e 20d9 fb3d
000003a0: 0f64 3a3d b0c6 373e f0ed 3b3e 45c8 423d
000003b0: bf3c e23c 430e 613e 0d41 af3d 8dd0 99bc
000003c0: fb52 e23d b809 8f3e 44e5 cb3c ac30 e73d
000003d0: 9ba9 493d 98e0 673c c0d5 293e 1e8c c53d
000003e0: 9c56 2e3d a844 2f3e a574 313e 2afc 783e
000003f0: 384e 033e dffa 8c3c 0555 d03d 6828 2e3e

shared_ln.weight f4 [512]
1.2638997 1.0491556 1.2187103 1.28656 0.5488453 1.4580162 1.5891005 1.3319895
1.0459293 1.3914319 1.2931107 1.2860942 1.236407 0.9571804 1.1137723 0.98528683
1.4565898 1.1395351 1.4715511 0.99531114 1.4274993 1.2669791 1.1230927 1.2527258
1.4056534 1.5151299 1.3652397 1.0521209 1.0085695 1.250867 1.3197353 1.1624653
1.1897742 0.53417414 1.8105863 1.2864434 0.57682556 1.3551116 1.8352734 1.0685635
0.90761214 1.9185891 1.6398273 1.3403242 1.1040282 1.1220806 1.6045843 1.6888226
0.50485283 1.057525 1.4489397 1.2215164 1.2564834 1.7107632 0.8001283 1.8463534
1.3757983 0.75516504 0.64357644 1.5067697 0.90990394 1.1103994 1.5761911 1.376982
1.1338762 0.62051225 1.6499536 1.3229775 0.9362523 1.0009934 1.2389418 0.7476598
1.0696584 1.2184747 0.93985903 1.1677641 1.0574361 0.5043172 1.1772223 1.0846634
1.3518142 1.1060269 1.2488167 1.1461968 0.69297594 0.7380338 1.2005315 0.93251294
1.1413116 0.65793514 1.2595266 1.39674 1.6603498 1.2446805 1.6988438 1.0393593
1.118663 0.43432912 1.360549 1.2263347 1.1831237 1.4549325 1.161373 1.4156544
0.66059273 1.1088629 1.2871124 1.3710735 1.0628175 1.0153439 1.4968623 1.4751726
1.7268854 1.2336013 1.1772348 1.4224735 1.3490725 1.2008302 1.1558841 1.0722374
1.0307182 1.2795051 1.0497974 1.3066648 0.68095374 1.2967762 0.9050675 1.2039865
1.2249979 1.1098384 1.2793148 1.3477873 0.9963279 1.1913944 0.787518 1.1889436
1.2359636 1.0751822 0.3333859 1.4010036 1.3266518 1.215433 1.4590855 1.2553129
0.8172412 1.3781399 1.2636719 1.2789323 1.0827892 1.2017678 0.7909979 2.1452293
1.0238565 1.1390173 1.2483286 1.4595429 0.8377103 1.297661 1.3968264 1.2331392
1.4830463 1.3376012 1.5154368 1.3819118 1.1238011 1.0693011 0.6539774 1.234706
1.4421766 1.4133333 1.7723286 1.0954295 1.019826 1.0008221 1.2533475 1.6048093
1.2694862 2.028355 2.512924 1.3415302 1.0547409 1.2238052 1.1822367 1.1602621
1.1121814 1.0911198 1.1472358 0.9397002 1.563821 1.435227 1.2805405 1.7036177
1.4156091 0.72595334 1.4064015 1.114134 1.5877204 1.1817293 0.94447905 1.6259376
0.98407644 1.7004565 1.5156341 1.6152954 1.6286459 0.70131207 1.3652315 1.6927916
1.3517213 0.7707256 1.0299886 1.1667702 0.70410573 1.7375488 1.1307192 1.3511072
1.4824826 1.1268739 1.0708284 0.6850043 1.1461546 0.53290147 2.023315 1.4459001
1.2813777 0.7619482 1.6936132 1.1452429 1.2688179 1.6689304 1.0467236 1.2388004
1.0656129 1.2892408 1.2098649 1.1635889 1.5205352 0.9441298 1.4760398 1.3809325
1.1014878 0.8966598 0.97998387 1.5923296 1.1689502 1.4610276 1.1840504 1.1258351
1.2447764 1.3171782 1.1162108 1.2734113 1.4806213 1.6211551 1.0852888 1.1474055
00000000: 77c7 a13f bb4a 863f b3fe 9b3f 00ae a43f
00000010: 2081 0c3f 46a0 ba3f a567 cb3f a27e aa3f
00000020: 03e1 853f 711a b23f a784 a53f bc9e a43f
00000030: 9642 9e3f c609 753f 1790 8e3f c23b 7c3f
00000040: 8971 ba3f 49dc 913f c95b bc3f b6cc 7e3f
00000050: 4cb8 b63f 5f2c a23f 80c1 8f3f 5259 a03f
00000060: 73ec b33f c7ef c13f 2dc0 ae3f e6ab 863f
00000070: ce18 813f 691c a03f 16ed a83f aacb 943f
00000080: 854a 983f a3bf 083f 4bc1 e73f 2daa a43f
00000090: d7aa 133f 4c74 ad3f 3dea ea3f b0c6 883f
000000a0: 4559 683f 5494 f53f dce5 d13f be8f ab3f
000000b0: cc50 8d3f 56a0 8f3f 0563 cd3f 572b d83f
000000c0: 093e 013f fb5c 873f db76 b93f a65a 9c3f
000000d0: 73d4 a03f 4afa da3f 35d5 4c3f 4f55 ec3f
000000e0: 291a b03f 7f52 413f 6dc1 243f d4dd c03f
000000f0: 77ef 683f 9121 8e3f a1c0 c93f f240 b03f
00000100: db22 913f e4d9 1e3f ae31 d33f 5457 a93f
00000110: 3bae 6f3f 8d20 803f a595 9e3f a266 3f3f
00000120: 91ea 883f fbf6 9b3f 9a9a 703f 4b79 953f
00000130: 115a 873f ef1a 013f 38af 963f 40d6 8a3f
00000140: 3f08 ad3f 4a92 8d3f 3ad9 9f3f 94b6 923f
00000150: df66 313f c8ef 3c3f 04ab 993f 2bb9 6e3f
00000160: 8016 923f 706e 283f 2b38 a13f 60c8 b23f
00000170: 5886 d43f b151 9f3f b773 d93f ba09 853f
00000180: 5930 8f3f 6360 de3e 7826 ae3f 89f8 9c3f
00000190: 9970 973f 3a3b ba3f dfa7 943f 2a34 b53f
000001a0: 9b1c 293f 38ef 8d3f 19c0 a43f 567f af3f
000001b0: 670a 883f caf6 813f 2f99 bf3f 75d2 bc3f
000001c0: 950a dd3f a6e6 9d3f a1af 963f 9d13 b63f
000001d0: 68ae ac3f ceb4 993f 03f4 933f 133f 893f
000001e0: 93ee 833f d3c6 a33f c35f 863f cb40 a73f
000001f0: fc52 2e3f c3fc a53f 81b2 673f 3b1c 9a3f
00000200: bbcc 9c3f 2f0f 8e3f 96c0 a33f 4b84 ac3f
00000210: 580f 7f3f 9d7f 983f c89a 493f 4e2f 983f
00000220: 0e34 9e3f 929f 893f 8fb1 aa3e 1654 b33f
00000230: bacf a93f 4f93 9b3f 50c3 ba3f 18ae a03f
00000240: b836 513f e366 b03f 00c0 a13f 0eb4 a33f
00000250: d698 8a3f 87d3 993f d77e 4a3f 704b 0940
00000260: bb0d 833f 52cb 913f 3bc9 9f3f 4dd2 ba3f
00000270: 2f74 563f c119 a63f 35cb b23f 81d7 9d3f
00000280: 76d4 bd3f 8436 ab3f d5f9 c13f 7ce2 b03f
00000290: b7d8 8f3f dcde 883f 106b 273f d90a 9e3f
000002a0: 3e99 b83f 1be8 b43f aadb e23f 0937 8c3f
000002b0: a989 823f f01a 803f b16d a03f 646a cd3f
000002c0: 867e a23f 91d0 0140 bfd3 2040 43b7 ab3f
000002d0: c001 873f a6a5 9c3f 8853 973f 7883 943f
000002e0: f65b 8e3f d0a9 8b3f 9fd8 923f 3190 703f
000002f0: 492b c83f 85b5 b73f c0e8 a33f 2510 da3f
00000300: ae32 b53f 14d8 393f f704 b43f f19b 8e3f
00000310: 6c3a cb3f e842 973f 61c9 713f b91e d03f
00000320: 6fec 7b3f 8fa8 d93f 4c00 c23f 00c2 ce3f
00000330: 7877 d03f 3089 333f e8bf ae3f 65ad d83f
00000340: 3405 ad3f 464e 453f abd6 833f ba58 953f
00000350: 4640 343f 0068 de3f 68bb 903f 15f1 ac3f
00000360: fdc1 bd3f 673d 903f e810 893f 715c 2f3f
00000370: 32b5 923f 3b6c 083f fe7d 0140 4113 b93f
00000380: 2f04 a43f 0a0f 433f 51c8 d83f 5297 923f
00000390: a068 a23f 839f d53f 0afb 853f 0391 9e3f
000003a0: 0166 883f d805 a53f dadc 9a3f 7bf0 943f
000003b0: e6a0 c23f 7eb2 713f dfee bc3f 65c2 b03f
000003c0: 8dfd 8c3f 7f8b 653f 39e0 7a3f 75d1 cb3f
000003d0: 29a0 953f f402 bb3f f78e 973f 5d1b 903f
000003e0: d554 9f3f 4c99 a83f ffdf 8e3f 24ff a23f
000003f0: 0085 bd3f 0382 cf3f beea 8a3f 2fde 923f

shared_ln.bias f4 [512]
-0.11813797 -0.08368166 -0.14355776 -0.22675182 -0.4185959 -0.12449158 -0.033552006 -0.16795766
-0.14940861 -0.08317787 -0.07053565 -0.16356687 -0.18532105 -0.11944318 -0.14116658 -0.12365515
-0.19739066 -0.09590232 -0.24476764 -0.14428999 0.018490978 -0.03603507 -0.0039293924 -0.0005165062
-0.035315316 -0.029012011 -0.0629485 -0.18786769 -0.20818785 -0.047860403 -0.085043825 -0.101069205
-0.14116251 -0.45278284 -0.19698668 -0.034736637 -0.47736582 -0.15296908 -0.087648354 -0.048863277
-0.24765502 -0.2805552 -0.20338906 -0.057340354 -0.19746178 -0.09690593 -0.20623294 -0.040078137
-0.52860326 -0.15176402 -0.19869454 -0.17122176 -0.035736997 -0.21258955 -0.17230406 -0.016880726
-0.260061 -0.28949848 -0.2882642 -0.1385404 -0.21136995 -0.045642592 -0.011437539 -0.10172547
-0.20709983 -0.37138748 -0.19352317 -0.09275792 -0.25975242 -0.1490645 -0.15459853 -0.2172117
-0.11354303 -0.0744384 -0.1610359 -0.024820238 -0.19266471 -0.48398075 -0.11447178 -0.00051142654
-0.09479389 -0.17285654 -0.03990389 -0.1290865 -0.34242046 -0.22083957 -0.038138878 -0.14459795
-0.09502813 -0.3503519 -0.07076141 -0.15975672 -0.32778358 -0.15832931 -0.1052491 -0.08327599
-0.01785541 -0.512885 -0.1635978 -0.021127706 -0.24203777 -0.22489147 -0.087654114 -0.022001488
-0.3158014 -0.052504458 -0.040221296 -0.09041749 -0.19401737 -0.19129772 0.06505282 -0.11234555
-0.09149118 -0.07929013 -0.1076961 -0.09685666 -0.059630014 -0.10567153 -0.105551265 -0.115859605
-0.1967493 -0.125831 -0.12983872 -0.053299718 -0.426309 -0.29037294 -0.18399964 -0.06108241
-0.070406616 -0.059112333 -0.21600866 -0.12254478 -0.20107467 -0.14045066 -0.25240865 -0.025313519
-0.13881233 -0.18477105 -0.6224571 -0.11507364 -0.11728826 -0.055219423 -0.0691429 -0.040869556
-0.1651795 -0.026320616 -0.030742142 0.0039257184 -0.15157329 -0.054765005 -0.16976151 -0.13301216
-0.080043584 -0.14746861 -0.07651105 -0.0380914 -0.34735286 -0.114986 -0.095862634 -0.17710209
-0.10680103 -0.02995023 0.0048949677 -0.20194934 -0.12938094 -0.15792029 -0.3352318 -0.14983799
-0.06565853 -0.051555898 -0.055328313 -0.1483042 -0.19549252 -0.05393547 -0.14441498 -0.11710407
-0.113677375 -0.16634333 -0.40752244 -0.15615621 -0.15096751 -0.05915125 -0.024772484 -0.09169162
-0.14351782 -0.15285802 -0.13810341 -0.2112341 -0.124413155 0.09286598 -0.23221774 -0.10206924
-0.214425 -0.21546672 -0.14746349 -0.13778433 -0.14714202 -0.14619553 -0.11989948 -0.21974416
-0.036304493 -0.21130951 -0.083496176 -0.2656461 -0.15876812 -0.31018278 -0.25397676 -0.15642738
-0.093814805 -0.28810987 -0.1802913 -0.015109542 -0.26210508 -0.12180112 -0.1598319 -0.24172609
-0.10874329 -0.10415745 -0.080053076 -0.2772541 -0.114038736 -0.47042608 -0.32625175 -0.22047426
-0.109277956 -0.39667943 -0.047650877 -0.049625944 -0.15983796 -0.10012265 -0.20153669 -0.07109922
-0.11579726 -0.057248075 -0.007969995 -0.19133139 -0.10269388 -0.16939655 -0.027280193 -0.25042605
-0.13290063 -0.15188967 -0.19425839 -0.13510664 -0.06363865 -0.13548173 -0.034122355 -0.22020984
-0.07239784 -0.10228244 -0.1539614 0.08013191 0.04569575 -0.13426133 -0.12873611 -0.058475465
00000000: 52f2 f1bd 4a61 abbd ce00 13be a131 68be
00000010: 3452 d6be 71f5 febd d46d 09bd 18fd 2bbe
00000020: 92fe 18be 2959 aabd ff74 90bd 137e 27be
00000030: cdc4 3dbe a09e f4bd f98d 10be e93e fdbd
00000040: c720 4abe 7068 c4bd 5ea4 7abe c1c0 13be
00000050: 647a 973c 8299 13bd 22c2 80bb 2566 07ba
00000060: cba6 10bd 99aa edbc 25eb 80bd 6360 40be
00000070: 322f 55be 4509 44bd 752b aebd 5ffd cebd
00000080: e88c 10be 27d3 e7be e0b6 49be 0148 0ebd
00000090: 4b69 f4be eda3 1cbe fb80 b3bd dc24 48bd
000000a0: 4799 7dbe eea4 8fbe 3945 50be b8dd 6abd
000000b0: 6c33 4abe 9e76 c6bd ba2e 53be f928 24bd
000000c0: 8b52 07bf 0768 1bbe 9576 4bbe c254 2fbe
000000d0: f560 12bd 13b1 59be 7a70 30be 7349 8abc
000000e0: b726 85be 2539 94be 5d97 93be 89dd 0dbe
000000f0: 5d71 58be baf3 3abd 8464 3bbc 7155 d0bd
00000100: fa11 54be 8026 bebe f02a 46be ddf7 bdbd
00000110: 45fe 84be 5da4 18be 144f 1ebe be6c 5ebe
00000120: 4089 e8bd 2973 98bd 98e6 24be d053 cbbc
00000130: e649 45be 53cc f7be 2e70 eabd 4111 06ba
00000140: 4d23 c2bd 4e01 31be 4372 23bd 402f 04be
00000150: bc51 afbe c523 62be 8337 1cbd 7c11 14be
00000160: 1c9e c2bd 5361 b3be 5ceb 90bd 4497 23be
00000170: 40d3 a7be 1421 22be d78c d7bd 9a8c aabd
00000180: 8245 92bc 6e4c 03bf 2f86 27be 0314 adbc
00000190: c0d8 77be f349 66be 0084 b3bd 773c b4bc
000001a0: b9b0 a1be ea0e 57bd 16bf 24bd ce2c b9bd
000001b0: 7dac 46be 8de3 43be 6a3a 853d 6c15 e6bd
000001c0: ba5f bbbd dd62 a2bd c68f dcbd c95c c6bd
000001d0: 9a3e 74bd 516a d8bd 432b d8bd cd47 edbd
000001e0: a678 49be d7d9 00be 71f4 04be ce50 5abd
000001f0: 2c45 dabe c3ab 94be 676a 3cbe 8d31 7abd
00000200: 5831 90bd c61f 72bd 6031 5dbe c2f8 fabd
00000210: 85e6 4dbe 4cd2 0fbe b53b 81be 4c5e cfbc
00000220: d224 0ebe 9f34 3dbe 5959 1fbf bbab ebbd
00000230: d434 f0bd c32d 62bd cb9a 8dbd d666 27bd
00000240: d124 29be 559e d7bc f2d6 fbbc 50a3 803b
00000250: 0736 1bbe 4551 60bd f6d5 2dbe 5734 08be
00000260: e4ed a3bd 0302 17be d3b1 9cbd ba05 1cbd
00000270: 3cd8 b1be c87d ebbd a153 c4bd 405a 35be
00000280: 80ba dabd 2f5a f5bc f765 a03b cfcb 4ebe
00000290: 707c 04be dbb5 21be 81a3 abbe 216f 19be
000002a0: fb77 86bd 472c 53bd f19f 62bd 0edd 17be
000002b0: 312f 48be 70eb 5cbd 85e1 13be 42d4 efbd
000002c0: afcf e8bd e855 2abe c8a6 d0be 6ae7 1fbe
000002d0: 3a97 1abe 9548 72bd aaef cabc d1c8 bbbd
000002e0: 56f6 12be d086 1cbe fb6a 0dbe c04d 58be
000002f0: 53cc febd 8530 be3d 7dca 6dbe ad09 d1bd
00000300: 3a92 5bbe 4fa3 5cbe ab00 17be 5617 0dbe
00000310: 66ac 16be 48b4 15be dc8d f5bd 9d04 61be
00000320: 05b4 14bd 8561 58be 0b00 abbd c402 88be
00000330: 1c94 22be 47d0 9ebe 3e09 82be 802e 20be
00000340: fa21 c0bd 2383 93be 489e 38be 038e 77bc
00000350: a332 86be de72 f9bd f9aa 23be 0b87 77be
00000360: cdb4 debd 8050 d5bd def2 a3bd 40f4 8dbe
00000370: 248d e9bd b0db f0be 780a a7be 01c4 61be
00000380: 1fcd dfbd 9119 cbbe 912d 43bd 9344 4bbd
00000390: 90ac 23be 1b0d cdbd a25f 4ebe 789c 91bd
000003a0: 1d27 edbd f57c 6abd 9594 02bc 60ec 43be
000003b0: 2b51 d2bd 4a76 2dbe b67a dfbc d837 80be
000003c0: 1a17 08be f788 1bbe aceb 46be 6559 0abe
000003d0: fb54 82bd b9bb 0abe e2c3 0bbd b07e 61be
000003e0: 5245 94bd 7579 d1bd 0fa8 1dbe 331c a43d
000003f0: 772b 3b3d cd7b 09be 66d3 03be f883 6fbd

actor_fc.weight f4 [6, 512]
0.36717305 0.014319327 0.18338986 0.53306663 0.059480805 0.09973682 0.22343135 0.23466751
0.10487312 -0.37688082 0.08485031 0.25531656 0.14280783 0.10618338 0.13553041 0.0076995823
0.6320733 0.15128057 0.62823975 0.1276004 0.17199802 0.2490674 0.051370785 -0.067663394
0.18733172 0.55785364 0.24813809 0.08055644 0.06875072 -0.3285666 0.0054800888 0.12132785
0.202847 0.039827928 0.019683752 0.24307579 0.05173649 -0.38213816 0.5544425 0.17102441
0.1540224 -0.013899085 0.40389666 0.08646976 0.22884674 0.05344865 -0.19838357 0.40857735
0.05159796 -0.11539712 0.1493182 0.32853898 0.069029264 -0.404343 0.020474216 0.7164984
0.168806 -0.0061882976 0.05312849 0.14875604 -0.07923833 0.21736562 0.1818078 0.16394858
0.36556512 0.077203654 -0.62518597 -0.094064824 0.18743986 0.15382002 0.12191751 0.075507194
0.25545698 -0.12816401 0.00998927 -0.19388305 0.008341243 0.038978413 -0.054992743 0.15626146
-0.30870032 0.17230637 -0.034016505 0.26513568 0.07066588 0.041210867 -0.18316703 0.17868118
0.17278232 0.078752615 0.08565755 0.33343485 0.50016916 -0.08969279 0.21092479 0.08775956
0.16917619 0.013513018 0.042842854 0.18711656 0.46405157 0.09826453 0.19957682 -0.4271135
0.04810132 0.19081073 -0.038674016 0.5229661 0.2652354 0.16735904 -0.5607118 -0.07085458
-0.16860381 -0.25251737 -0.014799828 0.14077003 0.10051295 0.17344488 0.08172502 0.23926418
-0.02019687 -0.1526299 -0.11164121 0.37253192 0.00722655 -0.5499875 -0.015577142 0.17131868
0.21566853 -0.042938646 0.11250752 0.30892125 0.026096648 -0.040043082 0.09574158 -0.07149389
0.07403749 0.1469978 0.071555175 0.5360002 0.012315388 -0.1853293 -0.007861391 -0.26397893
0.08646052 -0.027924988 0.34007964 -0.07142685 -0.17791939 0.14922029 0.06492784 0.063426845
0.124266826 0.31072056 0.26133698 -0.20663713 0.16444269 -0.16283362 0.45494118 0.2683837
-0.5978353 0.008241271 0.46861067 0.451707 0.16123019 0.20479892 0.11348727 -0.3101241
0.016270678 0.3917936 -0.6061683 0.057577014 0.002441475 0.103422016 -0.10319395 -0.14475529
-0.043371927 0.35921007 0.5031508 0.07616947 0.154994 -0.049638804 0.16862357 -0.22907557
0.14197637 0.2394195 0.15977643 0.2144171 0.41600963 -0.4229292 0.18662603 -0.67171067
0.5220555 0.0642951 -0.38582292 0.056126524 -0.13288444 0.25340325 0.039745998 0.09344521
0.04446653 0.12447776 -0.2659572 -0.7367307 -0.009729733 0.083756894 0.2948548 0.15884434
-0.057144664 0.101189695 0.21893488 0.2023115 0.079316035 -0.73003155 0.29901922 0.19494888
-0.3527572 -0.018015016 0.20853277 0.06835692 0.08480613 0.038183585 0.6617374 -0.54830116
0.37188795 0.0036669886 -0.23324618 0.26770267 0.06155016 0.61682075 0.20300655 0.13188516
-0.06133649 0.2468053 0.21066204 0.17446913 0.45056733 -0.052345026 0.061806783 -0.087440975
-0.056753393 0.091174155 0.15857834 -0.05423573 -0.16758451 -0.20962554 -0.059694912 0.36904284
-0.14678682 0.29869822 0.092171036 -0.14634365 -0.2519328 -0.07791967 0.13061287 0.24551405
00000000: 1bfe bb3e 9c9b 6a3c 8dca 3b3e 0e77 083f
00000010: 25a2 733d d142 cc3d 30cb 643e ae4c 703e
00000020: b8c7 d63d 86f6 c0be 00c6 ad3d dab8 823e
00000030: 373c 123e ac76 d93d 7cc8 0a3e c74c fc3b
00000040: 8ecf 213f 4be9 1a3e 52d4 203f aea9 023e
00000050: 4020 303e 860b 7f3e 2c6a 523d 1b93 8abd
00000060: e3d3 3f3e 7fcf 0e3f e917 7e3e c6fa a43d
00000070: 2dcd 8c3d e239 a8be 5192 b33b bc7a f83d
00000080: 20b7 4f3e 9c22 233d d23f a13c dce8 783e
00000090: a4e9 533d 9da7 c3be f2ef 0d3f 0621 2f3e
000000a0: 0cb8 1d3e fdb8 63bc 8bcb ce3e 0f17 b13d
000000b0: cd56 6a3e f9ec 5a3d 1025 4bbe 0d31 d13e
000000c0: 6258 533d 5355 ecbd dfe6 183e 4336 a83e
000000d0: 375f 8d3d 0c06 cfbe 8bb9 a73c 706c 373f
000000e0: 7bdb 2c3e 34c7 cabb 429d 593d 8153 183e
000000f0: b547 a2bd 1895 5e3e d32b 3a3e 23e2 273e
00000100: 5a2b bb3e f31c 9e3d 300c 20bf 0fa5 c0bd
00000110: 3cf0 3f3e ff82 1d3e e3af f93d 84a3 9a3d
00000120: 42cb 823e 6d3d 03be 09aa 233c 4789 46be
00000130: b5a9 083c d4a7 1f3d 1240 61bd 0103 203e
00000140: f80d 9ebe 1571 303e e454 0bbd ddbf 873e
00000150: 46b9 903d bacc 283d 2390 3bbe 33f8 363e
00000160: d9ed 303e 0d49 a13d 3a6d af3d f9b7 aa3e
00000170: 160b 003f dab0 b7bd abfc 573e 49bb b33d
00000180: 863c 2d3e b565 5d3c fd7b 2f3d 7c9b 3f3e
00000190: 2b98 ed3e ea3e c93d de5d 4c3e 9fae dabe
000001a0: e405 453d e363 433e a568 1ebd 1be1 053f
000001b0: efcc 873e 2b60 2b3e cf8a 0fbf 351c 91bd
000001c0: 7aa6 2cbe f549 81be fa7a 72bc 0526 103e
000001d0: bcd9 cd3d 899b 313e 735f a73d ab01 753e
000001e0: e873 a5bc 034b 1cbe 26a4 e4bd 81bc be3e
000001f0: b2cc ec3b fbcb 0cbf 4537 7fbc 2a6e 2f3e
00000200: 36d8 5c3e 6fe0 2fbd 586a e63d ed2a 9e3e
00000210: a3c8 d53c 3704 24bd 2914 c43d 636b 92bd
00000220: f8a0 973d 9786 163e 858b 923d 4f37 093f
00000230: 7bc6 493c f7c6 3dbe 10cd 00bc 3f28 87be
00000240: 3712 b13d f2c2 e4bc eb1e ae3e 3e48 92bd
00000250: 8030 36be 34cd 183e e3f8 843d efe5 813d
00000260: 9b7f fe3d c416 9f3e f6cd 853e af98 53be
00000270: aa63 283e dbbd 26be 0dee e83e 9769 893e
00000280: bc0b 19bf 6506 073c bded ef3e 2446 e73e
00000290: 8719 253e cfb6 513e 046c e83d 96c8 9ebe
000002a0: 164a 853c 2c99 c83e d92d 1bbf e0d5 6b3d
000002b0: 2701 203b ecce d33d 5a57 d3bd bb3a 14be
000002c0: c3a6 31bd 62ea b73e 7ece 003f bdfe 9b3d
000002d0: bfb6 1e3e 0f52 4bbd a8ab 2c3e c992 6abe
000002e0: 4162 113e 632a 753e 6f9c 233e 2890 5b3e
000002f0: 37ff d43e 2d8a d8be e51a 3f3e 3bf5 2bbf
00000300: 6ea5 053f 26ad 833d 958a c5be ede4 653d
00000310: dc12 08be 12be 813e b3cc 223d 3460 bf3d
00000320: 8922 363d 32ee fe3d 8b2b 88be 629a 3cbf
00000330: 7569 1fbc bc88 ab3d 35f7 963e 17a8 223e
00000340: 8610 6abd 8b3c cf3d 7730 603e bf2a 4f3e
00000350: 7270 a23d 59e3 3abf 0c19 993e aea0 473e
00000360: 979c b4be 3a94 93bc 9d89 553e b6fe 8b3d
00000370: d6ae ad3d 6466 1c3d 9f67 293f 775d 0cbf
00000380: 1968 be3e dc51 703b 16d8 6ebe 5310 893e
00000390: 051c 7c3d f7e7 1d3f f3e0 4f3e e70c 073e
000003a0: f93b 7bbd 87ba 7c3e cab7 573e 09a8 323e
000003b0: c3b0 e63e bd67 56bd 1c29 7d3d 4114 b3bd
000003c0: 3f76 68bd 84b9 ba3d 5c62 223e 4926 5ebd
000003d0: 469b 2bbe 14a8 56be a782 74bd 2ff3 bc3e
000003e0: 494f 16be f9ee 983e 2bc4 bc3d 1cdb 15be
000003f0: 56fd 80be 5994 9fbd 61bf 053e 0968 7b3e

actor_fc.bias f4 [6]
0.082173996 -0.01001137 0.0488387 0.041210778 -0.060985837 0.10315699
00000000: d74a a83d bb06 24bc 170b 483d a2cc 283d
00000010: 49cc 79bd f943 d33d

fc1.weight f4 [512, 192]
3.879286 2.5079832 3.0908337 2.6201649 6.3860984 6.8759165 1.618271 -0.04460246
-2.2112703 -1.9094468 -0.03630854 -0.023822421 -3.8422265 5.665926 -0.036490325 -0.06906192
-1.6757938 -0.033896238 5.5411158 3.2097585 0.033842307 -0.019096043 7.217614 2.4935539
4.8141356 -1.2654457 0.14105715 2.336971 -0.017910894 5.549581 2.2666614 -2.3599231
4.4756145 2.229525 4.009578 1.5755239 3.1416461 1.3318734 0.046798263 2.7730007
1.631319 -1.1426649 4.44676 3.787017 5.2082057 6.545812 2.3775942 3.2887592
2.4290075 4.0040607 0.96186304 3.5381207 2.9689891 -0.025114499 -4.9332414 -3.9451828
0.0108424965 -0.03518368 -3.6941888 5.688214 0.014684551 -0.05000905 -4.368449 0.0521881
4.0180106 3.054355 0.04141238 0.039879397 7.4265356 2.5387814 4.814894 -0.58843917
1.3829969 3.367639 0.07193156 5.082717 1.1960387 -4.4903874 4.656477 2.6253862
3.5344107 0.45322013 0.64012593 1.6044053 0.004648234 2.4950497 3.08959 -1.4260061
4.436407 4.074095 4.172874 4.6521077 0.6519689 0.22610639 6.918363 7.1304274
2.3650067 3.251512 2.4113326 3.922737 0.968597 3.483436 2.9344003 0.04195779
-4.8878818 -3.956581 0.04758456 -0.05199838 -3.8097484 5.739406 -0.008475492 0.057644725
-4.31783 0.002963489 3.9362454 3.0581744 -0.05200751 -0.009815877 7.3370066 2.4433835
4.9126544 -0.55912906 1.3548983 3.389605 0.007168642 5.021924 1.2629478 -4.489536
4.630824 2.5682683 3.4137757 0.4832099 0.70063907 1.5044528 -0.072163396 2.3893607
3.0625553 -1.4403224 4.4531403 4.0088596 4.1478057 4.7559943 3.8333719 2.4605546
3.1331434 2.5413103 6.4985995 6.815508 1.7019023 -0.047070347 -2.164566 -1.8824726
0.033459935 0.055398397 -3.8593931 5.749608 0.05619871 0.02484139 -1.7283694 -0.01467181
5.5757666 3.0878346 0.024484815 0.0165697 7.224163 2.5223858 4.877619 -1.1506672
0.15273683 2.398381 0.0454842 5.5823245 2.207843 -2.4188988 4.4266567 2.244069
3.944647 1.4791245 3.2211893 1.2284954 -0.05141397 2.821887 1.7620766 -1.1067287
4.4784184 3.7328432 5.215159 6.6390386 -0.568863 -0.3150787 6.9790382 7.080753
5.3597217 5.205622 5.7407293 6.175445 1.8564492 3.9224145 5.8365774 0.0289846
-4.60886 -5.063249 0.020978661 0.06460673 -4.262609 7.383545 0.06341421 0.003771139
-1.9819809 0.015624751 7.835997 5.008006 0.04487754 -0.060459558 10.695246 3.3630507
3.9144073 0.051201675 -2.3303554 2.3010368 -0.061105434 6.703363 1.4964546 -3.8909638
6.077423 3.2234757 2.3810968 0.3225618 0.25341144 1.1535832 -0.023863053 3.4150124
1.9191473 -1.4981915 6.896353 4.0602746 6.221227 7.1630645 6.6312127 4.6277204
5.164351 6.547268 -0.6345623 2.3563585 6.640116 -0.068320975 -4.7181783 -5.0702314
0.06420216 -0.012843555 -3.6289856 5.375601 0.050791174 -0.0044263755 -3.0789077 0.056721807
00000000: 3946 7840 cc82 2040 38d0 4540 c8b0 2740
00000010: eb5a cc40 8207 dc40 8123 cf3f 12b1 36bd
00000020: 7485 0dc0 c168 f4bf 43b8 14bd 3d27 c3bc
00000030: 0ae7 75c0 444f b540 e176 15bd 5670 8dbd
00000040: 6980 d6bf c8d6 0abd d250 b140 af6c 4d40
00000050: 3b9e 0a3d 4e6f 9cbc b2f6 e640 6396 1f40
00000060: 660d 9a40 20fa a1bf 4971 103e ef90 1540
00000070: deb9 92bc 2b96 b140 fb10 1140 fb08 17c0
00000080: 3c38 8f40 8ab0 0e40 774e 8040 c4aa c93f
00000090: bb10 4940 d47a aa3f 89af 3f3d d878 3140
000000a0: 10cf d03f d842 92bf dc4b 8e40 7d5e 7240
000000b0: 9fa9 a640 4b77 d140 812a 1840 087b 5240
000000c0: dc74 1b40 4421 8040 a83c 763f 9270 6240
000000d0: eb03 3e40 ecbc cdbc 1ddd 9dc0 e07d 7cc0
000000e0: baa4 313c c31c 10bd 976d 6cc0 d905 b640
000000f0: 7997 703c 4ad6 4cbd 56ca 8bc0 30c3 553d
00000100: 8b93 8040 8d7a 4340 07a0 293d 9458 233d
00000110: 2ea6 ed40 657b 2240 9d13 9a40 f3a3 16bf
00000120: 0b06 b13f 6687 5740 db50 933d 9ea5 a240
00000130: cc17 993f 41b1 8fc0 dc01 9540 5406 2840
00000140: c933 6240 780c e83e 4bdf 233f 275d cd3f
00000150: 3750 983b e5ae 1f40 d8bb 4540 5e87 b6bf
00000160: 0cf7 8d40 fc5e 8240 2f88 8540 11de 9440
00000170: 6fe7 263f 6f88 673e 3b63 dd40 762c e440
00000180: 455c 1740 c618 5040 4653 1a40 1f0e 7b40
00000190: f9f5 773f 9ef0 5e40 37cd 3b40 eedb 2b3d
000001a0: 8769 9cc0 a038 7dc0 07e8 423d 41fc 54bd
000001b0: ebd2 73c0 37a9 b740 cadc 0abc e01c 6c3d
000001c0: aa2b 8ac0 1837 423b 72eb 7b40 21b9 4340
000001d0: d405 55bd c6d2 20bc c2c8 ea40 6560 1c40
000001e0: 7734 9d40 1523 0fbf 4f6d ad3f 4aef 5840
000001f0: ede6 ea3b 9ab3 a040 46a8 a13f 47aa 8fc0
00000200: b62f 9440 825e 2440 4d7b 5a40 4a67 f73e
00000210: 155d 333f e991 c03f 67ca 93bd 49eb 1840
00000220: e800 4440 7c5c b8bf 2080 8e40 9448 8040
00000230: d3ba 8440 1b31 9840 f755 7540 ba79 1d40
00000240: 6c85 4840 d4a4 2240 87f4 cf40 a418 da40
00000250: efd7 d93f d6cc 40bd 4088 0ac0 ddf4 f0bf
00000260: 490d 093d 6ee9 623d 4c00 77c0 cafc b740
00000270: 9e30 663d 2c80 cb3c 353b ddbf 0862 70bc
00000280: ae6c b240 159f 4540 6194 c83c 2ebd 873c
00000290: 582c e740 c56e 2140 7415 9c40 1049 93bf
000002a0: 0b67 1c3e 137f 1940 a44d 3a3d 67a2 b240
000002b0: 4d4d 0d40 3dcf 1ac0 2ca7 8d40 d49e 0f40
000002c0: 1975 7c40 f453 bd3f f727 4e40 563f 9d3f
000002d0: 7497 52bd cc99 3440 ba8b e13f 49a9 8dbf
000002e0: 344f 8f40 e7e6 6e40 95e2 a640 0173 d440
000002f0: 01a1 11bf ff51 a1be 4854 df40 8795 e240
00000300: d782 ab40 7594 a640 0eb4 b740 3f9d c540
00000310: 21a0 ed3f d708 7b40 3ec5 ba40 1d71 ed3c
00000320: c87b 93c0 2306 a2c0 71db ab3c 8950 843d
00000330: 4b67 88c0 0046 ec40 4fdf 813d 3725 773b
00000340: 8db1 fdbf f5fe 7f3c 7dc0 fa40 9641 a040
00000350: 83d1 373d 71a4 77bd ba1f 2b41 393c 5740
00000360: a685 7a40 d9b8 513d 8b24 15c0 3044 1340
00000370: b149 7abd f381 d640 d38b bf3f 8d05 79c0
00000380: 407a c240 6d4d 4e40 e463 1840 d226 a53e
00000390: 25bf 813e 9da8 933f 737c c3bc 908f 5a40
000003a0: 9ea6 f53f bdc4 bfbf ecae dc40 c5ed 8140
000003b0: 4b14 c740 d337 e540 e532 d440 4916 9440
000003c0: 5d42 a540 3883 d140 ad72 22bf 94ce 1640
000003d0: d57b d440 deeb 8bbd 51fb 96c0 563f a2c0
000003e0: 6c7c 833d c66d 52bc 4d41 68c0 ec04 ac40
000003f0: 680a 503d 210b 91bb d30c 45c0 2055 683d

fc1.bias f4 [512]
7.62891 11.698095 11.380299 9.373526 7.6443386 3.4488816 5.850837 11.837843
7.3767548 10.94863 6.469437 5.699731 7.8322763 4.47598 11.882752 12.157906
3.698 11.582548 12.039212 11.993051 6.8328133 6.960003 11.186327 11.570817
11.666775 6.165063 11.879095 11.747139 6.2765465 6.7432065 7.713306 6.2504296
11.758281 11.681719 10.144911 11.873661 10.913694 8.02736 10.616141 10.253688
5.107687 9.152227 10.853219 3.9110875 5.3783345 11.744973 11.808285 11.572384
10.991287 11.789559 9.242716 10.200979 11.4638195 8.175371 5.0282454 6.3156238
9.7034445 11.969631 8.040873 10.458354 4.465707 11.648418 8.215778 11.08944
7.813443 6.9136114 11.73759 10.972466 6.741182 5.3997107 8.26562 7.928802
4.6692443 9.427941 5.763986 11.630319 8.443064 11.179143 7.0298433 9.458821
10.787035 4.539034 4.6013846 8.974741 11.491778 9.410324 8.464939 4.587118
7.248911 10.452379 8.954953 11.74691 4.527603 10.304583 9.280267 11.879991
11.734757 11.8249445 11.78751 5.546819 11.042001 7.5347056 11.998301 11.383909
7.4135337 5.507592 4.3459945 10.447935 11.613131 10.451564 7.2931447 11.93217
8.385375 11.860942 8.994783 11.850898 6.13058 11.937803 7.0327144 11.56869
5.235199 12.079736 11.538415 4.3350477 5.654968 11.567173 11.845498 8.957903
4.5657744 11.68796 11.83165 11.893349 11.909993 6.9031525 7.151768 3.2294466
11.791448 6.2690597 7.4735646 11.896387 11.887129 10.239281 11.84466 11.19435
6.749374 4.373248 8.0184965 6.4820533 11.9182825 12.004881 11.774691 8.597316
4.672476 4.8315153 6.0955305 8.850241 11.772873 12.322723 11.141628 7.6026053
11.104025 7.247217 11.95052 4.399812 3.7821734 11.651069 11.840403 11.397835
9.700681 11.417571 6.303322 10.846926 9.769243 11.836536 5.0862164 11.834583
10.727091 11.829058 9.579629 10.351568 11.842877 12.023993 5.1661963 10.628599
9.362705 8.25456 4.224822 11.900312 11.257221 5.105604 11.853991 12.016028
5.9652405 5.94643 6.386665 7.8470907 3.4146674 11.176685 5.0650015 8.684948
6.148165 10.658651 2.613754 6.6836715 11.97945 10.731903 11.786374 11.878757
11.985188 11.702576 4.5545774 7.739361 5.8821616 4.6567535 11.687652 11.621343
11.367332 6.0923114 11.819067 11.615202 11.221371 5.662007 11.275786 5.3440237
6.820934 5.619401 11.755713 7.0390053 11.901184 11.595391 11.912756 5.3785305
11.521136 11.814013 11.709286 6.3166895 11.900978 11.633525 6.5417185 11.417249
11.921388 6.4392786 3.518143 5.150965 11.526518 12.025815 7.294565 5.6505785
6.3704877 4.931761 9.829176 4.619385 5.6102347 8.3686905 7.4212146 11.6268
00000000: 0820 f440 662b 3b41 b415 3641 f6f9 1541
00000010: 6c9e f440 7aba 5c40 0f3a bb40 ce67 3d41
00000020: 600e ec40 972d 2f41 a105 cf40 3264 b640
00000030: 02a2 fa40 3a3b 8f40 c11f 3e41 c886 4241
00000040: 08ac 6c40 1e52 3941 9da0 4041 89e3 3f41
00000050: 68a6 da40 58b8 de40 32fb 3241 1122 3941
00000060: 1cab 3a41 3248 c540 c610 3e41 48f4 3b41
00000070: 78d9 c840 59c8 d740 67d3 f640 8503 c840
00000080: eb21 3c41 52e8 3a41 8e51 2241 84fa 3d41
00000090: 7e9e 2e41 1170 0041 b7db 2941 1b0f 2441
000000a0: 2c72 a340 866f 1241 c9a6 2d41 424f 7a40
000000b0: 511b ac40 69eb 3b41 bcee 3c41 7c28 3941
000000c0: 50dc 2f41 09a2 3c41 2ae2 1341 3637 2341
000000d0: ce6b 3741 52ce 0241 63e7 a040 9719 ca40
000000e0: 4f41 1b41 9c83 3f41 6aa7 0041 6b55 2741
000000f0: 12e7 8e40 ec5f 3a41 d473 0341 596e 3141
00000100: ba07 fa40 4e3c dd40 2bcd 3b41 398f 2f41
00000110: c3b7 d740 6eca ac40 fb3f 0441 bfb8 fd40
00000120: 736a 9540 d9d8 1641 9372 b840 c915 3a41
00000130: ca16 0741 c5dd 3241 7af4 e040 5557 1741
00000140: b297 2c41 c43f 9140 8b3e 9340 8a98 0f41
00000150: 53de 3741 b090 1641 6470 0741 acc9 9240
00000160: 14f7 e740 f23c 2741 7d47 0f41 58f3 3b41
00000170: 20e2 9040 92df 2441 f97b 1441 7114 3e41
00000180: 91c1 3b41 f932 3d41 a499 3c41 8b7f b140
00000190: 09ac 3041 4f1c f140 0af9 3f41 7e24 3641
000001a0: ab3b ed40 323e b040 6312 8b40 be2a 2741
000001b0: 62cf 3941 9b39 2741 7161 e940 2bea 3e41
000001c0: 7f2a 0641 6bc6 3d41 a2ea 0f41 479d 3d41
000001d0: b62d c440 3e01 3f41 ff0b e140 5b19 3941
000001e0: c086 a740 9946 4141 599d 3841 b6b8 8a40
000001f0: 7ff5 b440 2413 3941 2987 3d41 9253 0f41
00000200: d31a 9240 e201 3b41 704e 3d41 284b 3e41
00000210: 558f 3e41 a0e6 dc40 49db e440 41af 4e40
00000220: c5a9 3c41 239c c840 7127 ef40 9a57 3e41
00000230: ae31 3e41 18d4 2341 ba83 3d41 0f1c 3341
00000240: dffa d740 a6f1 8b40 c34b 0041 fb6c cf40
00000250: 49b1 3e41 fe13 4041 2265 3c41 9b8e 0941
00000260: ec84 9540 c69b 9a40 960e c340 969a 0d41
00000270: b05d 3c41 e029 4541 1c44 3241 8b48 f340
00000280: 16aa 3141 34e9 e740 5435 3f41 43cb 8c40
00000290: 210f 7240 c76a 3a41 4a72 3d41 885d 3641
000002a0: fd35 1b41 5fae 3641 d0b4 c940 028d 2d41
000002b0: d24e 1c41 7462 3d41 49c2 a240 745a 3d41
000002c0: 2aa2 2b41 d243 3d41 2946 1941 06a0 2541
000002d0: 6d7c 3d41 4662 4041 7b51 a540 be0e 2a41
000002e0: a4cd 1541 ae12 0441 be31 8740 ae67 3e41
000002f0: 941d 3441 1c61 a340 f2a9 3d41 a741 4041
00000300: 40e3 be40 2849 be40 8f5f cc40 5e1b fb40
00000310: e989 5a40 b4d3 3241 7e14 a240 8cf5 0a41
00000320: c5bd c440 d689 2a41 bf47 2740 a3e0 d540
00000330: d4ab 3f41 e0b5 2b41 fd94 3c41 640f 3e41
00000340: 54c3 3f41 c03d 3b41 19bf 9140 d8a8 f740
00000350: ab3a bc40 2004 9540 9f00 3b41 05f1 3941
00000360: 98e0 3541 37f4 c240 e61a 3d41 ded7 3941
00000370: bc8a 3341 292f b540 9f69 3441 3e02 ab40
00000380: 1745 da40 22d2 b340 6717 3c41 883f e140
00000390: 406b 3e41 b986 3941 a69a 3e41 ec1c ac40
000003a0: 9356 3841 3206 3d41 3c59 3b41 5222 ca40
000003b0: 686a 3e41 eb22 3a41 c255 d140 0dad 3641
000003c0: 01be 3e41 920e ce40 4129 6140 b5d4 a440
000003d0: 9e6c 3841 bd69 4041 146d e940 8ad1 b440
000003e0: 09db cb40 fcd0 9d40 4e44 1d41 00d2 9340
000003f0: 0b87 b340 28e6 0541 977a ed40 5f07 3a41

ln1.weight f4 [512]
3.2849696 0.21829893 -0.06192501 0.23268652 0.07995422 1.5606121 1.9983402 0.32028547
4.7406216 0.16880764 4.434748 1.8767909 2.2958906 1.2227309 0.29827923 0.10180009
1.380216 0.42006758 0.32891342 0.3411859 0.7156258 1.7683895 0.1374547 0.37476143
0.30421078 0.6010127 0.29823968 0.26535767 1.9365113 1.7042323 0.39708984 0.7197369
0.3205991 0.13886777 0.6085856 0.3257614 -0.019138314 3.6263962 0.49907443 1.3496555
1.2474625 1.5060657 0.5245814 1.3249587 0.85497856 0.24003908 0.20441134 0.20376994
0.23831773 0.27653417 -0.05472103 0.57110536 0.1340366 1.3008331 1.4445403 1.2003015
0.024448901 0.3046895 5.378541 0.20013982 0.8589111 -0.009740693 1.8607471 -0.024519712
1.195902 0.6360473 0.30739346 0.008108122 2.1958005 1.930499 1.1074138 3.191224
1.3347621 -0.1601298 0.8730132 0.30653107 2.4636471 0.008283897 3.6759002 0.06845966
0.081284925 0.8148816 1.1102787 0.51296026 0.24538524 0.2522061 4.519818 0.89197624
0.65362084 0.46781224 1.4169397 0.109149136 0.92978215 0.30146417 0.087728225 0.37027332
0.33405736 0.17649834 0.3320133 1.101434 0.3542221 4.4723425 0.36066598 0.3473608
0.7471082 0.98853093 0.8208005 0.46148324 0.37187773 0.38652587 1.4960282 0.33817485
0.02214914 0.14375636 0.810115 0.19299711 1.6047602 0.031068549 1.5574604 0.012600987
1.7996557 0.26093873 0.30313233 1.0489043 0.9681356 0.4507419 0.29268876 0.019628093
0.99321026 0.32459578 0.27019942 0.3382285 0.16031756 6.5002203 1.439112 1.9289372
0.28952494 0.88112116 5.71313 0.33327043 0.24222393 0.13630112 0.3483409 0.13418137
0.9905215 1.025743 5.4812946 0.54365444 0.33719254 0.3245905 0.32817337 0.69647986
6.3924184 1.0376683 1.170716 0.0054791146 0.23231393 0.22524442 0.035468902 4.285294
0.11308092 3.5321884 0.058047198 1.9350088 0.94763494 0.3684264 0.25000268 0.27788678
0.8073076 0.2437751 0.85420436 0.31343013 0.7658141 0.30148596 1.0410932 0.29943755
0.22815084 0.31131223 0.018238982 0.05492928 0.3300318 0.25220254 0.59173214 0.4062428
0.28830305 0.6138889 1.3390017 0.308164 0.3377482 1.1794441 0.02317372 0.33316445
2.6688542 2.3882551 1.091402 1.1742959 1.0848175 0.15550376 0.7706504 1.4002497
0.80256194 0.016943747 1.2949065 1.6956793 0.23829399 0.14897361 0.24905296 0.22041313
0.33035728 0.34474185 1.6549335 3.4901006 1.2230946 0.71493906 0.31011638 0.27971354
0.5390501 0.6372115 0.24295014 0.3272599 0.07497252 0.7835443 0.09218925 0.9637213
2.7113173 0.7035549 0.38071355 3.6368372 0.33703026 0.40539226 0.2999114 0.7620237
0.2558993 0.30598715 0.3355011 0.48591778 0.31536895 0.39076927 1.1184409 0.24226567
0.32785904 1.1565275 1.0390584 0.93316245 0.4433602 0.321187 4.100216 0.43731204
1.5139153 0.7201166 0.058259968 0.7003154 0.50130874 0.5249299 0.64654475 0.36111113
00000000: f13c 5240 c189 5f3e 14a5 7dbd 6045 6e3e
00000010: 0abf a33d 23c2 c73f 9dc9 ff3f 75fc a33e
00000020: 2cb3 9740 e9db 2c3e 75e9 8d40 af3a f03f
00000030: dfef 1240 7282 9c3f 0eb8 983e 917c d03d
00000040: ebaa b03f 1913 d73e 5767 a83e ebaf ae3e
00000050: 4133 373f 965a e23f edc0 0c3e bbe0 bf3e
00000060: 84c1 9b3e f8db 193f dfb2 983e f6dc 873e
00000070: 9adf f73f 4924 da3f 5c4f cb3e ad40 383f
00000080: 9125 a43e 5a33 0e3e 44cc 1b3f 33ca a63e
00000090: f4c7 9cbc e016 6840 af86 ff3e 83c1 ac3f
000000a0: daac 9f3f c3c6 c03f f74a 063f 3f98 a93f
000000b0: e0df 5a3f cecc 753e 3551 513e 11a9 503e
000000c0: 9009 743e e395 8d3e 2923 60bd f633 123f
000000d0: e440 093e b381 a63f b2e6 b83f 7ba3 993f
000000e0: 1049 c83c 4300 9c3e 021d ac40 74f1 4c3e
000000f0: 99e1 5b3f 6d97 1fbc f62c ee3f 90dd c8bc
00000100: 5113 993f ffd3 223f ad62 9d3e eed7 043c
00000110: ff87 0c40 971a f73f bcbf 8d3f 043d 4c40
00000120: 7cd9 aa3f 11f9 23be cb7d 5f3f a4f1 9c3e
00000130: 65ac 1d40 2fb9 073c f341 6b40 9434 8c3d
00000140: b678 a63d 159c 503f 9d1d 8e3f 5d51 033f
00000150: 4546 7b3e 2821 813e 59a2 9040 8e58 643f
00000160: b253 273f 1685 ef3e 485e b53f 9589 df3d
00000170: 3406 6e3f 8359 9a3e dbaa b33d 7794 bd3e
00000180: 9109 ab3e fbbb 343e a6fd a93e cafb 8c3f
00000190: 995c b53e 6e1d 8f40 36a9 b83e 46d9 b13e
000001a0: 7c42 3f3f 5d10 7d3f fb1f 523f 8847 ec3e
000001b0: c266 be3e b8e6 c53e da7d bf3f 4125 ad3e
000001c0: 1d72 b53c de34 133e b263 4f3f 09a1 453e
000001d0: c868 cd3f 7883 fe3c dd5a c73f 5f74 4e3c
000001e0: 1e5b e63f c399 853e 2934 9b3e 7f42 863f
000001f0: bcd7 773f a4c7 e63e 4ddb 953e 18cb a03c
00000200: 0743 7e3f 6b31 a63e 9457 8a3e 492c ad3e
00000210: 492a 243e ce01 d040 d234 b83f 6ae7 f63f
00000220: 9d3c 943e 2891 613f f6d1 b640 6ca2 aa3e
00000230: 8d09 783e 8592 0b3e bd59 b23e d766 093e
00000240: d192 7d3f 8c4b 833f c466 af40 f02c 0b3f
00000250: 80a4 ac3e ba30 a63e 5706 a83e 814c 323f
00000260: b18e cc40 51d2 843f 06da 953f 258a b33b
00000270: b4e3 6d3e 79a6 663e d747 113d 2121 8940
00000280: f896 e73d 600f 6240 e6c2 6d3d 5eae f73f
00000290: 3498 723f 63a2 bc3e 5a00 803e 2d47 8e3e
000002a0: b6ab 4e3f 2ea0 793e 23ad 5a3f ea79 a03e
000002b0: 650c 443f 5e5c 9a3e 8b42 853f e14f 993e
000002c0: 60a0 693e 5164 9f3e eb69 953c 86fd 603d
000002d0: eef9 a83e b120 813e c27b 173f 0eff cf3e
000002e0: 759c 933e d327 1d3f 6864 ab3f acc7 9d3e
000002f0: 55ed ac3e 06f8 963f d0d6 bd3c 8894 aa3e
00000300: 82ce 2a40 2cd9 1840 10b3 8b3f 544f 963f
00000310: 4ddb 8a3f 613c 1f3e 5849 453f 623b b33f
00000320: b374 4d3f 9dcd 8a3c 7fbf a53f 050c d93f
00000330: 5703 743e 8a8c 183e bd07 7f3e fbb3 613e
00000340: 9724 a93e 0182 b03e dcd4 d33f cf5d 5f40
00000350: 5d8e 9c3f 3f06 373f 93c7 9e3e 9d36 8f3e
00000360: 30ff 093f 4b20 233f ecc7 783e 9c8e a73e
00000370: 318b 993d 5c96 483f b8cd bc3d 70b6 763f
00000380: 3986 2d40 2d1c 343f e3ec c23e f1c1 6840
00000390: 3b8f ac3e 938f cf3e fd8d 993e fc13 433f
000003a0: 3c05 833e 59aa 9c3e cdc6 ab3e 37ca f83e
000003b0: 0a78 a13e e912 c83e 1229 8f3f 7e14 783e
000003c0: 24dd a73e 1809 943f deff 843f bce3 6e3f
000003d0: 1c00 e33e 9f72 a43e f834 8340 5de7 df3e
000003e0: fac7 c13f 9059 383f 01a2 6e3d df47 333f
000003f0: c555 003f ce61 063f f583 253f 8fe3 b83e
