project_3/checkpoints/checkpoint_cycle_01_20241024_222244.pt (torch, 624850 bytes, 12 tensors)

shared_fc.weight f4 [512, 96]
00000000: 45bb e43c b4a1 483c 464b 8bbd d809 ef3c
00000010: 72c6 9dbd 37ed 083d 615d 853d c401 b3bd
00000020: 9c27 883d cd4c fdbd 8be0 8fbc 2c5b ae3d
00000030: 16b6 79bd 34a9 07be ba38 c73b 6d08 30bd
00000040: fb5a febc 4a7e 243d db17 8bbd 4b04 763d
00000050: 392c dabc 472f bc3d be2f 77bd 6cbf 0ebc
00000060: 42e7 e4bb b4ee aabd 5f15 9cbc d172 11bd
00000070: 7965 98bd 7a51 263d 6902 573d 2bce e8bc
00000080: 5f97 d63b fd95 35bb 4711 c9bd 261f 35bd
00000090: 7303 d8bc 98fe 893d 5207 3c3d e4dd b43b
000000a0: 356d 813d 09ae 4b3b 267d 953d 9c6e 22bd
000000b0: 2862 08be 15c3 41bb a739 78bd 65e1 6cbd
000000c0: 942c 07bc 8700 36bc 2215 9fbd 1407 55bc
000000d0: 10f8 643d 4c66 fdbc be54 4e3d b6a6 493d
000000e0: cbfe 4fbd 13cc 09bc dec8 14bd 07f1 04bb
000000f0: c3d3 343d e8c6 a43d f5e0 6d3d d3c8 f0bc
00000100: 8b22 1a3c 5833 2e3d 8334 c93c 26a4 593c
00000110: 933a 7c3d b878 3d3d 80dd fb3c 5fe2 b63d
00000120: d404 193d 0fff 9a3c 2eea 093d eeaa b9bc
00000130: 40a9 033d 408e ca3c 0a8b 753d 7f8e e53d
00000140: 9823 3e3d 27d4 053d 9b92 4e3d ea23 843d
00000150: 2705 e53c 6f3d 273d 388e d0bb f0e2 b13d
00000160: 5388 923d ba3d 003d abfa f2bc 646f da3d
00000170: 2e2d f93c 7a77 f53c ab05 833d 86da 62bd
00000180: e367 293c d0d7 f03d 92bb 41bd e9d4 c8bd
00000190: 06d3 7ebd 41ee 3b3b 0074 b73d ea0e 5f3c
000001a0: ac98 fabd acb0 cdbd 79e9 a93d 3b07 453d
000001b0: 7585 533c 4af5 b43c 3e53 853d 2a27 253c
000001c0: 90ad 9bbd 2df3 8e3c 2ba9 4ebd 59fd fd3b
000001d0: f5be c9bd c175 523d 0f2e b8bc 85cb b13d
000001e0: 45ab b33c c9a2 c83d be64 a0bb e4a8 08bd
000001f0: 8a15 b7bd af54 9dbc f05f f83d f333 b3bd
00000200: e24f 763d cdd8 563c 4ddd 25bd acfb 8a3d
00000210: 29bc 48bd 88ae 2fbd fe61 94bd 718b 6e3c
00000220: 3239 b13d 5ec1 943d 1488 98bd b306 f13c
00000230: 0c16 ba3d 503b ddbd f96d 2c3d 9ef8 b73d
00000240: 2b14 a0bd 4522 89bc 73a1 883b 5809 463d
00000250: 8d2b 163d 9152 c93c 28fc a2bd 7cfc bebd
00000260: 49ed 51bd ae69 a2bd 77f0 663c 8f68 283d
00000270: e14f 3f3d 9c84 8cbd 386e 58bd 9710 b93d
00000280: 6919 033e 2025 84bd 766a cabd c399 bb3d
00000290: 5878 88bd 0cdc aebd 4874 fcbc de54 b93b
000002a0: df43 383d 8b93 49bd 9a6d e03a 216e e83c
000002b0: 1b8a 87bd 3de6 59bd 45b6 3d3d 6470 eb3c
000002c0: 658a 663b a2c2 003d 4e53 86bc 98ff 473d
000002d0: 468b 8ebb b034 8bbd 3f3f 673d 4a31 a83b
000002e0: 393f c43d 1f83 8a3b 685c 033d 7441 9b3d
000002f0: bfb4 3d3d 7609 053d 2d02 7fbc ddba 313d
00000300: 1577 a23d e5e8 453d eced ca3c fc84 84bd
00000310: 41b7 bc3d 4fdb 4b3c 0226 b33c 9599 1abc
00000320: f5ff b23c 3f27 713d 6cc6 8dbd 8d7e d4bc
00000330: 5d92 e2bd 8f85 07bd 7f9e 80bd b146 c4bc
00000340: 48fe 8fbd 62ac 77bd 6f8f e7bd a432 01bd
00000350: 78a2 60bb f3e0 113d ec81 89bd cbca 3fbd
00000360: 29e2 013e 97cf babc 33b8 57bd 1495 8a3b
00000370: 224c 0fbd 66f3 70ba d490 88bd c520 cbbd
00000380: 6451 303d d708 ca3c 29e8 6f3c 233d 653d
00000390: 9923 d7bc 8769 1cbd 38e4 8dbd e7e2 f43c
000003a0: 19fa 3dbc 7d62 29bd df2f 07bc 7dc9 873c
000003b0: 67b6 83bc 1382 0d3d 9ac1 05bd f1d4 923b
000003c0: bde3 553c a523 0e3c 2498 993d 771f 523c
000003d0: 4642 be3d 2d7f abbc 0662 39bd ad33 4abd
000003e0: dae6 57bd 8bfb 9abd c254 3b3d dba9 e4bb
000003f0: 9d82 b2bd 5e38 dabc 2909 eb3a 5a92 c13c
0.027921328 0.012245584 -0.06801467 0.029179499 -0.07703866 0.03342935 0.06511951 -0.08740571
0.0664818 -0.12368164 -0.017563125 0.085134834 -0.060964666 -0.1324814 0.0060797604 -0.042976785
-0.031049242 0.0401595 -0.067916594 0.060062688 -0.026632415 0.09188705 -0.060348265 -0.008712631
-0.006985576 -0.0834631 -0.01905316 -0.035509888 -0.074412294 0.040605046 0.052492533 -0.028418621
0.0065488066 -0.0027707808 -0.098177485 -0.04421916 -0.026368832 0.06738013 0.04590542 0.0055196155
0.06319658 0.0031079075 0.07299261 -0.039656267 -0.13318694 -0.002956574 -0.060601857 -0.05783214
-0.008250374 -0.011108524 -0.07767703 -0.013002176 0.055900633 -0.030932568 0.050373785 0.049231254
-0.0507801 -0.0084104715 -0.036324374 -0.0020285265 0.044147264 0.08045751 0.058075864 -0.029392635
0.00940765 0.042529434 0.024561172 0.013283765 0.0615793 0.046257704 0.030745268 0.089298956
0.03735812 0.01892045 0.033670597 -0.022664513 0.03214383 0.024726033 0.05994705 0.112088196
0.046420664 0.032673027 0.050432783 0.064521626 0.027956558 0.040830072 -0.00636461 0.08685863
0.07154908 0.031308867 -0.029660543 0.10665777 0.030417051 0.029964197 0.063975655 -0.05538418
0.01033971 0.11759913 -0.04729802 -0.098062344 -0.062212966 0.0028675946 0.08957672 0.013614396
-0.12236151 -0.10043463 0.082964845 0.0481026 0.012910237 0.02208962 0.06510018 0.010080138
-0.07601464 0.01744994 -0.0504543 0.0077511487 -0.09850875 0.05138183 -0.0224829 0.086813964
0.021932254 0.09796674 -0.004894822 -0.03336419 -0.08939655 -0.01920542 0.121276736 -0.08750143
0.060134776 0.013113213 -0.040494252 0.06786284 -0.04900757 -0.042891055 -0.07245253 0.014559613
0.08653487 0.07263444 -0.0744783 0.02942214 0.09086236 -0.108023286 0.042097066 0.08982967
-0.07816347 -0.016739974 0.004169637 0.048348755 0.036662627 0.024575504 -0.07958251 -0.09325501
-0.051251683 -0.07930313 0.014095417 0.04111534 0.046707038 -0.06861231 -0.052839488 0.090363674
0.12802662 -0.064523935 -0.09883587 0.09160187 -0.06663579 -0.08538064 -0.030817166 0.005655869
0.044986602 -0.049212974 0.0017122508 0.028372826 -0.066181384 -0.053198088 0.046316404 0.028740115
0.0035177704 0.031435616 -0.016397145 0.048827738 -0.004350099 -0.06797159 0.0564568 0.005132829
0.09582371 0.0042270566 0.032070547 0.075808436 0.04631495 0.032479726 -0.015564484 0.043391097
0.07932869 0.04831781 0.024771653 -0.06470677 0.092146404 0.012442424 0.02186871 -0.009436031
0.021850565 0.05887532 -0.069226116 -0.02593925 -0.11063073 -0.033086356 -0.06280231 -0.02395949
-0.07030922 -0.06046713 -0.11306655 -0.031542435 -0.0034276526 0.03561492 -0.06714234 -0.046824258
0.1268393 -0.022804065 -0.0526659 0.0042291973 -0.034984715 -0.00091915426 -0.06668249 -0.0991836
0.04304637 0.024662418 0.014642754 0.055966508 -0.026262091 -0.038186576 -0.06928295 0.029893352
-0.011595272 -0.04135369 -0.008251159 0.01657557 -0.016078187 0.034547877 -0.032655336 0.004480951
0.013054785 0.0086754905 0.07499722 0.012824885 0.092899844 -0.020934666 -0.045259498 -0.049365688
-0.05271039 -0.07567509 0.04573513 -0.006978256 -0.08716319 -0.026638206 0.0017931807 0.023629356

shared_fc.bias f4 [512]
00000000: 52ac 4cbc 7cec 95bc 924f aa3d d109 4dbd
00000010: efe6 393c ae5f aa3a 54c1 93bd e15f 68bd
00000020: 8eee 9f3d 93b8 003d 76b7 ee3c 7819 2ebd
00000030: 6a96 b13c 1b05 0cbd d4e5 58bd b89e 23bc
00000040: da48 8b3d 2835 883d c346 a63d 1652 7ebc
00000050: 1aed b8bd 9e2c bf3c 1c29 5bbd 96b5 f33c
00000060: 7b51 293d 511d 83bd ae09 6f3c 3247 7b3d
00000070: 6a5e c03d c243 8ebd a18f a63d f6b3 bf3c
00000080: 29d5 e53d ddbb 023d 5b53 9dbb 028d b6bd
00000090: 82fa 2e3d 20df a0bd f141 a5bc a424 823d
000000a0: dd4c a13d f621 c83d c794 dbbd 8a33 8bbc
000000b0: 1253 ce3d 7a88 983c 14d6 64bd 0107 7fbd
000000c0: c4f8 323d be51 2c3c fe40 493d d2f0 52bd
000000d0: cb90 403c cd07 92bd e062 81bd 783c a53a
000000e0: 6212 98bd 7ea6 e73d ba8f b43c ec2a 833d
000000f0: 1f18 a73d d4d0 8d3d 300c 79bd cbdc 63bd
00000100: 04c3 33bd 9148 a8bd 55df a1bd 62ff e23c
00000110: 47d2 313d b77e 123d 22f4 943d eef3 a4bd
00000120: 40dd aebc 73ff 7a3d f56b 9c3c 732e 9f3d
00000130: 4cb7 f2bc e45b 8cbd a26f 02bd 974e cbbc
00000140: d570 aabd da84 47bd db18 c53d 4f2d 8cbb
00000150: 05ba a8bd d6b7 99bd 59d2 ceb9 51ce 49bd
00000160: 6ce3 b73a f3f6 a83d 32da c73d 5483 b3ba
00000170: 6440 57bd 992f 733d 13f0 7b3d 7faa b63d
00000180: 540a 8e3b f11b 1c3d 724e 45bc 233b 02bc
00000190: fc1e 28bd 0496 99bd db1b ce3d 8f07 43bc
000001a0: 7615 0cbd 1f73 883c 7fc4 8fbb 395a 9dbd
000001b0: 593b fb3d eebe 18bd 9879 2a3d bbc0 843d
000001c0: a8f5 5dbd 0117 5f3d f884 063d ecf4 ebbc
000001d0: 5fea fabb 3ceb 4ebc 5a64 45bd 18e8 b23d
000001e0: 7586 893d 0af9 e93c cefc 21bd 8aa3 d13d
000001f0: 517f a0bd e8b4 833d 8b50 41bd aca4 c0bc
00000200: 1925 633d 18a7 a6bd 99ca 8cbd 0baa eabc
00000210: 7bbd b7bc 6c60 5abd 0197 bf3d 7462 54bd
00000220: 3751 83bc f8f3 b73c da26 02bd 38fd 2c3d
00000230: 677d 683d a957 7cbc e5ff eabc 9d16 383d
00000240: 96db 9d3d 1b3e a7bd eeda 46bd d528 8bbd
00000250: 25f8 af3d ecc0 fc3c 6502 18bd d4c7 3dbd
00000260: 78b9 953a c01d 193d fc37 e73d bc8e 5dbd
00000270: c9d0 3a3d 4af3 ee3d e0ce 743d 529d f2bb
00000280: 7825 803d b9b2 e33a a17a cbbd ba13 343c
00000290: 98fa 5fbc a0b7 d53d 83fc 833c d951 193d
000002a0: 078e 373d bb0b ca3d c806 523d 4cae 8cbd
000002b0: 6fca 473d 3b29 94bc 4ad9 bd3d 2673 b7bd
000002c0: 9c02 e5bc c606 bdbc 51ba 84bb ae42 d13c
000002d0: 885c 713c e6b2 563d 3e22 b63d 8859 09bd
000002e0: 5d2d ad3d a7d3 78bd 10c9 0bbd e1e8 743d
000002f0: cbea f63b fe92 ae3b 68ec 92bd 4c58 2d3d
00000300: 7a6a 9abd b7e8 b7bd c1fe 033c abff 1fbd
00000310: 4200 59bb 062a 7bbd 6652 bd3d b1d2 a23d
00000320: b1c8 f3bc 8dec 713d 7336 fcbb 4dfa 593d
00000330: 2a9a dfbc d224 23bc ecdd 7b3a 5cad 93bd
00000340: a4f1 c13d dd3b a53c 536b 433c 5294 e93d
00000350: 52b6 483c 3ffe be3d 1019 3d3d 8101 ca3c
00000360: 3b01 ed3c 93d9 b5bd 03d5 f7bb 1606 4ebd
00000370: ef67 c3bd 3db0 de3d 1ed3 34bd 4017 62bc
00000380: fd7f 8d3d bd86 753d 2c94 b9bd 0dd0 d23d
00000390: 6afa 263c 4e56 04bd c133 3cbd 2f76 b03c
000003a0: c3cb 38bc f86d 953d 8808 a3bd 5d1a 58bd
000003b0: edf2 5cbd b57f 59bd 6f48 f63c 515f 2cbd
000003c0: b97a 7dbc 6f4d bf3b dab2 38bd 85bd 67bd
000003d0: b4a8 44bc 6ba9 cdbd 504e 1e3d bba7 663c
000003e0: 742e c3bd 214b 31bd 31e6 bebc 9310 33bc
000003f0: 91c9 8d3d 05af dc3d f1d4 bcbd 2063 a6bc
-0.012492256 -0.018301241 0.08315958 -0.05005819 0.011346563 0.0012998485 -0.07214609 -0.056732062
0.078091726 0.031426024 0.029140215 -0.042504758 0.021678168 -0.034184556 -0.052953556 -0.009986572
0.06801005 0.06650764 0.081189655 -0.0155225005 -0.090295985 0.023336705 -0.053506 0.029749673
0.04133747 -0.06402076 0.01458971 0.061347194 0.09393008 -0.069465175 0.08132864 0.023401242
0.11222298 0.03191744 -0.0048011965 -0.08913614 0.04271937 -0.07855058 -0.020173045 0.06354645
0.07875989 0.097721025 -0.107217364 -0.01699235 0.10074438 0.018619765 -0.055868223 -0.06226254
0.043694273 0.010517536 0.049134247 -0.051499195 0.011753271 -0.07130394 -0.06317687 0.0012606522
-0.07425381 0.11311053 0.02204119 0.06404671 0.081588976 0.069245964 -0.06080264 -0.055630486
-0.043887153 -0.08216966 -0.07903925 0.027709667 0.043413427 0.035765376 0.07273127 -0.080543384
-0.021345735 0.06127877 0.019094447 0.07772531 -0.029628418 -0.06853464 -0.031844743 -0.024817748
-0.08322302 -0.04871068 0.096238814 -0.004277862 -0.082386054 -0.07505767 -0.00039448103 -0.049269024
0.0014029569 0.08250227 0.09758414 -0.0013695755 -0.052551642 0.059371565 0.06150825 0.08919238
0.0043347273 0.038112585 -0.012042629 -0.00794867 -0.041045174 -0.07499316 0.10063907 -0.011903658
-0.034200154 0.016656457 -0.004387438 -0.07683224 0.12267179 -0.03729146 0.041619867 0.06482073
-0.054189354 0.054465298 0.032841653 -0.028803311 -0.0076573337 -0.012629326 -0.048191406 0.087356746
0.06715099 0.028561134 -0.039547734 0.10236271 -0.07836784 0.064309895 -0.047195952 -0.023516022
0.0554553 -0.08137339 -0.0687458 -0.028645536 -0.022429219 -0.05331461 0.093549736 -0.051851705
-0.016029937 0.0224552 -0.031775333 0.042233676 0.056760218 -0.015401759 -0.028686473 0.04494344
0.07707898 -0.081661426 -0.04854863 -0.067948975 0.08592252 0.030853711 -0.03711166 -0.04633315
0.0011423072 0.037381887 0.11289975 -0.0540912 0.04560927 0.116674975 0.059767604 -0.007404008
0.062571466 0.0017371989 -0.09935499 0.010991031 -0.013670586 0.10435414 0.016111618 0.03743157
0.044813182 0.09865519 0.051276 -0.06869182 0.04877704 -0.018086066 0.0926996 -0.0895751
-0.027955346 -0.023074519 -0.004050531 0.02554449 0.014731534 0.052416705 0.0889325 -0.03353265
0.08455918 -0.060748722 -0.034127295 0.059792403 0.0075353137 0.0053275814 -0.07173997 0.042320535
-0.0753984 -0.08979934 0.0080563435 -0.039062183 -0.0033111726 -0.061319374 0.09244232 0.079503424
-0.029758783 0.059063483 -0.0076969205 0.05321722 -0.02729519 -0.009957509 0.0009607959 -0.072108
0.094699174 0.020170147 0.011927444 0.11405243 0.0122505 0.09325837 0.04616648 0.02465892
0.02893125 -0.088793896 -0.007563235 -0.050298773 -0.09541308 0.108734585 -0.04414665 -0.013799489
0.069091775 0.05994295 -0.09061465 0.10293589 0.010191539 -0.03230887 -0.045947794 0.02154073
-0.011279049 0.072963655 -0.079606116 -0.052759517 -0.05394261 -0.053100307 0.030063836 -0.04208309
-0.015471154 0.005838088 -0.04509244 -0.056577224 -0.012003113 -0.100420795 0.038648903 0.014078076
-0.095303446 -0.04328454 -0.023303123 -0.010929245 0.06923211 0.1077557 -0.09220303 -0.020310938

shared_ln.weight f4 [512]
00000000: 22e3 863f e55a 8a3f e356 8f3f 714a 883f
00000010: fbc9 8d3f 91fb 803f 55a3 863f d85c 8e3f
00000020: adb2 8b3f 1912 873f d25f 873f 5e46 953f
00000030: 986c 8f3f 2218 8e3f d3d1 873f 0bb0 8e3f
00000040: b886 883f a358 893f 9e24 913f 5df1 8b3f
00000050: f58c 8d3f e62d 903f a215 873f 83e5 883f
00000060: dc8f 833f fb00 8a3f eed7 893f 8b28 873f
00000070: eace 903f d6d5 853f 3725 8d3f db03 943f
00000080: 225b 8d3f d701 873f ebe6 893f 7539 8c3f
00000090: e8be 8c3f 8aef 8a3f 2fbf 923f ebe8 883f
000000a0: 71ac 8c3f cbaa 883f bc0e 8d3f 92cf 853f
000000b0: 115b 8c3f 5506 8e3f 717a 8d3f 6f0f 833f
000000c0: a0e2 823f 6666 873f 24de 843f c3e7 883f
000000d0: 4ec9 843f bfb8 8f3f c320 873f 70b3 873f
000000e0: 713b 8c3f 3c35 953f 3f69 843f b70b 883f
000000f0: 4012 863f 3e4c 863f d13e 8d3f 6b34 8a3f
00000100: a87b 883f 51bf 8e3f e9b3 8e3f e3bc 8a3f
00000110: cba4 8e3f 057f 863f 5b90 943f e097 8f3f
00000120: 08d9 943f 9c08 8b3f dd9f 8a3f a0d4 893f
00000130: e20d 8e3f 31fd 873f 1bf4 873f e64f 8f3f
00000140: 8e66 873f 7e29 933f 0e54 8c3f 5c94 863f
00000150: a9b7 843f 5318 8b3f 381c 8a3f 3fd9 903f
00000160: d2b6 8a3f cedb 8c3f ae3f 8b3f 4aac 913f
00000170: 262f 913f e4f9 8c3f 6d27 8d3f cae5 883f
00000180: b8cf 823f 7e76 873f 60f0 8e3f 16a6 8b3f
00000190: 3c92 873f 0ee8 863f 902b 8f3f a51b 923f
000001a0: a9ed 893f 37e0 893f 7890 8f3f b59a 933f
000001b0: 4414 993f 0f98 893f 0ee0 863f e4df 893f
000001c0: e16b 8e3f 968c 833f 71e3 8a3f e048 883f
000001d0: 3138 8d3f 508d 893f 6590 853f 6a36 8c3f
000001e0: 6986 873f cb51 823f 5b8d 8c3f 5d07 903f
000001f0: f8c8 893f 5653 883f 5fd1 8b3f 79fb 823f
00000200: 46c8 8a3f 6aca 853f 0d5e 893f f43b 8e3f
00000210: 16e9 863f 3bd0 903f f464 8c3f 71c9 883f
00000220: e1d1 8b3f d654 8a3f 4a5e 893f ced3 843f
00000230: 8017 8c3f 97f8 883f febc 8b3f bc2b 953f
00000240: 0ce0 873f 61f6 873f 42cf 843f 08e4 893f
00000250: 5e97 863f dad3 853f b30d 8c3f 49fe 873f
00000260: afdd 893f 9b12 8e3f 5d1d 8c3f 7741 8a3f
00000270: 3c25 893f cd7a 883f c2ca 853f 7310 8b3f
00000280: 8da8 853f bf3e 8a3f 4bb7 8d3f 86b8 843f
00000290: 9378 953f 736b 8c3f fbf4 873f 2531 8f3f
000002a0: 4463 8a3f 07bd 863f c96f 963f cf0e 8d3f
000002b0: d02d 853f 5fa8 8c3f 9b9e 843f 3f4f 8b3f
000002c0: ff4a 893f 932a 8a3f ebf6 8e3f b436 873f
000002d0: 37ee 8a3f d9ee 873f fb2d 8c3f e8fb 8b3f
000002e0: c674 8d3f fafe 863f ad5c 8e3f c2d9 843f
000002f0: c54a 8f3f 81e4 8d3f 3133 863f c684 8b3f
00000300: c8ac 843f 6201 903f e375 853f bd65 893f
00000310: 5c63 863f 0126 883f 9f38 973f 3077 8f3f
00000320: ca53 893f 98aa 833f 00d3 873f aa44 893f
00000330: c696 863f 2fcc 893f 585f 8d3f 8ed5 863f
00000340: c8a6 8a3f 555a 883f ddf3 863f 5f70 8c3f
00000350: 5f81 893f 974d 8c3f c281 903f c3eb 883f
00000360: ac5c 8a3f dc5f 8a3f da72 883f 6c5e 843f
00000370: 44ff 863f b2f1 8e3f 6551 853f 1bdd 893f
00000380: 7788 833f 464f 8c3f e420 893f 09c9 873f
00000390: 9a36 8c3f 31e8 873f 7ee7 863f 8d73 883f
000003a0: 5881 863f 2b5a 883f d399 8b3f 68fc 823f
000003b0: 2231 8a3f a145 8c3f c160 883f a0ea 8c3f
000003c0: 4321 8b3f 3ea0 843f 74e0 8d3f 69b3 853f
000003d0: d5c0 8b3f c2ef 8d3f a1df 853f 8997 873f
000003e0: 380e 8a3f 06d6 8c3f ec6d 8a3f 2994 8e3f
000003f0: 513a 8a3f 74d9 8c3f d025 863f c6e6 893f
1.0538065 1.0808989 1.1198391 1.0647718 1.1077265 1.0076772 1.0518595 1.1122084
1.0913903 1.0552398 1.0576117 1.1662099 1.1205015 1.1101115 1.0610908 1.1147474
1.0666113 1.0730175 1.13393 1.0933033 1.1058642 1.1264007 1.0553477 1.0695041
1.0278277 1.0781549 1.0769022 1.0559248 1.1313145 1.0455883 1.1026982 1.1563677
1.1043437 1.0547436 1.0773596 1.0955034 1.099576 1.0854352 1.1464595 1.0696081
1.0990125 1.0677122 1.1020122 1.045397 1.0965291 1.1095682 1.1052991 1.0239085
1.022541 1.0578125 1.0380292 1.0695728 1.0373933 1.1228255 1.0556873 1.0601635
1.095564 1.1656871 1.0344619 1.0628575 1.047432 1.0492017 1.1034795 1.0797247
1.0662737 1.1152135 1.1148654 1.0838894 1.1144041 1.0507513 1.1606554 1.1218224
1.1628733 1.0862002 1.0830036 1.0768013 1.1097987 1.0624143 1.062137 1.1196258
1.0578172 1.1497037 1.0963151 1.0514026 1.0368549 1.0866798 1.0789862 1.1316298
1.0837042 1.1004579 1.0878808 1.1380703 1.1342514 1.101376 1.1027657 1.0695126
1.0219641 1.0583036 1.1167107 1.091006 1.0591502 1.0539567 1.1185169 1.1414686
1.0775653 1.077155 1.1215963 1.1531588 1.195931 1.074953 1.0537126 1.0771451
1.1126672 1.0277278 1.085066 1.064724 1.1032773 1.074625 1.0434691 1.0954106
1.0587894 1.0181211 1.0980638 1.1252247 1.0764456 1.0650432 1.092327 1.0232993
1.0842369 1.0452397 1.0731827 1.1112046 1.0539882 1.1313547 1.0968308 1.0686475
1.0923425 1.080714 1.07319 1.0377138 1.0944672 1.0700864 1.0917051 1.1653972
1.0615249 1.0622064 1.037575 1.0772715 1.0514944 1.0455277 1.0941681 1.0624477
1.0770777 1.1099428 1.0946461 1.0801228 1.0714488 1.0662476 1.0452502 1.0864395
1.0442063 1.0800399 1.1071562 1.0368812 1.1677421 1.0970291 1.0621637 1.1186873
1.0811543 1.0526437 1.1752864 1.1020144 1.0404606 1.0988883 1.0360903 1.0883559
1.0726012 1.0794243 1.1169103 1.0563569 1.0853947 1.0619766 1.0951532 1.0936251
1.1051261 1.0546563 1.1122032 1.0378954 1.1194693 1.1085359 1.0484372 1.0899894
1.0365229 1.1250422 1.0426601 1.0734173 1.0499072 1.0636598 1.1814154 1.1208248
1.0728695 1.0286436 1.0611267 1.072408 1.0514762 1.0765437 1.1044722 1.0533922
1.0832148 1.0652567 1.0543171 1.0971793 1.0742606 1.0961179 1.1289599 1.0696949
1.0809531 1.0810504 1.066005 1.0341315 1.0546651 1.116751 1.0415465 1.0770601
1.0276021 1.0961692 1.0713162 1.0608226 1.0954163 1.0617734 1.0539396 1.0660263
1.0508223 1.0652517 1.0906318 1.0233278 1.0796244 1.0958749 1.0654527 1.1009102
1.0869526 1.0361402 1.1084123 1.0445377 1.0918223 1.1088793 1.0458871 1.059312
1.0785589 1.1002815 1.0814795 1.1138965 1.0799047 1.1003861 1.048029 1.0773551

shared_ln.bias f4 [512]
00000000: c3d2 413c c9e6 063c 52cc 933b 3645 fa3c
00000010: 5c36 4d3d 2b43 a5bb e700 9db8 6d9a e33c
00000020: 943d aa3c a98c 783c 4fd0 233c 6e2f 683d
00000030: be0c 0c3d 3a91 063d def5 1a3d 7488 063d
00000040: 3ba0 c53c 59c3 a33c f68f 563d 079f 223d
00000050: 4873 bb3c 3189 863c 4510 503d cd21 803c
00000060: 00b3 a03a 4ffe 273d e1c6 253d dc66 4b3d
00000070: d0b0 733d 77d9 983c 28f4 393c 36fc 7c3d
00000080: c484 e53c cf82 c43c 5988 e93c 13a9 853b
00000090: e77f 0c3c 2b8d 053c 291f 493d 56f7 de3c
000000a0: 6e02 363d f2e1 fa3c 1831 253d c2f9 063d
000000b0: 24a4 193d 5f1c 153d 5a56 b63c 7fbe 4ebc
000000c0: 86da 913c d3c9 af3c dc86 023d 23ad 933c
000000d0: 8ca1 5bb7 70b9 283d 2030 f93c 4ebd dd3b
000000e0: 634f 1b3d 4d01 5d3d 32ab 973c c25d c13c
000000f0: 6caf 21bc 5784 093c 01a0 be3b ce90 193d
00000100: ca9d a03c ced5 b53c c4ce 503c 9a04 883c
00000110: 58a4 043d f525 af3c 0159 283d 8a56 513c
00000120: 163e 573c 2af5 f83c f8f3 e53c c765 203d
00000130: 2828 0d3d 97c7 ec3b a498 543d 71fb 443d
00000140: 9273 8a3b 1b9e bd39 2f87 713c 7064 653c
00000150: 65e2 5e3a c094 bb3c 2985 463d d508 ef3c
00000160: 9022 123d 841c 903c c485 1e3d ef1f d53c
00000170: e90f 693d 2f0f 943c ccc8 143d fbfc 0a3d
00000180: 5ad5 0a3c 0fce 1b3c 9198 9c3c 85b0 b63c
00000190: dd63 0f3d 8354 203c dcc5 3c3d 1a0e 7a3d
000001a0: 889d d73c e4eb 153d 4881 7b3d 8bbd 7c3d
000001b0: a0bd 573d cfb9 053d de22 493c a86a 713c
000001c0: 5e5e 433d b71e ba3c 0eee fa3c 02ab bb3c
000001d0: 2473 e13b d649 443c 37bb ad3b f54c 7e3c
000001e0: cf4a d23c 12ee 09bc ab0a 0d3d 113f 173d
000001f0: cf15 0e3d a4a9 793c 3df4 313c 5bcd 8b3c
00000200: 9ea3 433c b985 85bc 3152 833c fd01 0b3d
00000210: bed3 093d 8cf1 513d f6a7 2a3d 3cbb a73c
00000220: 5d79 543d 7e61 023d be19 493c 0624 153c
00000230: 4e68 76bb 1da6 d23c 0bcb 4d3d 2495 2d3d
00000240: 191e 053d d518 d03c 476e 10ba dfb4 2abc
00000250: 65fa c33c c5db 133c 721a 753b e857 5e3b
00000260: 1696 2b3c 9576 ac3c 5f88 903c 26e4 283d
00000270: 81a2 823c 093b 033d 0ea0 273c fc03 f53c
00000280: e4e7 903b 33e2 a2bb 0d11 e33b 5471 e53c
00000290: bf0b 2f3d 24f8 3f3d ba42 a93c 13e3 6d3c
000002a0: 9252 003d 5e4b 0b3d 3c03 003d c2f2 5c3c
000002b0: caa8 c33c 5922 4d3d a62b c93c 1cea a93c
000002c0: 3187 193c e49c e53c be78 133d 40d6 93bb
000002d0: cf28 003d 5e77 ad3c 57d5 cd3c 68b8 8b3b
000002e0: 486c 233d add4 8c3c b372 f13c ecf3 543c
000002f0: 2222 2f3d e763 453d 3b6a 6a3c 4c46 0b3d
00000300: 6f1b cc3c 0d20 513c 4943 8d3b 07f9 053c
00000310: 7afe ca3c f877 aa3c afb5 f43c 38b5 143d
00000320: 42c8 0a3c 4387 1cbc 73ec dc3c 5f52 653c
00000330: 2c31 f03c e614 3b3d 2e47 33bc 9029 063d
00000340: 4edf c63c 1b34 4f3c 4d66 af3c 6acf 8a3c
00000350: d632 293d f7eb 633c bba1 9abb bbef 003d
00000360: e736 c73c d21f eb3c 7123 c838 908b b73c
00000370: 6668 683c 6f41 e03c 2ed1 5c3c 3fd9 023d
00000380: 5a7e 423b 0897 0e3d c4fd f03b 6ffc ed38
00000390: 85ec c63c 6970 933c e75f 573c cf67 703c
000003a0: 1cf7 153b 0bf4 123d 241b 233d 3350 813c
000003b0: 1bbd 76bb 6ade b13c 7e34 35b9 c131 8eb9
000003c0: 29ed 0e3b 824b ac3c 1174 12bc afe9 253c
000003d0: 547f a43c 9efc c83c f2f6 a93a ad81 af3c
000003e0: 1b1d 50b9 01cf 0c3d 8509 083d e7d6 eb3c
000003f0: c8d2 ae3c de07 d93c 5f37 963c 6659 fe3c
0.011830035 0.008233734 0.004510441 0.03055058 0.05010067 -0.0050434074 -7.4865115e-05 0.027783597
0.020781316 0.015170255 0.009998395 0.056685857 0.03419184 0.032853343 0.037832133 0.032844976
0.024124255 0.01999061 0.052383386 0.03970244 0.022882119 0.01642284 0.050796766 0.015641117
0.0012260377 0.041014012 0.04047287 0.04965864 0.059494793 0.018658383 0.011349715 0.061763965
0.02801741 0.023988156 0.028507398 0.004078993 0.008575416 0.008151333 0.049101982 0.027217548
0.04443591 0.030625317 0.040330023 0.03295303 0.037510052 0.03640401 0.022257973 -0.01261866
0.017804395 0.021458542 0.031866893 0.018026894 -1.309103e-05 0.041192472 0.030418456 0.0067669516
0.037917506 0.05395632 0.01851425 0.023604278 -0.009868484 0.008393369 0.005817414 0.037491612
0.01960649 0.022196677 0.012744609 0.016603757 0.032383293 0.021380404 0.041100506 0.01277698
0.013137361 0.03039034 0.028070435 0.039159562 0.034462124 0.0072259414 0.051903382 0.048091356
0.004225203 0.00036166687 0.014741703 0.014000997 0.00085023633 0.022898078 0.048466835 0.029179016
0.035677493 0.017591722 0.038701788 0.026016204 0.05689994 0.018073646 0.036324307 0.033932667
0.008473719 0.009509577 0.019115718 0.022300968 0.035007346 0.009785774 0.04608713 0.061048605
0.026320234 0.036601916 0.06140259 0.0617042 0.052671075 0.032647904 0.012276379 0.0147349015
0.047697417 0.022719724 0.030631091 0.022908691 0.006880181 0.0119804945 0.0053018588 0.015521278
0.025670437 -0.008418577 0.034434002 0.03692538 0.034688767 0.015238199 0.010861454 0.017065695
0.011940865 -0.016299115 0.016030403 0.033937443 0.0336492 0.051255748 0.041664086 0.020475022
0.051873554 0.031831257 0.012274204 0.009102827 -0.0037598792 0.025713975 0.050242465 0.04237856
0.032499406 0.025402466 -0.00055095967 -0.0104191 0.023923108 0.009024565 0.0037399796 0.0033926908
0.010472795 0.021052638 0.017643152 0.041233204 0.015946629 0.032038722 0.010231031 0.029909126
0.0044221748 -0.0049708127 0.006929523 0.02800814 0.04273581 0.046867505 0.0206617 0.014519471
0.031328745 0.034007423 0.031253085 0.013485612 0.023884196 0.050081585 0.024556946 0.020741515
0.009370611 0.028028913 0.03600382 -0.0045116246 0.031288918 0.021175083 0.025126142 0.0042639263
0.039898187 0.017191255 0.029473638 0.012997609 0.04275716 0.048190977 0.014307554 0.034002587
0.024915425 0.012763989 0.0043109995 0.0081770485 0.024779547 0.020809159 0.02987179 0.036305636
0.008470597 -0.009553733 0.026968217 0.01399669 0.029320322 0.045674227 -0.0109422635 0.03275448
0.024276402 0.0126467 0.021411086 0.016944606 0.041308247 0.013911239 -0.004718987 0.031478625
0.024318172 0.028701697 9.543345e-05 0.022405416 0.014185047 0.027374951 0.013477607 0.031945463
0.0029677362 0.034812003 0.00735447 0.0001134806 0.024282703 0.017997937 0.0131454235 0.014673187
0.0022882884 0.03587727 0.039820805 0.015785312 -0.0037649337 0.0217125 -0.0001728106 -0.0002712142
0.002180884 0.021032099 -0.008938805 0.010126515 0.020080246 0.02453452 0.0012967272 0.021424139
-0.00019847268 0.0343771 0.033212204 0.028788997 0.021340743 0.02649301 0.01833695 0.031048488

actor_fc.weight f4 [6, 512]
00000000: 2af4 14bd 4ea3 893d 5e96 07be 1f03 8f3d
00000010: bf2e 893d 0bde 0ebd 5ffa b23c 23a2 febc
00000020: 7c47 ea3b 5598 54bd 0fff 38bd 94da 123c
00000030: 60e8 b0bd a542 acbd b2f3 e43a 63e9 44bd
00000040: 88ac 2ebd bec0 2e3d 3777 9b3d dd1c 8ebd
00000050: 7f9f 03be 1c0f 97bd 393a 3e3a 1f03 15bd
00000060: d166 363d 8242 cbbd ef99 cbbd a2dd 9d3d
00000070: 76cf 473d ec5d 5f3d 2eff 4abd 0e1d d2bd
00000080: 4d1d 2c3c a3e6 803c 296f a33d b582 e7bd
00000090: ad27 75bd c08b 853d 6ee6 583c 64ba 153c
000000a0: 594a fdbc c484 a33d 0e13 e2bc 15ce 873d
000000b0: f8b1 ac3d ff90 1d3d 5cb5 043e e86c 01bd
000000c0: afc2 333d b048 223d cef3 dcbc ad34 d8bd
000000d0: 1c60 143c 6599 46bb 1646 f6bd 63c4 0a3d
000000e0: f2a6 023e dd6b c1bb 603e 12ba 01b5 91bd
000000f0: 71c9 2bbd 37cd 55bd 62f0 07be 06e0 4cbd
00000100: 9e01 11bb 2b9a 87ba 0952 71bd 7ed9 483d
00000110: 6751 90bd 4ea2 d2bd a5f3 0c3e 3f57 b2bd
00000120: 5c50 8c3d 47bc 68bd 5c22 003e 699d ebbd
00000130: 1f1e 943d b320 2f3c 2ed7 933d 8c05 cf3d
00000140: 6e63 debb 419e f6bd 6f7a 27bd 88d5 bfbc
00000150: 28d1 cbbc 14b8 44bd 6c76 aa3c 346b 933d
00000160: a149 bc3d bd1a 7ebd e690 493c 07ce 823c
00000170: b7f3 80bd 6788 b1bd 0b01 a5bd 3bd7 adbc
00000180: 5f5a 2f3b d0ba b8bc 9699 ac3c a49c ba3d
00000190: 70b7 df3c a17b 40bd 57ff 2fbd 0027 ac3c
000001a0: 5033 f63d 7c59 413d 6a1c e4bd 7680 d6bd
000001b0: c335 283e d8e0 8a3d 73bb 9c3d 43db 55bd
000001c0: 9d48 673d b4dc 1ebd eb2c 2dbd 28fa ba3c
000001d0: 9e31 6fbd 42ea 2bbc 344b d83c dd49 f63d
000001e0: 3bfb 323d 4a27 bebc 75cd 8bbd 6e50 0a3e
000001f0: 563d 9a3d e001 823d 4e08 fe3d c5bc d43c
00000200: 20ba df3d 5e59 63bd c1cd 07be 22ec 093e
00000210: 9df2 3cbd 2213 86bd 9ed1 8a3b 540e 6c3d
00000220: 78be a23d b7e7 9c3c b476 c3bc b45e 343d
00000230: 6b29 84bd b277 bc3b 948a 01be 2757 933d
00000240: 8ff7 5abd 8c55 8dbc 37e4 75bd 748f d5bd
00000250: 7b21 f8bc eaa1 573d ac84 8fbd 7050 633c
00000260: 0a75 bb3d 47c8 1f3d 3831 cebd b889 a4bd
00000270: f6b4 3bbd 2579 323d 68c4 5e3d 9703 8c3d
00000280: 9b16 c1bc dab4 a439 cee3 a9bd cf1d 803d
00000290: 84e4 b5bd 7f0e 1b3d 566b d43d 2f9b ff3d
000002a0: d17e 723d db24 33bd abd4 4c3d 2481 febd
000002b0: 1f03 3a3d fa0d 6bbd 8ecb b43c 97ce 873d
000002c0: 9160 d33d 679f 6a38 d25e d23d 09e8 acbc
000002d0: 126b 853d 15da 313b 7540 abbd 58bc 7c3c
000002e0: f12f 9ebd 11fe ad3d 13af 723c 0e06 373d
000002f0: 1ea6 b8bd 1407 ef3c df73 55bd becb 67bd
00000300: 0871 49bd c90e af3d 353c 1ebd ea08 58bd
00000310: b501 32bc 5603 dabd e2c6 0e3e 58dc ebbd
00000320: 627f 19bd 888f 1fbd 7313 7a3d cb1e 00bd
00000330: 494a 5cbd 56af 233b 71c7 1bbe b4a1 a43d
00000340: 376d 293d f489 79bd 3ee8 ce3d e1e9 66bd
00000350: 1782 2dbb 0c8d fcbd 895c 0b3e dbcb 7e3d
00000360: adf3 f7bd 2baa b2bc 1aa5 8f3b 568d 9cbd
00000370: 3654 ad3c c1bb 233c 393a 28bb 99ac 993d
00000380: a0a1 c6bc 53b2 ad3d a6eb 0f3d 23e0 c03c
00000390: 65ec 87bd 05d3 b8bd 791c 893d 9558 17bd
000003a0: 39cd 08bd a12b d63d 3fa1 d0bd 8d63 0d3d
000003b0: 5bea 353d ca4c b73d a168 9d3d cd6a e0bd
000003c0: fa27 18bd d40d 6fbd cb3c a9bd d625 503c
000003d0: 18be 1ebc e69a e13d 2bdc b0bd 78dc c33c
000003e0: 9731 f8bc f8f8 bfbd 9703 663d 88d3 4ebd
000003f0: 0f91 8cbd 0827 f63d 9cc9 0dbd ec4c bb3d
-0.036365665 0.06720601 -0.13240954 0.06983017 0.06698369 -0.034879725 0.021847902 -0.031083172
0.007149635 -0.051903088 -0.045165118 0.008963246 -0.08638072 -0.08411149 0.0017467646 -0.048074137
-0.042645007 0.042664282 0.07591098 -0.06939099 -0.12853812 -0.07375929 0.00072566007 -0.03637993
0.044531647 -0.09924795 -0.0994147 0.07708289 0.048781835 0.05453293 -0.049559765 -0.10259448
0.010505033 0.015734976 0.079801865 -0.11304227 -0.05985229 0.06520796 0.0132385325 0.009138677
-0.03091924 0.079843074 -0.027596977 0.06631104 0.08432382 0.038468357 0.12959808 -0.031598
0.043886837 0.0396201 -0.026971724 -0.10556922 0.009056117 -0.0030303833 -0.120250866 0.033878695
0.12758997 -0.005902751 -0.00055787526 -0.07114602 -0.041940156 -0.05219766 -0.13275293 -0.050018333
-0.0022126208 -0.0010345628 -0.058916125 0.04903554 -0.07046776 -0.102848634 0.13764818 -0.08708047
0.06851265 -0.05682018 0.12513107 -0.11504633 0.07232308 0.010688948 0.07218777 0.1010848
-0.0067867553 -0.12041903 -0.040888246 -0.02341725 -0.024880007 -0.048027113 0.020808421 0.07198182
0.09193731 -0.06203722 0.012302613 0.015967382 -0.06296485 -0.08668595 -0.080568396 -0.021220794
0.0026756746 -0.022550017 0.02106933 0.09111908 0.02730915 -0.0469929 -0.04296812 0.02101469
0.12021506 0.04720448 -0.11138232 -0.10473721 0.16426758 0.06781167 0.076529406 -0.052211057
0.056465734 -0.038784698 -0.042279165 0.022824362 -0.058396928 -0.010492863 0.026403047 0.12025807
0.043696623 -0.023212094 -0.06826297 0.13507244 0.0753123 0.06348014 0.12403928 0.025968919
0.109241724 -0.05550515 -0.13262083 0.13468984 -0.04612981 -0.06546618 0.004236414 0.057630852
0.07946485 0.019153459 -0.023860313 0.04403563 -0.06453212 0.0057515735 -0.1265052 0.07194357
-0.053458747 -0.017252706 -0.060032096 -0.10427752 -0.030289402 0.052644648 -0.07007727 0.013874158
0.09153183 0.03900936 -0.100679815 -0.0803408 -0.045826875 0.043572564 0.054386526 0.06836622
-0.02357035 0.00031415262 -0.082954034 0.062556855 -0.088814765 0.03785562 0.10372035 0.12480771
0.059202973 -0.04373632 0.050007503 -0.12426975 0.045413133 -0.057386376 0.022069719 0.06631201
0.10321153 5.5938403e-05 0.10271992 -0.021106737 0.06514563 0.0027138044 -0.083619036 0.015425764
-0.07723988 0.08495725 0.014812249 0.04468351 -0.09016059 0.02917818 -0.052112456 -0.056590788
-0.04918006 0.08547742 -0.038631637 -0.052742876 -0.010864665 -0.106451675 0.13943055 -0.115166366
-0.037474997 -0.03895524 0.061053704 -0.031279366 -0.05378178 0.0024976335 -0.152128 0.08038655
0.04136392 -0.060922578 0.101028904 -0.056375388 -0.0026475245 -0.1233159 0.13609518 0.06220613
-0.12107024 -0.021809658 0.0043836953 -0.07644145 0.021158319 0.0099934945 -0.002566947 0.075036235
-0.02424699 0.08481278 0.03513684 0.023544377 -0.066368856 -0.09024624 0.06694884 -0.036949713
-0.03339884 0.1045754 -0.10187005 0.034518767 0.044412952 0.08950193 0.07685972 -0.10957871
-0.0371475 -0.058362797 -0.082635485 0.012704333 -0.009688877 0.11015873 -0.08635744 0.023908839
-0.030297084 -0.09373659 0.056155767 -0.0504947 -0.06863605 0.12019163 -0.034616098 0.09145531

actor_fc.bias f4 [6]
00000000: 11d5 243c 835a 24bd 2c49 0cbc fcc0 9bbc
00000010: d2f7 e1bb 1097 c23c
0.010060565 -0.04012538 -0.008562367 -0.01901292 -0.0068959976 0.023753673

fc1.weight f4 [512, 192]
00000000: e51d 4540 f7cd 2240 185d 3640 6334 2440
00000010: dc03 e43f 767a c63f 772d be3f 2587 4cbd
00000020: 2e5f 41c0 2ba8 ecbf 7b49 5ebd 24d2 75bd
00000030: 788f b9bf ea5d 3940 a57a f6bc 7386 223d
00000040: 0395 d9bf 44c9 5c3d b2cb 0e40 6e07 5340
00000050: ece4 353d de7e 123d eb3b 9240 198d 3a40
00000060: 63e6 0240 1b2a a8bf 50cc f33d 61c6 0740
00000070: f781 533d bb42 5640 b936 3540 b691 0bc0
00000080: 1e89 3740 350d 4640 2318 033f b6ac b6bf
00000090: 5878 203f 61ef d43f b76f 3a3d ec7c de3f
000000a0: b207 b43f 0483 90bf 3851 4440 031e 1d40
000000b0: a90d 8340 017f 9840 2763 1f40 3b6b 1840
000000c0: 9be9 3d40 c6bf 2440 fe96 4940 6a8a 843f
000000d0: 9dfc a3be bbd9 15bd fc2b 25c0 9f3f b5bf
000000e0: 3793 d63c 4a1e 84bd 1cad 3ec0 3a2a 4c40
000000f0: 6a4d 5ebd 3ddc 21bd 9312 ebbf 9cc0 84bd
00000100: fcfb f23f c40a 3240 8502 763c eed6 0ebd
00000110: a988 8740 73d4 1740 f218 0040 4617 75bf
00000120: b0c9 b33f b823 d43f 39a4 e7bc 890f 4240
00000130: f16d 1940 f58e 28c0 8130 2440 d0bc 0440
00000140: 78fb 923f 6e49 80bf 4c8d 863f eba6 cb3f
00000150: 2b9c 363d 1f3c e23f 9e28 ef3f 7125 3bbf
00000160: 68b9 3f40 2155 2d40 7ce6 5f40 938e 7f40
00000170: 0a08 09bf 4db5 aa3d 9b9b 9340 8370 a240
00000180: 15f7 2240 17d2 1840 d12f 3e40 3892 2540
00000190: f03d 4540 e146 823f 36ea 6dbe 8861 763d
000001a0: 7864 23c0 7fbc aabf 3c71 933d a836 773d
000001b0: f608 3fc0 9c42 4e40 1091 81ba c47d 80bd
000001c0: 4fdc eabf 6385 263d e463 eb3f 3c07 3640
000001d0: 7542 d4bc 9d5e 7e3d 7bab 8640 2727 1140
000001e0: fc37 0840 4eb7 75bf 1abb aa3f 2ee6 d73f
000001f0: a5ac 8cbd 075a 4540 19ae 1b40 adaf 26c0
00000200: ed05 2540 b403 0640 ea37 953f 7286 77bf
00000210: 84ad 923f 65ee cf3f d138 4bbc 036e dc3f
00000220: fba7 fb3f e302 3bbf 5eae 4140 4361 2b40
00000230: 562c 6240 dbf5 8140 b727 4540 77da 2340
00000240: a2c8 3240 0f84 2540 b6b2 dd3f 0e70 c53f
00000250: 691c bb3f c9c4 99bc a03b 4ac0 77fb debf
00000260: 4f32 babc 9aa3 503d 74e8 c4bf ec47 3a40
00000270: 9d9c 5f3d e2f5 393d 93c3 d0bf dd3e 50bd
00000280: 3ab3 0e40 ee2e 5240 328a 8ebb f5dc 283d
00000290: 7dea 9240 8d75 3940 425e fb3f 67bb abbf
000002a0: 4880 473e add7 0040 a816 2b3c 13d9 5540
000002b0: a9b7 3040 8889 07c0 2840 3a40 7f5c 4440
000002c0: 304d 043f 8839 b9bf 04a3 1e3f 933f de3f
000002d0: 5c55 823b 3ee0 ce3f 448a b23f 30c8 84bf
000002e0: fad5 3d40 87dd 1c40 3d52 8240 61b3 9740
000002f0: 3eef 133f 74be 22be f3b3 9540 415c 9d40
00000300: 66fe 5b40 1ac3 4c40 174b 7440 de5c 6440
00000310: 6311 8640 5807 9140 fecc e83f dae0 0e3d
00000320: 694f 5bc0 79f3 a2bf 06e5 91bc d0fc 52bc
00000330: f15f dcbf e68b 3440 2298 87bd 3fda a2bb
00000340: b8bc ccbf 23a2 3dbd b3e9 5e40 0580 7140
00000350: c334 d63c 6182 83bd 4361 ca40 a164 1240
00000360: 5d91 7140 6f83 65c0 878e b8bf f946 b43f
00000370: aa4e 97bc 23b6 8740 d196 2040 124c 48c0
00000380: 3d3e 6b40 1ce4 6340 c915 0940 fd8c d3bf
00000390: 14b5 1e3f 5853 b53f 18f1 513d c076 3a40
000003a0: 2720 aa3f fb77 0cbf 28ff 8c40 60cf 3840
000003b0: 7c10 a740 c09c ac40 c5f0 5640 d495 5e40
000003c0: c759 6340 ccfe 6040 86dd 5340 d50c 9740
000003d0: 4d7b e33f d8f0 873d e554 57c0 bd85 b4bf
000003e0: b218 5dbd 8b92 e8bc 58f3 22c0 1e17 5940
000003f0: b8df 103d e228 563d b1c1 acbf b8fb 353d
3.0799496 2.543821 2.849432 2.5656974 1.7813678 1.5506122 1.4857625 -0.04993357
-3.0214343 -1.8488821 -0.054269295 -0.06001486 -1.4496908 2.896357 -0.030087778 0.039679002
-1.69986 0.05390288 2.2311826 3.2973285 0.04440777 0.03576552 4.569814 2.914862
2.0453117 -1.313785 0.11904204 2.121483 0.051637616 3.347823 2.831465 -2.1807685
2.867744 3.094556 0.51208705 -1.4271457 0.6268363 1.6635553 0.045516696 1.7381873
1.4064848 -1.1289983 3.0674572 2.4549568 4.0954175 4.7655034 2.4904268 2.3815448
2.9673831 2.574205 3.1498408 1.0354741 -0.32028666 -0.036584597 -2.5808096 -1.4160041
0.026193244 -0.0645109 -2.9793158 3.1900773 -0.054273047 -0.039516676 -1.8365043 -0.0648205
1.898315 2.781907 0.015015249 -0.03487294 4.235432 2.3723419 2.0015225 -0.9573864
1.4045925 1.65734 -0.02827655 3.0321982 2.3973353 -2.6337254 2.5654604 2.0740242
1.1482992 -1.0022409 1.051187 1.5910314 0.044582527 1.7674598 1.868427 -0.73104006
2.9956913 2.7083209 3.4984426 3.993077 -0.5352789 0.08335362 4.612745 5.0762343
2.5463307 2.3878229 2.9716685 2.5870495 3.0819054 1.017788 -0.23233876 0.060151607
-2.5530071 -1.3338774 0.07199332 0.06035486 -2.984922 3.2228155 -0.0009885151 -0.06273988
-1.8348483 0.04065455 1.8389859 2.8441916 -0.025910595 0.06210195 4.2084327 2.2680147
2.128417 -0.95982826 1.3338349 1.686712 -0.06868867 3.0836198 2.432501 -2.6044724
2.5784867 2.093976 1.1657689 -0.9668952 1.1459203 1.6244627 -0.012403683 1.7221073
1.9660639 -0.7305128 3.0262675 2.6778114 3.533956 4.0612617 3.080549 2.560209
2.7934957 2.5861852 1.7320163 1.5424821 1.4618045 -0.018770592 -3.1598892 -1.7420491
-0.022729067 0.050937273 -1.5383439 2.9106398 0.054592717 0.045400508 -1.6309685 -0.0508412
2.2296891 3.2841144 -0.0043499703 0.041226346 4.591124 2.8977997 1.963814 -1.3416566
0.19482529 2.0131638 0.010442413 3.3413742 2.7612097 -2.1177692 2.9101658 3.0681455
0.5168028 -1.4470682 0.6196749 1.7363151 0.003977461 1.6162183 1.3948445 -1.0373592
2.966185 2.451021 4.072539 4.740647 0.5778693 -0.15892965 4.6782165 4.9175115
3.4374022 3.199408 3.8170831 3.5681682 4.1896224 4.5321465 1.8187559 0.034882404
-3.4267218 -1.2730552 -0.017809402 -0.012877658 -1.7216779 2.8210387 -0.06620814 -0.0049698646
-1.5995092 -0.046297204 3.4830139 3.7734387 0.026148206 -0.06421352 6.324373 2.287392
3.7744973 -3.586147 -1.4418496 1.4084159 -0.018470127 4.2409835 2.509205 -3.129643
3.6756737 3.5607977 2.1419547 -1.6527401 0.61995053 1.416606 0.051255316 2.913498
1.3291062 -0.54870576 4.406147 2.8876572 5.2207623 5.3941345 3.3584454 3.4778948
3.5523546 3.5155516 3.3103957 4.7203164 1.7772003 0.06637734 -3.3645566 -1.4103314
-0.05397863 -0.02839019 -2.5461025 3.392036 0.035369605 0.052285083 -1.349661 0.04442951

fc1.bias f4 [512]
00000000: 1401 a640 3bc0 e740 4ceb 9940 fbe6 8940
00000010: 6de2 8940 1a5a 8640 bd47 5f40 440b ed40
00000020: 1aa0 8140 a120 b140 1865 d440 0352 8340
00000030: 113c 9840 36e2 6f40 fc1e 3340 2337 6640
00000040: 520e 6d40 fbb8 ec40 3d06 e740 6330 6d40
00000050: f21c f140 f299 6240 5ef6 8a40 3204 ec40
00000060: 5246 9c40 8884 a840 0250 5340 6945 9040
00000070: cbe6 8740 9773 8740 4cdc 9240 10a5 a340
00000080: f33b 5c40 f2e1 5d40 548c d240 5917 8c40
00000090: b40e ec40 1fcf 9340 3e24 a840 25f0 0941
000000a0: 94e7 8940 5f41 7a40 97e5 a040 db96 eb40
000000b0: 76ff ea40 0787 8640 b75e 8b40 b129 8440
000000c0: 64ae 4940 b0b8 7940 8ac9 9740 d6a4 5240
000000d0: fd3b 7840 283c 8640 8c5d ed40 3919 9540
000000e0: 3a97 7940 1761 3540 1197 ec40 34fc 7940
000000f0: 75cb ef40 c2df 9840 af91 b840 67d7 9d40
00000100: ec3d ed40 823a 8040 9ad8 0241 638a 8240
00000110: b80d ed40 5a03 ea40 5261 8740 ad71 eb40
00000120: be10 8040 a748 ea40 d99a ec40 74d4 c440
00000130: 78d6 8140 4295 b140 1d2a 7d40 7401 8e40
00000140: da6b 8940 ccff e940 4006 e940 6807 6340
00000150: 35b2 8340 05e1 a440 9e0d 9140 7cfc 9c40
00000160: 6de8 8b40 151b 8840 8e5d 8840 9fd2 a740
00000170: 0916 9740 173f ce40 a3db 5f40 02a5 5140
00000180: 0c57 ec40 0433 9440 bd21 7740 df85 6e40
00000190: 4587 6640 89a6 8040 7814 8b40 de19 de40
000001a0: 8cf4 8540 0e28 8640 c4d9 6440 db72 5f40
000001b0: 3631 8840 01b6 6440 f36c 8840 82b5 4c40
000001c0: 3e23 8740 e928 7840 f82b a040 12c4 b240
000001d0: 82c8 a240 61b5 b040 ff44 db40 28e4 8540
000001e0: 15cf af40 19f8 b840 5cc3 ea40 7f7f e840
000001f0: f4c4 cf40 b632 ca40 91ce b240 d229 ea40
00000200: 20f8 b740 1266 a440 b890 9240 786c 8940
00000210: b442 9940 1f6e 8540 8152 c140 eb1c 8c40
00000220: 7ed8 9940 dc14 ea40 38e2 b440 fa26 6c40
00000230: 663c 0841 938b 9340 4a51 ec40 f362 a140
00000240: d079 7e40 402e 6e40 22f7 eb40 8197 f240
00000250: 0637 8040 f849 da40 8906 9640 cc3d 8c40
00000260: 0a44 7140 7d8c e740 fa39 9340 17d6 9040
00000270: 6a76 a840 e155 9140 1dad b440 cff0 a140
00000280: f211 a940 7297 8b40 0055 8e40 056c e840
00000290: 0cd5 ea40 d126 ce40 7f3c a940 762f 9140
000002a0: a069 bc40 c464 6a40 ea65 6940 7e5d 9040
000002b0: 3cf1 d040 0be9 8240 7b69 8140 c079 8f40
000002c0: f173 ed40 5b0c 4940 2801 8840 2ee1 bb40
000002d0: 6700 9d40 d669 ca40 3db0 9840 ea2d 6a40
000002e0: 40fb ea40 3e46 aa40 f255 ea40 8e20 ec40
000002f0: 4514 6240 ab80 7240 47aa 6340 6e0d d140
00000300: 4b30 1f40 324d 6f40 23aa 2a40 2369 7340
00000310: d41b b640 203e 8f40 ca87 8240 dab0 5c40
00000320: c802 9040 4c7e 6740 29fc 9940 0d03 ef40
00000330: 43f9 ce40 b9c1 9e40 de70 8540 2fd2 f640
00000340: 3f9b 8740 c1f7 0141 f4eb a240 0a77 7f40
00000350: b3be 8b40 97be 7d40 1e5b 9c40 f3d4 0541
00000360: fb1b 6640 25c2 a340 29e5 8540 e6da 8a40
00000370: 5c53 5e40 975a a740 cd50 bd40 853e 9a40
00000380: 4347 9040 29b3 9840 80ac 9440 7e54 9540
00000390: 24ea 6d40 ea07 7240 7a5a 8240 90c1 9340
000003a0: c8a1 7c40 e3a3 7b40 daa5 8740 4475 7e40
000003b0: c180 4540 c018 7340 b612 eb40 2147 ea40
000003c0: 25f6 b340 2563 bb40 49c2 ec40 f89f 8740
000003d0: d652 d440 e051 0441 c7a0 7840 c6d8 e840
000003e0: c55b ea40 4b91 f040 86dd 7e40 3453 a140
000003f0: 824f 8140 c27b 7b40 4095 a640 8ad1 b540
5.1876316 7.2422156 4.809973 4.309446 4.30889 4.1984987 3.4887536 7.407625
4.0507936 5.535233 6.6373405 4.103761 4.7573323 3.7481818 2.7987661 3.5971153
3.703999 7.3975806 7.2195115 3.7060783 7.5347834 3.540646 4.342574 7.375512
4.883584 5.266178 3.3017583 4.508473 4.246923 4.23286 4.5893917 5.113899
3.441159 3.4669156 6.57963 4.37785 7.376795 4.6190333 5.254424 8.621129
4.309519 3.91024 5.028026 7.362165 7.343684 4.203983 4.355312 4.1300893
3.151269 3.9018974 4.743352 3.2913108 3.8786614 4.1948433 7.4176693 4.659329
3.8998551 2.834051 7.3934407 3.9060183 7.493586 4.777314 5.7677836 4.932544
7.413809 4.007142 8.177881 4.079393 7.4079247 7.312909 4.23063 7.3576264
4.0020437 7.3213687 7.3939023 6.150934 4.0574303 5.54947 3.9556954 4.4376774
4.2944155 7.312475 7.282013 3.547327 4.115504 5.152468 4.5329123 4.905821
4.3721223 4.253306 4.2614202 5.2444606 4.72144 6.4452014 3.4977806 3.2756963
7.385626 4.6312275 3.8614342 3.7269208 3.6020062 4.020329 4.3462486 6.9406576
4.186102 4.1923895 3.5757914 3.4913852 4.256007 3.5736086 4.2632995 3.1985784
4.223052 3.877497 5.0053673 5.5864344 5.086976 5.522141 6.8521724 4.184101
5.4940286 5.7802854 7.3363476 7.2655635 6.492792 6.3186903 5.5877156 7.317605
5.7490387 5.1374598 4.580166 4.294491 4.7893925 4.1696925 6.0413213 4.37853
4.8076773 7.3150463 5.6526146 3.689879 8.514746 4.610788 7.384923 5.043329
3.9761848 3.7215729 7.3739176 7.580994 4.0067167 6.8215294 4.6882977 4.3825436
3.7697778 7.2358994 4.600827 4.526134 5.264455 4.5417333 5.646132 5.0606456
5.2834406 4.362237 4.447876 7.263186 7.3385067 6.4422383 5.288635 4.5370436
5.8878937 3.6624002 3.6468453 4.5114126 6.5294476 4.0909476 4.044126 4.483612
7.420403 3.141379 4.250141 5.8712378 4.906299 6.3254194 4.7715135 3.6590524
7.34317 5.3210745 7.3229914 7.378974 3.5324872 3.7891033 3.557268 6.5328894
2.4873226 3.7390866 2.6666343 3.803292 5.690897 4.4763336 4.079076 3.4482942
4.5003395 3.6170835 4.8120313 7.4691224 6.4679275 4.961148 4.1700277 7.713157
4.237701 8.122987 5.091303 3.9916406 4.3670287 3.9647577 4.8861227 8.36449
3.5954578 5.1174493 4.1842237 4.339221 3.4738379 5.2298083 5.9161134 4.820132
4.508699 4.77187 4.646057 4.666564 3.7174158 3.781733 4.0735445 4.617378
3.9473743 3.9318779 4.2389956 3.9759073 3.0859835 3.7983856 7.346034 7.3211827
5.623797 5.8558526 7.3987164 4.2382774 6.635112 8.269989 3.884813 7.2764616
7.3237023 7.517736 3.9822707 5.0414066 4.0409555 3.9294286 5.205719 5.6818285

ln1.weight f4 [512]
00000000: 2ea4 cb3f f4cb 953e 18de d13f 18ed b43f
00000010: 432a 6d3f c359 e93f e501 823f 53a1 973e
00000020: 6d1d ff3f f4c1 983f 95bb 263f 091d 0d40
00000030: e51a 9f3f 467d 0240 a4e4 4e3f 5e54 543f
00000040: cf60 6b40 61a0 a23e fa5a 9d3e 2fa1 2b40
00000050: ba0f 8b3e 070e 863f 73fc 1040 a53e 9f3e
00000060: fd4f c23f 8349 983f 245f 4d40 f2d0 2240
00000070: 44fe 4240 e0cb 0a3f ee9f 2a40 fc06 073f
00000080: e145 873f d912 863f 446d 1c3f 2c17 ce3f
00000090: 9678 9b3e 8d14 f33f 2c5f 813f b87a 1b3e
000000a0: 0646 1840 4f1e bf3f 52de c03f 073e a53e
000000b0: a908 9b3e 2a22 8240 dca4 1040 2033 a340
000000c0: e971 823f e1a7 823f c5b0 bc3f d401 383f
000000d0: 2fbf f03f 59d4 c93f d82a 943e 232c ab3f
000000e0: cc31 0340 e7fc 0c40 4fbb 973e 7e3b 5a40
000000f0: f052 8f3e bbb3 0e3f f3c5 883f 01fc 0140
00000100: 681a 993e 7d8a 4640 59ed 4b3e 6420 8d40
00000110: 7ccd 933e 700b a23e b6a7 3c40 a1b1 963e
00000120: 06c2 d33f 5df4 943e 9076 933e 9593 053e
00000130: 0418 9e3f 4593 593e 4c51 3140 67e6 763f
00000140: 921e 6e40 4cb4 9d3e 8334 b43e d434 eb3f
00000150: fc67 fb3f 648e a23f a7dc 1a40 5acd d53f
00000160: a864 b73f f12d e13f 363b c73f 4aae 7b3f
00000170: ce30 b73f ef55 2d3f 3961 1e40 faf5 0140
00000180: ceb2 9a3e 59d2 ae3f 2719 1a40 bb8f 123f
00000190: 1fbe 6240 caeb 7a40 2036 d03f 6614 c13e
000001a0: 6d97 1b40 56b8 e03f 5b06 933f 16b0 563f
000001b0: ba93 c73f 5938 1340 7632 e53f 3f28 8e3f
000001c0: 2053 153f 219a 1f3f 9f4d 8b3f f578 653f
000001d0: e95a 283f e6ab b43f 8d4c 063f e73c 1940
000001e0: 73bd ad3f d9dc a03f d40e 913e e878 a53e
000001f0: 520a 093f c601 ee3e af35 853f d95f 883e
00000200: 8a3b 893f ebc5 bc3f 88f2 af3f e137 2440
00000210: d91c 2f3f 7f0a 0640 d0c0 ba3d 3faf d33f
00000220: 8d0d ba3f 893a 903e 7fce 013e 23d6 2b40
00000230: f34e 3f3e 402f a03f f2d0 933e 0967 803f
00000240: ec70 5e40 ecf2 1f40 cbad 9b3e 2a4a 893e
00000250: d8b5 ab40 d538 f53d a4b8 bf3f d438 2440
00000260: bd97 b03f 314d b03e cae1 0f40 b985 1340
00000270: cee9 9c3f 536b f43f f45d 9a3f 8839 a23f
00000280: 76d8 8d3f b4e7 953f 30ce 7f40 3812 983e
00000290: 7f07 943e 77f0 513f 1fe6 8a3e 5710 073f
000002a0: cb42 793f ab38 1a40 c9bb 6e3f f486 f13f
000002b0: c379 e33e d50d 4d40 a0a2 963f 1cc0 1440
000002c0: 550f 933e 8b08 463f 6cc5 463f b1dd 253f
000002d0: 3b98 cf3f 171e 583f 1985 a63f c72f fc3f
000002e0: e6a8 a13e 167f 933f 6f1c 9b3e 86ec 973e
000002f0: a4e7 7b40 9ff3 b93f 69c8 dd3f 444e b33e
00000300: 38ed 323f f5ee 1f40 895d ea3e 2a77 0840
00000310: 1c24 a73d c43b 0e40 759f e63f c22b 8440
00000320: 1eca 8040 8797 b03f 4472 cf3f 4fa5 8e3e
00000330: 7a92 213f 043d b03f 03b1 d63f 8b57 863e
00000340: e24e fb3f 70d7 4a3e 52ce 943f 2e34 0040
00000350: 0ffb 0d40 0b39 0340 0da2 473e 941b 243e
00000360: d13b 7940 f313 0340 7ee5 343f 941e 0540
00000370: 3891 553f 9439 853f 33cf c63f 8109 f23f
00000380: d6c9 6040 7e41 c63f 0d75 c53f 2579 ab3f
00000390: 940c 2b40 81da 923f ee68 3f3f a6ac cc3f
000003a0: e6d4 0140 833d 2f40 97ce 3940 b4f5 cf3f
000003b0: f23c e03e 9229 7a3f 56a2 973e c1a9 a33e
000003c0: 3c56 743f 39f2 8a3f 5e98 a53e d55e f93f
000003d0: 75dd 023f 4bd3 3f3e d1e7 9940 2c95 ac3e
000003e0: 48b1 a03e 6bd7 893e 92d4 2740 e1a6 d03f
000003f0: 1a87 c83f 0706 a340 e47b af3f d352 8e3f
1.5909479 0.29257166 1.6395903 1.4134855 0.9264261 1.8230518 1.0156828 0.29615268
1.9930855 1.193419 0.6512998 2.2048972 1.2430083 2.038896 0.8081763 0.82941234
3.6777837 0.31762984 0.30733472 2.6817129 0.27160436 1.0473031 2.2654083 0.3110248
1.518066 1.1897434 3.208932 2.544003 3.0467691 0.5421734 2.6660113 0.5274503
1.05682 1.0474502 0.61104226 1.6100821 0.30365437 1.8990647 1.0107169 0.15183532
2.379274 1.4931124 1.5067847 0.32273886 0.30280045 4.0666704 2.2600622 5.099991
1.0191013 1.0207483 1.4741446 0.7187779 1.8808345 1.5767928 0.28938937 1.3372844
2.0499144 2.202936 0.29635093 3.409881 0.27992964 0.55742997 1.0685409 2.031006
0.2990296 3.1022027 0.1991476 4.410204 0.2886771 0.3164935 2.9477363 0.29432395
1.6543586 0.29092684 0.28801394 0.1304458 1.2351079 0.21247585 2.770587 0.96445316
3.7206159 0.30801618 0.35196313 1.8375497 1.9641109 1.2699704 2.4197176 1.6703293
1.4327593 1.7592145 1.5564945 0.9831282 1.4311769 0.6770925 2.474684 2.0306382
0.30214542 1.3657943 2.4077852 0.57250565 3.542854 3.9206414 1.6266518 0.37710875
2.4311173 1.7556255 1.1486315 0.83862436 1.5591958 2.3003142 1.7906024 1.1106032
0.58329964 0.6234456 1.0883063 0.8963769 0.6576372 1.4114959 0.5246056 2.3943422
1.357344 1.2567397 0.28331625 0.32318807 0.5353137 0.46485728 1.0407008 0.26635626
1.0721295 1.47479 1.374589 2.5659106 0.68403393 2.0943906 0.09118807 1.6537856
1.4535385 0.2816966 0.12676428 2.6849449 0.1868246 1.251442 0.2887035 1.0031444
3.4756422 2.4992018 0.3040603 0.26814395 5.3659477 0.119737305 1.4978223 2.5659685
1.3796307 0.34433892 2.248156 2.3050368 1.2258852 1.9095253 1.2059922 1.2673807
1.1081684 1.1711335 3.9969597 0.297014 0.2891197 0.82007545 0.27128693 0.5275931
0.97367543 2.4097087 0.9325529 1.886931 0.44428834 3.2039692 1.1768379 2.3242254
0.28722635 0.77356786 0.7764499 0.647914 1.6218332 0.84420913 1.3009368 1.970208
0.31574172 1.1523159 0.3029513 0.2967264 3.9360132 1.4527472 1.7326785 0.3502065
0.6989322 2.4989598 0.45774487 2.1322732 0.08161184 2.2223978 1.8017412 4.1303415
4.0246725 1.3796242 1.6206746 0.27860495 0.6311413 1.376862 1.677277 0.26238665
1.9633448 0.19808745 1.1625464 2.0031848 2.2184484 2.0503566 0.19495411 0.16026145
3.894276 2.0480926 0.7066268 2.0799913 0.8342471 1.0408196 1.5531982 1.890915
3.512319 1.5488737 1.5426346 1.3396345 2.6726427 1.1472932 0.74769485 1.5990188
2.0286193 2.7381294 2.9032342 1.6246858 0.43796498 0.9771968 0.2961604 0.3196545
0.95444083 1.085517 0.3234281 1.9482065 0.51119167 0.18732946 4.809548 0.3370756
0.31385255 0.26922163 2.6223493 1.6300927 1.566623 5.0944858 1.3709683 1.1119026
