project_3/checkpoints/checkpoint_cycle_06_20241025_090206.pt (torch, 624914 bytes, 12 tensors)

shared_fc.weight f4 [512, 96]
00000000: 5bb3 293d 3bc7 193d ff8e 47bd b462 9a3c
00000010: 30c7 a5bd 6031 f33d 43a7 9b3d c401 b3bd
00000020: 0fab 813c 8a5c 30be 8be0 8fbc 2c5b ae3d
00000030: 33a0 87bd 64c0 fbbd ba38 c73b 6d08 30bd
00000040: ec76 823c 4a7e 243d b4a6 babc 7fdc 3f3d
00000050: 392c dabc 472f bc3d 7dca 1cbd 528b c63c
00000060: dfa9 fb3b c2a4 99bd 65ec c53a 1dcd 30bc
00000070: 7965 98bd 413b 803d 0fa2 1b3d 67ec 62bd
00000080: 750b c33c 7cd8 3b3d 4a20 d5bd 3e05 21bd
00000090: 9262 19bd 70b1 613d 5207 3c3d fd5b ae3c
000000a0: 2d1d 663d 8150 ea3c f25b 9d3d 1cc1 27bd
000000b0: 45c2 2ebe 4709 ad3b 7a3d 42bd 8d59 9ebc
000000c0: 6ee0 4abc b0b2 46bb 0d73 38bd 11f8 cfb9
000000d0: 4b4d 3d3d 4c66 fdbc febb 513d 7935 aa3a
000000e0: cbfe 4fbd 13cc 09bc 9ec2 10bd 303a 9c3c
000000f0: c3d3 343d e8c6 a43d c0a0 673d d3c8 f0bc
00000100: 0347 d43c 2f54 483c 8334 c93c 26a4 593c
00000110: 85dc 9d3d ae3b b03d c5d9 c43c b50f d23d
00000120: eea0 363c f5b8 8c3c 2eea 093d 7261 823b
00000130: 5fbd cf3c 8956 9f3c 27ab 903d e3ee fa3d
00000140: 11ae 563d 78d3 be3c 4a75 9b3d 1985 8e3d
00000150: 2705 e53c 240b 073d 57c5 26b9 3ff9 ca3d
00000160: 2ef8 a13d 47fc 3d3d a53b 0fbd 4a6b d53d
00000170: fc3c d93c a2e4 563c 45c2 aa3d d18e eabc
00000180: 4846 7ebc 1ca2 c63d 6ae9 bcbc a74f b7bd
00000190: d555 30bd 9347 123d 39ca 213e ea0e 5f3c
000001a0: 6351 10be f74a f4bd 79e9 a93d 3b07 453d
000001b0: 5d0f 4c37 6c6b 0e3d 3e53 853d 2a27 253c
000001c0: b36f 8c3c 2df3 8e3c 5666 2ebd c29a b3bb
000001d0: f5be c9bd c175 523d 5f52 b8bc 138b ad3d
000001e0: be6a 7139 94e7 c03d 87a5 98bc cc69 c1bc
000001f0: 8a15 b7bd ca76 3eba d38e e33d c520 a3bd
00000200: a2a2 613d 8b2a 413c 7d26 17bd 8e27 b73d
00000210: fcaa 93bd 3999 45bd fe61 94bd 0d35 293d
00000220: 7e27 8c3d c1f1 a83d 3623 85bd bd17 aa3c
00000230: 59b9 ae3d 650e d2bd 53b1 223d ee92 b93d
00000240: 0965 91bd 56e8 58bc ba05 e93c 4e1f 4a3d
00000250: f7bb 363d 9152 c93c af57 2bbd abee c9bd
00000260: 49ed 51bd ae69 a2bd 8aa1 e23b 648e 653d
00000270: e14f 3f3d 9c84 8cbd 9069 55bd 9710 b93d
00000280: 2dc1 eb3d bffd 2abd 766a cabd c399 bb3d
00000290: d946 62bd f150 b4bd 44af 04bd e829 593b
000002a0: 3632 573d 8d82 1bbd 9a6d e03a d686 cb3c
000002b0: 8d18 2ebd 67d4 66bd 9949 593d 3d77 373d
000002c0: 179e afbc 4605 443d aad4 56bd 2621 d03c
000002d0: 468b 8ebb 5bcd 26bd bd7b a03d f579 6d3c
000002e0: a641 dd3d 4137 06bc 01f1 923d 55d6 903d
000002f0: 0042 543d 7c8c d63c 7659 5b3c a010 423d
00000300: 89d2 6f3d b399 ad3c f0a4 753d 8a2b 69bd
00000310: 9b8d 1d3e 425c 483d 8264 833d 9599 1abc
00000320: 45f8 e93c df88 073d 6cc6 8dbd 8d7e d4bc
00000330: 2ced ddbd 4b5a 92bc 7f9e 80bd b146 c4bc
00000340: 9c54 fbbb 62ac 77bd 3bd3 c8bd 8e51 3ebd
00000350: 78a2 60bb f3e0 113d 608e 82bd f52a 30bd
00000360: d1d3 213e 430b c73c 61e1 5ebd 4f83 a23c
00000370: 224c 0fbd 759f ed3b af69 c8bd ec96 b3bd
00000380: 6998 f83c b2ba f7ba 58bb 393c 5beb 863d
00000390: 5379 12bd 508d 39bd 38e4 8dbd c84f 213d
000003a0: 32fa 31bd 8b2f c73b b12d 963c fe43 993c
000003b0: 514a c3bc 48d7 883d 0c2d 4cbc 4a2f d1bc
000003c0: f726 de3a 1ad6 a33c cb76 de3d 546c cb3d
000003d0: 1d7f d43d 2d7f abbc 368c 43bd 1d1d cabd
000003e0: dae6 57bd 8bfb 9abd 5734 823d 5eb1 afbc
000003f0: 9d82 b2bd 5e38 dabc 4539 c93d 5a92 c13c
0.041430812 0.037543517 -0.048720356 0.018845893 -0.080946326 0.11874652 0.07600262 -0.08740571
0.015828637 -0.17222801 -0.017563125 0.085134834 -0.066223525 -0.12292555 0.0060797604 -0.042976785
0.015925847 0.0401595 -0.022784568 0.04684114 -0.026632415 0.09188705 -0.038279045 0.024236355
0.0076801623 -0.07502128 0.0015100358 -0.01079109 -0.074412294 0.06261302 0.037996348 -0.055401232
0.023809174 0.045860752 -0.10406549 -0.03931164 -0.03744752 0.05510086 0.04590542 0.021284098
0.056180168 0.02860284 0.07683553 -0.040955648 -0.17066295 0.005280647 -0.04742191 -0.01932981
-0.01238261 -0.0030318908 -0.045031596 -0.0003966694 0.04621629 -0.030932568 0.051204674 0.0012985907
-0.0507801 -0.0084104715 -0.03534185 0.019070715 0.044147264 0.08045751 0.056549788 -0.029392635
0.025912767 0.012227102 0.024561172 0.013283765 0.077080764 0.08605133 0.024029622 0.10256902
0.011146767 0.017178038 0.033670597 0.0039789015 0.025358854 0.019450443 0.07063895 0.12252595
0.052412096 0.023294196 0.075907305 0.0695898 0.027956558 0.03296961 -0.00015904508 0.09910821
0.07908665 0.04638317 -0.03496899 0.104208544 0.026518337 0.013116034 0.08337835 -0.028632553
-0.015519686 0.09698889 -0.02306052 -0.08950739 -0.043050606 0.03571279 0.15799798 0.013614396
-0.14093547 -0.11928361 0.082964845 0.0481026 1.2162925e-05 0.034770414 0.06510018 0.010080138
0.017143106 0.01744994 -0.042578064 -0.005481095 -0.09850875 0.05138183 -0.022500215 0.08473792
0.00023023316 0.0941917 -0.018633617 -0.023610018 -0.08939655 -0.0007265626 0.11111226 -0.07965235
0.05508674 0.011789928 -0.03690194 0.08943091 -0.07210347 -0.048241828 -0.07245253 0.04131036
0.0684347 0.08249236 -0.065008566 0.020763272 0.08531446 -0.10256652 0.03971989 0.09061228
-0.07099349 -0.013238987 0.028445113 0.04934626 0.04461285 0.024575504 -0.04183167 -0.098599754
-0.051251683 -0.07930313 0.0069162296 0.056043997 0.046707038 -0.06861231 -0.052102625 0.090363674
0.11511455 -0.041745897 -0.09883587 0.09160187 -0.055243347 -0.08804501 -0.03239371 0.003313655
0.05253812 -0.0379663 0.0017122508 0.024844568 -0.042503882 -0.056354906 0.053048704 0.04479145
-0.021437688 0.04785659 -0.052448906 0.025406431 -0.004350099 -0.040723186 0.07836101 0.014494409
0.10803537 -0.0081918845 0.07174874 0.070721306 0.051820755 0.026190035 0.013388028 0.047379136
0.05855039 0.021191454 0.05997175 -0.056926288 0.1538605 0.04891611 0.06415655 -0.009436031
0.028560767 0.033089515 -0.069226116 -0.02593925 -0.108362526 -0.01786532 -0.06280231 -0.02395949
-0.0076699983 -0.06046713 -0.09805914 -0.046464495 -0.0034276526 0.03561492 -0.06374812 -0.043009717
0.15803458 0.024297362 -0.054414157 0.019838003 -0.034984715 0.007251675 -0.097857825 -0.087690204
0.030346112 -0.0018900244 0.01133617 0.06587859 -0.035760235 -0.04530078 -0.06928295 0.039382726
-0.043451495 0.0060786656 0.018332334 0.018709179 -0.023839148 0.06681687 -0.012461912 -0.025535244
0.0016948868 0.019999553 0.10862502 0.09932771 0.103758074 -0.020934666 -0.047741137 -0.09868834
-0.05271039 -0.07567509 0.06357639 -0.02144688 -0.08716319 -0.026638206 0.098253764 0.023629356

shared_fc.bias f4 [512]
00000000: a7fa 933b 4d13 40bc adef bb3d dc40 3ebd
00000010: c954 bc39 8867 cfba a0a4 93bd 29e9 4fbd
00000020: e1dd af3d 1559 003d 2943 fe3c b938 16bd
00000030: 94c4 bf3c 6d16 0bbd da9c 58bd eeea 333b
00000040: 1dba 9e3d b28d 843d 9b27 b23d c4f7 4bbc
00000050: 5f66 a4bd 3777 243d 0bf7 0ebd 8027 1f3d
00000060: a651 553d b885 54bd 017e 5c3c 68a7 8d3d
00000070: 66f3 ce3d 77d5 43bd 344a b13d 7a09 fe3c
00000080: a23e f13d aa0f 303d ae0d c3b9 c337 acbd
00000090: 5207 473d 9197 90bd 029c b1bc 5e51 8f3d
000000a0: 9431 a73d 0f7d d43d 9afb d2bd 9d81 25bc
000000b0: 0dee de3d 8718 fb3c 6d16 56bd 57bf 59bd
000000c0: 4ea8 333d ce83 a43c e624 653d c0d6 58bd
000000d0: b93f 9f3c 1e8f 76bd dd73 6bbd d530 423c
000000e0: d7a0 81bd dfc6 fc3d bcb4 fa3c 706a 933d
000000f0: ef2d c03d b4d6 ac3d e066 3cbd 283f 4ebd
00000100: 266f d2bc da52 a7bd d02c 92bd bb91 303d
00000110: 5f88 4c3d b130 1c3d 30e5 b43d dcc8 9bbd
00000120: c230 c0bc d5db 8b3d 60da ce3c c1e2 a63d
00000130: 926c cabc acad 82bd 05d3 b3bc cf7d 44bc
00000140: b4b5 a6bd def0 1ebd 3923 c93d 7ee2 c33b
00000150: dcb6 a2bd 9170 8bbd abf0 89ba 5d5f 38bd
00000160: 6a20 083c 3c0e c43d 8ca2 d03d 5745 c93b
00000170: 0fd9 52bd 8c6e 863d daeb 7f3d a1c9 ac3d
00000180: 7f75 673c a5b7 243d f3be a9ba b90d 56bc
00000190: 8248 30bd 8216 8abd 9d07 cb3d a387 59bc
000001a0: 33fe 04bd a03c 903c 6e13 8aba c7e6 9ebd
000001b0: ac18 083e f7fe a7bc c7fe 683d 58ca 983d
000001c0: 2896 1fbd 571f 843d 19ab 223d a0f6 90bc
000001d0: 4dd9 c5bb 2c46 80bc 01a7 e5bc 76a3 bb3d
000001e0: e137 973d 1f45 063d c81f c1bc 86b4 ea3d
000001f0: 4ba3 8bbd 7176 9d3d 01f1 42bd 7773 7bbc
00000200: 4841 793d 81d4 9dbd c8da 70bd 5bac cbbc
00000210: f17d bebc e1a9 80bd bae7 ab3d 093a 47bd
00000220: dda0 53bc 14b7 193d 5a8f b9bc c562 383d
00000230: 340c 893d 9fa3 7fbc b094 bfbc 4c2d 533d
00000240: df8f 943d d1ec 94bd f837 46bd f4a5 3fbd
00000250: dbfe b43d 6aaf 2f3d dc21 23bd 5ad3 35bd
00000260: cc12 ad3b facc 493d 8917 df3d 66e4 78bd
00000270: b131 3c3d a9d6 fd3d 991e 953d 9bc6 afbb
00000280: c0bb 983d 4fce 033b 92e8 bcbd c100 b73c
00000290: 74ed f9bb 42df d73d c9a1 8a3c 6363 1f3d
000002a0: 468e 533d 0502 e13d a497 6f3d db3e 87bd
000002b0: 4e10 5f3d 3053 b2bc 7c5e e03d b136 a4bd
000002c0: 67b0 d7bc 5f26 b8bc 9b0f 5bbb 14c8 c33c
000002d0: a0b5 693c 53e3 8c3d e9ed bf3d af7e 1ebd
000002e0: 9d93 c53d 9621 46bd bf7c f5bc 5fd2 833d
000002f0: 1aa2 433c 5e2d e23c 6fe1 80bd 622a 463d
00000300: a682 9abd b470 a2bd f062 af3c 896b f6bc
00000310: a114 073c de38 6bbd 331e d73d dfeb a13d
00000320: b97f dabc 1906 993d d302 e13a aed3 8e3d
00000330: c7b6 fbbc 47d2 dbbb 7c84 893c 1f03 87bd
00000340: f49a e33d a95e a63c 9615 843c 4a38 fe3d
00000350: 8b2b 513c ffa3 bf3d f5bd 6c3d 0760 073d
00000360: 28e5 c43c bd8a c2bd 4e45 9b3a 1bf5 34bd
00000370: 2f7b b5bd b964 ea3d aad9 30bd 351b 063c
00000380: d630 9c3d 1cda 6c3d f1dd babd c441 f03d
00000390: bc82 a43c a923 f8bc 4b12 21bd 348e 223d
000003a0: 94ba b5b9 a5e0 a23d 27bd a7bd 0f67 30bd
000003b0: dba4 36bd f022 3cbd e513 e93c f8ea 31bd
000003c0: f0c4 c0bc d900 613c 3c6e 36bd 0c8d 3fbd
000003d0: a7a4 14bc 0159 bcbd d9c6 403d fab1 633c
000003e0: 7c56 bbbd a183 40bd 50ad bdbc 7c40 53bc
000003f0: 7b40 913d 7292 e83d c5ef b1bd 09f5 70bc
0.004515964 -0.011723352 0.09176574 -0.046448573 0.00035921324 -0.0015823701 -0.07209134 -0.05075947
0.08587242 0.031334955 0.031037884 -0.03667519 0.023409165 -0.033956934 -0.05288396 0.0027453261
0.07750342 0.06472339 0.086989604 -0.012449209 -0.08027338 0.040152755 -0.034903567 0.03885603
0.05207982 -0.051885337 0.013457776 0.06916696 0.10105018 -0.047810998 0.08656731 0.031010378
0.117795244 0.04298369 -0.0003720349 -0.08409073 0.048590966 -0.07060159 -0.021680836 0.069979414
0.08163753 0.103754155 -0.103018954 -0.010101703 0.10885248 0.030651344 -0.05226748 -0.05316099
0.04386168 0.02008238 0.055943392 -0.052939177 0.019439565 -0.06019508 -0.057483543 0.011852463
-0.06329506 0.12342619 0.030603759 0.07198036 0.09383761 0.08439389 -0.045996547 -0.0503532
-0.025687765 -0.081700996 -0.071374536 0.04310773 0.04993474 0.038132373 0.088327765 -0.0760667
-0.02346075 0.06829039 0.025250614 0.081487186 -0.024709973 -0.063807815 -0.021951208 -0.011992886
-0.08140126 -0.038803928 0.09821171 0.0059779277 -0.07945034 -0.0680858 -0.0010523995 -0.04501282
0.008308509 0.095730275 0.10187253 0.006142299 -0.051476534 0.06564054 0.062480785 0.08436895
0.014127134 0.0402142 -0.0012950584 -0.013064795 -0.0430379 -0.06742574 0.099135615 -0.013276967
-0.032468986 0.017607033 -0.0010534355 -0.07758861 0.13290662 -0.020507319 0.0568836 0.07460469
-0.03896156 0.0645129 0.039713953 -0.017695725 -0.006037867 -0.01565846 -0.028033735 0.09162037
0.07383705 0.032780763 -0.023574725 0.11460213 -0.06818255 0.076886065 -0.04759312 -0.015347353
0.060853273 -0.077065475 -0.058802396 -0.024862459 -0.023253413 -0.06282402 0.08393808 -0.04863933
-0.012916771 0.037528113 -0.022651363 0.04501607 0.06691781 -0.015602975 -0.02338633 0.05155687
0.07254004 -0.07271732 -0.04839322 -0.046789125 0.08837672 0.042891897 -0.039827213 -0.044391014
0.005281782 0.049267747 0.10893161 -0.060764693 0.045945827 0.12394459 0.07281227 -0.005364252
0.074576855 0.0020111983 -0.09224047 0.022339227 -0.0076271836 0.1054063 0.016922848 0.038913142
0.051649354 0.10986713 0.058494225 -0.066037856 0.05445891 -0.021768183 0.109555215 -0.08018244
-0.026329232 -0.022479234 -0.003342605 0.023899116 0.014264494 0.06879296 0.0937155 -0.038695034
0.096472956 -0.048371874 -0.02996671 0.064366095 0.0119405035 0.027609523 -0.06292998 0.048380263
-0.075444505 -0.07931653 0.021409482 -0.030080574 0.008244664 -0.05742728 0.10503807 0.07906317
-0.026672231 0.07471866 0.0017166979 0.069739684 -0.030726803 -0.0067084166 0.016786806 -0.06592392
0.11113539 0.02030881 0.016123574 0.1241308 0.012766729 0.09357452 0.057798345 0.033050563
0.024035051 -0.094991185 0.0011846216 -0.044179063 -0.08861386 0.114449926 -0.04317633 0.008185198
0.07626502 0.057825193 -0.09124363 0.11731294 0.02008187 -0.030290442 -0.039324086 0.039686397
-0.00034662022 0.07953004 -0.08190375 -0.043067034 -0.044590812 -0.045931756 0.02845187 -0.043436974
-0.023531407 0.013733112 -0.04453872 -0.046765372 -0.009072459 -0.09196664 0.047064636 0.013897413
-0.09147355 -0.04700053 -0.02315393 -0.012893792 0.07092377 0.11356057 -0.086883105 -0.014706858

shared_ln.weight f4 [512]
00000000: 382c 8d3f 0c6e 8d3f 9616 993f bca4 883f
00000010: 9fb1 933f 4c05 853f 660a 893f ad6b 903f
00000020: c8f9 8a3f 55f0 8b3f 6606 923f 07ff 983f
00000030: 4b47 953f 6f97 933f 1c5b 873f 0a97 923f
00000040: 7a5b 8a3f 8e4c 923f 57e8 983f ae6b 913f
00000050: f6cd 913f 51ad 973f 4638 8f3f a160 8e3f
00000060: bb76 8a3f 37ea 8e3f 8063 8c3f 3ee1 883f
00000070: 7f40 943f fbb0 8f3f c8b1 933f db8b 9e3f
00000080: 9525 933f 070a 8c3f 3c07 903f 97d8 953f
00000090: 7d51 903f 0a23 923f 1964 a03f 36b6 8b3f
000000a0: 3ab3 973f 4969 883f b5eb 8c3f dd5e 863f
000000b0: 94f4 963f f0b5 943f 026a 943f 01de 883f
000000c0: a272 833f 5629 8d3f a5cf 8a3f b912 953f
000000d0: fba9 8a3f 8c5f 933f bdfd 903f cfba 893f
000000e0: dc9d 923f 66fc 9e3f 2172 8a3f 334e 8e3f
000000f0: 2d3c 883f 26c0 8a3f 7fec 963f 6431 8c3f
00000100: 2c21 8d3f de29 963f 62fe 983f 5806 913f
00000110: e958 923f 040b 893f 581f a23f 04dc 943f
00000120: 4a7d 9f3f 9d4c 903f fb59 8c3f 2e33 8b3f
00000130: cf54 923f c461 893f 9ca1 8b3f c3b1 963f
00000140: fcb0 893f ae92 9e3f 8d42 913f 659b 893f
00000150: fda9 8a3f a326 943f 7254 913f 02bd 943f
00000160: 99b6 933f c69f 933f ce52 8b3f 2532 9a3f
00000170: 64ac 963f c257 983f c2dd 943f 01f3 8f3f
00000180: d999 873f e533 8c3f 31c4 963f 0c69 893f
00000190: 05a6 8a3f 58c7 8c3f 6308 963f 972c 943f
000001a0: b696 913f 3b23 883f 4051 993f 0866 993f
000001b0: a548 a63f 8842 8d3f 9e74 8e3f 9137 903f
000001c0: ef4d 963f c7b6 833f 14d7 953f b904 913f
000001d0: 1d6b 923f 9594 8f3f 1f54 913f 0668 953f
000001e0: 81a6 883f 9064 893f 1380 8e3f d08d 923f
000001f0: 1f86 8d3f f8e8 8e3f 53f5 953f b469 843f
00000200: 338d 8c3f 742f 8d3f be44 8a3f c8c4 903f
00000210: 8b22 903f 7ff5 983f 27cb 8f3f a4c2 923f
00000220: dcc6 8c3f d2d9 983f 4c5e 913f 91c7 923f
00000230: 9513 923f c8fa 883f 7d32 913f b284 9d3f
00000240: 7d2b 8e3f f54a 8d3f c1f2 8e3f 53b9 923f
00000250: 19d9 863f 355b 8a3f 1b8c 943f c6ef 8d3f
00000260: 1b17 943f c575 943f 363f 943f 0b16 8b3f
00000270: 3006 903f 58c8 873f 128f 863f ecb1 933f
00000280: ead4 8a3f f1a6 8f3f a546 903f 9857 873f
00000290: 9f51 9e3f 97d2 923f 3b3e 883f 61b2 903f
000002a0: 8fff 883f 95ae 913f 0527 9e3f 3bb8 943f
000002b0: 1aa8 8c3f a551 943f 2998 843f 08bf 923f
000002c0: 55a3 953f 9f2f 943f fbbb 923f 47af 8e3f
000002d0: 4e96 973f eee9 923f ab0e 933f f1db 8e3f
000002e0: 83e7 913f aa14 8a3f be22 913f d51a 893f
000002f0: 2416 963f bf19 943f 123c 8a3f 29e8 903f
00000300: 75f0 883f e2c7 a03f ed45 863f cfe6 933f
00000310: fe1b 893f 9bf5 8a3f a32d 973f 0e38 9a3f
00000320: cc37 8c3f d787 883f 925e 8b3f 5831 943f
00000330: 13e9 8a3f 7246 913f 0081 963f 5c88 8b3f
00000340: 65bf 8d3f 2e35 943f 4d46 903f 4613 983f
00000350: a49c 8d3f f3fa 973f b12f 983f 9027 893f
00000360: 0e99 8d3f 8e96 8a3f 6a04 923f eefb 843f
00000370: d66a 903f d1a4 9d3f dcf4 853f 180d 933f
00000380: cf60 833f b423 8f3f 3179 983f 5e73 923f
00000390: b33c 943f 8057 933f e4a0 883f ef22 933f
000003a0: 32bd 8a3f 0aa2 893f 9099 8e3f 17d5 843f
000003b0: 56b7 8d3f 5d4d 903f aaec 8b3f 37c5 963f
000003c0: dda1 8e3f 28c1 893f 2551 933f b8ea 853f
000003d0: 2128 903f 7984 913f 9208 883f 26b4 893f
000003e0: a19f 913f 9701 903f eb5f 923f 96f7 943f
000003f0: 5de6 903f 2bf4 963f e996 863f a308 8f3f
1.102912 1.1049209 1.1960018 1.0675273 1.1538581 1.0392241 1.0706298 1.128286
1.0857477 1.0932719 1.1408203 1.1952828 1.1662382 1.1530589 1.0574679 1.1452343
1.0809166 1.1429613 1.1945904 1.1360986 1.1390979 1.1849767 1.1189048 1.1123239
1.0817484 1.1165227 1.0967865 1.0693738 1.1582183 1.1225885 1.153863 1.238643
1.1495844 1.094056 1.1252208 1.1706723 1.1274868 1.1416943 1.2530547 1.0914981
1.1851571 1.065713 1.1009432 1.04977 1.1793389 1.1618023 1.1594851 1.069275
1.0269358 1.102824 1.0844618 1.1646339 1.0833124 1.1513534 1.1327435 1.0760134
1.1454425 1.2420776 1.0816079 1.1117615 1.0643364 1.0839889 1.1790923 1.0952573
1.1025748 1.1731527 1.1952631 1.1330061 1.1433383 1.0706487 1.2665815 1.1629643
1.246011 1.127338 1.096496 1.0874994 1.1432132 1.0732961 1.0908694 1.1772999
1.0757136 1.2388513 1.1348435 1.0750548 1.0833126 1.1574291 1.1353896 1.1620181
1.1540099 1.1533134 1.0884645 1.2046553 1.177136 1.1901782 1.1630175 1.1246034
1.0593826 1.0953337 1.1778623 1.0735183 1.0831915 1.0998335 1.172131 1.1576108
1.1374118 1.0635751 1.197792 1.1984262 1.2990919 1.1035929 1.1129339 1.1266958
1.1742533 1.0290154 1.1706262 1.1329566 1.1438938 1.1217219 1.1353797 1.167237
1.0675813 1.0733814 1.1132835 1.1449528 1.1056556 1.1164846 1.1715492 1.0344758
1.098059 1.1030107 1.0802228 1.1310053 1.1260542 1.194992 1.1233872 1.146565
1.0998187 1.1941473 1.1356902 1.1467153 1.1412226 1.0701532 1.1343533 1.230612
1.1107022 1.10385 1.1167833 1.1462806 1.0535003 1.0809084 1.1605257 1.1088798
1.1569551 1.159844 1.158179 1.0866102 1.1251888 1.0608015 1.0512412 1.1538672
1.0846226 1.1222821 1.1271559 1.0573606 1.2368659 1.1470517 1.0643991 1.1304437
1.070299 1.1381403 1.2355658 1.1618723 1.09888 1.1587416 1.0358936 1.1464548
1.169047 1.1577033 1.1463617 1.114724 1.1842744 1.147764 1.1488851 1.1160871
1.1398777 1.0787556 1.1338727 1.0711313 1.1725507 1.1570357 1.0799582 1.132085
1.0698382 1.2560999 1.049009 1.1554812 1.0711668 1.0856203 1.1810802 1.2048357
1.0954528 1.0666455 1.0888236 1.1577559 1.0852379 1.1349623 1.1758118 1.0900989
1.1074034 1.1578729 1.1271454 1.1880882 1.1063428 1.1873459 1.1889554 1.0715199
1.1062334 1.0827196 1.1407597 1.0389383 1.1282604 1.2315923 1.046535 1.1488371
1.0263919 1.1182771 1.1911985 1.1441457 1.1581024 1.1511078 1.06741 1.1495036
1.0838988 1.0752575 1.1140614 1.037753 1.1071575 1.1273609 1.0931599 1.1778935
1.1143147 1.0762072 1.1509138 1.0462255 1.1262246 1.1368552 1.0627615 1.0758102
1.137684 1.1250485 1.1435522 1.1638057 1.1320301 1.1793264 1.0514804 1.1174511

shared_ln.bias f4 [512]
00000000: 197d 583c ed43 2abc b6ef 29bb fad3 c03c
00000010: d4b3 533d 8e43 4cbc 3a88 ccbc 0027 ac3c
00000020: ed92 e63b 6099 9b3c 01ef 023c d265 6a3d
00000030: 9687 973c cb80 d73c b873 833b 2ba1 813d
00000040: b86e d83c 90a4 9c3c ed04 3e3d b8be ff3c
00000050: 4f0d 103c 033a 2c3d aef3 983d 18a2 d53b
00000060: ef45 ea3b d3e7 4f3d 215e 0f3d 92fd 4c3d
00000070: 11b3 5d3d cd31 f73c 8631 863b 8651 833d
00000080: 4a45 b53c 3bb5 4b3c f7e4 fb3c e81c e73b
00000090: 272b 22ba c062 36bb ef97 133d 9218 b63c
000000a0: c32c 373d 3f6a 7e3c a5d9 0b3d 4a0f f83c
000000b0: b11d 183c c4c5 cf3c 7aed a33b 60ba d6bc
000000c0: 868f 6b38 a5a5 843c f1f3 d13c 5d0a 483c
000000d0: 61a6 29bc 8b69 5e3d 449b 183d eb49 193b
000000e0: e073 103d 52ad 793d b39c 893c dbb6 5d3c
000000f0: 7a66 b5bc 5437 973c 9cfc 813c b28d ed3c
00000100: 6485 463d 9971 bb3c e198 aa3c ae6c cf3c
00000110: fd56 163d 1c13 e83c 3c0a d03c 63d5 9e3b
00000120: 6236 9bbc f846 f43c 3d3f 4b3c db45 e43c
00000130: 10a1 b83c a768 5fbc 2878 373d d7ed ed3c
00000140: cfca ac3b c342 2e3c 5ce9 273c dc38 fa3b
00000150: 8b18 f93b 4352 f53b cfb6 913c 2938 143d
00000160: 7f0e 8e3c 78de f33c 5503 6f3d d374 083d
00000170: 705a 693d 7306 f73c fd12 793c 8796 ee3c
00000180: e73e 0a3c 5a40 4bbc e068 1b3c c4c7 ce3c
00000190: 887e 3abc 8bd6 18ba d110 233d 22c0 a23d
000001a0: abcf 063d cf45 513b dbea 9c3d b7ef 433d
000001b0: 6c4b 633d 1b72 203d 2831 8b3c f64b f93c
000001c0: 2d42 603d 3910 fa3c 0b7e 133d e6dc 0c3d
000001d0: 1e5c 383a edfb 503c 8252 903c 7c4b 64ba
000001e0: 71b8 ca3c 2b27 bf3a 8211 3c3d 4515 e03c
000001f0: 3dd4 853c 18ce 9e3c e7fb 893b 26b3 a53c
00000200: ee1e be3b fa4f 1bbd 56f8 ab3c 2fed af3c
00000210: b4c3 023d e780 ce3c 526b 023d c51b 983c
00000220: 4f11 363d bd20 1b3d b087 9a3c 6d02 a2bb
00000230: 8a4c 5b3b 11e1 f13c fbb0 523d 48a2 1f3d
00000240: 1a73 c33c ed2c a23c f169 25bc 1696 0c3c
00000250: cd80 cf3c 2155 833c 3bec 85b9 ce1b f1b9
00000260: b047 47bc 673a 213d 9b64 193c df7c d03c
00000270: a8b6 7f3b 16a8 943c 315e 763b e90d 173d
00000280: 27eb c93b 6ca7 79bb 1ae6 97b7 f4ae 0b3d
00000290: be7e 363d 1342 293d ef9e 963c 148c a6bb
000002a0: 762a 053d 0a6a 1a3d ca5d 3a3c 5dad c437
000002b0: 4ed5 103c 1bd7 433d 6df3 8e3c bc0a bc3c
000002c0: 6fae ebbb 4476 ffba c17b c03c b2c6 9fbc
000002d0: 17eb 6a3c 43e2 153d fdff a13c bfb9 1ebb
000002e0: bde3 4d3d 7110 de3c 4d0e 823c 721f 653c
000002f0: ecb4 333d 36a6 8e3d 2876 043c 9990 733d
00000300: 0642 dd3b 9dde bbbb 1f3e 6f3b 6664 1e3c
00000310: b3bf 5e3d 80ea 1e3c 3933 f53c 9635 143d
00000320: d44f 1abc 0c14 4abc 6eee 553c 8d6d b53c
00000330: 3e25 ca3c af99 823d 3dc9 07bc 2ae2 b83c
00000340: df58 083d 0ddd a5bb f9d8 a03c 7bc7 523c
00000350: afe0 6e3d fea8 adbb 487f 18bc 36e2 c03c
00000360: 1613 a63c b5d2 c23b 1802 d13b b90a 513c
00000370: 7b90 573c 3224 683a ce79 293c c955 2a3d
00000380: 279c 62bc c6a0 f53c ebe3 df3b 1e95 943b
00000390: b22a df3c 0b82 b43c 1bc7 9a3c 2e81 d13c
000003a0: 0753 fa3a ec8b 8c3c d241 123d 6844 fe3c
000003b0: 4ae1 75bc ebce d23c 2c46 0ebc 1c9f 44bb
000003c0: 1494 7b3a 76e5 003d b4e9 8e3a 9db8 283c
000003d0: 3c4d 203c 68d3 533b 3436 40bc 40fa ee3a
000003e0: 16d6 363c 9a17 553c 978c a23c fa0c e73c
000003f0: aea9 8c3c 5aa5 763c c446 8e3c 6217 ef3c
0.013213419 -0.010392171 -0.0025930232 0.023538578 0.05168517 -0.012467278 -0.024967302 0.02101469
0.007036558 0.018994033 0.007991553 0.05722601 0.01849727 0.02630653 0.0040115975 0.063295685
0.026419982 0.019121438 0.046391416 0.031218871 0.0087922355 0.04204751 0.07468353 0.006519567
0.00714945 0.050758194 0.035001878 0.05004651 0.05412585 0.030175114 0.004095259 0.06412034
0.022127766 0.012433345 0.030748827 0.0070530064 -0.000618624 -0.0027829856 0.036033567 0.022228513
0.044720422 0.015528261 0.03414311 0.030280728 0.009284423 0.025362857 0.0050026746 -0.026211917
5.6162033e-05 0.016192267 0.025629016 0.012209502 -0.010354609 0.054299872 0.037257448 0.0023390006
0.035266757 0.060956307 0.016798353 0.013532366 -0.022143591 0.018459 0.015867524 0.02899823
0.048467055 0.022881316 0.020824851 0.025320377 0.036704052 0.028329425 0.025395505 0.004847215
-0.01894683 0.029818997 0.012405214 0.027865341 0.022537738 -0.013635791 0.044792324 0.029044075
0.0052732 0.010636034 0.010248508 0.0076361727 0.0076018027 0.007486613 0.017787365 0.03618637
0.017340897 0.029769167 0.058352787 0.033314537 0.056971014 0.030154442 0.015202281 0.029124511
0.008437849 -0.012405479 0.009485453 0.02524174 -0.011382706 -0.0005830309 0.03981096 0.07946803
0.03291289 0.0031932478 0.076619826 0.04783603 0.05549185 0.03917132 0.016991213 0.030431729
0.05475061 0.030525314 0.036008876 0.034390353 0.00070327695 0.012755376 0.017617468 -0.0008708758
0.024746152 0.0014583817 0.045915134 0.027353892 0.016336555 0.019385383 0.0042109373 0.020227026
0.005802027 -0.03791807 0.02099244 0.021475403 0.03192492 0.02520795 0.03184063 0.018567929
0.0444501 0.03787302 0.018863529 -0.004944137 0.003346237 0.029526265 0.051438313 0.038973123
0.023858596 0.019796813 -0.010096059 0.008580705 0.025329972 0.016031804 -0.00025543742 -0.00045987818
-0.012163088 0.039362337 0.009362365 0.025450168 0.0039018784 0.018146556 0.0037592764 0.0368785
0.0061620655 -0.0038094176 -1.8107752e-05 0.034102395 0.044554465 0.04132278 0.018386332 -0.0050826166
0.032511197 0.037698783 0.0113749 2.344575e-05 0.008839918 0.047812562 0.017450059 0.022954337
-0.007192425 -0.0019490202 0.02349651 -0.019503925 0.014338276 0.036592733 0.019775385 -0.00242196
0.050266016 0.02710745 0.01587596 0.013984548 0.043873712 0.06965296 0.008084811 0.05946407
0.0067522554 -0.0057333247 0.0036505533 0.009667492 0.054382037 0.009699464 0.029931651 0.036183916
-0.009418447 -0.012333881 0.013057334 0.022146964 0.024675962 0.06376969 -0.008287725 0.02256878
0.03328788 -0.0050617517 0.01963471 0.012864943 0.058319744 -0.0052996865 -0.00930769 0.023545366
0.020272773 0.0059455284 0.0063784234 0.012758904 0.013157005 0.0008855491 0.010343982 0.041585717
-0.013831175 0.02998389 0.00683259 0.0045343777 0.027242038 0.022034666 0.018893769 0.025574293
0.001909823 0.017156564 0.035707302 0.031038478 -0.015007326 0.025733432 -0.0086837225 -0.0030002063
0.00095969555 0.03146883 0.0010903389 0.0102979215 0.009784039 0.0032322053 -0.011731673 0.0018232539
0.0111594405 0.013006115 0.01984243 0.02820443 0.017170753 0.015054071 0.017367728 0.029185954

actor_fc.weight f4 [6, 512]
00000000: 82e9 0abd 9aba de3d 7abb 2bbe 7138 793d
00000010: 3251 053e bbba c1bc 09e5 963c a554 97ba
00000020: c219 3e3d f0ae 89bd 82b0 00bd 42b8 013d
00000030: 65f9 8dbd d180 9bbd 7c14 c13c 0530 393b
00000040: b692 b5bc ee63 9a3d 8531 f73d aba0 a4bd
00000050: 4351 0abe 188a 5abd af6b 583d c2f2 19bd
00000060: a93a 543d ff04 01be 46aa cebd e65d c03d
00000070: 5187 9b3d 4bf7 f03d 295d babd 74d0 dfbd
00000080: fcf4 0fbd 1cbe 213d 22d4 e73d d23d 19be
00000090: 2ac2 9cbd 0731 e73d cc97 9b3d e577 693c
000000a0: 495a e1bc e1e2 b13d 78fc bfbc 9beb a33d
000000b0: 38bb 913d a9ef 5c3d a95d 323e 5dc6 63bd
000000c0: fee2 833d d7e6 763d 7aa8 2dbd bb7c 19be
000000d0: 7615 c23c 4d49 7a3d 842e 49be 1e8b 573d
000000e0: 4f27 0f3e 56d1 cd3b 95b3 303b 5757 dcbd
000000f0: ce1b 3cbd f347 88bd 877c 55be 5914 eebc
00000100: 2e5b 56bc df66 bf3c eaad 9fbd 82ec 8c3d
00000110: afe0 38bd 41fa dbbd e102 6b3e 660a cabd
00000120: c272 003e 5d5d a1bd 236e 093e 87d8 c0bd
00000130: 936d b43d 8fb6 4b3d 6d4b b53d 5a21 0b3e
00000140: e1ec a03c bb18 24be 658d 11bc a057 42bd
00000150: 233e 5ebd 84fe cb3c 8388 0e3d ecf1 aa3d
00000160: bec8 eb3d 9736 cdbd 3f7f f93c 1815 7c3c
00000170: b21e b4bd f45b e6bd cca6 ffbd 0469 ecba
00000180: eedb dfbb ffec dfbb 2e39 383d 9c11 a33d
00000190: 504c 953d 724d 4dbd 58a7 3fbd 1374 803c
000001a0: ccb3 153e be29 953d bc83 fdbd 79ad 04be
000001b0: 1a74 803e f196 753d d3f5 e43d 592f 64bd
000001c0: becf 943d f493 dcbc 352f dabc 41da 863d
000001d0: 5eaf 29bd 0898 d9bb eee8 903d 1637 373e
000001e0: 0310 843d f455 08bd c83f a4bd ef9c 1d3e
000001f0: 6899 a43d 0d65 b63d d8cb 4e3e 7097 6c3d
00000200: 4a92 033e 24e2 92bd 82b8 c3bd 82b1 0c3e
00000210: 2fe7 29bd 2985 64bd 1da5 c93a 2b83 a43d
00000220: 1b0b bd3d 752e 1e3d 59f0 5dbc a058 df3c
00000230: 19cb 8cbd 84c0 163d da66 1dbe b6b4 073e
00000240: c96c b5bd a838 8d3c 6ee4 f5bd 1f24 09be
00000250: 2101 2ebc 7f89 953d 6778 8abd 0552 083d
00000260: e757 c23d e8eb 573d c7f2 e4bd 4e4e b0bd
00000270: 095b 86bd 86f6 7c3d 58da c83d 0244 a83d
00000280: 47cc f33a ffa3 ecba 6a58 79bd d259 c63d
00000290: fb4d 17be b7a0 823d e9ed df3d fb99 0a3e
000002a0: b6ab 5b3d 1b13 1abd adb8 993d 7abf 2abe
000002b0: e4a4 d23d 501f 5fbd cd0e 2a3d c877 f13d
000002c0: d5d1 113e fc39 7b3d 348b d43d 0754 fcbc
000002d0: 0292 a03d f394 283b 3304 fdbd 15db 7e3c
000002e0: 87b1 adbd a210 ee3d 2b75 91bc cc93 a73d
000002f0: ccb9 02be da84 443d 6b38 3fbd 68ad 2bbd
00000300: 128e adbc cf04 073e 36f1 5dbd 1f96 4fbd
00000310: 96fc ee3b 61ff c8bd d1d0 113e e3cf 2ebe
00000320: 24c4 5bbc 8cdb 91bc 2ffa 9a3d b072 c7bc
00000330: 0fc5 5abd 42a5 eb3c 50e9 5fbe 5d1e e33d
00000340: 6993 6d3d 197a e0bd cc31 193e 5f96 23bd
00000350: d8a8 b23c 891b 40be 7ae4 583e e820 933d
00000360: 18c7 08be 8926 20bd de4f febb 4e04 9dbd
00000370: 2275 e83d c244 403d 9c2b bfb9 9af5 f63d
00000380: adfb 4dbc fd13 da3d 1b36 793d 6ee3 423d
00000390: c7b9 4abd 5270 ddbd 080e ae3d 0e2d b1bd
000003a0: f733 f7bb 1acb e83d ae33 99bd 906b 803d
000003b0: 43d5 223d f8b9 053e dd49 e63d e748 39be
000003c0: 7525 f9bb 5147 72bd 6654 fcbd f2cb 9b3c
000003d0: 858a 713c 4c8a 0f3e 99b9 c3bd ab5c 3b3d
000003e0: ef2b a2bc cf1a c5bd acce b03d 6943 1fbd
000003f0: 2f83 e2bd c2a6 423e 399b 70bd 66f8 043e
-0.033914097 0.10875435 -0.16770735 0.060844842 0.13019255 -0.02364861 0.01841976 -0.0011545612
0.046411283 -0.0672282 -0.03141833 0.031669863 -0.06932334 -0.07592929 0.023569338 0.0028257382
-0.022164684 0.07538591 0.12069992 -0.080384575 -0.13507561 -0.053354353 0.05283707 -0.037585028
0.051813755 -0.12599562 -0.10091071 0.0939291 0.07594169 0.117659174 -0.090998 -0.10928431
-0.035145745 0.039487943 0.11319758 -0.14964989 -0.07654221 0.11288648 0.07597312 0.0142497765
-0.027508872 0.08685852 -0.023435816 0.080039226 0.07115787 0.053939495 0.17418541 -0.055609096
0.0643978 0.06027874 -0.042397 -0.14988987 0.023691874 0.06110506 -0.1964665 0.052622907
0.13979839 0.0062810583 0.0026962508 -0.10758846 -0.045924954 -0.06654348 -0.20848285 -0.029062437
-0.013083262 0.023364482 -0.07796843 0.06881048 -0.04513615 -0.107410915 0.22950317 -0.098652646
0.12543777 -0.07879136 0.1342092 -0.09416299 0.08809962 0.04973465 0.08852277 0.13586941
0.019644203 -0.16025059 -0.008883809 -0.047446847 -0.054258477 0.024901636 0.034798156 0.08346924
0.11512898 -0.10020178 0.030456183 0.0153858885 -0.08794917 -0.112480074 -0.12482986 -0.0018036668
-0.0068316376 -0.006833672 0.044976406 0.07962343 0.07289946 -0.050122686 -0.04679045 0.015680349
0.14619368 0.07283352 -0.12378642 -0.129568 0.25088578 0.059958402 0.111797 -0.055709217
0.07266186 -0.026926018 -0.026633838 0.065845974 -0.04142701 -0.006640438 0.07075678 0.17892107
0.064483665 -0.033285096 -0.08019978 0.15391897 0.080370724 0.08905993 0.20194948 0.05776161
0.12848774 -0.07172039 -0.095566764 0.13739589 -0.04148024 -0.055791054 0.0015384291 0.08032831
0.09230634 0.038618524 -0.013546073 0.02726394 -0.06874675 0.03680469 -0.15371266 0.1325253
-0.0885864 0.01723893 -0.1200646 -0.13392685 -0.010620386 0.07301616 -0.06761246 0.033281345
0.09489422 0.052715212 -0.111791186 -0.086086854 -0.06560332 0.06175854 0.09807271 0.082160965
0.0018600308 -0.0018054246 -0.060875334 0.096851006 -0.14775841 0.0637831 0.1093405 0.13535301
0.053630553 -0.037615877 0.07505927 -0.16674605 0.10285357 -0.05447322 0.04151802 0.117904246
0.14240201 0.061334595 0.103781134 -0.030801786 0.07840349 0.0025723546 -0.123543166 0.015555163
-0.08481126 0.11624266 -0.017756065 0.08182487 -0.12766188 0.04797826 -0.046684664 -0.04191342
-0.021185908 0.13185428 -0.054185115 -0.050680276 0.007293294 -0.09814335 0.14239813 -0.1707149
-0.013413463 -0.017804883 0.0756725 -0.02434668 -0.053410586 0.028765325 -0.21866345 0.11089776
0.05800191 -0.10960788 0.14960402 -0.039938327 0.021809027 -0.18760504 0.21180907 0.07184011
-0.13357198 -0.03909925 -0.0077609858 -0.07666837 0.11350466 0.046940573 -0.0003646285 0.120585635
-0.012572211 0.10648344 0.060842615 0.047580175 -0.049493577 -0.10812439 0.0849877 -0.086511716
-0.0075440365 0.113668635 -0.0748056 0.06270516 0.039754163 0.13059223 0.11244557 -0.18094216
-0.007603342 -0.059150044 -0.12320785 0.019018147 0.014742498 0.140176 -0.09556884 0.045742672
-0.01979634 -0.09624254 0.086331695 -0.038882647 -0.110601775 0.19008926 -0.05874178 0.12985381

actor_fc.bias f4 [6]
00000000: 703a aa3c 22be 0bbd b2ed 423c 66ed 3bbc
00000010: 051d 9238 9b90 f83c
0.020779818 -0.03411687 0.011897491 -0.011470174 6.967228e-05 0.03034239

fc1.weight f4 [512, 192]
00000000: 6d64 ec40 2f27 c440 9486 ea40 dbad c840
00000010: cd48 6f40 2917 4840 5403 6440 2587 4cbd
00000020: f991 b9c0 292a b7c0 7b49 5ebd 24d2 75bd
00000030: 7663 79c0 4b0e 0e41 a57a f6bc 7386 223d
00000040: 3052 65c0 44c9 5c3d b7ba e040 0988 f040
00000050: ece4 353d de7e 123d 1877 4641 34f4 d040
00000060: 4b8b ab40 3583 04c0 e2a2 91be 7373 8a40
00000070: f781 533d 444a 0441 f234 8240 f18c bfc0
00000080: bb19 ee40 8e14 c340 8466 6340 4181 20c0
00000090: c565 0340 01ee 8440 b76f 3a3d 2534 5140
000000a0: 954a 8c40 c4be 12bf 705f 0441 0604 af40
000000b0: 3547 1141 f7a3 1f41 3a1d d340 2ece c140
000000c0: 556b d240 cc2c e640 88b5 6a40 bfb3 8240
000000d0: 80e6 0e40 bbd9 15bd 9648 a3c0 ee6e a5c0
000000e0: 3793 d63c 4a1e 84bd a3b4 c9c0 8af1 0c41
000000f0: 6a4d 5ebd 3ddc 21bd 932b 14c0 9cc0 84bd
00000100: 3b9c cc40 6aba de40 8502 763c eed6 0ebd
00000110: 997b 3e41 2737 b040 18ce c740 a1f3 ecbf
00000120: 63f0 b33f da2d 8640 39a4 e7bc 24f9 f740
00000130: 1344 3840 1dfe c5c0 59e8 de40 3549 b840
00000140: 86d1 6d40 c128 ecbf 08a3 df3f 04d2 8140
00000150: 2b9c 363d 19a0 7a40 fb65 5a40 c0d8 dbbe
00000160: b260 0c41 d87e bd40 5754 1241 35ef 1541
00000170: 7b18 eabd 61b0 82bd 29c2 4941 001a 4d41
00000180: 26e7 d440 9e01 c240 6f8e d240 0896 e640
00000190: 7a5c 6640 8f22 8240 9687 1440 8861 763d
000001a0: 0465 a2c0 decd a2c0 3c71 933d a836 773d
000001b0: 8de2 c9c0 a677 0d41 1091 81ba c47d 80bd
000001c0: 7710 14c0 6385 263d 13b6 ca40 00b9 e040
000001d0: 7542 d4bc 9d5e 7e3d ef0c 3e41 63e0 ac40
000001e0: a0dd cb40 9b43 edbf 27e2 aa3f b01e 8740
000001f0: a5ac 8cbd 5c9e f940 ed83 3a40 7f0e c5c0
00000200: 0953 df40 d3ec b840 fcef 6e40 93a2 e7bf
00000210: 0cc3 eb3f d8e3 8240 d138 4bbc ffb8 7740
00000220: e7a5 6040 8093 dbbe e6dd 0c41 cc84 bc40
00000230: afe5 1241 8306 1741 5769 ec40 71ad c440
00000240: 62bc e840 b955 c940 eb1f 6c40 ff91 4740
00000250: a27a 6240 c9c4 99bc 3f00 bec0 49be b3c0
00000260: 4f32 babc 9aa3 503d b00f 7fc0 c548 0e41
00000270: 9d9c 5f3d e2f5 393d 9ce9 60c0 dd3e 50bd
00000280: 7bae e040 f11b f040 328a 8ebb f5dc 283d
00000290: 5ece 4641 7268 d040 95ef a840 e84b 06c0
000002a0: 65ad 55be 29fc 8640 a816 2b3c ea2f 0441
000002b0: 58ec 7f40 2789 bdc0 3575 ef40 503c c240
000002c0: bcb3 6340 a1c7 21c0 77f0 0240 f141 8740
000002d0: 5c55 823b d765 4940 2beb 8b40 f092 f6be
000002e0: 80c0 0241 c2e3 ae40 95e9 1041 453e 1f41
000002f0: c5a8 203e 4bb7 40bc fe95 4d41 a66e 4741
00000300: 9f0c f440 9da8 f240 bc32 f340 0420 fa40
00000310: 4d32 9b40 8848 db40 a35e a140 dae0 0e3d
00000320: 488f c0c0 3bfd c2c0 06e5 91bc d0fc 52bc
00000330: 0ae1 96c0 75ff 1141 2298 87bd 3fda a2bb
00000340: 8430 22c0 23a2 3dbd b9d8 1741 3d07 f640
00000350: c334 d63c 6182 83bd ffcb 6d41 b4fe d440
00000360: c45a f240 a9e2 4ec0 64a8 efbf f2cb ab40
00000370: aa4e 97bc d40c 2941 fbfe 2b40 1a2b 06c1
00000380: 3eee 0141 718a cd40 8fce a640 6bf6 d6bf
00000390: 1e4e 703f 9af1 6740 18f1 513d fd4c a440
000003a0: 52b0 8740 da1d 9ebe 2037 1841 f075 ee40
000003b0: cd5f 2641 95bd 2941 6c59 de40 838d 0341
000003c0: 7163 ea40 f02d 0841 62d4 8540 26c3 f040
000003d0: 56e7 d040 d8f0 873d 0ba0 cfc0 3775 d9c0
000003e0: b218 5dbd 8b92 e8bc d518 c7c0 0f12 1241
000003f0: b8df 103d e228 563d c15d 01c0 b8fb 353d
7.387259 6.129783 7.328928 6.2712226 3.7388184 3.1264136 3.5627031 -0.04993357
-5.799069 -5.7238965 -0.054269295 -0.06001486 -3.8966956 8.8784895 -0.030087778 0.039679002
-3.5831413 0.05390288 7.0227923 7.516606 0.04440777 0.03576552 12.404076 6.52981
5.3607535 -2.0705082 -0.28444582 4.326593 0.051637616 8.268131 4.068963 -5.9859548
7.440641 6.096259 3.553132 -2.507889 2.0530865 4.154053 0.045516696 3.2688076
4.3841043 -0.57322335 8.2733 5.469241 9.079885 9.9775305 6.5973177 6.0564184
6.575602 7.1929684 3.6673298 4.0844417 2.2328186 -0.036584597 -5.1026106 -5.169791
0.026193244 -0.0645109 -6.3033004 8.8089695 -0.054273047 -0.039516676 -2.3151596 -0.0648205
6.394071 6.9602556 0.015015249 -0.03487294 11.905175 5.5067325 6.243908 -1.851185
1.4057735 4.193097 -0.02827655 7.7491627 2.879155 -6.1872697 6.9658628 5.7589364
3.7159133 -1.8449937 1.7471628 4.0568867 0.044582527 3.9160216 3.4124744 -0.42938805
8.773607 5.921734 9.145591 9.3709 -0.114304505 -0.06381298 12.609902 12.818848
6.6532164 6.0626974 6.579887 7.2058144 3.5993943 4.0667186 2.3207755 0.060151607
-5.074831 -5.0876303 0.07199332 0.06035486 -6.308905 8.841711 -0.0009885151 -0.06273988
-2.313505 0.04065455 6.334726 7.022583 -0.025910595 0.06210195 11.878158 5.402391
6.370804 -1.8536257 1.3350266 4.222496 -0.06868867 7.800581 2.914302 -6.1580195
6.978886 5.778909 3.7333975 -1.8096489 1.8418899 4.090313 -0.012403683 3.8706663
3.5101259 -0.4288597 8.804174 5.8912106 9.181075 9.43909 7.387859 6.146172
7.272996 6.291714 3.689448 3.118286 3.538735 -0.018770592 -5.93753 -5.616978
-0.022729067 0.050937273 -3.9853325 8.892766 0.054592717 0.045400508 -3.5142584 -0.0508412
7.021299 7.503411 -0.0043499703 0.041226346 12.425383 6.5127497 5.279246 -2.098383
-0.20866926 4.2182813 0.010442413 8.261698 3.9988003 -5.922992 7.4830575 6.0698624
3.557845 -2.5278094 2.0459268 4.2267995 0.003977461 3.1468408 4.372457 -0.4815898
8.171997 5.4653025 9.057027 9.9527025 0.1568938 -0.01176245 12.849119 12.464514
7.6265407 7.5830827 7.599943 7.816408 4.84989 6.852604 5.0428023 0.034882404
-6.0174904 -6.093412 -0.017809402 -0.012877658 -4.7149706 9.124867 -0.06620814 -0.0049698646
-2.5342112 -0.046297204 9.490411 7.6883836 0.026148206 -0.06421352 14.862304 6.6560917
7.57358 -3.2325842 -1.8723264 5.3686457 -0.018470127 10.565632 2.6874378 -8.385523
8.120665 6.4231496 5.2127147 -1.6793951 0.938692 3.6241212 0.051255316 5.134398
4.2402735 -0.3088215 9.513458 7.4518967 10.398389 10.608785 6.9484158 8.222049
7.324639 8.511215 4.1821756 7.523822 6.5282393 0.06637734 -6.4882865 -6.7955585
-0.05397863 -0.02839019 -6.2217813 9.129409 0.035369605 0.052285083 -2.0213473 0.04442951

fc1.bias f4 [512]
00000000: a169 5a41 3c20 8241 bb8b 0b41 7e84 0c41
00000010: e29c 1941 57fb dc40 44ba 1941 b92a 8341
00000020: 869b 0941 5e03 4941 b5c1 7b41 ce54 d840
00000030: 091c 1e41 c29c ba40 4796 0641 418d 0141
00000040: 58de 1441 244e 8341 9cba 8141 7207 ae40
00000050: 8e0d 8341 d92e c240 5688 0741 e417 8341
00000060: 52fc e840 593a 5641 3ad7 c640 c123 2e41
00000070: 04dd 2841 7072 3941 6c96 4341 465d 2641
00000080: 5446 f040 4090 0541 8352 7d41 9907 0041
00000090: 4d4b 8341 2f02 3641 6fc4 6241 ef76 8541
000000a0: 4696 2341 9f21 1141 f873 2141 7c27 8341
000000b0: 12e6 8241 6ca8 1d41 499b 3341 07f5 0d41
000000c0: a6d1 bc40 8c67 1a41 253d 1041 3779 d940
000000d0: 4721 e540 96df 3841 e94e 8341 7070 2641
000000e0: 07c9 d840 c5a3 f240 d329 8341 20a9 f040
000000f0: 3156 8341 3a46 5241 1bfa 4041 0b13 0d41
00000100: fb74 8341 0d55 0e41 705d 8541 823a 1e41
00000110: 8766 8341 3ba8 8241 395c 1a41 98d0 8241
00000120: 87b0 b740 d7cb 8241 00e0 8241 698e 7f41
00000130: 4fa8 3141 b32d 7941 2691 0a41 457d f740
00000140: 8865 1f41 758f 8241 594b 8241 ec17 cc40
00000150: 3576 1041 a5fb 5a41 473b 4641 8610 3741
00000160: 2799 5341 58f8 2b41 092f fe40 594b 4a41
00000170: c232 4041 9102 7a41 3ad3 c940 2a96 dd40
00000180: 5c56 8341 bff7 3841 2de2 bd40 59d0 0e41
00000190: 32dc c540 5fb9 1741 b9f5 db40 c1e8 8041
000001a0: 83e4 3141 4481 2041 36f7 0b41 222e d440
000001b0: b812 0541 b676 cb40 3bef c840 7ec5 1a41
000001c0: 40f8 0641 c1fc 0641 6ed0 5041 af6e 6741
000001d0: b892 2341 1368 6341 7952 8041 9b48 2641
000001e0: 637b 1241 7f22 2c41 47c4 8241 ec7f 8241
000001f0: 2f85 7b41 3b37 7741 a4da 2e41 f6b1 8241
00000200: 003b 1d41 c2c9 5b41 af78 1a41 04d5 1841
00000210: 101d 1341 2860 1741 29d8 6b41 9656 0b41
00000220: dece 1941 4d94 8241 aa24 7241 5edf 2d41
00000230: 9fc9 8541 19b4 4741 1508 8341 adfc 3341
00000240: 3471 1c41 490b ff40 6909 8341 4558 8341
00000250: 1ab7 2141 c894 8041 58b0 1741 cacd 2d41
00000260: 6fad c040 9075 8341 36ee e140 0d5b 1841
00000270: 2fb6 6041 11a9 3a41 af32 6941 a36a 1a41
00000280: 0517 1141 4002 2141 e5a5 ff40 9129 8241
00000290: eeaa 8241 5654 7941 2f63 1041 4953 6041
000002a0: 2c79 6641 5cc4 0f41 4dde f040 ef1c 1641
000002b0: eb3d 7a41 20f9 d040 8dd4 0741 4abc 1441
000002c0: db2f 8341 bb47 0141 1a64 0d41 64d3 6f41
000002d0: 8622 3c41 8ecb 7941 ba16 0741 0406 1541
000002e0: e1de 8241 56c9 4241 a0c1 8241 eb25 8341
000002f0: e0cf 1c41 efbc 3441 f973 1341 cb51 7e41
00000300: 8d4d 1941 fea4 1d41 94ed 0a41 30f4 1041
00000310: b20b 6141 c03e 0b41 cc7f fd40 bce0 0b41
00000320: 7f67 e040 ec2e 3e41 583e 1241 ff7e 8341
00000330: 3091 7a41 21bb ec40 8ded da40 71e6 8341
00000340: c4c9 1041 54bc 8441 f7ee 1e41 4219 e340
00000350: 5e6f 2041 6a38 ce40 76df 7641 1898 8441
00000360: 05a5 fc40 2d57 2f41 e2df 0141 c75a 1f41
00000370: 429e 1e41 8f98 2a41 780b 3f41 4268 3741
00000380: 0abb 1041 57db 1e41 c35a 5141 4aed 0041
00000390: ed14 cb40 31d5 fd40 8c44 1741 0239 4241
000003a0: fddf 2f41 f40d d540 92cd 0941 6396 0341
000003b0: d48b 0d41 4fa8 0841 f7c6 8241 1ed8 8241
000003c0: 9f43 3041 01de 6d41 c550 8341 e9f7 2341
000003d0: a759 7841 4852 8541 637d 1241 b25f 8241
000003e0: 17b2 8241 6527 8341 7a17 fc40 1ccb 5341
000003f0: 63e5 0e41 1f54 0841 561f 1f41 3ffc 6441
13.650788 16.26574 8.721614 8.782347 9.600801 6.905681 9.607975 16.39586
8.60047 12.563322 15.734792 6.760352 9.8818445 5.8316355 8.411689 8.096986
9.304283 16.413155 16.216118 5.438409 16.381618 6.0682187 8.470785 16.386665
7.280801 13.389245 6.213773 10.883729 10.553959 11.590439 12.224224 10.397772
7.508585 8.347717 15.832644 8.001855 16.411768 11.375533 14.172957 16.683073
10.224188 9.070708 10.090813 16.39428 16.362339 9.853619 11.225411 8.872321
5.900592 9.65028 9.014928 6.7960467 7.160312 11.554586 16.41353 10.402451
6.7745395 7.5824914 16.395422 7.520645 16.417086 13.142145 12.061061 8.817149
16.43212 8.895764 16.670624 9.889284 16.425062 16.332144 9.647515 16.351852
5.7402987 16.349531 16.359375 15.972268 11.103591 15.573657 8.660437 7.7340417
9.962288 16.320047 16.28679 6.37792 9.028859 13.686437 12.389472 11.441534
13.224891 10.748131 7.9432416 12.643395 12.012392 15.625627 6.3070345 6.9245806
16.417168 11.560485 5.9338593 8.925866 6.1831293 9.482757 6.8737454 16.11365
11.118289 10.031559 8.747854 6.6306314 8.31707 6.358241 6.279203 9.673216
8.435608 8.4367075 13.050886 14.464522 10.22332 14.212909 16.04027 10.392726
9.155124 10.758422 16.345839 16.312462 15.720016 15.450984 10.928379 16.336895
9.826904 13.736757 9.654464 9.552006 9.194595 9.460976 14.740273 8.708639
9.613005 16.322412 15.133951 10.867033 16.723448 12.481469 16.378946 11.249188
9.7776375 7.9701276 16.379595 16.4181 10.107203 16.072647 9.480553 10.862741
6.021171 16.432404 7.0603285 9.522229 14.044478 11.666276 14.574874 9.651034
9.06812 10.063049 7.989001 16.270296 16.333462 15.58309 9.024215 14.020333
14.404583 8.985439 7.5271363 9.382064 15.640117 6.530411 8.489392 9.295969
16.398367 8.080012 8.836939 14.989109 11.758429 15.612196 8.4430485 9.313969
16.358828 12.174154 16.344543 16.393515 9.800751 11.296126 9.215814 15.894969
9.581433 9.852781 8.683002 9.059616 14.065355 8.70282 7.92185 8.742367
7.012634 11.886456 9.140221 16.43701 15.660446 7.397843 6.841498 16.48752
9.049259 16.591957 9.933341 7.096833 10.027189 6.4443865 15.429556 16.574265
7.895144 10.958783 8.117159 9.959662 9.913637 10.662246 11.9403 11.462954
9.045664 9.92855 13.084659 8.057932 6.3463044 7.9322743 9.454235 12.138918
10.992185 6.6579533 8.612688 8.2242155 8.846638 8.541091 16.34715 16.355526
11.016509 14.8667 16.414438 10.248025 15.521888 16.665176 9.155612 16.296726
16.336958 16.394236 7.877866 13.237087 8.931003 8.520537 9.94515 14.3115835

ln1.weight f4 [512]
00000000: 7d6b 923f f4cb 953e 02eb 9a3f f82c ac3f
00000010: 267f 453f 20d6 1d40 42bb 343f 53a1 973e
00000020: f90c fe3f abf9 8b3f 7faa 223f d192 a63f
00000030: 774b 463f d04c a33f 31aa 5b3f 6ee1 a63f
00000040: 5be8 5b40 61a0 a23e fa5a 9d3e f330 0440
00000050: ba0f 8b3e 1656 643f 948c 933f a53e 9f3e
00000060: e9b9 883f 136d 8b3f d078 1f40 9851 6640
00000070: 0818 5e40 fe0e 3b3f 6112 1e40 04e4 873f
00000080: d9d7 703f 0614 6c3f 1f9c 133f 9615 143f
00000090: 9678 9b3e a393 093f de16 4a3f b87a 1b3e
000000a0: 9184 4740 0826 f73f 2e63 703f 073e a53e
000000b0: a908 9b3e be00 9740 19ea 4c40 826a fe3f
000000c0: 7dd2 9f3f 5baf 0740 0a28 823f f112 3a3f
000000d0: b892 603f b129 153e d82a 943e 3311 e53f
000000e0: 2f98 cc3f b8ab b53f 4fbb 973e aefd 1040
000000f0: f052 8f3e 97b9 a13d eefe 143f bf79 1440
00000100: 681a 993e 5f7b 7940 59ed 4b3e 8ff2 ad40
00000110: 7ccd 933e 700b a23e e069 1240 a1b1 963e
00000120: 783e a33f 5df4 943e 9076 933e a9bd 00be
00000130: 3983 4e3f 14a8 53be 9eea 3140 165e 9d3f
00000140: c21a 2740 4cb4 9d3e 8334 b43e d8dc fe3f
00000150: 25db 863f 09bf 8e3f 0d51 ca3f 4868 0440
00000160: 378a b73d cc3d 0540 75e6 413f 4ba5 573f
00000170: 3444 9c3f fc64 283f 806b bc3f 948d cc3f
00000180: ceb2 9a3e 5c5c 933f 9852 3940 1c09 a83f
00000190: 59a3 a53f 174e 8540 4f61 9e3f 6614 c13e
000001a0: 0df9 3c40 2b54 e33f 2c84 773f d5f9 823f
000001b0: 2d40 7a3f ec6f a23f bd0b 823f 33f1 d53f
000001c0: c4a2 413f 4ced 953f 67d6 593e f81f 4c3f
000001d0: 92b8 bf3f 2621 943f ab55 fc3e f498 d73f
000001e0: c1c1 1140 f82a ee3f d40e 913e e878 a53e
000001f0: 520a 093f d37d cd3e c94e b13f d95f 883e
00000200: 9ca6 4140 ef36 953f 0c3d 913f bf04 4b40
00000210: d5fd 1a3f 7e72 803f 3de8 263d fd9d f53f
00000220: d2a3 7e3f 893a 903e 71e3 0fbf c8bd 0540
00000230: f34e 3f3e 96a2 cd3e f2d0 933e b2fe d33f
00000240: 321c a540 37f3 bc3f cbad 9b3e 2a4a 893e
00000250: fb97 bb40 d538 f53d 5825 a23f de24 5e40
00000260: 38a0 c23f 314d b03e 3347 943f af0e c93f
00000270: ceaf 503f ea6c 2a40 fb8f 7b3f 93a5 c63f
00000280: d023 1a40 f253 3640 a8ad cf3f 3812 983e
00000290: 7f07 943e d9ce 493f 3603 3e3f 258b d33c
000002a0: f8ae 463f bb4d 8540 eda4 0a3f 149a f73f
000002b0: 71f6 d73e fe7e 1540 a1e2 1f3f ee85 6340
000002c0: 550f 933e 3af0 943f ade0 073f f423 213f
000002d0: 5518 c63f 6af1 3f3f 972d df3f 2fba b93f
000002e0: e6a8 a13e 929e 673f 6f1c 9b3e 86ec 973e
000002f0: e836 9f40 72a5 8b3f 830a 283f 444e b33e
00000300: 5467 af3f 892e 543f 9e03 543f 91e8 eb3f
00000310: e771 9bbe 59ec a03f 9c66 e03f 5b11 8f40
00000320: 21be fe3f 5abb 7d3e 5c08 a73f 4fa5 8e3e
00000330: 1dac 213f 5784 1840 45e6 ef3f 8b57 863e
00000340: adbd fc3f 70d7 4a3e 0911 e23f b62c eb3f
00000350: 7e42 3c40 e471 9e3f b063 cd3d 941b 243e
00000360: 09b4 9940 68ff 0d40 c22f 9e3f 3a4a 0040
00000370: 8a1a 4a3f 54cf 3d3f b073 ea3f 4e51 0140
00000380: b267 683f 2a4c 0f40 71ef 8c3f bf8f 743f
00000390: a6dd ea3f 55c1 503f 09a8 243f 37fb ae3f
000003a0: f7da 483f a8f4 ac3f fd49 fe3f 9a4f b03f
000003b0: 780b 423f 3cb1 d73f 56a2 973e c1a9 a33e
000003c0: 1eff b53f b906 733f 5e98 a53e 3aaa 1b40
000003d0: 75dd 023f 4bd3 3f3e 0613 0740 2c95 ac3e
000003e0: 48b1 a03e 6bd7 893e 9245 2140 fbdf 983f
000003f0: 7a49 763f 296f bf3f eca6 c03f e977 703f
1.1439053 0.29257166 1.2102969 1.3451223 0.7714714 2.4661942 0.7059823 0.29615268
1.9847709 1.0935568 0.63541406 1.3013555 0.774589 1.2757816 0.85806566 1.3037546
3.4360569 0.31762984 0.30733472 2.0654876 0.27160436 0.89193857 1.1527276 0.3110248
1.0681735 1.0892662 2.4917488 3.59873 3.4702168 0.7306975 2.4698718 1.061646
0.9407936 0.92218053 0.57660097 0.5784544 0.30365437 0.537409 0.7894114 0.15183532
3.1174662 1.9308481 0.93901336 0.32273886 0.30280045 4.7188406 3.2017882 1.9876254
1.2486111 2.1200778 1.0168469 0.7268515 0.87723875 0.14566685 0.28938937 1.7895874
1.5983943 1.4193029 0.29635093 2.2654834 0.27992964 0.078967266 0.5820149 2.3199308
0.2990296 3.898155 0.1991476 5.435859 0.2886771 0.3164935 2.287712 0.29432395
1.2753439 0.29092684 0.28801394 -0.1257235 0.8066898 -0.20669585 2.779945 1.2294338
2.6110082 0.30801618 0.35196313 1.9911146 1.0535628 1.1152049 1.5805985 2.0688648
0.08961909 2.0818968 0.75742275 0.8423659 1.2208314 0.6577909 1.4720306 1.5980706
0.30214542 1.1512561 2.8956661 1.312778 1.2940475 4.1657825 1.2373446 0.37710875
2.9527009 1.7760061 0.96686053 1.0232493 0.97754174 1.2690406 1.0159832 1.6714233
0.75638986 1.1713042 0.21273194 0.7973628 1.4978201 1.1572616 0.4928411 1.6843553
2.2774508 1.8606863 0.28331625 0.32318807 0.5353137 0.4013506 1.3852168 0.26635626
3.025794 1.1657389 1.1346755 3.1721647 0.60543567 1.003494 0.040748823 1.9188839
0.9946872 0.2816966 -0.56206423 2.0897083 0.1868246 0.40163106 0.2887035 1.6562102
5.159692 1.4761723 0.3040603 0.26814395 5.8623023 0.119737305 1.2667646 3.4710002
1.5205145 0.34433892 1.1584228 1.5707606 0.81518257 2.6628976 0.9826657 1.5519279
2.4084358 2.8488736 1.6224871 0.297014 0.2891197 0.7883125 0.7422365 0.025823185
0.7761073 4.1657386 0.54157907 1.9343896 0.42180207 2.335876 0.62455183 3.5550494
0.28722635 1.1635811 0.53077203 0.62945485 1.5476176 0.74977744 1.7435788 1.4509944
0.31574172 0.90476334 0.3029513 0.2967264 4.9754524 1.0909865 0.6564104 0.3502065
1.3703408 0.82883507 0.8281802 1.8430349 -0.30360338 1.2572128 1.7531314 4.4708686
1.9901773 0.247785 1.3049426 0.27860495 0.6315325 2.3830774 1.8742148 0.26238665
1.9745384 0.19808745 1.7661449 1.837302 2.9415584 1.2378507 0.100287795 0.16026145
4.803227 2.2187138 1.2358325 2.0045304 0.78946745 0.7414448 1.8316555 2.0205874
0.90783226 2.2390237 1.1010572 0.9553184 1.8348892 0.81545 0.643189 1.3670415
0.78459114 1.3512163 1.986633 1.3774292 0.7579875 1.6850963 0.2961604 0.3196545
1.421848 0.9493213 0.3234281 2.4322648 0.51119167 0.18732946 2.110536 0.3370756
0.31385255 0.26922163 2.5198712 1.1943353 0.96205866 1.4955798 1.505094 0.9393297
