project_3/checkpoints/checkpoint_cycle_07_20241025_095958.pt (torch, 624914 bytes, 12 tensors)

shared_fc.weight f4 [512, 96]
0	0x3d30f12d	0.043198753
1	0x3d03cf89	0.032180343
2	0xbcffeca9	-0.031240778
3	0x3c7a0fcb	0.015262554
4	0xbda5eb46	-0.081015155
5	0x3e0675f4	0.13130933
6	0x3d970a80	0.073750496
7	0xbdb301c4	-0.08740571
8	0x3c875326	0.01651914
9	0xbe306e43	-0.17229562
10	0xbc8fe08b	-0.017563125
11	0x3dae5b2c	0.085134834
12	0xbd9813ef	-0.07425677
13	0xbdee689a	-0.11641045
14	0x3bc738ba	0.0060797604
15	0xbd30086d	-0.042976785
16	0x3c6a77b5	0.014310767
17	0x3d247e4a	0.0401595
18	0xbcf17481	-0.029474499
19	0x3d3a2c2e	0.04545229
20	0xbcda2c39	-0.026632415
21	0x3dbc2f47	0.09188705
22	0xbd1b3ccb	-0.037899774
23	0x3cfad9ea	0.030621488
24	0x3ba2cd94	0.0049683545
25	0xbd9be607	-0.076122336
26	0x3c0820a2	0.0083085615
27	0xbc5c4eaa	-0.013446489
28	0xbd986579	-0.074412294
29	0x3d75fdfa	0.060056664
30	0x3d012906	0.031533264
31	0xbd70155b	-0.058614116
32	0x3cbbf2f4	0.022942998
33	0x3d2a1318	0.041522115
34	0xbdcc5f10	-0.09979069
35	0xbcec206a	-0.02882405
36	0xbd23da6f	-0.040003236
37	0x3d80c0e1	0.06286789
38	0x3d3c0752	0.04590542
39	0x3ced49b3	0.028965807
40	0x3d69089e	0.056892984
41	0x3d04fde9	0.03246871
42	0x3da0ab62	0.07845189
43	0xbd2ce7ae	-0.042213134
44	0xbe2f7b1a	-0.17136803
45	0xbbec7671	-0.0072162678
46	0xbd40c5e7	-0.047063734
47	0xbc7189fa	-0.014742369
48	0xbc6d7199	-0.014492416
49	0x3b0cfa1a	0.0021511377
50	0xbd48ce54	-0.049024895
51	0xbbf7737e	-0.0075516095
52	0x3d4c90f9	0.049942944
53	0xbcfd664c	-0.030932568
54	0x3d64c996	0.05585631
55	0xbbab40a1	-0.00522621
56	0xbd4ffecb	-0.0507801
57	0xbc09cc13	-0.0084104715
58	0xbd0cea87	-0.03440335
59	0x3c98416c	0.018585883
60	0x3d34d3c3	0.044147264
61	0x3da4c6e8	0.08045751
62	0x3d3d215c	0.046174392
63	0xbcf0c8d3	-0.029392635
64	0x3cef923a	0.029244531
65	0x3c8b6ce2	0.017019693
66	0x3cc93483	0.024561172
67	0x3c59a426	0.013283765
68	0x3da43887	0.08018594
69	0x3dbb9840	0.09159899
70	0x3cb81101	0.022469046
71	0x3dcad5f7	0.09904092
72	0x3c2856f3	0.010274637
73	0x3c7e0e4c	0.015506338
74	0x3d09ea2e	0.033670597
75	0xb9af8530	-0.00033477833
76	0x3cc0ce93	0.023536002
77	0x3cc7325b	0.024316004
78	0x3d947a7b	0.07249924
79	0x3df3afff	0.11898803
80	0x3d5d9c26	0.054103993
81	0x3caecdb7	0.021338327
82	0x3d9f12dc	0.07767269
83	0x3d9b87e5	0.07594279
84	0x3ce50527	0.027956558
85	0x3d097bb4	0.033565238
86	0xbad69086	-0.0016369976
87	0x3dcd5377	0.10025685
88	0x3dab5c9e	0.08367275
89	0x3d356527	0.04428592
90	0xbcf32e96	-0.0296853
91	0x3de29196	0.110629246
92	0x3cd9838a	0.02655198
93	0x3c005c99	0.007834577
94	0x3dae998b	0.0852538
95	0xbce33a8e	-0.027737882
96	0xbb6ea205	-0.003641249
97	0x3dcac21f	0.09900307
98	0xbcb23172	-0.021752093
99	0xbdcb2ec7	-0.099210314
100	0xbc9c2d48	-0.01906456
101	0x3d375ddd	0.04476725
102	0x3e1ac6e5	0.15114935
103	0x3c5f0eea	0.013614396
104	0xbe072ed5	-0.13201459
105	0xbdea6b14	-0.11446205
106	0x3da9e979	0.082964845
107	0x3d45073b	0.0481026
108	0xbb9e077e	-0.0048226705
109	0x3d2f7d90	0.042844355
110	0x3d85533e	0.06510018
111	0x3c25272a	0.010080138
112	0x3d0822f0	0.033236444
113	0x3c8ef32d	0.01744994
114	0xbd2a1289	-0.041521583
115	0x3af97add	0.0019033808
116	0xbdc9bef5	-0.09850875
117	0x3d5275c1	0.05138183
118	0xbca2a1d6	-0.01985256
119	0x3dabf13a	0.0839562
120	0x3bcd47f6	0.006264682
121	0x3dc29ff9	0.095031686
122	0xbca82a63	-0.020528024
123	0xbc7d33ba	-0.015454227
124	0xbdb7158a	-0.08939655
125	0x3b81c87a	0.0039606662
126	0x3de01908	0.10942274
127	0xbd990e80	-0.07473469
128	0x3d630f38	0.055434436
129	0x3cb7e58d	0.022448326
130	0xbd46409e	-0.048401468
131	0x3db71d42	0.08941127
132	0xbdad00e9	-0.08447439
133	0xbd63f3ae	-0.055652313
134	0xbd9461fe	-0.07245253
135	0x3d3b1e34	0.0456831
136	0x3d8c1b98	0.068412006
137	0x3da89a84	0.082325965
138	0xbd6eb0c8	-0.05827406
139	0x3cc7cd87	0.024389995
140	0x3dba1939	0.09086842
141	0xbdd6600d	-0.10467539
142	0x3d1c1c7f	0.038113113
143	0x3dc53dff	0.096309654
144	0xbd8646ec	-0.06556496
145	0xbc84e293	-0.01622132
146	0x3d039d2b	0.03213231
147	0x3d869838	0.06572002
148	0x3d38cce0	0.04511726
149	0x3cc95291	0.024575504
150	0xbd352e83	-0.04423381
151	0xbde179df	-0.11009573
152	0xbd51ed49	-0.051251683
153	0xbda269ae	-0.07930313
154	0x3b17bc44	0.0023152987
155	0x3d6c2753	0.05765469
156	0x3d3f4fe1	0.046707038
157	0xbd8c849c	-0.06861231
158	0xbd0ffd3f	-0.035153624
159	0x3db91097	0.090363674
160	0x3deb307f	0.11483859
161	0xbd2e5c10	-0.042568266
162	0xbdca6a76	-0.09883587
163	0x3dbb99c3	0.09160187
164	0xbd577157	-0.052598324
165	0xbdb36b36	-0.08760683
166	0xbceabb79	-0.028653847
167	0x3c2c82a6	0.010529196
168	0x3d203f97	0.039123144
169	0xbd14c1c4	-0.0363176
170	0x3ae06d9a	0.0017122508
171	0x3ce835e1	0.028346004
172	0xbcffe888	-0.03123881
173	0xbd83c20b	-0.06433495
174	0x3d5cc8f5	0.053902585
175	0x3d184e6e	0.03718417
176	0xbccdc54c	-0.025118493
177	0x3d46d2ec	0.048540995
178	0xbd6fcfa5	-0.058547635
179	0x3ccdb98c	0.02511289
180	0xbb8e8b46	-0.004350099
181	0xbd1b514c	-0.037919328
182	0x3da5eef5	0.08102218
183	0x3c5bc746	0.01341421
184	0x3ddb4194	0.107058674
185	0x3a8289c2	0.0009959268
186	0x3d97892d	0.07399211
187	0x3d90c05b	0.07067939
188	0x3d51d804	0.0512314
189	0x3d063431	0.032764617
190	0x3c92a4e9	0.0179009
191	0x3d46c50d	0.048527766
192	0x3d576351	0.05258495
193	0x3c6b08c2	0.01434535
194	0x3d7ca47e	0.06168031
195	0xbd5fa44c	-0.054600045
196	0x3e29cddd	0.16582437
197	0x3d7dc2fd	0.061953533
198	0x3d7aa1d9	0.061189506
199	0xbc1a9995	-0.009436031
200	0x3cd3b79f	0.025844393
201	0x3d0296c8	0.031882077
202	0xbd8dc66c	-0.069226116
203	0xbcd47e8d	-0.02593925
204	0xbddbda6c	-0.1073502
205	0xbc48671a	-0.012231613
206	0xbd809e7f	-0.06280231
207	0xbcc446b1	-0.02395949
208	0x3c35ee76	0.011104217
209	0xbd77ac62	-0.06046713
210	0xbdb9e333	-0.09076538
211	0xbd43380a	-0.047660865
212	0xbb60a278	-0.0034276526
213	0x3d11e0f3	0.03561492
214	0xbd79d3af	-0.060992893
215	0xbd276d94	-0.040875986
216	0x3e252661	0.16127922
217	0x3ca5ddbf	0.020247338
218	0xbd672d1e	-0.05643951
219	0x3c9c836c	0.019105636
220	0xbd0f4c22	-0.034984715
221	0xbad88413	-0.0016518853
222	0xbdca1867	-0.09867936
223	0xbdaf8c68	-0.08571702
224	0x3d0d4ffd	0.03450011
225	0x3b353b85	0.0027653885
226	0x3c47c44f	0.0121928
227	0x3d8a5f0a	0.067564085
228	0xbd07ace2	-0.03312386
229	0xbd32029e	-0.043459527
230	0xbd8de438	-0.06928295
231	0x3d1837c3	0.037162554
232	0xbd38e959	-0.045144413
233	0x3bfc70c7	0.007703874
234	0x3cc40253	0.02392689
235	0x3c7d763c	0.015470084
236	0xbcd92a0b	-0.026509305
237	0x3d9dac47	0.07698875
238	0xba42e3c2	-0.0007434451
239	0xbd063834	-0.032768443
240	0xbc3d9920	-0.011572152
241	0x3cbf8e77	0.023383362
242	0x3de0bf1a	0.1097395
243	0x3dec0e16	0.11526124
244	0x3dcb56d7	0.09928673
245	0xbcab7f2d	-0.020934666
246	0xbd5ff223	-0.05467428
247	0xbdcb17f6	-0.099166796
248	0xbd57e6da	-0.05271039
249	0xbd9afb8b	-0.07567509
250	0x3d845966	0.06462364
251	0xbc825057	-0.01590745
252	0xbdb2829d	-0.08716319
253	0xbcda385e	-0.026638206
254	0x3de8651e	0.113474116
255	0x3cc1925a	0.023629356

shared_fc.bias f4 [512]
0	0x3bbe7af8	0.005812999
1	0xbc0cdbdb	-0.0085973395
2	0x3dbd1301	0.0923214
3	0xbd3a4439	-0.04547522
4	0x3abb9a99	0.0014313041
5	0x39b0ae17	0.00033699043
6	0xbd8cf3c5	-0.06882433
7	0xbd402379	-0.04690883
8	0x3db36589	0.08759601
9	0x3ced6f2f	0.02898368
10	0x3d01ff1c	0.031737432
11	0xbd07363c	-0.033010706
12	0x3cba5ba5	0.022748778
13	0xbd07b8ef	-0.03313535
14	0xbd50b464	-0.050953284
15	0x3aa1ea36	0.0012353125
16	0x3d9c3726	0.07627706
17	0x3d87ded7	0.066343
18	0x3db5685e	0.08857797
19	0xbc6d9380	-0.014500499
20	0xbda28cd0	-0.07937014
21	0x3d1d3075	0.03837629
22	0xbcfaffc2	-0.030639533
23	0x3d27a185	0.04092552
24	0x3d6fc093	0.058533262
25	0xbd4df0ac	-0.05027835
26	0x3bf83961	0.0075751995
27	0x3d8bf13c	0.06833121
28	0x3dcb92fb	0.09940144
29	0xbd449f91	-0.048003737
30	0x3daa58ae	0.083176956
31	0x3cf9f77a	0.030513514
32	0x3dec5257	0.115391426
33	0x3d2c2de2	0.042035945
34	0x39df28a3	0.0004256415
35	0xbdaeb6d9	-0.08530969
36	0x3d46fed4	0.048582867
37	0xbd8b1e89	-0.067929335
38	0xbca653bd	-0.020303601
39	0x3d88dd99	0.066828914
40	0x3db495e3	0.08817651
41	0x3dd7b383	0.10532286
42	0xbdcfde04	-0.10149768
43	0xbc2b7f74	-0.010467399
44	0x3de1ef0e	0.11031924
45	0x3cfc7c72	0.030821059
46	0xbd59a918	-0.053139776
47	0xbd510ab3	-0.051035594
48	0x3d303479	0.04301879
49	0x3c83f97c	0.016110174
50	0x3d6d955b	0.058003765
51	0xbd6e2fd5	-0.058151085
52	0x3c7cd62d	0.015431923
53	0xbd717c0b	-0.058956187
54	0xbd6bc718	-0.057562917
55	0x3c5d5341	0.013508619
56	0xbd8c3422	-0.06845881
57	0x3e044919	0.1291851
58	0x3ce4cd11	0.027929815
59	0x3d988ed5	0.07449118
60	0x3dc028b9	0.09382767
61	0x3da80bc3	0.08205368
62	0xbd3ce5bb	-0.046117526
63	0xbd4f2240	-0.050569773
64	0xbcd03f79	-0.025420891
65	0xbda9292a	-0.082598045
66	0xbd97f536	-0.07419817
67	0x3d30f37a	0.043200947
68	0x3d4f9d48	0.050687104
69	0x3d324521	0.043522958
70	0x3dbc7a50	0.09203017
71	0xbd9c4a20	-0.07631326
72	0xbcb1f9ba	-0.021725524
73	0x3d8b3396	0.067969486
74	0x3cd88cf6	0.026434403
75	0x3db43cfa	0.08800693
76	0xbcd4bd32	-0.025969122
77	0xbd7d9346	-0.06190803
78	0xbca3e70f	-0.020007638
79	0xbc3e418e	-0.011612309
80	0xbda73be2	-0.081657186
81	0xbd22aa67	-0.03971329
82	0x3dcbed18	0.099573314
83	0x3bbfa5a5	0.005848604
84	0xbd9fcb10	-0.07802403
85	0xbd84918b	-0.064730726
86	0xbabeeaa5	-0.0014565779
87	0xbd1ebe13	-0.038755488
88	0x3be6eaa8	0.007047016
89	0x3dbedaeb	0.09319099
90	0x3dce4ffc	0.100738496
91	0x3c0dcbbb	0.00865453
92	0xbd3f32d0	-0.046679318
93	0x3d8df7bf	0.069320194
94	0x3d835e31	0.0641445
95	0x3da41621	0.08012033
96	0x3c6c5200	0.014423847
97	0x3d309b9b	0.043117147
98	0xba578fee	-0.00082230463
99	0xbc7a32b2	-0.015270876
100	0xbd22020e	-0.03955274
101	0xbd89908c	-0.06717023
102	0x3dcfdad2	0.101491585
103	0xbc435f4b	-0.011924575
104	0xbcee4c2e	-0.02908906
105	0x3c821127	0.01587732
106	0xbbb61c04	-0.005557539
107	0xbda3f5cc	-0.080058664
108	0x3e083efc	0.13305277
109	0xbc85f786	-0.01635338
110	0x3d7c3906	0.06157782
111	0x3d8f9200	0.07010269
112	0xbd21553c	-0.039387926
113	0x3d83a812	0.06428541
114	0x3d1a1422	0.037616856
115	0xbc74849a	-0.014924193
116	0xba869315	-0.0010267223
117	0xbc80b358	-0.015710518
118	0xbce9f45f	-0.028558908
119	0x3dc54971	0.096331485
120	0x3d989792	0.07450785
121	0x3d0c1b88	0.034205943
122	0xbcbfcdb8	-0.023413524
123	0x3def83c8	0.11695057
124	0xbd8826a0	-0.06647992
125	0x3d98b2ad	0.07455955
126	0xbd476a9e	-0.048685662
127	0xbc1e0b5a	-0.009646261
128	0x3d750fea	0.05982963
129	0xbd99ab5f	-0.075033896
130	0xbd736a65	-0.059427638
131	0xbcc540e4	-0.024078794
132	0xbcdcc413	-0.026948964
133	0xbd8670fd	-0.065645196
134	0x3dafa149	0.085756846
135	0xbd4bf4d4	-0.049794033
136	0xbc58017c	-0.013183948
137	0x3d1661db	0.036714416
138	0xbcc87418	-0.02446942
139	0x3d46eb8e	0.048564486
140	0x3d838bcb	0.06423148
141	0xbc832bb8	-0.016012058
142	0xbca6551b	-0.020304253
143	0x3d559d95	0.052152235
144	0x3d93260b	0.071849905
145	0xbd91814f	-0.07104742
146	0xbd3ab4bd	-0.04558252
147	0xbd2c53b1	-0.042072
148	0x3db3490f	0.08754169
149	0x3d395bcf	0.04525357
150	0xbd203834	-0.0391161
151	0xbd2ba1f0	-0.041902483
152	0x3b5e5779	0.003392665
153	0x3d58895d	0.052865375
154	0x3de0160f	0.10941707
155	0xbd84427f	-0.064579956
156	0x3d337b53	0.043818783
157	0x3df779cf	0.1208378
158	0x3d92fe09	0.071773596
159	0xbb782bfe	-0.0037868018
160	0x3d95c472	0.073128596
161	0x3a6da12d	0.00090648496
162	0xbdb7fb52	-0.089834824
163	0x3cb94fd6	0.022621077
164	0xbbe0f3ad	-0.006864986
165	0x3de59219	0.112095065
166	0x3c879b79	0.016553627
167	0x3d225ca8	0.039639145
168	0x3d5f31bc	0.05449079
169	0x3de48420	0.11158013
170	0x3d6e5b85	0.05819275
171	0xbd82c657	-0.063854866
172	0x3d63d206	0.055620216
173	0xbcb9b4b9	-0.022669183
174	0x3de4be45	0.111691035
175	0xbda082f3	-0.078374766
176	0xbcef9b10	-0.029248744
177	0xbcc6d224	-0.024270125
178	0x3ab7c8f4	0.0014021681
179	0x3ccb545b	0.024820497
180	0x3c7b9dcf	0.015357449
181	0x3d8d8625	0.06910352
182	0x3db8f365	0.09030799
183	0xbd1a2fb4	-0.03764315
184	0x3dce1a1a	0.10063572
185	0xbd41e2f0	-0.047335565
186	0xbd0fd8c9	-0.03511885
187	0x3d7b0eec	0.061293527
188	0x3c900bc9	0.017583745
189	0x3c96f70e	0.018428352
190	0xbd7d1408	-0.06178668
191	0x3d54a405	0.051914234
192	0xbd8f117f	-0.06985759
193	0xbda1bc29	-0.07897217
194	0x3cbd2155	0.023087183
195	0xbcefb678	-0.029261813
196	0x3c29f0c0	0.010372341
197	0xbd657908	-0.056023628
198	0x3dd7227f	0.105046265
199	0x3da8fe7e	0.082516655
200	0xbcd45800	-0.025920868
201	0x3d99e0aa	0.075135544
202	0x3b31f9fb	0.0027157057
203	0x3d8468ad	0.06465278
204	0xbceeab3e	-0.029134389
205	0xbbbbea42	-0.005734713
206	0x3c8788f9	0.016544806
207	0xbd888c47	-0.06667381
208	0x3de3a159	0.11114759
209	0x3ce18f2c	0.02753409
210	0x3c378ca5	0.011202966
211	0x3dfd89bd	0.12379787
212	0x3c4af272	0.012386905
213	0x3dbe250b	0.09284409
214	0x3d6e0cb7	0.058117595
215	0x3d0319ac	0.032006904
216	0x3cb1933f	0.021676658
217	0xbdb6f8bb	-0.0893416
218	0x3bc9d5cb	0.0061595193
219	0xbd2bcc7c	-0.04194306
220	0xbdb6d22e	-0.08926807
221	0x3df3ab7d	0.11897943
222	0xbd220e23	-0.039564263
223	0x3c22cd01	0.009936572
224	0x3d974bdd	0.07387517
225	0x3d6a97b5	0.057273585
226	0xbdafa975	-0.08577243
227	0x3deb7361	0.11496616
228	0x3ca6d35e	0.02036446
229	0xbcf3dbc2	-0.029767875
230	0xbd17a4e1	-0.037022475
231	0x3d32043f	0.04346108
232	0x3ae24512	0.0017263016
233	0x3daa27f6	0.08308403
234	0xbdaf1f9f	-0.08550953
235	0xbd2ac1e3	-0.04168881
236	0xbd3a5d87	-0.04549935
237	0xbd3900da	-0.045166828
238	0x3d053ef7	0.03253075
239	0xbd2f1c42	-0.042751558
240	0xbca4fe81	-0.020140888
241	0x3c45cec9	0.012073227
242	0xbd4344e9	-0.04767314
243	0xbd3638f3	-0.044487905
244	0xbc019de6	-0.007911181
245	0xbdbc2ab9	-0.09187836
246	0x3d4b26fe	0.049597733
247	0x3c5364c6	0.012902444
248	0xbdbe6b92	-0.09297861
249	0xbd40dd03	-0.047085773
250	0xbc92fda4	-0.01794321
251	0xbc3d329b	-0.01154771
252	0x3d9132a7	0.07089739
253	0x3df07ce6	0.117425725
254	0xbdab6a43	-0.08369877
255	0xbc228959	-0.009920442

shared_ln.weight f4 [512]
0	0x3f8ea22f	1.1143245
1	0x3f8d6556	1.104655
2	0x3f9a3261	1.2046624
3	0x3f88e321	1.0694314
4	0x3f949bd2	1.1610053
5	0x3f852a19	1.0403472
6	0x3f8ae84c	1.0852141
7	0x3f91ea93	1.1399711
8	0x3f8b5d56	1.0887859
9	0x3f8c73e4	1.0972867
10	0x3f924fe6	1.1430633
11	0x3f99e3ea	1.2022679
12	0x3f95d79a	1.1706421
13	0x3f93456c	1.1505561
14	0x3f877120	1.0581398
15	0x3f921593	1.1412834
16	0x3f8a86e7	1.0822419
17	0x3f930bc9	1.1487972
18	0x3f996845	1.1984946
19	0x3f925d0d	1.1434647
20	0x3f9339f1	1.1502057
21	0x3f975828	1.1823778
22	0x3f9086ad	1.12911
23	0x3f8f51d4	1.1196847
24	0x3f8bb3bb	1.0914224
25	0x3f8fb18a	1.1226056
26	0x3f8bf914	1.0935388
27	0x3f88c512	1.0685141
28	0x3f950823	1.1643108
29	0x3f91d0e8	1.1391878
30	0x3f93dbe6	1.1551483
31	0x3f9f2757	1.243388
32	0x3f932be8	1.1497774
33	0x3f8ccaee	1.0999429
34	0x3f90c0b4	1.1308808
35	0x3f96d3ff	1.1783446
36	0x3f90ce4f	1.131296
37	0x3f92df73	1.1474441
38	0x3fa215c9	1.2662898
39	0x3f8b110c	1.0864577
40	0x3f98e88e	1.194597
41	0x3f893546	1.0719383
42	0x3f8d4026	1.1035202
43	0x3f860d53	1.0472816
44	0x3f995fcc	1.198236
45	0x3f9645ce	1.1740053
46	0x3f9443b7	1.1583165
47	0x3f895abe	1.0730817
48	0x3f849791	1.0358754
49	0x3f8d01c6	1.1016166
50	0x3f8b867a	1.0900414
51	0x3f953229	1.1655933
52	0x3f8b37a2	1.0876353
53	0x3f94ae23	1.1615642
54	0x3f924e3c	1.1430125
55	0x3f8b3394	1.0875115
56	0x3f932536	1.1495731
57	0x3fa0ada8	1.2552996
58	0x3f8abcb7	1.0838841
59	0x3f8fe3e4	1.1241422
60	0x3f881649	1.0631801
61	0x3f8a4a4f	1.0803927
62	0x3f97ad81	1.1849824
63	0x3f8c2708	1.0949411
64	0x3f8e8483	1.1134189
65	0x3f9722e7	1.1807526
66	0x3f9930cf	1.196802
67	0x3f917fa0	1.1367073
68	0x3f936034	1.1513734
69	0x3f88b58c	1.0680404
70	0x3fa39c39	1.278205
71	0x3f9580fe	1.167999
72	0x3fa295f2	1.270201
73	0x3f91a478	1.1378317
74	0x3f8d0b27	1.1019028
75	0x3f8b1371	1.0865308
76	0x3f926110	1.1435871
77	0x3f8a1564	1.0787778
78	0x3f8c1e25	1.0946699
79	0x3f96a4e9	1.1769077
80	0x3f89e4bc	1.0772929
81	0x3f9ebe34	1.2401795
82	0x3f91e3a5	1.1397597
83	0x3f89b89b	1.0759462
84	0x3f8b73bc	1.0894694
85	0x3f951f73	1.1650223
86	0x3f9276fd	1.1442562
87	0x3f958b08	1.1683054
88	0x3f94f431	1.1637021
89	0x3f950904	1.1643376
90	0x3f8b1ee6	1.0868804
91	0x3f9a8a88	1.2073526
92	0x3f97ffe6	1.1874969
93	0x3f98969d	1.1920964
94	0x3f96540f	1.1744403
95	0x3f8fa6c9	1.1222774
96	0x3f882e7b	1.0639185
97	0x3f8ccba2	1.0999644
98	0x3f983a73	1.1892837
99	0x3f88f55d	1.0699879
100	0x3f8be236	1.0928409
101	0x3f8d66fc	1.1047053
102	0x3f974f65	1.1821104
103	0x3f93f996	1.1560543
104	0x3f9277a8	1.1442766
105	0x3f8815f5	1.0631701
106	0x3f9a6b24	1.2063947
107	0x3f9b3428	1.2125292
108	0x3fa72574	1.3058305
109	0x3f8df106	1.108918
110	0x3f8ff27b	1.1245874
111	0x3f8fc33b	1.1231455
112	0x3f981a40	1.1883011
113	0x3f83db89	1.0301372
114	0x3f961a4e	1.1726778
115	0x3f9247d1	1.1428167
116	0x3f928bdd	1.1448933
117	0x3f8fd2a7	1.1236161
118	0x3f9120fc	1.1338191
119	0x3f96df93	1.178698
120	0x3f89576e	1.0729806
121	0x3f89795e	1.0740163
122	0x3f8e1caa	1.1102498
123	0x3f9294a7	1.1451615
124	0x3f8e3704	1.111054
125	0x3f8eeee6	1.1166656
126	0x3f96c16b	1.1777776
127	0x3f84eab4	1.0384126
128	0x3f8c27a1	1.0949594
129	0x3f8d858a	1.1056378
130	0x3f8a9673	1.0827163
131	0x3f904a01	1.1272584
132	0x3f914424	1.134892
133	0x3f9abe08	1.2089243
134	0x3f912329	1.1338855
135	0x3f930164	1.1484799
136	0x3f8d10d5	1.1020762
137	0x3f9a2926	1.2043808
138	0x3f924d7b	1.1429895
139	0x3f968aa5	1.1761061
140	0x3f942408	1.1573496
141	0x3f8952bd	1.0728375
142	0x3f91ed5c	1.1400561
143	0x3f9dd3ae	1.2330225
144	0x3f8f848b	1.1212324
145	0x3f8ea702	1.1144717
146	0x3f90a202	1.1299441
147	0x3f9216f8	1.141326
148	0x3f86d736	1.0534427
149	0x3f8ac487	1.0841225
150	0x3f964da5	1.1742445
151	0x3f8eef86	1.1166847
152	0x3f952fd3	1.165522
153	0x3f94a0ef	1.1611613
154	0x3f94b1f4	1.1616807
155	0x3f8bbd93	1.0917228
156	0x3f90b8d0	1.13064
157	0x3f876828	1.0578661
158	0x3f875bad	1.0574852
159	0x3f9388d6	1.1526134
160	0x3f8b5fe5	1.088864
161	0x3f904b31	1.1272947
162	0x3f90a862	1.1301386
163	0x3f87f8c6	1.0622795
164	0x3f9de809	1.2336437
165	0x3f94d1a8	1.1626482
166	0x3f87dc71	1.0614148
167	0x3f90be27	1.130803
168	0x3f88efaa	1.069814
169	0x3f931098	1.1489439
170	0x3f9ed331	1.24082
171	0x3f973e3a	1.1815865
172	0x3f8f08c1	1.1174546
173	0x3f965628	1.1745043
174	0x3f8581c4	1.0430226
175	0x3f93168b	1.1491255
176	0x3f98a441	1.1925126
177	0x3f961f31	1.1728269
178	0x3f93b3af	1.153921
179	0x3f901806	1.1257331
180	0x3f9a138e	1.2037218
181	0x3f9477cc	1.1599059
182	0x3f9461d9	1.1592361
183	0x3f8f3307	1.1187447
184	0x3f934c05	1.1507574
185	0x3f8b43ff	1.0880126
186	0x3f904c33	1.1273254
187	0x3f89f321	1.0777322
188	0x3f961754	1.1725869
189	0x3f958801	1.168213
190	0x3f8a102d	1.0786186
191	0x3f911c80	1.1336823
192	0x3f89b3ad	1.0757958
193	0x3fa24aec	1.2679114
194	0x3f86a8bc	1.0520244
195	0x3f94fd6c	1.1639838
196	0x3f8995dc	1.0748858
197	0x3f8aee1d	1.0853916
198	0x3f975b50	1.1824741
199	0x3f9c629e	1.2217596
200	0x3f8c8ae8	1.0979891
201	0x3f89623c	1.0733104
202	0x3f8c920a	1.0982068
203	0x3f9577dc	1.1677203
204	0x3f8b7f17	1.089816
205	0x3f927b2a	1.1443837
206	0x3f97ba33	1.1853698
207	0x3f8c2af5	1.095061
208	0x3f8d7478	1.1051168
209	0x3f95ffe6	1.1718719
210	0x3f90f2d8	1.132411
211	0x3f9931f6	1.1968372
212	0x3f8e83b2	1.113394
213	0x3f999d0c	1.2001052
214	0x3f99a619	1.2003814
215	0x3f894f98	1.0727415
216	0x3f8e149a	1.1100037
217	0x3f8b68c8	1.0891352
218	0x3f930b74	1.148787
219	0x3f8569ba	1.042289
220	0x3f915c7c	1.1356349
221	0x3fa1c1b0	1.2637234
222	0x3f868d2d	1.0511833
223	0x3f94279a	1.1574585
224	0x3f83b521	1.0289651
225	0x3f8f0d7b	1.1175989
226	0x3f9add0f	1.2098712
227	0x3f9404fc	1.1564021
228	0x3f94fc68	1.1639528
229	0x3f948084	1.160172
230	0x3f892a29	1.0715991
231	0x3f949180	1.1606903
232	0x3f8b922c	1.0903983
233	0x3f8a5620	1.0807533
234	0x3f8f0c21	1.1175576
235	0x3f84fd4f	1.0389804
236	0x3f8f3218	1.1187162
237	0x3f90bd38	1.1307745
238	0x3f8d8296	1.1055477
239	0x3f978425	1.1837202
240	0x3f90f88c	1.132585
241	0x3f89aadf	1.0755271
242	0x3f93d6bd	1.1549908
243	0x3f8572c0	1.0425644
244	0x3f911b1f	1.1336402
245	0x3f916cec	1.1361365
246	0x3f885ae8	1.0652742
247	0x3f8a6dc5	1.0814749
248	0x3f92fde8	1.1483736
249	0x3f8fc903	1.1233219
250	0x3f9390ac	1.1528525
251	0x3f95fe06	1.1718147
252	0x3f91b276	1.1382587
253	0x3f983f64	1.1894345
254	0x3f85b865	1.0446898
255	0x3f8efa87	1.1170205

shared_ln.bias f4 [512]
0	0x3c8c7585	0.017145881
1	0xbc340361	-0.010987134
2	0xbbec544c	-0.0072121974
3	0x3cbfacf6	0.023397904
4	0x3d549d5d	0.051907886
5	0xbc58a15e	-0.013222067
6	0xbca993c5	-0.020700345
7	0x3ce7f0b9	0.028313028
8	0x3baa4cb5	0.0051971325
9	0x3c870fe7	0.016487075
10	0x3c2b15ec	0.010442238
11	0x3d7b823d	0.0614035
12	0x3c8b278c	0.01698663
13	0x3ce46b91	0.027883323
14	0xba5f37bf	-0.0008515082
15	0x3d80ee32	0.06295432
16	0x3ce6edaa	0.028189499
17	0x3cb6624f	0.022263674
18	0x3d2a184d	0.04152708
19	0x3ce8f58f	0.028437404
20	0x3bc60022	0.0060424963
21	0x3d27d888	0.040977985
22	0x3da3a004	0.07989505
23	0x3c08f288	0.008358605
24	0x3c57e15d	0.013176289
25	0x3d569a1b	0.05239306
26	0x3cab00e3	0.020874446
27	0x3d4b5d78	0.049649686
28	0x3d53f96c	0.05175154
29	0x3ce03479	0.02736877
30	0xba7ab84b	-0.0009564205
31	0x3d7c161e	0.06154453
32	0x3c9c15c7	0.019053353
33	0x3c4921ea	0.012276152
34	0x3d043c4e	0.032284074
35	0x3b76101f	0.003754623
36	0xb9950dab	-0.00028429678
37	0xb9b4114e	-0.00034345168
38	0x3d0ac481	0.033878807
39	0x3c6a443c	0.014298495
40	0x3d54090a	0.051766433
41	0x3c82ce69	0.015967565
42	0x3d128606	0.035772346
43	0x3d03720d	0.03209119
44	0x3b97464e	0.0046165353
45	0x3cbc8e35	0.023017028
46	0x3797b77d	1.8086046e-05
47	0xbcc7bc75	-0.024381856
48	0xbb32bf69	-0.0027274734
49	0x3c49897e	0.012300847
50	0x3ce5a588	0.028033033
51	0x3b67266c	0.0035270704
52	0xbc49a6c5	-0.012307827
53	0x3d685f00	0.056731224
54	0x3d1a51a0	0.0376755
55	0x3b9f4f21	0.004861728
56	0x3cfa6ee0	0.030570447
57	0x3d8576d8	0.06516808
58	0x3c85b07c	0.016319506
59	0x3ca40ddf	0.020026146
60	0xbcd3c8b2	-0.025852535
61	0x3c8fe563	0.017565435
62	0x3c72586c	0.014791589
63	0x3ccab1f4	0.024743058
64	0x3d56a5e6	0.052404307
65	0x3cb061ec	0.021531068
66	0x3c9a664a	0.018847603
67	0x3cd5e250	0.02610889
68	0x3d227435	0.039661605
69	0x3d0b7922	0.034051068
70	0x3cf1dbe5	0.0295238
71	0x3b8f8b50	0.004380621
72	0xbc8187a7	-0.015811754
73	0x3cf263c1	0.029588582
74	0x3c3e172e	0.011602206
75	0x3ce916ef	0.028453318
76	0x3cb9047c	0.022585146
77	0xbc647c44	-0.013945643
78	0x3d3d9aed	0.046290327
79	0x3cc249cc	0.02371683
80	0x3bf0df0b	0.0073508075
81	0x3c31d833	0.010854769
82	0x3c358a02	0.011080267
83	0x3b2470a5	0.0025091555
84	0x3bf528f2	0.0074816877
85	0x3c2b9a74	0.010473836
86	0x3c7367d7	0.0148563
87	0x3d3397d8	0.04384598
88	0x3c5a2549	0.013314554
89	0x3ccdd52b	0.02512606
90	0x3d639a70	0.055567205
91	0x3d0cf09b	0.034409147
92	0x3d7fd9db	0.062463623
93	0x3d037c00	0.032100677
94	0x3c81c1f8	0.015839562
95	0x3ce345f5	0.027743319
96	0x3beac1c4	0.007164212
97	0xbc35de2f	-0.011100336
98	0x3c12fe82	0.008971812
99	0x3cc953e1	0.02457613
100	0xbc2cc805	-0.010545735
101	0xbbab68f8	-0.005231019
102	0x3d22e768	0.039771467
103	0x3da539af	0.08067643
104	0x3d0d2d1e	0.034466855
105	0xbb57ffcb	-0.003295886
106	0x3d98def4	0.074644
107	0x3d2f578c	0.0428081
108	0x3d5bbf19	0.05364904
109	0x3d225e47	0.03964069
110	0x3cb536cb	0.022120854
111	0x3ccc0617	0.024905248
112	0x3d5b80e7	0.053589728
113	0x3d001454	0.031269386
114	0x3d02469f	0.03180563
115	0x3d22d1da	0.03975091
116	0x3b4f91c5	0.0031672579
117	0x3c321871	0.010870085
118	0x3c88e927	0.016712738
119	0x3b6d0c1f	0.0036170555
120	0x3cc3ec0a	0.023916263
121	0x3b14785d	0.002265475
122	0x3d3f93aa	0.046771683
123	0x3ce62bdc	0.028097086
124	0x3c812595	0.01576499
125	0x3c487915	0.012235899
126	0x3b39484e	0.0028271857
127	0x3cc790e4	0.024361081
128	0x3b8e2573	0.0043379604
129	0xbd1f917d	-0.038957108
130	0x3cae64e7	0.021288348
131	0x3c8c848a	0.017153043
132	0x3cf48e33	0.029852962
133	0x3c914845	0.017734656
134	0x3cf6cf2a	0.03012808
135	0x3c86f0a3	0.016472166
136	0x3d22fd49	0.039792333
137	0x3d1dff97	0.038573828
138	0x3c86700f	0.016410856
139	0xbaf29ed3	-0.0018510468
140	0x3a6c39b6	0.0009011285
141	0x3d00976a	0.0313944
142	0x3d5b83dd	0.05359255
143	0x3d151fa9	0.036407147
144	0x3cad7c3e	0.021177407
145	0x3cba4bbf	0.022741197
146	0xbc282426	-0.010262525
147	0x3c78061e	0.015138177
148	0x3cbb4bb8	0.022863254
149	0x3ca2e220	0.019883215
150	0x3b8c9c20	0.0042910725
151	0x37190acc	9.1220245e-06
152	0xbc937dae	-0.018004265
153	0x3d3322f4	0.043734506
154	0x3bfb1076	0.0076618744
155	0x3cad2ebc	0.021140449
156	0x3a100ea4	0.00054953457
157	0x3c871940	0.016491532
158	0x3abb336e	0.0014282295
159	0x3d1c387c	0.038139805
160	0x3b788588	0.0037921388
161	0xbb690de6	-0.0035561263
162	0x3a48ec54	0.000766461
163	0x3d12b86d	0.035820413
164	0x3d3cb8c0	0.04607463
165	0x3d405af4	0.04696174
166	0x3c7ff45e	0.0156222265
167	0xbb8316cb	-0.00400052
168	0x3d0540a0	0.032532334
169	0x3d177f03	0.036986362
170	0x3c18e8ca	0.009332845
171	0xbad190b1	-0.0015988556
172	0x3bfe6ad8	0.0077642016
173	0x3d3f9a31	0.046777908
174	0x3c99cde3	0.018774932
175	0x3cd369de	0.025807317
176	0xbc2d05e9	-0.010560491
177	0xbbf86524	-0.0075804163
178	0x3cda4f60	0.026649177
179	0xbc8616d8	-0.016368315
180	0x3c5926a3	0.013253841
181	0x3d1f0fda	0.038833477
182	0x3c8adc9a	0.016950894
183	0xbab83a0f	-0.0014055389
184	0x3d658385	0.05603363
185	0x3cfbf584	0.03075672
186	0x3c3002ac	0.0107428245
187	0x3c0cae4c	0.0085864775
188	0x3d45dbc7	0.0483053
189	0x3d77c7d9	0.060493324
190	0x3be93a0c	0.0071175154
191	0x3d814ec2	0.0631385
192	0x3c09da2f	0.008413835
193	0xbc366518	-0.011132501
194	0x3bb7cc54	0.0056090746
195	0x3c51143a	0.01276117
196	0x3d7a110f	0.061051425
197	0x3c107286	0.008816367
198	0x3d001f8d	0.03128009
199	0x3d211eaa	0.039335884
200	0xbc28486f	-0.010271176
201	0xbc324437	-0.0108805215
202	0x3c339955	0.01096185
203	0x3c86bb2c	0.016446672
204	0x3ce2fe07	0.02770902
205	0x3d856d9b	0.06515046
206	0xbc2e90d6	-0.010654649
207	0x3c9d428a	0.019196767
208	0x3d0b89ac	0.03406684
209	0x3b0073b3	0.0019600212
210	0x3c370567	0.011170722
211	0x3c702491	0.014657156
212	0x3d72fcfa	0.05932329
213	0xbbd02c3f	-0.006352931
214	0xbc04e8e6	-0.008112168
215	0x3cbf3a8d	0.023343349
216	0x3c6d27ff	0.014474868
217	0x3c4b376f	0.012403353
218	0x3c584b23	0.013201508
219	0x3c565212	0.0130810905
220	0x3c0fec5f	0.008784383
221	0xb9f349be	-0.00046403514
222	0x3c244d9a	0.010028267
223	0x3d3097d6	0.043113552
224	0xbc8b1453	-0.016977465
225	0x3cc328e5	0.023823211
226	0x3c007f7a	0.007842893
227	0x3b295ce4	0.002584272
228	0x3ce2228e	0.027604368
229	0x3cc7e53b	0.024401298
230	0x3ca4b5c4	0.020106204
231	0x3d08e284	0.033419147
232	0x3ad39ead	0.0016145312
233	0x3c9fb0dc	0.019493513
234	0x3cf9a11f	0.030472336
235	0x3d01795d	0.03160988
236	0xbc827f50	-0.015929848
237	0x3cb83b92	0.022489343
238	0xbbf5ae2c	-0.0074975695
239	0xbad4e4c3	-0.0016242493
240	0x3b91966e	0.0044429814
241	0x3cf2f7e2	0.029659215
242	0x3ade6533	0.0016967416
243	0x3c22f415	0.009945889
244	0x3c35fcc6	0.011107629
245	0x3aa17cf2	0.0012320562
246	0xbc175fb6	-0.009239128
247	0xbac734cd	-0.0015198231
248	0x3c232fdd	0.009960142
249	0x3c3a8141	0.011383356
250	0x3cc60cce	0.024176028
251	0x3cda3086	0.026634466
252	0x3c9b6e78	0.018973574
253	0x3c8cda11	0.017193826
254	0x3c8316b4	0.016002037
255	0x3d0183cc	0.031619832

actor_fc.weight f4 [6, 512]
0	0xbd2771bd	-0.040879954
1	0x3de67a34	0.11253777
2	0xbe2f8779	-0.17141522
3	0x3d7a6343	0.06112982
4	0x3e07c553	0.13258867
5	0xbc5149fb	-0.012773986
6	0x3cb2d9f6	0.021832447
7	0xbbd3bba2	-0.0064615766
8	0x3d659400	0.056049347
9	0xbd81b3d5	-0.06333128
10	0xbcf70387	-0.03015305
11	0x3d2c4917	0.04206189
12	0xbd97bf9b	-0.07409593
13	0xbd96a4f0	-0.07355678
14	0x3ce6bfdc	0.028167658
15	0x3c72caeb	0.014818887
16	0xbc8d6c4e	-0.017263558
17	0x3da5d05c	0.08096382
18	0x3df9c835	0.121963896
19	0xbda14636	-0.0787472
20	0xbe08ad1c	-0.13347286
21	0xbd4294d2	-0.047505207
22	0x3d7da977	0.061929192
23	0xbd367bfd	-0.04455184
24	0x3d76d2e9	0.060259733
25	0xbe07f3e0	-0.13276625
26	0xbdc5e477	-0.09662717
27	0x3dbd19be	0.092334256
28	0x3da29b68	0.07939798
29	0x3e0f3a27	0.13987027
30	0xbdb4c99f	-0.08827519
31	0xbdd95928	-0.10612708
32	0xbd17c476	-0.037052594
33	0x3d25c194	0.040467814
34	0x3df5d354	0.12003198
35	0xbe1e2255	-0.15442784
36	0xbda2996b	-0.079394184
37	0x3df2f156	0.118624374
38	0x3dcdaf4d	0.100432016
39	0x3c9fc254	0.019501843
40	0xbcd60082	-0.026123289
41	0x3dc4bbd4	0.09606138
42	0xbcb12517	-0.021624131
43	0x3da69fa6	0.08135919
44	0x3da8a5eb	0.08234771
45	0x3d83ec74	0.06441584
46	0x3e34636c	0.17616051
47	0xbd75691b	-0.05991469
48	0x3d967cdc	0.07348034
49	0x3d83f87d	0.0644388
50	0xbd414143	-0.04718138
51	0xbe180170	-0.14844298
52	0x3d00078d	0.0312572
53	0x3da4ab06	0.08040433
54	0xbe54dcb3	-0.20787315
55	0x3d6e2217	0.05813798
56	0x3e0d3824	0.13790947
57	0x3c204d8e	0.0097841155
58	0x3b9eef0e	0.004850275
59	0xbdf0c67a	-0.117566064
60	0xbd2fe749	-0.04294518
61	0xbd868cd2	-0.06569828
62	0xbe573abc	-0.21018499
63	0xbca52169	-0.020157533
64	0xbc29be11	-0.010360257
65	0x3cac0fec	0.021003686
66	0xbd9b5529	-0.075846024
67	0x3d95c79e	0.073134646
68	0xbd0dda8a	-0.034632243
69	0xbdcb8b64	-0.09938696
70	0x3e75d2d9	0.24006213
71	0xbdbe9f91	-0.093077786
72	0x3e03a3fd	0.12855525
73	0xbd8cb059	-0.06869573
74	0x3e0a352d	0.13496847
75	0xbdbac6ac	-0.09119925
76	0x3db6181e	0.08891319
77	0x3d54cb1e	0.05195152
78	0x3dc51246	0.09622626
79	0x3e0a5735	0.1350983
80	0x3cd1047f	0.02551484
81	0xbe251aba	-0.16123477
82	0xbc0a7a5f	-0.008452027
83	0xbd3f4fd7	-0.046707
84	0xbd6f1e1e	-0.05837833
85	0x3d0ce571	0.0343985
86	0x3ccf7383	0.025323635
87	0x3db772ba	0.08957429
88	0x3df681a7	0.12036448
89	0xbddb352c	-0.10703501
90	0x3d171f86	0.036895297
91	0x3ca25de9	0.01982017
92	0xbdb7e59c	-0.089793414
93	0xbde55152	-0.11197151
94	0xbe075ff4	-0.13220197
95	0xbc087347	-0.0083282655
96	0xbbe8589d	-0.0070906417
97	0x3bbf7f61	0.005844042
98	0x3d4e2530	0.050328434
99	0x3d9fd082	0.078034416
100	0x3d9dfd3e	0.07714318
101	0xbd45ac51	-0.048260037
102	0xbd14fd14	-0.036374167
103	0x3c9ef6ba	0.019404758
104	0x3e1ca75f	0.15298222
105	0x3d9896fc	0.07450673
106	0xbe04beaf	-0.12963365
107	0xbe14f802	-0.14547732
108	0x3e838714	0.25688994
109	0x3d81469d	0.063122965
110	0x3dfe969e	0.12431072
111	0xbd2d1043	-0.042251837
112	0x3d916e75	0.07101146
113	0xbce846c8	-0.028354064
114	0xbc95dfff	-0.018295286
115	0x3d860349	0.06543595
116	0xbd1e9497	-0.038715925
117	0xbbd97f68	-0.0066375025
118	0x3d9413a6	0.0723031
119	0x3e41ba57	0.1891874
120	0x3d9c7265	0.076390065
121	0xbcf92de1	-0.030417385
122	0xbd9bf3e1	-0.076148756
123	0x3e1c4d6b	0.15263908
124	0x3db26ba7	0.08711939
125	0x3dba3362	0.09091832
126	0x3e579a19	0.21054877
127	0x3d84e5f7	0.06489175
128	0x3e02cb15	0.12772782
129	0xbd792d08	-0.06083396
130	0xbdb84133	-0.08996811
131	0x3e0e1d1d	0.13878293
132	0xbd2f9b7e	-0.0428729
133	0xbd4c9a60	-0.04995191
134	0x3c36754c	0.011136364
135	0x3da48812	0.08033766
136	0x3db2ab40	0.087240696
137	0x3d1ef439	0.038807128
138	0xbba0bc9c	-0.0049052965
139	0x3caab7e2	0.020839635
140	0xbd91a2db	-0.0711114
141	0x3d3d3f95	0.046203215
142	0xbe1b22a3	-0.15149932
143	0x3e0a2a15	0.13492616
144	0xbdba4341	-0.09094859
145	0x3c86f373	0.016473508
146	0xbe015d46	-0.12633237
147	0xbdff9094	-0.12478748
148	0xbbb6ec96	-0.0055824025
149	0x3da440fe	0.08020209
150	0xbd8cdbf5	-0.06877891
151	0x3cf1ec87	0.02953173
152	0x3dc0c3dd	0.09412358
153	0x3d3dd393	0.04634435
154	0xbddb8234	-0.10718194
155	0xbdb8ccd8	-0.09023446
156	0xbd726a5a	-0.059183456
157	0x3d845d43	0.06463101
158	0x3dd2a5f3	0.102855586
159	0x3d9961f2	0.07489385
160	0x3c263528	0.010144509
161	0x3b8b6b13	0.0042547076
162	0xbd6773bf	-0.05650687
163	0x3dd00686	0.10157494
164	0xbe165719	-0.14681663
165	0x3d9b2ba8	0.07576686
166	0x3ddeb0bc	0.10873553
167	0x3e0c811e	0.1372113
168	0x3d715963	0.058923136
169	0xbd11fda9	-0.0356423
170	0x3da9a200	0.08282852
171	0xbe3f794b	-0.18698613
172	0x3de85ad2	0.113454476
173	0xbd843666	-0.06455688
174	0x3d2da195	0.042390425
175	0x3dfa5320	0.12222886
176	0x3e1be1a8	0.152228
177	0x3d9029e1	0.07039238
178	0x3dde31ec	0.108493656
179	0xbce575c3	-0.028010255
180	0x3da64d88	0.08120257
181	0xbacee742	-0.0015785473
182	0xbdff07d3	-0.12452664
183	0x3ca4cfe7	0.020118667
184	0xbdb3e2ee	-0.08783518
185	0x3e0901c2	0.13379577
186	0xbc96a48f	-0.018389015
187	0x3db83349	0.08994157
188	0xbe044ab3	-0.1291912
189	0x3d3b2937	0.045693602
190	0xbd14bbb7	-0.03631183
191	0xbd1f32b8	-0.03886673
192	0xbc377724	-0.011197839
193	0x3e0d5a71	0.13804032
194	0xbd67aff5	-0.05656429
195	0xbd440776	-0.047858678
196	0x3c159c63	0.009131524
197	0xbdc47b2f	-0.09593808
198	0x3e1236c5	0.14278705
199	0xbe400e8a	-0.18755546
200	0xbbde2d65	-0.006780314
201	0xbc81f8ff	-0.0158658
202	0x3dae44c7	0.08509212
203	0xbccd9e7e	-0.025099989
204	0xbd5dc40f	-0.054142054
205	0x3cfdfaa6	0.031003308
206	0xbe611e23	-0.21984152
207	0x3de33ebe	0.110959515
208	0x3d714172	0.058900304
209	0xbdeb9d1c	-0.115045756
210	0x3e1fcc93	0.15605383
211	0xbd0a9b6a	-0.03383962
212	0x3cd52dfd	0.026022905
213	0xbe3d74f3	-0.18501644
214	0x3e633ab0	0.22190356
215	0x3d90f8df	0.070787184
216	0xbe038f96	-0.12847742
217	0xbd2bf484	-0.041981235
218	0xbbc7f9cb	-0.0061027757
219	0xbda2b4ac	-0.07944617
220	0x3dfe2b17	0.124105625
221	0x3d8a1d9a	0.06743927
222	0x3b201542	0.0024426733
223	0x3df2d4f6	0.11857025
224	0xbc125655	-0.008931716
225	0x3ddae329	0.106878586
226	0x3d8343a8	0.06409389
227	0x3d45302f	0.048141655
228	0xbd33d2d3	-0.04390223
229	0xbddbd225	-0.10733441
230	0x3db4a2d8	0.088201225
231	0xbdae4a41	-0.085102566
232	0x3bce76c2	0.006300778
233	0x3df8e9b6	0.12153952
234	0xbd8ab814	-0.06773391
235	0x3d88391c	0.06651518
236	0x3d0cbdda	0.034360744
237	0x3e07f047	0.13275252
238	0x3dfd0b21	0.12355638
239	0xbe385707	-0.18001948
240	0x3a6552a8	0.00087479735
241	0xbd6ff915	-0.058587153
242	0xbdfcefdc	-0.12350437
243	0x3cdd35fa	0.027003277
244	0x3c846bcd	0.016164685
245	0x3e184ccc	0.14873046
246	0xbdc03962	-0.09385945
247	0x3d283689	0.041067634
248	0xbc9c7fea	-0.019103963
249	0xbdc1ba05	-0.094593085
250	0x3db3d816	0.087814495
251	0xbd1efc29	-0.038814697
252	0xbdf46ac7	-0.11934429
253	0x3e4a3aaf	0.19748949
254	0xbd7134b9	-0.05888817
255	0x3e060343	0.13087182

actor_fc.bias f4 [6]
0	0x3cbe0287	0.023194565
1	0xbd0cb87d	-0.03435563
2	0x3c65090a	0.013979206
3	0xbbffa295	-0.0078013637
4	0x3a10259d	0.0005498769
5	0x3d086ed0	0.033308804

fc1.weight f4 [512, 192]
0	0x41093cd5	8.577352
1	0x40e35586	7.10419
2	0x40f6eeff	7.7166743
3	0x40d24878	6.5713463
4	0x4088c249	4.2737164
5	0x405e8605	3.47693
6	0x409b2224	4.8479176
7	0xbd4c8725	-0.04993357
8	0xc0cd5ca0	-6.417557
9	0xc0d13662	-6.5378885
10	0xbd5e497b	-0.054269295
11	0xbd75d224	-0.06001486
12	0xc08498d9	-4.143658
13	0x41163951	9.388993
14	0xbcf67aa5	-0.030087778
15	0x3d228673	0.039679002
16	0xc06d10d4	-3.704152
17	0x3d5cc944	0.05390288
18	0x40ff3dc8	7.9762917
19	0x40fc8804	7.8916035
20	0x3d35e4ec	0.04440777
21	0x3d127ede	0.03576552
22	0x415e70af	13.902511
23	0x40d5eaa6	6.6848936
24	0x40cbec30	6.3725815
25	0xbfd3b0e0	-1.6538353
26	0x3e7713e8	0.24128687
27	0x40a63fcc	5.1952877
28	0x3d5381f7	0.051637616
29	0x41138ae3	9.221408
30	0x40820346	4.0628996
31	0xc0d4d05a	-6.6504335
32	0x41059691	8.349259
33	0x40d9ae1a	6.8025026
34	0x4069e24c	3.654437
35	0xc03b5726	-2.927194
36	0x3fababf7	1.3411855
37	0x409389a5	4.6105523
38	0x3d3a6fb7	0.045516696
39	0x405d6078	3.459013
40	0x4097413f	4.7267146
41	0xbee434e5	-0.44571605
42	0x411506ed	9.314191
43	0x40f05174	7.509943
44	0x411de36e	9.868025
45	0x4125b6bc	10.357113
46	0x40e10619	7.0319943
47	0x40d2e313	6.590219
48	0x40e35753	7.1044097
49	0x4101e760	8.118988
50	0x408369a2	4.1066446
51	0x408c8f4f	4.3924937
52	0x4048be17	3.1366022
53	0xbd15d9bb	-0.036584597
54	0xc0b728bb	-5.723722
55	0xc0c7c5e7	-6.242908
56	0x3cd69337	0.026193244
57	0xbd841e4a	-0.0645109
58	0xc0d57a8e	-6.6712103
59	0x411bdca0	9.741364
60	0xbd5e4d6a	-0.054273047
61	0xbd21dc3d	-0.039516676
62	0xc01bfd9c	-2.437354
63	0xbd84c09c	-0.0648205
64	0x40ecb83b	7.397489
65	0x40eae806	7.340823
66	0x3c760285	0.015015249
67	0xbd0ed6ee	-0.03487294
68	0x415398c2	13.224794
69	0x40ac5173	5.3849425
70	0x40f14dc5	7.5407434
71	0xbfae4a44	-1.3616414
72	0x3fe8f5dd	1.8200032
73	0x40a35bf4	5.1049747
74	0xbce7a439	-0.02827655
75	0x410880ee	8.531477
76	0x4046d56d	3.1067765
77	0xc0d7aa7e	-6.739562
78	0x40f6d222	7.713151
79	0x40b1bccd	5.554297
80	0x407929cb	3.8931758
81	0xbfce2115	-1.6103846
82	0x3fd86d1a	1.6908295
83	0x409cc50c	4.8990536
84	0x3d369c2b	0.044582527
85	0x4088d786	4.276309
86	0x4063be01	3.558472
87	0xbe575d9c	-0.21031803
88	0x4116ccf0	9.425034
89	0x40d4c1dc	6.6486645
90	0x4121b1ee	10.10594
91	0x4123b466	10.231543
92	0xbe65a062	-0.22424462
93	0xbf055e28	-0.52096796
94	0x41627182	14.152712
95	0x41682d8e	14.511122
96	0x40e2d005	7.087893
97	0x40d31683	6.596498
98	0x40e37a6d	7.1086946
99	0x41021c1b	8.131862
100	0x40813d21	4.038712
101	0x408bfe1f	4.3747706
102	0x404e5f2d	3.224559
103	0x3d766188	0.060151607
104	0xc0b64529	-5.6959424
105	0xc0c524d7	-6.160747
106	0x3d93713c	0.07199332
107	0x3d7736a8	0.06035486
108	0xc0d5a878	-6.676815
109	0x411c62bc	9.774105
110	0xba819110	-0.0009885151
111	0xbd807dc4	-0.06273988
112	0xc01be280	-2.4356995
113	0x3d268563	0.04065455
114	0x40ead213	7.338144
115	0x40ece69c	7.4031506
116	0xbcd44275	-0.025910595
117	0x3d7e5e9d	0.06210195
118	0x41532a18	13.197777
119	0x40a8faaf	5.280601
120	0x40f55d4d	7.6676393
121	0xbfae9a3e	-1.3640821
122	0x3fdfe887	1.7492837
123	0x40a44cca	5.1343737
124	0xbd8caca5	-0.06868867
125	0x410953a2	8.582918
126	0x40491547	3.1419237
127	0xc0d6bae0	-6.710312
128	0x40f73cd2	7.7261744
129	0x40b2606b	5.57427
130	0x407a4867	3.910669
131	0xbfc99ae7	-1.5750397
132	0x3fe48d82	1.7855685
133	0x409dd6e0	4.93248
134	0xbc4b38d1	-0.012403683
135	0x4087640e	4.2309637
136	0x4069fded	3.6561234
137	0xbe56d307	-0.20978938
138	0x41174a24	9.455601
139	0x40d3c7d0	6.618141
140	0x41224346	10.141424
141	0x4124cbb4	10.299732
142	0x41093f43	8.577945
143	0x40e3dbc8	7.120579
144	0x40f524cd	7.6607423
145	0x40d2f056	6.591838
146	0x40872df9	4.224362
147	0x405e00db	3.4688022
148	0x409a5dd0	4.8239517
149	0xbc99c4c9	-0.018770592
150	0xc0d1cae6	-6.556018
151	0xc0cdca82	-6.43097
152	0xbcba324f	-0.022729067
153	0x3d50a39a	0.050937273
154	0xc0876f09	-4.232304
155	0x411673cb	9.40327
156	0x3d5f9c9d	0.054592717
157	0x3d39f5e2	0.045400508
158	0xc068a840	-3.6352692
159	0xbd503edd	-0.0508412
160	0x40ff318f	7.9747996
161	0x40fc1bf2	7.8784113
162	0xbb8e8a32	-0.0043499703
163	0x3d28dcf5	0.041226346
164	0x415ec7f5	13.923818
165	0x40d55ee4	6.6678333
166	0x40c9507a	6.291074
167	0xbfd74240	-1.6817093
168	0x3ea256ca	0.3170684
169	0x40a2c882	5.086976
170	0x3c2b16a8	0.010442413
171	0x41137089	9.214974
172	0x407f8807	3.9926775
173	0xc0d2cc90	-6.587471
174	0x41064443	8.391665
175	0x40d8d5dc	6.776106
176	0x406a2f56	3.6591392
177	0xc03c9d86	-2.9471145
178	0x3faac155	1.334025
179	0x4095dd95	4.6832986
180	0x3b82555c	0.003977461
181	0x4055922a	3.3370461
182	0x4096e1d5	4.7150674
183	0xbeb54a75	-0.3540837
184	0x411367fd	9.212888
185	0x40f03130	7.5060043
186	0x411d85ce	9.845167
187	0x4125510a	10.332285
188	0x3e889eaf	0.26683566
189	0x3ee409af	0.44538638
190	0x4162f3ec	14.184551
191	0x415fb453	13.981524
192	0x4109ba63	8.608005
193	0x410c4161	8.765962
194	0x4109dc77	8.616324
195	0x4106fa25	8.43607
196	0x40bd2943	5.911287
197	0x40eaf121	7.3419347
198	0x40ce5ca0	6.448807
199	0x3d0ee0da	0.034882404
200	0xc0dccb6b	-6.8998313
201	0xc0d76f67	-6.732349
202	0xbc91e506	-0.017809402
203	0xbc52fcd0	-0.012877658
204	0xc0a84604	-5.258547
205	0x41226b69	10.151223
206	0xbd879822	-0.06620814
207	0xbba2da3f	-0.0049698646
208	0xc0165eb4	-2.3495302
209	0xbd3da223	-0.046297204
210	0x412bd325	10.739049
211	0x4106176b	8.380717
212	0x3cd634c3	0.026148206
213	0xbd838261	-0.06421352
214	0x41845569	16.541704
215	0x40fdcf1b	7.9315314
216	0x40f95786	7.791934
217	0xc04edfa7	-3.2324007
218	0xbfd55a51	-1.6668187
219	0x40cc7c3d	6.390166
220	0xbc974eaa	-0.018470127
221	0x4141c25a	12.109949
222	0x4043ccbc	3.059371
223	0xc113166d	-9.192975
224	0x4113507d	9.20715
225	0x40d32a39	6.598904
226	0x40b0c45d	5.52397
227	0xbfac245e	-1.3448598
228	0x3f367fbf	0.71288675
229	0x4080ae0f	4.0212474
230	0x3d51f118	0.051255316
231	0x40b73fd7	5.726543
232	0x409b2348	4.848057
233	0xbef87f0c	-0.4853443
234	0x41277698	10.466454
235	0x410c914f	8.785476
236	0x413a7713	11.654071
237	0x413ea139	11.914361
238	0x40fd7c36	7.9214125
239	0x41126890	9.150528
240	0x4100ff68	8.062355
241	0x41180d73	9.5032835
242	0x4098c998	4.7746086
243	0x40f7ea5f	7.7473598
244	0x40e9443a	7.2895784
245	0x3d87f0d8	0.06637734
246	0xc0e705b3	-7.2194457
247	0xc0ffed1a	-7.997693
248	0xbd5d18b2	-0.05397863
249	0xbce8928b	-0.02839019
250	0xc0d8f1ac	-6.779501
251	0x4124b575	10.294301
252	0x3d10dfb8	0.035369605
253	0x3d5628e2	0.052285083
254	0xbff03b9c	-1.8768191
255	0x3d35fbb8	0.04442951

fc1.bias f4 [512]
0	0x41725917	15.14675
1	0x419105d8	18.127853
2	0x4118b2e8	9.543678
3	0x4127b5a3	10.481845
4	0x4125c3b7	10.360282
5	0x40e9463d	7.289824
6	0x4131bd1f	11.108672
7	0x4191ffcb	18.249899
8	0x4124de63	10.304294
9	0x41655103	14.332278
10	0x418db883	17.715094
11	0x40ee0813	7.4384856
12	0x4128b21b	10.543483
13	0x40cfcc7f	6.493713
14	0x410d16e5	8.8180895
15	0x410d371b	8.8259535
16	0x41247da7	10.280677
17	0x4192321a	18.274464
18	0x4190f81e	18.121151
19	0x40b4904f	5.642616
20	0x4191b358	18.21257
21	0x40e2b708	7.0848427
22	0x4113c23d	9.234921
23	0x4191f6a3	18.245428
24	0x40f8df02	7.7772226
25	0x4173e8f2	15.244371
26	0x40d4b4d7	6.647075
27	0x414098da	12.037317
28	0x413694be	11.411314
29	0x414a275b	12.634608
30	0x41581176	13.504263
31	0x4137d8ad	11.490399
32	0x411189a4	9.096104
33	0x411b8ad9	9.721398
34	0x418eb228	17.83699
35	0x410cc763	8.798678
36	0x41921376	18.259502
37	0x4150bbde	13.045866
38	0x418112c6	16.134167
39	0x4191df65	18.23408
40	0x413a7276	11.652945
41	0x4122f4a0	10.184723
42	0x41374b99	11.455956
43	0x41920340	18.251587
44	0x4191b66c	18.214073
45	0x412e8ad3	10.908893
46	0x414ad6e3	12.677463
47	0x41160ac6	9.37763
48	0x40e3a113	7.1134124
49	0x4134fa62	11.311129
50	0x411d2107	9.820563
51	0x40f4fba1	7.6557164
52	0x40f4644d	7.6372437
53	0x41569f1a	13.413843
54	0x4191f920	18.246643
55	0x4136929e	11.410795
56	0x40eabfb7	7.3359027
57	0x4102d600	8.177246
58	0x419207b1	18.253756
59	0x410051ec	8.02
60	0x41921a77	18.262922
61	0x416ef3fc	14.9345665
62	0x415e443e	13.891661
63	0x4115fabd	9.373715
64	0x41926650	18.299957
65	0x411c9b69	9.787942
66	0x41928184	18.31324
67	0x412f0031	10.937547
68	0x41921466	18.25996
69	0x41916ee7	18.179152
70	0x412e7210	10.902847
71	0x4191cfa9	18.226397
72	0x40c43797	6.131786
73	0x4191a896	18.207317
74	0x4191b8c5	18.21522
75	0x418e65fb	17.799795
76	0x414b7c33	12.717822
77	0x418c08f5	17.504374
78	0x41182410	9.508804
79	0x410a5658	8.64608
80	0x41380bcd	11.502881
81	0x419169e7	18.17671
82	0x4191732b	18.181234
83	0x40da1c9a	6.8159914
84	0x411f03b6	9.938406
85	0x4178ac02	15.541994
86	0x416218e1	14.131074
87	0x4151f214	13.121601
88	0x4171dd2a	15.116495
89	0x4141034c	12.063305
90	0x4115d293	9.36391
91	0x4161f0b4	14.121265
92	0x4159a87e	13.603636
93	0x418d3ae4	17.653755
94	0x40e2bcfc	7.0855694
95	0x40ec66c6	7.3875456
96	0x419229ee	18.270473
97	0x4153f90c	13.248302
98	0x40ca27ea	6.3173723
99	0x4126fb09	10.436288
100	0x40d16e0c	6.5446835
101	0x412cb202	10.793459
102	0x40de0bd9	6.9389462
103	0x41905c71	18.045137
104	0x414bb528	12.731728
105	0x412f620b	10.961436
106	0x4122533b	10.14532
107	0x40e0a1c9	7.019749
108	0x410f7fa9	8.968667
109	0x40dfbe74	6.9919987
110	0x40e4a2eb	7.1448874
111	0x41321425	11.129918
112	0x4111a19d	9.101956
113	0x41210c3f	10.06549
114	0x416e6589	14.899789
115	0x41836880	16.426025
116	0x412a2233	10.633349
117	0x4181061f	16.127989
118	0x418fbed0	17.96817
119	0x41423333	12.1375
120	0x41206f50	10.027176
121	0x413650d1	11.394731
122	0x4191b316	18.212444
123	0x41917406	18.181652
124	0x418d9324	17.696846
125	0x418c3b1a	17.528858
126	0x413db6d2	11.857134
127	0x4191a02b	18.203207
128	0x4130c83f	11.048888
129	0x41791ef9	15.570062
130	0x4123a8d1	10.228715
131	0x411eaa77	9.916617
132	0x411d18b2	9.818529
133	0x412da49e	10.85269
134	0x4185846d	16.689661
135	0x412162fa	10.086664
136	0x412a5f02	10.648195
137	0x4191b80f	18.214872
138	0x418948d9	17.16057
139	0x4134654a	11.274729
140	0x41925efd	18.296381
141	0x4163c667	14.235938
142	0x4191c24b	18.21987
143	0x4140a9bf	12.041442
144	0x41317bb6	11.092703
145	0x41144dac	9.268963
146	0x4191f157	18.242842
147	0x4192179e	18.261532
148	0x41362bd7	11.385703
149	0x418fb5b6	17.963726
150	0x412153f8	10.083
151	0x41457c48	12.342842
152	0x40d0a24d	6.519812
153	0x41925c82	18.29517
154	0x40ec9b2d	7.3939424
155	0x412e2a59	10.885339
156	0x41802834	16.01963
157	0x4153fa57	13.248618
158	0x4183b58b	16.463644
159	0x41210f35	10.066213
160	0x4118b4c1	9.544129
161	0x413ae919	11.681909
162	0x41060dde	8.378386
163	0x41911f98	18.140427
164	0x41916df7	18.178694
165	0x418d020a	17.625996
166	0x41192256	9.570883
167	0x41806175	16.047586
168	0x41827d72	16.311253
169	0x411f8c2c	9.971722
170	0x4109df39	8.616998
171	0x4125b38f	10.356338
172	0x418d3343	17.65003
173	0x40ef20fc	7.4727764
174	0x4121957d	10.098996
175	0x41274f8e	10.456923
176	0x4191ed93	18.241003
177	0x410d5bcd	8.834912
178	0x4121396f	10.076522
179	0x4187d6f7	16.979963
180	0x414e30d6	12.886923
181	0x418d00c8	17.625381
182	0x410ac531	8.673142
183	0x412229d2	10.13521
184	0x4191cee1	18.226015
185	0x4159e53a	13.6184635
186	0x4191aadb	18.208426
187	0x4192033e	18.251583
188	0x412e29e5	10.885228
189	0x41511c3f	13.069396
190	0x412a5e79	10.648065
191	0x418f276d	17.89425
192	0x412de052	10.867266
193	0x41330342	11.188295
194	0x411a9ebb	9.663753
195	0x411ab6c7	9.669623
196	0x417f0043	15.937564
197	0x411c54e3	9.770724
198	0x41103225	9.012242
199	0x411b5241	9.7075815
200	0x40eda291	7.4260945
201	0x4153f233	13.246631
202	0x41222344	10.13361
203	0x41922bd3	18.271399
204	0x418d72ce	17.681057
205	0x40fe06d9	7.938336
206	0x41077109	8.465096
207	0x41927adf	18.309996
208	0x411fb868	9.982521
209	0x4191cfd7	18.226484
210	0x413742fe	11.4538555
211	0x40f82827	7.7549014
212	0x412f91c2	10.973085
213	0x40d570ac	6.670004
214	0x418c8c30	17.56845
215	0x4191572f	18.16757
216	0x410b8e8c	8.7223015
217	0x413c812e	11.781538
218	0x411a0192	9.625383
219	0x4129dce5	10.616429
220	0x41386f8f	11.527236
221	0x4139773e	11.591612
222	0x414f7b29	12.967568
223	0x415232a4	13.137363
224	0x4121a8c0	10.103699
225	0x412f420c	10.953625
226	0x416c8f32	14.78496
227	0x41077503	8.466067
228	0x40ecab0f	7.395881
229	0x411282a9	9.156899
230	0x412f30ef	10.949447
231	0x415ac2a5	13.672521
232	0x414b46c8	12.704781
233	0x40e121fa	7.0353975
234	0x4118b08f	9.543105
235	0x4107d5bd	8.489682
236	0x411f885c	9.970791
237	0x411e66e5	9.900121
238	0x41918582	18.19019
239	0x4191aa2c	18.208092
240	0x413f7f11	11.968522
241	0x418708cf	16.879301
242	0x41921859	18.261889
243	0x4138c3fc	11.547848
244	0x418c0a57	17.505049
245	0x41923f0a	18.28078
246	0x411c3da8	9.765053
247	0x419140b6	18.156597
248	0x419173aa	18.181477
249	0x4191e350	18.235992
250	0x410fc36e	8.985212
251	0x416b5616	14.708517
252	0x411ff4a2	9.997225
253	0x411b933d	9.723447
254	0x4123ae10	10.229996
255	0x4181d05d	16.22674
