project_3/checkpoints/checkpoint_cycle_04_20241025_053209.pt (torch, 624850 bytes, 12 tensors)

shared_fc.weight f4 [512, 96]
00000000: f30b 1c3d 1921 043d de53 6dbd 4a55 e13c
00000010: 88da 93bd d9b1 b23d 387c 953d c401 b3bd
00000020: c0dd f93c 9de4 20be 8be0 8fbc 2c5b ae3d
00000030: 1a30 86bd a82b f2bd ba38 c73b 6d08 30bd
00000040: b419 90b8 4a7e 243d ea66 ebbc 19b8 4c3d
00000050: 392c dabc 472f bc3d 470b 33bd 39db 9a3c
00000060: d2f5 0e3a 1cf3 98bd 8069 30bb 60c0 c0bc
00000070: 7965 98bd 1dc8 593d b5ac 193d 409b 06bd
00000080: 597e a83c 7595 1d3d 4d6b c8bd b3ea 0cbd
00000090: 346e fcbc a6af 6e3d 5207 3c3d 03e0 b53c
000000a0: 89ad 5c3d d4c4 ca3c c019 a63d 85f5 0fbd
000000b0: 23b7 13be ec90 823c 8448 38bd fb5a 37bc
000000c0: d4f7 b4bc fac2 cdbb cc60 86bd 92f1 05bc
000000d0: b020 833d 4c66 fdbc af71 3e3d 4daf 793c
000000e0: cbfe 4fbd 13cc 09bc cf19 10bd 9f91 3e3c
000000f0: c3d3 343d e8c6 a43d 1875 573d d3c8 f0bc
00000100: 4f37 b73c 66eb b13c 8334 c93c 26a4 593c
00000110: eaa1 973d ec30 a33d a156 b03c 7590 de3d
00000120: e695 8c3c e14e 4d3c 2eea 093d 60f1 e1ba
00000130: 8901 f03c bf90 d63c 0cfa 8e3d 23fe 043e
00000140: 029b 4b3d 4941 9d3c bf17 933d 7532 823d
00000150: 2705 e53c e1c0 043d b6bb a33a d64d ce3d
00000160: 011f a33d 6478 df3c d628 d9bc 85b0 e03d
00000170: 684b d93c 2c72 383c 158b a23d 95be 17bd
00000180: d9f5 91bc 9283 c23d d09d 70bc 3f04 abbd
00000190: bac6 56bd 23f6 083d 06d7 193e ea0e 5f3c
000001a0: b007 1dbe dc37 f6bd 79e9 a93d 3b07 453d
000001b0: e1de d13b 7c3b 003d 3e53 853d 2a27 253c
000001c0: 00c8 6abb 2df3 8e3c d2f2 38bd 8225 eabb
000001d0: f5be c9bd c175 523d 75e0 a6bc 44c7 bb3d
000001e0: d23b cc3b 94de c83d 6604 b9bc 338a f0bc
000001f0: 8a15 b7bd 46bb 04bc f795 e83d 9783 9bbd
00000200: c67d 753d 36ad 053c 1d0c 16bd e733 b73d
00000210: b37c 74bd 29b0 3abd fe61 94bd 193d 373d
00000220: 8ed4 933d e295 bc3d 91bf 86bd 8b5a 393c
00000230: 1a5f ab3d c245 d8bd 8fa8 383d ac3b cc3d
00000240: a963 81bd ac1b e1bc acc9 233c 2786 403d
00000250: c6c1 0a3d 9152 c93c a440 40bd 9902 c9bd
00000260: 49ed 51bd ae69 a2bd 4225 193c 50a8 613d
00000270: e14f 3f3d 9c84 8cbd 5838 60bd 9710 b93d
00000280: 01c1 ea3d e6b2 5cbd 766a cabd c399 bb3d
00000290: 4781 6cbd c842 99bd 9a06 f2bc 8c52 2d3b
000002a0: 25be 533d fe50 2dbd 9a6d e03a 160c 063d
000002b0: 079f 75bd 8852 2ebd 852f 583d fc3a 5c3d
000002c0: 7edc 4ebc b61a 393d 47b7 29bd ea3d 033d
000002d0: 468b 8ebb a1ba 48bd 1a61 923d 5cb6 0d3c
000002e0: c9d4 c93d d142 c5ba 1aca 8e3d 301a 903d
000002f0: 79bd 583d c20a 163d fa67 4c3c 3068 3d3d
00000300: fce6 8a3d ba72 113d 9074 2a3d c4e1 35bd
00000310: ff41 043e 8134 4c3c fced 6b3d 9599 1abc
00000320: bb03 e03c c60f 323d 6cc6 8dbd 8d7e d4bc
00000330: 9a67 debd 59cc bbbc 7f9e 80bd b146 c4bc
00000340: 9291 3cbd 62ac 77bd bcc4 cdbd fec9 51bd
00000350: 78a2 60bb f3e0 113d 5be3 85bd f1ca 20bd
00000360: 6150 173e dcf1 3dbb 41fb 5cbd 735b 523c
00000370: 224c 0fbd 7674 edbb 322c babd 20fa b3bd
00000380: 4656 143d 8b63 d63c 8c41 553c b51a 753d
00000390: d9b9 ccbc 608c 41bd 38e4 8dbd c865 053d
000003a0: f437 26bd 4a11 a3bb 68bf 3b3c 7a76 c83c
000003b0: 9bd5 b5bc 0e4b 7d3d 01f2 e1bc 0666 c6bc
000003c0: d4fe c83b 5095 e83c 5b6a bf3d 0072 9c3d
000003d0: 79eb dc3d 2d7f abbc af45 23bd 21b9 bebd
000003e0: dae6 57bd 8bfb 9abd f01c 793d 4228 68bc
000003f0: 9d82 b2bd 5e38 dabc e18d 963d 5a92 c13c
0.038097333 0.032258127 -0.05794131 0.02750649 -0.07219416 0.08725328 0.072990835 -0.08740571
0.030501246 -0.15712209 -0.017563125 0.085134834 -0.065521434 -0.11824733 0.0060797604 -0.042976785
-6.871243e-05 0.0401595 -0.028735597 0.049980257 -0.026632415 0.09188705 -0.043711927 0.018903362
0.00054535 -0.074682444 -0.0026918352 -0.023529232 -0.074412294 0.05316936 0.037518222 -0.0328629
0.02056806 0.03847261 -0.09786091 -0.034403514 -0.030814268 0.05827298 0.04590542 0.022201544
0.053876434 0.024752058 0.0811038 -0.035146255 -0.1442533 0.015938245 -0.04499103 -0.011191125
-0.02209083 -0.0062793465 -0.06561431 -0.008175271 0.06402719 -0.030932568 0.046495136 0.015239549
-0.0507801 -0.0084104715 -0.035180863 0.011631398 0.044147264 0.08045751 0.052601904 -0.029392635
0.02236524 0.021718692 0.024561172 0.013283765 0.074039295 0.079683155 0.021525683 0.10867397
0.01716132 0.012531013 0.033670597 -0.0017238073 0.029297607 0.026192067 0.069812864 0.1298757
0.049708374 0.01919617 0.071822636 0.0635728 0.027956558 0.032410506 0.0012491855 0.1007344
0.07964898 0.027279086 -0.02650873 0.109711684 0.026525214 0.011257689 0.07936684 -0.037046988
-0.017817425 0.09497751 -0.014686063 -0.08350419 -0.052435614 0.03343786 0.15023431 0.013614396
-0.15334964 -0.12022373 0.082964845 0.0481026 0.006404743 0.03130673 0.06510018 0.010080138
-0.0035824776 0.01744994 -0.045153446 -0.0071455846 -0.09850875 0.05138183 -0.020370701 0.09168866
0.006232717 0.098080784 -0.022585105 -0.029362774 -0.08939655 -0.00810129 0.113567285 -0.07593458
0.0599344 0.0081589725 -0.036632646 0.089454465 -0.059689235 -0.045578156 -0.07245253 0.044736
0.07218276 0.092082754 -0.06579507 0.011313091 0.083677486 -0.1056018 0.045082625 0.09972319
-0.06317837 -0.027479015 0.009996813 0.047002938 0.033876203 0.024575504 -0.046936646 -0.098149486
-0.051251683 -0.07930313 0.009347262 0.055092156 0.046707038 -0.06861231 -0.054741234 0.090363674
0.11462594 -0.05388155 -0.09883587 0.09160187 -0.057740476 -0.07483441 -0.029544163 0.0026446907
0.051695008 -0.04231357 0.0017122508 0.03272637 -0.059966113 -0.042559177 0.052779693 0.05376719
-0.012625812 0.04519149 -0.041434553 0.032041468 -0.004350099 -0.04900611 0.07147427 0.008649435
0.09855039 -0.001504982 0.069721416 0.07036245 0.05291507 0.036631353 0.012475962 0.04624194
0.06782338 0.035509802 0.04161507 -0.04440476 0.129158 0.01246369 0.057600006 -0.009436031
0.027345529 0.043472074 -0.069226116 -0.02593925 -0.10859604 -0.022924589 -0.06280231 -0.02395949
-0.046037264 -0.06046713 -0.1004729 -0.051218025 -0.0034276526 0.03561492 -0.06537505 -0.03925604
0.14776756 -0.002898327 -0.053950552 0.012839186 -0.034984715 -0.0072465492 -0.09090461 -0.08787942
0.03621509 0.026170513 0.013016116 0.059839923 -0.024990963 -0.047253013 -0.06928295 0.03256777
-0.040580705 -0.0049764263 0.011459209 0.024470557 -0.022196582 0.061839156 -0.027581217 -0.02421857
0.0061338935 0.02839151 0.093464576 0.07638931 0.107871 -0.020934666 -0.039861377 -0.09312654
-0.05271039 -0.07567509 0.060818613 -0.014169754 -0.08716319 -0.026638206 0.0735128 0.023629356

shared_fc.bias f4 [512]
00000000: 81d7 343a 510f 59bc 5b18 b63d 5894 3cbd
00000010: 466a 1bba e67a 8939 dd66 8fbd eeb2 52bd
00000020: 2e96 b13d 2877 0c3d d5be 083d ee54 22bd
00000030: e550 ab3c 48a4 09bd fadb 55bd 1a00 6ebb
00000040: b8ac 933d c274 883d 8536 b13d 5abd 68bc
00000050: 87e5 aebd 456b 0c3d 4631 27bd 4a8e 1c3d
00000060: b751 683d 37b5 67bd 3cad 5c3c fa14 9b3d
00000070: c8dd c23d e5e5 57bd 06f8 ac3d 8ad8 d13c
00000080: 917e ec3d 8dd0 2b3d 187e 243a bdf0 b5bd
00000090: 9cd1 4e3d e673 9cbd df0f c3bc 77fc 913d
000000a0: a959 a63d e248 d63d 3f72 d0bd 03e4 6cbc
000000b0: 10a2 dd3d 061f d93c d993 66bd e2fb 67bd
000000c0: fa6d 3c3d 789a 563c e627 793d c2c6 49bd
000000d0: f092 823c e8d1 7ebd 9060 77bd aa44 6c3b
000000e0: c1f3 85bd 9915 f93d bdee be3c 9141 873d
000000f0: 7abb b63d 0311 aa3d f875 54bd 7f65 57bd
00000100: 85a8 04bd f898 a3bd b7f5 99bd 6cd3 223d
00000110: c87f 423d 562f 0b3d 5980 ad3d 2189 adbd
00000120: 44af bbbc a1be 863d 4e79 af3c 4b99 a33d
00000130: ceb1 f3bc f671 81bd 06f9 dbbc 79e9 9cbc
00000140: 0af6 a3bd a40b 34bd 7e71 c73d f102 9e3b
00000150: 7517 a3bd 2695 95bd 9a1b ecbb d6ca 38bd
00000160: b61f 9c3b ef0a bc3d b50a d13d 1c22 563b
00000170: faff 5abd 5f3e 7a3d d895 813d 39fa b03d
00000180: 69f6 5d3c ec5a 213d 087e 61bb 7351 1fbc
00000190: 9eea 25bd 538a 94bd d081 c23d dea4 58bc
000001a0: 5b72 05bd d92c 7c3c 505c f5ba 8592 a3bd
000001b0: b66b 063e 011f dabc 451b 4e3d a046 933d
000001c0: ffcf 39bd b130 823d b731 263d 8fda b7bc
000001d0: c73e d7bb 001a 80bc 77b8 05bd d712 c33d
000001e0: 6aa2 943d 6476 ed3c 43ed ddbc 4f01 e13d
000001f0: 815c 92bd f302 9b3d 1e8e 47bd 0cfd 8bbc
00000200: fbfa 773d 8cd0 a0bd 1e47 84bd e1d6 bebc
00000210: c9ef a9bc bdb7 6dbd eda9 aa3d 84bd 41bd
00000220: cd9f 10bc fcc9 0e3d 618e e1bc 6514 3a3d
00000230: 4a9d 793d a93b 79bc fe47 dcbc 8221 483d
00000240: 2ab2 8e3d b856 9abd ba21 5abd 61b0 4ebd
00000250: f0a3 b73d f9e3 133d 0434 1ebd 8bfd 22bd
00000260: 8ad6 f93b 17fc 3e3d 7fe3 dd3d a53a 80bd
00000270: 9df1 3c3d e7a3 f83d a9f9 8a3d 0245 87bb
00000280: 5a2e 8f3d b5b3 1c3b f44b c6bd ceb2 a93c
00000290: f764 35bc f25d d43d dc92 993c c7d5 2b3d
000002a0: cba3 4b3d cb4a da3d 0475 5b3d 374f 8bbd
000002b0: 633c 563d 96fc 8ebc 77ac d93d c3bf a9bd
000002c0: 1b7a cebc 0955 cdbc 37b5 c6bb 04ae d13c
000002d0: f6d4 823c 513e 853d b591 c53d dba5 14bd
000002e0: f6bf b53d 269d 5abd afe0 19bd 841d 783d
000002f0: 075c d73b 283e 7c3c 9e2a 8fbd fb7c 4f3d
00000300: 36e0 a1bd 0da1 a5bd 7fb6 9b3c c68a 08bd
00000310: 5dcf e439 f927 70bd 93ac c83d 1169 9f3d
00000320: 426c e8bc c9b8 8f3d dbf2 f7ba 8a1d 853d
00000330: 9b5a 00bd b5cf 39bc 6564 213c d6ee 73bd
00000340: bbe6 dd3d 04b8 a43c 0075 5a3c 8f00 f33d
00000350: 30d1 263c 3fd3 be3d c7ac 603d 5070 f13c
00000360: b1de e63c 197c c6bd fdd2 88b8 9512 3bbd
00000370: 0f27 b4bd 4072 ec3d 9854 2fbd aba6 b63b
00000380: 9499 963d 155b 6a3d b5b7 b4bd e8cf e93d
00000390: 68ad 893c b1b4 14bd c2c3 26bd 21f6 0d3d
000003a0: 1c94 3f3a 5b40 ad3d 6205 a3bd 282d 2cbd
000003b0: 9f0b 33bd 251b 45bd 59d2 0b3d 3076 50bd
000003c0: f806 92bc f49a 593c 95aa 30bd de7c 37bd
000003d0: b102 17bc f562 c4bd e208 293d 608c 583c
000003e0: 95df bbbd c8b2 4cbd 9747 d0bc 3308 49bc
000003f0: 6522 8c3d 39d3 e73d 619c acbd e7df 39bc
0.00068985677 -0.013248281 0.08891364 -0.04603991 -0.0005928617 0.00026222243 -0.070020415 -0.051440172
0.086712226 0.034293324 0.033385117 -0.039631777 0.020912597 -0.033603936 -0.05221174 -0.0036315979
0.07210678 0.06662895 0.08652977 -0.014205301 -0.085398726 0.034281988 -0.040818475 0.038221635
0.056718554 -0.056569304 0.013469037 0.0757236 0.09514958 -0.05270948 0.08445744 0.02561595
0.11547578 0.041946936 0.0006274893 -0.08883808 0.050492868 -0.076392934 -0.023811279 0.07128232
0.0812257 0.1046312 -0.10178041 -0.014458659 0.108219266 0.026504051 -0.056293342 -0.0566367
0.04600332 0.013098352 0.060829066 -0.049261816 0.015939206 -0.0622119 -0.060394824 0.003605167
-0.06540633 0.121623226 0.023307199 0.06604303 0.08922477 0.08304026 -0.051870316 -0.05258703
-0.032387275 -0.07988161 -0.075175695 0.03975241 0.047485143 0.03398069 0.08471746 -0.08473421
-0.022910722 0.06579328 0.021420147 0.07988223 -0.02974787 -0.063205644 -0.026852142 -0.019154297
-0.080059126 -0.043956414 0.09738444 0.004822128 -0.079634584 -0.073038384 -0.007205439 -0.045115314
0.0047645224 0.09181773 0.1020712 0.003267414 -0.053466775 0.061094638 0.063274086 0.08641476
0.013547518 0.03939335 -0.0034407396 -0.009724009 -0.04050695 -0.07252946 0.09497416 -0.013222901
-0.03257976 0.015391552 -0.0018719528 -0.07986931 0.13127026 -0.026626112 0.050318975 0.07191205
-0.045364376 0.063569434 0.040574756 -0.022443084 -0.006568763 -0.015637398 -0.032646623 0.09525078
0.072575405 0.028987117 -0.027090674 0.10986578 -0.0714655 0.07568922 -0.048719518 -0.017088436
0.060542088 -0.07852277 -0.06458877 -0.023295822 -0.020744221 -0.058036555 0.08333192 -0.047299877
-0.008827162 0.034860596 -0.027533712 0.045429606 0.06094102 -0.015211978 -0.026889797 0.04886008
0.06967576 -0.075360715 -0.05325482 -0.050461177 0.089668155 0.036106084 -0.038623825 -0.03979258
0.007624452 0.04662713 0.10834407 -0.062611856 0.046128858 0.12140637 0.067859 -0.0041280994
0.06991263 0.0023910825 -0.09682456 0.020715144 -0.011071435 0.10369481 0.018746786 0.04195192
0.049716752 0.10658797 0.05357839 -0.068022184 0.052303683 -0.017454427 0.10628598 -0.08288529
-0.025204709 -0.025064962 -0.006064083 0.025595672 0.015970688 0.065060265 0.09646932 -0.036290985
0.08874504 -0.053372525 -0.03756779 0.060575023 0.00657225 0.015395679 -0.069905505 0.0506563
-0.07904093 -0.080873586 0.01900792 -0.03333547 0.00043642047 -0.05863187 0.09798541 0.07783712
-0.028371934 0.07017667 -0.0018916981 0.06499775 -0.031336408 -0.011341025 0.009850596 -0.059553944
0.10835024 0.020107277 0.013333559 0.11865341 0.01018171 0.09317636 0.054852273 0.0294725
0.02818236 -0.096916385 -6.524285e-05 -0.045672018 -0.08796512 0.11545229 -0.042805284 0.0055740676
0.073535115 0.05721577 -0.08824102 0.11416608 0.01680632 -0.036305133 -0.040714033 0.034658555
0.0007308142 0.084595405 -0.07960011 -0.04203525 -0.043712255 -0.04812159 0.03413615 -0.050893962
-0.017825589 0.013281573 -0.04313143 -0.044796817 -0.00921695 -0.09589187 0.041268237 0.013217062
-0.09173504 -0.049975187 -0.025424762 -0.012270021 0.06842498 0.113195844 -0.084282644 -0.011344886

shared_ln.weight f4 [512]
00000000: df89 8a3f f5b5 8c3f 8e93 953f 3543 893f
00000010: 5c0d 923f 1a68 833f ff01 883f d777 8f3f
00000020: 16c7 8b3f 092c 8a3f 61d9 8e3f 34ba 973f
00000030: 69fb 923f 6d8c 923f 1d67 863f d5fd 913f
00000040: 5c4f 8a3f 0945 8f3f ebf9 963f dd25 903f
00000050: 0eac 8f3f 77ab 963f 1fc2 8b3f 632c 8d3f
00000060: 25c2 883f 1bbd 8b3f 520a 8c3f c2c7 883f
00000070: ee37 923f be90 8c3f d6f9 903f f73d 9c3f
00000080: a671 923f 9904 8b3f d176 8e3f 64eb 923f
00000090: 5e59 8f3f 57b4 8f3f a903 9d3f 73a0 8b3f
000000a0: 4df7 923f be4c 883f 8eb9 8d3f 73b0 863f
000000b0: cadb 913f a014 943f 5379 923f a47a 873f
000000c0: f75d 823f b64e 8a3f 3e4a 8a3f e411 923f
000000d0: 557a 883f d185 923f dff6 8c3f 24a8 873f
000000e0: e32b 903f 9eb6 9b3f 597c 883f b6a8 8a3f
000000f0: 3596 863f 7c89 8a3f 233f 953f 7a0a 8b3f
00000100: bfc2 8b3f 7d8f 943f 9cd6 953f bc25 903f
00000110: 3e1e 923f 423e 883f 4f21 9f3f 10b0 923f
00000120: a1b7 9a3f ca43 8e3f b0c4 8b3f ae18 8c3f
00000130: 40d5 903f 41cd 883f 8de5 883f 0861 943f
00000140: c440 893f 4588 9b3f 7f43 8f3f a4eb 883f
00000150: ccec 883f ca1e 923f 204f 8d3f 83c5 933f
00000160: 7cac 903f b897 913f 1266 8b3f c3ca 973f
00000170: 306f 943f aefb 943f 614c 933f 1172 8c3f
00000180: e751 853f ef9b 893f b567 943f 01a3 8a3f
00000190: 2328 873f a5b4 8b3f 636b 933f 377a 933f
000001a0: 0116 8f3f 6bb1 883f 636f 983f 0b71 963f
000001b0: 70c1 a23f 4034 8c3f 8da8 8c3f d8c1 8e3f
000001c0: 5c28 933f fa05 833f 64df 923f 4c88 8f3f
000001d0: fd64 913f 90ca 8d3f ef27 8e3f d494 923f
000001e0: cce2 863f be6f 873f f7d4 8d3f 7fc6 903f
000001f0: 886e 8c3f 3588 8c3f f6a7 923f 2f99 833f
00000200: 7505 8c3f 19f6 8a3f 4aef 893f ffee 8f3f
00000210: 900f 8e3f ce91 943f 637b 8e3f 93de 903f
00000220: 8208 8e3f d5ec 953f 783b 8e3f 4da6 8d3f
00000230: 1621 903f 1e95 893f 71a8 8f3f 6276 9a3f
00000240: f45c 8b3f 1da9 8b3f 8f26 8a3f 6165 903f
00000250: 9890 873f 8764 873f b187 913f 94d6 8d3f
00000260: e15a 913f 2fc3 913f d148 8f3f 2f12 8b3f
00000270: 50c9 8d3f 7a6c 893f 26fc 863f 24d4 903f
00000280: 8eee 893f a30e 8d3f e484 8f3f b42b 863f
00000290: c6d1 9c3f 7eae 8f3f 5cef 883f 74b3 8f3f
000002a0: 2cb1 883f 8cbb 8d3f 7855 9c3f 437c 933f
000002b0: 27f5 883f 5f0d 913f c070 843f 0cbc 903f
000002c0: 613b 8f3f fe31 903f a7f4 923f c4f3 8a3f
000002d0: bfc9 913f b436 8f3f 3fb6 903f 9316 8e3f
000002e0: 02f7 8f3f 1b3b 883f 696f 903f a0a0 873f
000002f0: cc13 943f 8062 903f 4917 893f 681e 903f
00000300: 89d3 843f 9cf5 9c3f cb74 863f c1fc 903f
00000310: 11be 873f 4ecf 8a3f d549 973f 2e50 973f
00000320: 1a4e 8b3f ed58 873f dc53 883f b516 8f3f
00000330: 0ffb 893f a788 8f3f 3742 943f 8645 8b3f
00000340: e2fb 8d3f 4365 903f 8688 8e3f 1b31 943f
00000350: 0767 8c3f 2f0f 943f 3917 943f 2d3c 893f
00000360: c6f1 8a3f 0d14 8b3f 13cf 8e3f 5153 843f
00000370: ca80 8d3f 4497 973f 7482 853f cbcb 8f3f
00000380: 6668 833f f528 8d3f aa3c 923f ac80 8e3f
00000390: 140f 933f 6ae4 8f3f 1a8c 873f 3223 903f
000003a0: 825f 8a3f 07b0 893f c1dd 8d3f 6c45 843f
000003b0: f667 8d3f 519c 903f 4c5e 8a3f a9a4 933f
000003c0: a62e 8d3f 8c96 883f eec2 903f a2b6 863f
000003d0: 5d64 8f3f 2976 903f cdc1 873f 8cae 873f
000003e0: 8111 913f 0751 8f3f a82b 8f3f ec43 933f
000003f0: 6b8d 8e3f e875 943f 3f90 873f f301 8f3f
1.0823325 1.0993029 1.1685655 1.0723635 1.1410327 1.0266144 1.0625609 1.1208447
1.0920131 1.0794688 1.1160089 1.18537 1.1482974 1.1449105 1.0500218 1.1405588
1.0805469 1.1192943 1.1795019 1.1261555 1.1224382 1.1771077 1.0918616 1.1029171
1.0684248 1.0917085 1.094065 1.0685961 1.1423318 1.0981672 1.1326244 1.220641
1.1440933 1.0860778 1.113001 1.1478086 1.1199148 1.122691 1.2266742 1.090834
1.148172 1.064842 1.1072252 1.0522598 1.1395199 1.1568794 1.1443275 1.0584302
1.0184926 1.0805271 1.0803907 1.141171 1.0662333 1.1447088 1.1012839 1.0598187
1.1263393 1.2165105 1.0662948 1.0832736 1.051459 1.0823207 1.1659893 1.0862572
1.0918807 1.1606289 1.1706119 1.1261516 1.1415479 1.0644 1.243204 1.145998
1.2087289 1.1114438 1.0919399 1.0945032 1.1315079 1.0687639 1.0695053 1.1592112
1.072289 1.2150961 1.1192473 1.0696912 1.0697265 1.1415646 1.1039772 1.1544651
1.1302638 1.1374426 1.0890524 1.1858753 1.1596432 1.1639307 1.1507684 1.097231
1.041562 1.0750712 1.1594149 1.0830995 1.0559124 1.0914503 1.1517147 1.1521672
1.117859 1.0679144 1.1908993 1.1753248 1.2715282 1.0953445 1.0988938 1.1152906
1.1496692 1.0236199 1.1474423 1.121347 1.1358944 1.1077442 1.1105937 1.1451669
1.0537963 1.0580976 1.1080617 1.1310576 1.0971231 1.0979067 1.1457508 1.0281123
1.0939165 1.0856353 1.077615 1.1244811 1.1098499 1.1606996 1.1131405 1.1317924
1.1096346 1.17129 1.1111898 1.1066376 1.1260097 1.0748632 1.1223279 1.2067378
1.0887742 1.0910984 1.0793017 1.1280938 1.0591002 1.0577554 1.1369535 1.1081109
1.1355859 1.138769 1.1194097 1.0864924 1.1077061 1.073623 1.05457 1.131474
1.0775926 1.1020092 1.121243 1.0482087 1.2251518 1.1225126 1.0698047 1.122664
1.0679069 1.107286 1.2213583 1.1522297 1.0699815 1.1332206 1.0346909 1.1307387
1.1189996 1.1265256 1.1480912 1.0855641 1.1389693 1.1188569 1.1305617 1.1100639
1.1247256 1.0643038 1.1284 1.0595894 1.1568542 1.128006 1.0710231 1.1259279
1.0377055 1.2262454 1.0504392 1.1327134 1.0604879 1.0844514 1.1819407 1.1821344
1.088321 1.0574013 1.0650592 1.1178805 1.0779742 1.1213578 1.1582707 1.0880592
1.1092494 1.1280903 1.1135414 1.1577486 1.0968941 1.1567134 1.1569587 1.0721489
1.0855033 1.0865494 1.1156944 1.0337926 1.1054928 1.1843038 1.0430436 1.1234068
1.0266235 1.1028124 1.1424763 1.1133018 1.1488976 1.1241581 1.0589631 1.1260741
1.0810397 1.0756844 1.1083299 1.0333686 1.1047351 1.1297704 1.0810027 1.1534625
1.1029861 1.0670943 1.1309488 1.0524485 1.1202503 1.128606 1.0606018 1.0600142
1.1333467 1.1196603 1.1185198 1.1505103 1.1136907 1.1598482 1.0590895 1.117247

shared_ln.bias f4 [512]
00000000: 6481 413c ca88 1fbb 31ce 0f39 3ae4 ed3c
00000010: aeb5 493d 747b febb d40c 79bc 5e86 b13c
00000020: 66c8 8c3c 861d 953c 8a38 113c 24b7 5a3d
00000030: 27d4 9c3c d3c2 ed3c 6553 813c c293 5a3d
00000040: 4802 ca3c f6e2 d63c 443e 593d 8750 093d
00000050: b8b6 283c 394b 0d3d f675 7f3d 0f77 623c
00000060: 1fcc 5d3c 819e 3b3d a011 163d 2cf1 5c3d
00000070: e565 563d 635d db3c 482e 9f3b 4d4e 7e3d
00000080: cc14 cc3c 7b5b 723c 1431 ee3c 3714 953b
00000090: 2f9d a33b 9931 57bb e0e4 043d 42ce ff3c
000000a0: 31b4 393d 67d1 8f3c 414d 193d 0481 df3c
000000b0: 5620 a73c 4921 053d 16b9 fc3b 4f89 9fbc
000000c0: 1f31 0b3c be1c 373c f974 083d e2bf 893c
000000d0: 48a7 b7bb 98b3 583d f82c 0b3d ff51 4cbc
000000e0: 4b26 133d 535a 7b3d 9586 233c 2800 713c
000000f0: 7e12 aebc 6817 9e3c 2a28 6d3c 2587 fe3c
00000100: 3bea 243d a9bb bd3c 52ab 893c dc75 b33c
00000110: 2537 1c3d 383c b43c 7eb0 153d 0913 99bb
00000120: a7f6 56bc d803 d83c 4dc4 843c 3bcd 0b3d
00000130: 7599 a13c bfd9 1dbc e58a 373d 0dd6 fd3c
00000140: 2c03 d43b 88c8 a23b 2911 213c 2370 223c
00000150: e7d4 f03b 3940 183c 66b8 8f3c 3290 153d
00000160: c83a 943c 9776 c33c 58e7 6a3d 5fb5 033d
00000170: cc54 623d 4464 c13c 0f2e cd3c b1a6 0b3d
00000180: 517e 423c 2444 01bc 9dbe 933c ec97 cd3c
00000190: 35bc abba edb9 ca39 407f 1b3d 7ba7 963d
000001a0: 8991 0c3d d467 563c 20ab 903d fc58 543d
000001b0: 33a0 603d e41e 123d 20d0 5c3c d7ad c23c
000001c0: 0de8 473d 094e ea3c 5dc8 0f3d 5d27 013d
000001d0: 3255 5d3b f7a6 883c 7735 5a3c d084 783b
000001e0: 5af8 e83c cf1b 96bb be15 323d 174c 023d
000001f0: b130 a93c 80bc a33c 6e5f af3b 08b9 803c
00000200: 4fb3 ce3b 51f6 febc 9ee1 8f3c a16a ec3c
00000210: 25ad 163d 239b 2b3d d374 103d d29d 923c
00000220: 5e50 573d 3397 103d 5af4 533c c1c9 6c3a
00000230: 7549 a039 193c fe3c 9af4 4f3d 4ee6 213d
00000240: 9ebb 9e3c d89e b73c d1f6 6ebc 08bc 133b
00000250: c228 d73c 8eaf dc3b fa0e 3c3a 18d6 ad3b
00000260: 2ac7 623a 1bca 193d 3d49 7e3c b994 ee3c
00000270: a07b 343c 2e9c 9d3c 2791 723b 020c 113d
00000280: af8c 9d3b ea33 8cbb f727 05b9 9c49 093d
00000290: 0702 333d 80af 243d 5e26 a13c 0bbf fa3a
000002a0: cf92 0f3d 268e 253d 3222 4b3c c170 393c
000002b0: 31e0 733c 58b2 613d e0de a63c b4a4 ac3c
000002c0: 8bbc beba 0df3 dc3a 6cad c33c 0a3c 57bc
000002d0: 3bab 9a3c 79fc 053d da19 d03c 4cc7 24b9
000002e0: 5f24 4d3d 469b 893c 26d2 633c 06ea 253c
000002f0: 96bf 293d d74d 6a3d d39c 2b3c e70f 5b3d
00000300: a96b 3c3c a71c c03b b0b9 963b 7ea6 053c
00000310: 10a2 2b3d ede4 933c a7f8 d43c 5d0d 233d
00000320: 605f e9bb b767 60bc a9e2 bf3c a76c a63c
00000330: 56f0 ba3c 532d 593d 0e4f 29bc dd98 063d
00000340: 67e6 cc3c 1071 083a 40d6 9c3c fd81 803c
00000350: 82f1 4a3d 3588 e438 2e0e 10bc 51d1 b83c
00000360: 2413 c73c 6dff 3c3b a0b1 ad3b 568d b23c
00000370: 8d80 7a3c 4777 c63c 2325 623c 9e7e 183d
00000380: 7282 dabb d600 ff3c f746 0c3c 2802 993b
00000390: 0693 e03c a4c7 913c 3f78 7b3c 22f9 d43c
000003a0: 15fd 643b dffe ee3c 5f98 233d c3cb f43c
000003b0: f3a7 3dbc 756a b13c 33bf baba e000 30bc
000003c0: a29c 383b ce42 003d d5b0 9bba 4b97 713c
000003d0: 3eaa 753c 2056 783b 77c6 4bbc 4017 1b3c
000003e0: 8b1d 5f3c 5fc2 a43c bebe a23c 3a34 063d
000003f0: 0bd0 9a3c e2c5 983c 1009 cf3c 312d 0a3d
0.011810634 -0.0024343007 0.00013714355 0.029039491 0.04924553 -0.0077661816 -0.015200812 0.021670517
0.017185401 0.018202554 0.008863578 0.053397313 0.01914413 0.029023563 0.015786836 0.05336357
0.02465929 0.02623127 0.053037897 0.033524062 0.01029747 0.034495566 0.062368356 0.013822331
0.013537436 0.045805458 0.036637902 0.053940937 0.052343268 0.026777929 0.004857812 0.062086392
0.02491226 0.014792318 0.029076137 0.004549529 0.004993103 -0.003283596 0.032444835 0.031226281
0.04533786 0.017555906 0.03742719 0.0272832 0.020401161 0.032502446 0.0077124937 -0.019474654
0.008495598 0.011176286 0.03331468 0.01681513 -0.0056046583 0.05290565 0.033978432 -0.012470721
0.03592519 0.061365437 0.009980817 0.01470951 -0.021249052 0.01929827 0.014474908 0.031070301
0.040262442 0.023160772 0.016805325 0.021906786 0.038138527 0.02200137 0.03654527 -0.0046714586
-0.01312033 0.02636902 0.016206885 0.03413127 0.019726494 -0.009634434 0.044810195 0.030985856
0.0064701047 0.004967753 0.009830751 0.009914431 0.0073495987 0.009292656 0.017543983 0.03651447
0.018094435 0.023860259 0.057349533 0.03215539 0.05525665 0.02360738 0.025046377 0.034094516
0.0118709365 -0.007889781 0.018035227 0.025096856 -0.0013102355 0.00038666968 0.037963152 0.07356163
0.03431848 0.013086278 0.070638895 0.051842675 0.054840278 0.03567399 0.013477355 0.023764534
0.048805285 0.028601663 0.03510319 0.03153168 0.0033772704 0.016681178 0.013318411 0.003792096
0.028438736 -0.0045809518 0.043477766 0.031810846 0.0206531 0.019987345 0.0053519523 0.01571323
0.0063079963 -0.031123312 0.017563637 0.028859438 0.036786217 0.041895997 0.035267662 0.01789752
0.05256688 0.035300445 0.012936676 0.0009032749 0.00030572308 0.031034516 0.05077038 0.039526276
0.019376572 0.02241461 -0.014585213 0.0022542495 0.026264552 0.006734795 0.00071738625 0.005305063
0.00086508936 0.03754626 0.015520391 0.02912365 0.011015803 0.019239511 0.0037012787 0.035411842
0.0048080306 -0.0042786496 -0.00012698756 0.033517465 0.043703105 0.040206432 0.019671615 0.0019130422
0.035052117 0.040418766 0.0123982895 0.0113183865 0.014884994 0.055101722 0.020369947 0.02107463
-0.001455204 0.0016857103 0.023886405 -0.013136873 0.018880477 0.03271148 0.025402952 -0.00015714503
0.050083514 0.016797673 0.013905084 0.010126596 0.041442476 0.05720314 0.0104744015 0.053481963
0.011500278 0.0058627906 0.0045997724 0.008157371 0.0419026 0.018053496 0.025997473 0.039807666
-0.0071219653 -0.013696603 0.02342351 0.020315481 0.02281968 0.05302174 -0.0103337895 0.032860626
0.025012208 0.0005204836 0.019145131 0.015686983 0.049546726 0.00010897258 -0.008792443 0.022560747
0.02430112 0.002883877 0.0053007156 0.02179591 0.015289438 0.024226798 0.013802799 0.037230127
-0.0066683823 0.031128328 0.008561841 0.0046694465 0.027413856 0.017795391 0.015348493 0.025997702
0.0034940888 0.029174266 0.039940234 0.029882317 -0.011575687 0.021657208 -0.0014247656 -0.010742396
0.0028169532 0.03131371 -0.0011878262 0.014745544 0.014994202 0.0037893131 -0.012437454 0.009465992
0.013617883 0.020112215 0.019866344 0.03276465 0.01889803 0.018649045 0.025272876 0.033734504

actor_fc.weight f4 [6, 512]
00000000: 5682 f5bc debc bf3d e913 1fbe c59d 813d
00000010: c633 dc3d 39f9 b1bc a0d7 943c 7840 87bc
00000020: 7384 123d 8ee2 81bd 37c3 18bd 9ffc a63c
00000030: a8b1 80bd 233a b3bd b603 cc3b b7d4 e9bc
00000040: 138d 33bd d05e 863d 94ff e33d f4d2 95bd
00000050: 7172 01be 60da 83bd c10d 103d f5aa 18bd
00000060: 0c6f 393d c33d e9bd 5b6a d6bd 1e22 bb3d
00000070: 75b6 8c3d 5111 c63d 27dc 8dbd ab51 02be
00000080: 747b a3bc aa3e 093d 186b d13d a8d0 14be
00000090: 955b 95bd 430d bd3d 41ff 253d ba05 a73c
000000a0: 1e36 d5bc c272 9c3d 891d acbc d36a 9e3d
000000b0: a11f 9a3d dc33 ec3c 1e89 1c3e a250 39bd
000000c0: 1f79 3b3d c622 503d fc36 10bd c587 09be
000000d0: 9144 2d3c 49f4 1b3d e4c7 28be b156 283d
000000e0: c749 0c3e 5964 d33b b0a1 39bc 2372 c2bd
000000f0: 6f1e 45bd 9224 91bd 24e9 56be 2375 19bd
00000100: 1a65 99bc 10be c23c 873b b8bd 8428 523d
00000110: d2ba 81bd ece9 d5bd b48a 503e 4733 dbbd
00000120: e62e db3d ada8 93bd cd9e 053e f483 f7bd
00000130: ed08 a43d 378d 293d cfa0 9a3d 1146 fb3d
00000140: fa05 2a3a 2fc7 1dbe d63e c2bc 217b 18bd
00000150: f99c 38bd 1fb1 84bc 9211 ea3c 12ae 9f3d
00000160: 9018 c23d 1720 a7bd 1cde b23c 79e0 bb3b
00000170: a79f b7bd 2ee6 edbd 2f1b f5bd 979b 4bbb
00000180: 7f8a 46bb acb9 57bc b45c cb3c 2d0a af3d
00000190: cda0 5e3d 79fe 70bd ad96 84bd 8c39 923c
000001a0: be84 0c3e e4ad 633d 5892 04be 2e40 f4bd
000001b0: e011 623e 1227 7b3d 35de c73d 70d3 71bd
000001c0: d69c 823d 9f79 e1bc bc99 42bd 8e2a 633d
000001d0: fe9b 6fbd 5104 8bbb 7577 593d 8f81 283e
000001e0: 5da4 3f3d 0493 24bd 1970 9ebd 0b2b 133e
000001f0: 2029 9c3d f115 983d 4cd3 313e 9966 373d
00000200: 28cb fd3d e29e 96bd 56c5 e6bd 5cfd 053e
00000210: aa0e 53bd 978f a0bd 29bd eb3a 51a8 ab3d
00000220: e4d4 b13d 387e 093d 5060 a7bc 6d67 063d
00000230: aa75 8dbd 22ab 203c 8141 1bbe 0c09 e33d
00000240: f157 9abd 115f 913b 2fa0 b8bd 3b6f 02be
00000250: 4a5d ffbc 2f62 693d aca0 98bd 2933 d83c
00000260: 1e57 ad3d 9612 503d bbf0 bfbd 5dfd b6bd
00000270: d0a6 4ebd 5dd8 4e3d 4c42 b23d f893 a03d
00000280: 08e0 6abc 2e97 3c3a 870a 9fbd e009 a93d
00000290: 087a 0fbe 8492 4b3d b8cd e03d 0e89 fd3d
000002a0: f538 7a3d 9a50 1ebd 5881 733d 04a7 33be
000002b0: a324 8d3d 47ea 6ebd ec8b 1d3d 2b4e ce3d
000002c0: 1cad 033e 3d93 1b3d e7bc d13d 1857 ebbc
000002d0: bef1 8e3d 8e74 bf3a 2f2e efbd 4fa8 463c
000002e0: 139c afbd 1edd c93d 8c12 f2bb 17e9 8b3d
000002f0: 6bd3 fabd feb1 193d 6dea 69bd 8f55 49bd
00000300: 2f30 21bd 5686 043e 40d3 80bd 3e42 65bd
00000310: 28c8 0bbb c37e e4bd 8368 143e 676d 21be
00000320: 4162 4ebd 9aea 81bc 03fe 823d a28b 15bd
00000330: d1db 79bd 482a 623c 53d7 51be 16cc dc3d
00000340: 3575 363d f176 aabd 3816 0d3e 547e 13bd
00000350: 3ffc 593c f483 2ebe 58e6 3a3e ba38 8b3d
00000360: c914 01be 3aad 28bd d80f 86ba dbdb 9cbd
00000370: b644 8a3d b3ed a93c d69d 4e3b 3406 dd3d
00000380: f576 9abc f5a4 c53d 38e0 653d 43c3 183d
00000390: 198f 84bd eb57 e2bd 91b7 a73d 9831 9bbd
000003a0: a301 cbbc d168 de3d 9bb8 d2bd 252c 3d3d
000003b0: 8c7f 213d d6ea 043e 3a2e ce3d f6cf 2abe
000003c0: da8b 96bc 2fdb 83bd 4695 e4bd db24 133c
000003d0: 70bd f43b 1184 f93d b624 d1bd b7a9 0e3d
000003e0: 16a7 f7bc 83dd fbbd b9bc 9b3d 0119 3fbd
000003f0: 4d41 c5bd 421b 333e 0ae8 6cbd 36ba 033e
-0.029969376 0.093621954 -0.15534939 0.0632892 0.107520625 -0.021725284 0.018169224 -0.016510233
0.035770845 -0.0634204 -0.037295546 0.020384131 -0.06283885 -0.08751323 0.0062260283 -0.028543813
-0.04383571 0.06561053 0.11132732 -0.07315627 -0.12641312 -0.06438136 0.035169367 -0.037272412
0.04527192 -0.11388733 -0.104695044 0.09137367 0.068707384 0.096712716 -0.06926756 -0.12726466
-0.019956328 0.033507027 0.10225505 -0.14532721 -0.072928585 0.09231045 0.040526632 0.020388473
-0.026026782 0.07639076 -0.021010177 0.07735219 0.07525564 0.028833322 0.15286681 -0.045242913
0.045769807 0.050814413 -0.035208687 -0.13430698 0.01057543 0.038074765 -0.16482502 0.0410983
0.13700019 0.0064511714 -0.011330053 -0.09494426 -0.048124727 -0.07087053 -0.20987374 -0.037465226
-0.018724967 0.02377227 -0.08995729 0.05130817 -0.06334461 -0.10445008 0.20365411 -0.1070314
0.107023045 -0.07209907 0.13048859 -0.12085715 0.08009515 0.04139444 0.07550203 0.122692235
0.0006485876 -0.15408014 -0.023711603 -0.0372268 -0.045071576 -0.01619774 0.028572831 0.07796873
0.09477341 -0.081604175 0.021834426 0.0057335463 -0.08965998 -0.11616169 -0.119680755 -0.003106808
-0.0030294952 -0.013166826 0.024824478 0.08546863 0.05435257 -0.058836434 -0.064740516 0.017849706
0.13722512 0.055585757 -0.1294645 -0.11926304 0.22077131 0.061316557 0.097591795 -0.059039533
0.0637757 -0.027523814 -0.047509894 0.055460505 -0.058498375 -0.004242458 0.05309244 0.16455673
0.04678761 -0.040179268 -0.07736225 0.14371888 0.076250315 0.0742606 0.1736576 0.04477558
0.123922646 -0.07354523 -0.112681076 0.1308493 -0.051527657 -0.078398876 0.0017985451 0.08381713
0.08683184 0.033567637 -0.020431668 0.03281348 -0.06907208 0.009806426 -0.15161707 0.1108571
-0.07536305 0.0044363816 -0.090149276 -0.12737744 -0.031172413 0.0569784 -0.07452521 0.026391583
0.08463882 0.050798975 -0.093720876 -0.08935044 -0.050452054 0.05049931 0.087040514 0.07840723
-0.01433564 0.00071941584 -0.0776568 0.08253837 -0.14011395 0.049700275 0.10976738 0.12379657
0.061089475 -0.038651086 0.059449524 -0.1754418 0.068917535 -0.058328893 0.038463518 0.10073503
0.12859005 0.037982214 0.102411084 -0.028728053 0.069797024 0.001460688 -0.11678731 0.012125089
-0.08574691 0.09856628 -0.007387465 0.06831568 -0.12247356 0.037523262 -0.05710833 -0.04915386
-0.039352592 0.1294187 -0.06290293 -0.055971377 -0.002132902 -0.111569904 0.14492993 -0.1576439
-0.05038667 -0.015858937 0.06396105 -0.036510117 -0.06100065 0.013804026 -0.20492296 0.10781114
0.04454537 -0.083234675 0.13778007 -0.036009148 0.013304769 -0.17042524 0.18251932 0.06797929
-0.12605585 -0.041180827 -0.001022811 -0.076591216 0.06751387 0.020743227 0.0031527183 0.10792199
-0.018855551 0.09650604 0.056122035 0.03729559 -0.06472606 -0.11051925 0.081893094 -0.07577819
-0.024781054 0.10859836 -0.10289117 0.046184678 0.03942828 0.12980208 0.10067411 -0.16680893
-0.018377233 -0.0643829 -0.11161284 0.008980955 0.007468872 0.12183393 -0.1021208 0.03482982
-0.03023104 -0.122981094 0.07604355 -0.046654705 -0.09631596 0.17490867 -0.057838477 0.12864003

actor_fc.bias f4 [6]
00000000: 6933 713c d56a 13bd 04fc d33b 15aa 7cbc
00000010: 5f94 f4ba f435 dd3c
0.01472173 -0.035990555 0.0064692516 -0.01542141 -0.0018659941 0.027003266

fc1.weight f4 [512, 192]
00000000: ff85 af40 14b3 8c40 c1ea ab40 b233 a040
00000010: 6418 1540 df44 3740 fe17 2840 2587 4cbd
00000020: 7856 92c0 b7f4 80c0 7b49 5ebd 24d2 75bd
00000030: 2634 29c0 c368 c740 a57a f6bc 7386 223d
00000040: b49d 48c0 44c9 5c3d 7fc9 a140 d331 b140
00000050: ece4 353d de7e 123d 5f85 1241 3619 af40
00000060: 0aa3 7340 8998 fbbf 2c1d 00bf b47b 4b40
00000070: f781 533d c333 c840 c4dd 7940 5fb2 8cc0
00000080: 6b5a ba40 17ae 9940 99ec 2c40 98a1 dbbf
00000090: 05b6 dd3f c7c0 4b40 b76f 3a3d e5cf 3440
000000a0: cfe5 4640 9fd7 40bf 67b0 c040 3352 8a40
000000b0: 7b36 da40 b394 fa40 ddc1 9940 3299 8f40
000000c0: e2b3 a240 0694 ad40 8eae 3c40 697e 2d40
000000d0: c39e 4a3f bbd9 15bd e992 8bc0 9bc4 71c0
000000e0: 3793 d63c 4a1e 84bd 6ab4 9bc0 b673 d040
000000f0: 6a4d 5ebd 3ddc 21bd 3394 38c0 9cc0 84bd
00000100: 1221 8f40 68bb 9f40 8502 763c eed6 0ebd
00000110: 30c7 0941 f974 8940 fc54 8d40 c545 dabf
00000120: 9ee2 913f 1240 3340 39a4 e7bc cd63 ba40
00000130: d169 3040 48f9 91c0 07bd a940 4e41 9140
00000140: 622e 2640 6e90 c2bf c4aa ef3f dd3b 3840
00000150: 2b9c 363d 1aef 3f40 0855 3c40 3265 3ebe
00000160: 4aba c540 37c1 9140 df2f da40 afb8 dd40
00000170: de3d b1be 3315 7f3d b862 1541 b0bc 1a41
00000180: c98b 9b40 a2cc 8f40 fcd6 a240 42fd ad40
00000190: 8055 3840 995c 2c40 0b22 613f 8861 763d
000001a0: 57af 8ac0 a782 6cc0 3c71 933d a836 773d
000001b0: 54e2 9bc0 0c80 d140 1091 81ba c47d 80bd
000001c0: 1779 38c0 6385 263d ea3a 8d40 feb9 a140
000001d0: 7542 d4bc 9d5e 7e3d 8558 0941 351e 8640
000001e0: 8464 9140 c995 dabf 62d4 883f 6021 3540
000001f0: a5ac 8cbd 0509 bc40 aba9 3240 aa09 91c0
00000200: b727 aa40 ece4 9140 d84c 2740 400a bebf
00000210: 7ccb fb3f 8b5f 3a40 d138 4bbc 0008 3d40
00000220: f494 4240 b8da 3dbe c6b4 c640 2bc7 9040
00000230: a352 db40 17e7 df40 e98a af40 5639 8d40
00000240: 8f20 aa40 90db a040 c4ef 1140 b5bf 3640
00000250: 4c8f 2640 c9c4 99bc bec4 96c0 f311 7bc0
00000260: 4f32 babc 9aa3 503d 60e0 2ec0 b5dd c740
00000270: 9d9c 5f3d e2f5 393d 2035 44c0 dd3e 50bd
00000280: 43bd a140 bbc5 b040 328a 8ebb f5dc 283d
00000290: a5dc 1241 748d ae40 ca6b 6e40 8c29 ffbf
000002a0: eb6d d9be fc8c 4440 a816 2b3c f1fe c740
000002b0: b45e 7540 95ae 8ac0 e5b5 bb40 d9d5 9840
000002c0: d139 2d40 6a2e debf 53cb dc3f dd68 5040
000002d0: 5c55 823b 9701 2d40 1f27 4640 eb61 29bf
000002e0: ad72 bd40 ef31 8a40 0f7b d940 13c9 f940
000002f0: 600c c73e 2a28 0dbe e4b7 1541 58a0 1741
00000300: 9412 be40 3ac2 b040 4b92 bd40 ebfd c440
00000310: 6ed8 8140 94ec b840 05ec 6c40 dae0 0e3d
00000320: b73d a3c0 7fe1 6cc0 06e5 91bc d0fc 52bc
00000330: c5d1 4ec0 bc99 ca40 2298 87bd 3fda a2bb
00000340: 17cc 33c0 23a2 3dbd b383 de40 c2d4 bb40
00000350: c334 d63c 6182 83bd 2a0b 3341 8f56 9340
00000360: 2046 c240 b887 77c0 3194 f7bf 5445 5240
00000370: aa4e 97bc 1d61 f740 cb12 2940 4015 bfc0
00000380: ff7c c840 ca98 9b40 8a22 7940 ca25 c8bf
00000390: a311 753f ba1e 3940 18f1 513d 019a 8440
000003a0: 62bc 3140 b76e edbe 2861 ee40 9f4c b040
000003b0: 5134 0641 a2e3 0341 5687 ae40 04a7 c740
000003c0: e41d b140 8ef6 d040 d049 6940 96e1 cb40
000003d0: 36c9 6940 d8f0 873d 473e a5c0 a540 90c0
000003e0: b218 5dbd 8b92 e8bc 3f57 96c0 6fe2 da40
000003f0: b8df 103d e228 563d b338 14c0 b8fb 353d
5.485107 4.39686 5.3724065 5.0063105 2.3296137 2.8635786 2.6264644 -0.04993357
-4.5730553 -4.0298724 -0.054269295 -0.06001486 -2.643808 6.2315383 -0.030087778 0.039679002
-3.1346254 0.05390288 5.0558467 5.537332 0.04440777 0.03576552 9.157561 5.4718275
3.806826 -1.9655925 -0.5004451 3.1794252 0.051637616 6.2563186 3.9041605 -4.396774
5.8235373 4.802501 2.7019408 -1.715869 1.7321173 3.1836412 0.045516696 2.8251889
3.1077764 -0.7532901 6.0215335 4.322534 6.8191504 7.8306518 4.804915 4.4874506
5.0844584 5.4243193 2.948154 2.7108405 0.791485 -0.036584597 -4.3616834 -3.7776248
0.026193244 -0.0645109 -4.865773 6.514125 -0.054273047 -0.039516676 -2.8840454 -0.0648205
4.472787 4.9916267 0.015015249 -0.03487294 8.61113 4.295529 4.416624 -1.7052542
1.1397283 2.8007855 -0.02827655 5.8246827 2.7564585 -4.56168 5.3043246 4.539222
2.596581 -1.5200326 1.8723989 2.8786538 0.044582527 2.9989686 2.94269 -0.1859329
6.1789904 4.554836 6.8183436 6.9287944 -0.34617513 0.062276077 9.336601 9.671066
4.8608136 4.4937296 5.088743 5.4371653 2.8802185 2.6931517 0.8794257 0.060151607
-4.333904 -3.6954744 0.07199332 0.06035486 -4.871378 6.5468807 -0.0009885151 -0.06273988
-2.8823907 0.04065455 4.4134417 5.053954 -0.025910595 0.06210195 8.584111 4.1911874
4.54352 -1.7076961 1.0689814 2.830162 -0.06868867 5.876101 2.7916057 -4.5324297
5.317348 4.5591946 2.6140652 -1.4846878 1.9671474 2.9120815 -0.012403683 2.9536133
3.0403414 -0.18540466 6.209567 4.5243125 6.8538375 6.996959 5.485707 4.413249
5.3164744 5.026802 2.2802591 2.8554509 2.6024961 -0.018770592 -4.7115164 -3.9229705
-0.022729067 0.050937273 -2.7324448 6.245814 0.054592717 0.045400508 -3.0657425 -0.0508412
5.054353 5.524137 -0.0043499703 0.041226346 9.178868 5.454767 3.725329 -1.9934554
-0.42466673 3.071105 0.010442413 6.249871 3.8339052 -4.3338113 5.865954 4.7761045
2.7066538 -1.7357914 1.724955 3.2564003 0.003977461 2.703222 3.0961378 -0.66165036
5.9202485 4.3185954 6.796272 7.805795 0.3887663 -0.13784853 9.357395 9.476646
5.939768 5.5237093 5.924108 6.155996 4.0576696 5.778879 3.7019055 0.034882404
-5.1012836 -3.7012632 -0.017809402 -0.012877658 -3.2315533 6.3312664 -0.06620814 -0.0049698646
-2.8093317 -0.046297204 6.9535766 5.8697214 0.026148206 -0.06421352 11.190226 4.604316
6.07106 -3.8676586 -1.93421 3.2854815 -0.018470127 7.7306046 2.641772 -5.971344
6.2652583 4.862401 3.892733 -1.5636532 0.95730036 2.8925004 0.051255316 4.1437993
2.777123 -0.4637353 7.44936 5.509353 8.387773 8.243074 5.4540205 6.2391376
5.5348988 6.530097 3.6451302 6.3712873 3.652906 0.06637734 -5.163852 -4.507891
-0.05397863 -0.02839019 -4.69815 6.840141 0.035369605 0.052285083 -2.3159606 0.04442951

fc1.bias f4 [512]
00000000: e227 2141 d95a 4541 ba04 ec40 412a d040
00000010: 7181 f340 0c9d bd40 9d2e df40 6bae 4741
00000020: 7824 e640 78c6 1841 2829 3b41 58d4 be40
00000030: 6af8 0641 824e 9440 f70e a140 7d84 ca40
00000040: c7ca de40 a7cf 4741 e0b6 4441 cfd4 9d40
00000050: a7cd 4841 3902 9940 046f cd40 7c79 4741
00000060: a8ad cd40 a855 1d41 40e8 ae40 b8e7 0341
00000070: b56a 0841 301a 0441 5eaf 0f41 74ae e540
00000080: 13f9 a740 e68c c240 0b2c 3c41 bce6 d540
00000090: 67f0 4741 f390 0541 8978 2341 9e91 5841
000000a0: 24ae e040 59c7 d440 6a9a 0041 737a 4741
000000b0: 7ce8 4641 9a84 f540 4df9 0441 3564 db40
000000c0: c901 8a40 bc73 c840 a6f4 e340 d40b a540
000000d0: 9030 b040 28ff f040 0f00 4841 85c1 e240
000000e0: 3e6b b040 8076 b840 07a2 4741 19c8 cb40
000000f0: 479b 4841 5727 1641 3311 1141 ee6e f240
00000100: 1532 4841 4813 e440 6a2e 5241 0cf5 f440
00000110: 7e07 4841 d06d 4641 d461 fc40 2442 4741
00000120: 119a a040 cbb8 4641 6b53 4741 77da 3c41
00000130: a312 0341 e0f1 3341 c2c3 be40 349f d040
00000140: 4086 ed40 4353 4641 f6d7 4541 90ae a840
00000150: 9f94 ed40 9ae2 1e41 0d04 0a41 82b1 0041
00000160: ddc7 1241 53fe fc40 40a4 b940 d8ea 1b41
00000170: 0ce6 1541 c243 3941 15df 9d40 5669 be40
00000180: f8df 4741 6e2b 0a41 923c a540 bd44 bb40
00000190: eee1 9d40 bfdb e440 378a c240 d910 4241
000001a0: 2f39 fa40 bae2 f040 d7ab d340 696d a640
000001b0: 22ed e740 7b25 ae40 674a b440 c374 e840
000001c0: b9f5 eb40 2085 d840 bbe0 1241 1f83 2841
000001d0: 7ac1 1241 f991 2741 4a9a 4041 7b08 0241
000001e0: deb6 0241 91eb 1341 c0cb 4641 cbf6 4541
000001f0: 2562 3a41 66cb 3541 1101 1341 409a 4641
00000200: 9bba f940 48cb 2141 114b de40 092e db40
00000210: 0e70 d240 397f f740 16a6 2a41 2989 e340
00000220: b590 eb40 7064 4641 5bc7 3141 41c1 0241
00000230: 0d3a 5741 1762 0e41 bb63 4741 8840 0841
00000240: 29a5 f240 fd10 bc40 c070 4741 9d6d 4941
00000250: 7fd1 f140 1795 4041 9cdc 0241 41bf f040
00000260: 2cc4 9e40 6e28 4641 a37e c840 b8b1 f540
00000270: a70e 2241 26b1 0241 cc28 2a41 e0d4 0041
00000280: c061 fd40 a9d0 fb40 d022 c940 b37f 4541
00000290: efa3 4641 fa9e 3841 4702 f840 f804 2041
000002a0: 096d 2841 182a dc40 720d ae40 5279 0741
000002b0: db77 3a41 559c b940 ae7b c940 462a dc40
000002c0: 07e4 4741 ae3f cf40 97fe c640 54b6 2f41
000002d0: ef94 0c41 187f 3841 6d75 ec40 5949 e040
000002e0: a412 4741 e0d6 0841 e1a7 4641 aea3 4741
000002f0: 319a dc40 8114 f840 e81d be40 3307 3c41
00000300: b3ad c940 2ddd bd40 edff c640 d47f ee40
00000310: 202d 2541 34fb d440 e6b7 c840 acca d140
00000320: f543 d540 9c79 0841 c7b1 f640 db9f 4841
00000330: f699 3941 b19b d040 70ee c040 1a1f 4b41
00000340: 12bb f440 164a 5141 ffbc e740 bee4 b640
00000350: 218e 0141 75cd a940 93d8 2c41 2af5 5341
00000360: ed2b c040 65ae 0641 79ee cb40 db8a 0041
00000370: a39f cb40 7ef0 0641 7ff8 1c41 2019 0941
00000380: 62dc db40 f81d ee40 a616 1741 588c d840
00000390: bbd7 b740 fa01 c940 04cb d940 91f1 0d41
000003a0: 9e43 fd40 2084 b340 2445 cf40 fa78 d040
000003b0: 0508 9f40 638d c440 37d0 4641 85dc 4641
000003c0: 9aea 1241 65d3 2d41 35d8 4741 07a5 ff40
000003d0: 4d8c 3a41 a480 5341 a5e6 e640 ce0e 4641
000003e0: 8091 4641 80bc 4841 548c c140 1415 1b41
000003f0: 1d27 cb40 2b72 d640 d517 0f41 2c38 2941
10.072237 12.33468 7.375577 6.505158 7.609551 5.9254208 6.97444 12.4800825
7.1919518 9.548454 11.697548 5.963421 8.435648 4.6345835 5.033077 6.328673
6.962253 12.488196 12.294647 4.9322276 12.550208 4.7815213 6.4198017 12.467159
6.4274483 9.833412 5.465851 8.244072 8.5260515 8.256393 8.980314 7.1775455
5.2491546 6.0796995 11.760753 6.684416 12.496192 8.347888 10.216928 13.535551
7.0212574 6.6493344 8.037699 12.467395 12.431759 7.6724367 8.310864 6.8559823
4.312718 6.2641277 7.1236143 5.157694 5.505928 7.531147 12.500014 7.086123
5.513091 5.7644653 12.477057 6.368176 12.5379095 9.384604 9.066699 7.576041
12.512227 7.1273537 13.136332 7.654913 12.501829 12.40181 7.886942 12.453648
5.018807 12.420115 12.457866 11.803336 8.19205 11.2465515 5.961396 6.519434
7.422638 12.395328 12.365225 5.271309 7.424392 9.930323 8.625989 8.043337
9.173795 7.9060454 5.8013 9.744835 9.368664 11.579042 4.9334817 5.9503584
12.49218 8.635603 5.163644 5.852141 4.9338293 7.1518245 6.079372 12.129113
7.8194804 7.5276766 6.6147265 5.2008557 7.247697 5.4420753 5.6340823 7.264253
7.3737454 6.7662506 9.179866 10.532012 9.1722355 10.473138 12.037668 8.12707
8.169645 9.245011 12.424744 12.372752 11.648961 11.362158 9.18776 12.412659
7.804029 10.112129 6.9466634 6.8493695 6.5761786 7.73428 10.665548 7.110493
7.3614144 12.399521 11.111171 8.172181 13.451673 8.898948 12.461848 8.515755
7.582661 5.877074 12.465027 12.589261 7.5568233 12.036399 8.17886 7.5233464
4.961447 12.384871 6.2654586 7.677944 10.128577 8.168249 10.63496 8.051971
7.9181824 7.869221 6.2854996 12.343677 12.415023 11.538813 7.750278 10.001213
10.52662 6.8801384 5.4391413 8.467119 11.654262 5.8003335 6.2963476 6.8801603
12.493171 6.4765234 6.218578 10.982014 8.786361 11.531029 7.389334 7.0089536
12.442051 8.55246 12.415986 12.477461 6.893822 7.752503 5.9411507 11.751758
6.3024535 5.933249 6.218741 7.453104 10.323517 6.6556644 6.2724485 6.55599
6.6645455 8.52969 7.7092013 12.539027 11.600088 6.5190053 6.029106 12.695093
7.6478357 13.080587 7.241821 5.7154226 8.097199 5.30633 10.802875 13.2473545
6.005362 8.417577 6.3728604 8.0339 6.363237 8.433714 9.810668 8.568634
6.870652 7.4411583 9.443029 6.767132 5.7450843 6.2814913 6.806032 8.871476
7.914504 5.6098785 6.47719 6.5147676 4.969729 6.142259 12.425834 12.428838
9.182276 10.86411 12.490285 7.988895 11.659253 13.218906 7.215655 12.378614
12.410522 12.5460205 6.04838 9.692646 6.3485246 6.7014365 8.943318 10.576214

ln1.weight f4 [512]
00000000: 5027 a13f f4cb 953e 6a73 e23f 42b4 903f
00000010: b1af c03f fc6f 1e40 3551 4b3f 53a1 973e
00000020: 7665 e63f bd97 b03f 7faa 223f a864 dc3f
00000030: c344 be3f c410 c03f 3c05 353f ef3e 9b3f
00000040: b6a0 6d40 61a0 a23e fa5a 9d3e c372 1240
00000050: ba0f 8b3e 107f 7f3f 1be0 bd3f a53e 9f3e
00000060: 91d4 aa3f afa1 953f 7cc2 3e40 9105 5340
00000070: 82a9 2e40 15d1 073f 1254 1640 49a3 553f
00000080: aecb 313f ff03 1a3f 1f9c 133f 70ba 4d3f
00000090: 9678 9b3e 5895 a13f b6bc 563f b87a 1b3e
000000a0: 189d 2640 272d f23f 74e7 6b3f 073e a53e
000000b0: a908 9b3e d518 8040 89b3 1340 c67c 1e40
000000c0: a637 933f f7a2 d73f 4bdc d43f 3fce 433f
000000d0: 1063 be3f 143a 193f d82a 943e b677 ac3f
000000e0: ccbb cd3f 336d b23f 4fbb 973e 4274 1d40
000000f0: f052 8f3e 97b9 a13d f0df 003f adbf 4040
00000100: 681a 993e 783b 9940 59ed 4b3e 18ff 8a40
00000110: 7ccd 933e 700b a23e f1e4 0c40 a1b1 963e
00000120: cd4e a43f 5df4 943e 9076 933e a9bd 00be
00000130: bec1 2c3f 14a8 53be 5700 1d40 b300 813f
00000140: 3369 2340 4cb4 9d3e 8334 b43e 3f93 0540
00000150: ce7c 813f e8cf 923f af5b f33f 9689 0c40
00000160: 842b e03e 0f36 fb3f 438d 333f 4ba5 573f
00000170: c337 933f ef55 2d3f af4c a63f e831 f23f
00000180: ceb2 9a3e 24ce 873f 943a 3e40 95c3 863f
00000190: fa9c ab3f 500e 8540 46cb bd3f 6614 c13e
000001a0: 0cb6 4940 d131 0040 d454 683f 3ac4 8b3f
000001b0: 4d5c 943f 11ee b53f 6051 833f 8dee d93f
000001c0: 245e 293f c343 5d3f 3a23 7a3e f81f 4c3f
000001d0: 72c6 783f 5e7d 9e3f ab55 fc3e 8a74 e93f
000001e0: e37e d53f d9ce b03f d40e 913e e878 a53e
000001f0: 520a 093f d37d cd3e ba40 a43f d95f 883e
00000200: f1f6 1440 40ad 973f e4d2 b13f 3168 5040
00000210: c1a2 203f 7072 a53f 4611 983e 2ca2 f43f
00000220: f96e 863f 893a 903e 71e3 0fbf c836 f43f
00000230: f34e 3f3e 595e 203f f2d0 933e 7579 113f
00000240: 0873 a840 95eb d63f cbad 9b3e 2a4a 893e
00000250: 7cad ab40 d538 f53d ec74 1040 85dc 5b40
00000260: 71bb be3f 314d b03e c541 ad3f 2d8c a63f
00000270: 943a 5a3f 2059 4240 3756 833f 8208 8d3f
00000280: 615b b83f 933e 813f 03b1 1640 3812 983e
00000290: 7f07 943e 77f0 513f 7b4c 403f 258b d33c
000002a0: 9f3b 4b3f b0fc 6040 1c29 513f f58a fa3f
000002b0: 71f6 d73e cefe 2440 2a1b 973f 673d 4340
000002c0: 550f 933e a9a0 a93f 1d52 f73e f423 213f
000002d0: 5e41 cc3f 8fe2 473f c5c2 c43f c435 af3f
000002e0: e6a8 a13e 7745 893f 6f1c 9b3e 86ec 973e
000002f0: 7431 8840 e5fc a43f ab44 903f 444e b33e
00000300: 1320 923f f4c5 133f a975 893f 2f56 2340
00000310: e771 9bbe 8cca b43f ea14 f33f bec2 8140
00000320: 8bd5 1740 ce88 1e3e c8da be3f 4fa5 8e3e
00000330: 7a92 213f ad8a 2f40 69cc bf3f 8b57 863e
00000340: cf40 0740 70d7 4a3e 30a7 c63f 9f54 d63f
00000350: d07d 4340 106a a73f b063 cd3d 941b 243e
00000360: de2d b240 45fe 0c40 e890 603f 3f56 0f40
00000370: 599f fa3e 6ed4 8f3f 2c9a cb3f 58a1 0240
00000380: 44c8 543f 2897 2840 d258 a23f db1c a93f
00000390: ca5d 0040 19b5 1b3f 3f0c 813f f865 b63f
000003a0: 6c6a 8f3f 0143 f03f 1e0f 0640 e18d bc3f
000003b0: b2c0 083f 83fc ab3f 56a2 973e c1a9 a33e
000003c0: b0a5 9d3f 6628 7b3f 5e98 a53e ea45 0540
000003d0: 75dd 023f 4bd3 3f3e b662 0d40 2c95 ac3e
000003e0: 48b1 a03e 6bd7 893e ba37 3540 518a 9b3f
000003f0: c3cb 403f 030c 1940 0782 bc3f 2a16 743f
1.2590122 0.29257166 1.7691472 1.130501 1.5053617 2.475585 0.7942079 0.29615268
1.7999713 1.3796307 0.63541406 1.7218218 1.4864734 1.5005116 0.7071111 1.2128581
3.712934 0.31762984 0.30733472 2.2882545 0.27160436 0.99803257 1.4834017 0.3110248
1.334612 1.1689967 2.9806204 3.2972147 2.729096 0.5305341 2.3488812 0.8345228
0.69451416 0.6016235 0.57660097 0.80362606 0.30365437 1.2623701 0.838817 0.15183532
2.6033382 1.8920029 0.92150044 0.32273886 0.30280045 4.0030313 2.307833 2.4763656
1.1501358 1.6846608 1.6629728 0.7648658 1.4873981 0.59854245 0.28938937 1.3474033
1.6072936 1.3939575 0.29635093 2.4602208 0.27992964 0.078967266 0.503417 3.011699
0.2990296 4.7885094 0.1991476 4.3436394 0.2886771 0.3164935 2.2014735 0.29432395
1.2836548 0.29092684 0.28801394 -0.1257235 0.6748313 -0.20669585 2.4531457 1.0078338
2.5532959 0.30801618 0.35196313 2.0871122 1.0116212 1.1469698 1.9012355 2.1958976
0.437832 1.9625872 0.70137423 0.8423659 1.1501392 0.6770925 1.2992152 1.892148
0.30214542 1.0609784 2.9723253 1.0528437 1.340728 4.157997 1.4827659 0.37710875
3.1517363 2.0030406 0.9075444 1.0919259 1.1590668 1.4213277 1.0259209 1.7025925
0.6615927 0.8643152 0.244275 0.7973628 0.97177804 1.2382009 0.4928411 1.823869
1.6679348 1.3813125 0.28331625 0.32318807 0.5353137 0.4013506 1.2832253 0.26635626
2.327572 1.1849747 1.3892484 3.2563593 0.6274834 1.2925549 0.2970068 1.9111991
1.0502616 0.2816966 -0.56206423 1.9079218 0.1868246 0.62643963 0.2887035 0.56825954
5.264042 1.6790644 0.3040603 0.26814395 5.3649273 0.119737305 2.2571363 3.4353344
1.4900953 0.34433892 1.3535696 1.3011528 0.85245633 3.0366898 1.0260686 1.1018221
1.4402887 1.0097221 2.354554 0.297014 0.2891197 0.82007545 0.751167 0.025823185
0.7938785 3.5154228 0.8170335 1.9573656 0.42180207 2.578052 1.1805165 3.0506227
0.28722635 1.3252155 0.48304835 0.62945485 1.5957448 0.78080076 1.5371939 1.3688283
0.31574172 1.0724324 0.3029513 0.2967264 4.2560368 1.2889677 1.1270956 0.3502065
1.1416038 0.5772393 1.0739032 2.5521352 -0.30360338 1.4124312 1.8990757 4.0550222
2.3724086 0.15481874 1.4910517 0.27860495 0.6311413 2.742839 1.4984256 0.26238665
2.1133306 0.19808745 1.5519772 1.6744574 3.054554 1.3079243 0.100287795 0.16026145
5.568099 2.2030194 0.8772111 2.239639 0.48949698 1.1236703 1.5906425 2.0410976
0.8311808 2.6342258 1.2683356 1.3211931 2.0057244 0.6082321 1.0081862 1.4249868
1.1204352 1.8770448 2.0946727 1.4730798 0.5341903 1.3436435 0.2961604 0.3196545
1.2316189 0.9810852 0.3234281 2.0823922 0.51119167 0.18732946 2.2091498 0.3370756
0.31385255 0.26922163 2.8315263 1.2151586 0.75310916 2.3913581 1.4727181 0.9534632
