project_3/checkpoints/checkpoint_cycle_02_20241024_233842.pt (torch, 624850 bytes, 12 tensors)

shared_fc.weight f4 [512, 96]
0.027233537 0.031316806 -0.0646374 0.03530289 -0.06602954 0.060393266 0.07544903 -0.08740571
0.056706052 -0.13919717 -0.017563125 0.085134834 -0.0652707 -0.12859756 0.0060797604 -0.042976785
-0.012748678 0.0401595 -0.041794375 0.05412371 -0.026632415 0.09188705 -0.052174494 0.0050891843
-0.0008691552 -0.07879231 -0.008445065 -0.029863993 -0.074412294 0.045932833 0.04905964 -0.04073318
0.011290443 0.008869283 -0.095749274 -0.039301082 -0.021995982 0.06630519 0.04590542 0.013027237
0.05396437 0.0040496476 0.075463474 -0.031791598 -0.14997616 0.006958746 -0.045661896 -0.04115419
-0.020744618 -0.009635269 -0.07703736 -0.0009628325 0.06725905 -0.030932568 0.057317045 0.041031197
-0.0507801 -0.0084104715 -0.030156743 0.0046076714 0.044147264 0.08045751 0.067919515 -0.029392635
0.015604653 0.036424696 0.024561172 0.013283765 0.066010974 0.0653638 0.03117172 0.0993085
0.0324562 0.015295111 0.033670597 -0.01627344 0.03848662 0.027427554 0.06094749 0.119198844
0.04413512 0.029186161 0.05773583 0.060299035 0.027956558 0.038221534 -0.0025466972 0.09359213
0.074704155 0.027247205 -0.02558558 0.10802109 0.02468252 0.016320162 0.072956674 -0.045923304
-0.007896026 0.10527052 -0.020386796 -0.08216425 -0.065675505 0.039252747 0.122161865 0.013614396
-0.1573842 -0.11639038 0.082964845 0.0481026 0.012839291 0.028069349 0.06510018 0.010080138
-0.018645456 0.01744994 -0.04241396 -0.0034457243 -0.09850875 0.05138183 -0.021057082 0.087534666
0.019844059 0.09781392 -0.009963478 -0.024631262 -0.08939655 -0.013434898 0.13027067 -0.08381657
0.06022724 0.017289916 -0.042596437 0.08173732 -0.056393217 -0.047727846 -0.07245253 0.031433955
0.07780779 0.080003716 -0.070191294 0.019574007 0.082817994 -0.09959426 0.054485388 0.09275775
-0.07163464 -0.025567565 0.017007481 0.04512513 0.039971113 0.024575504 -0.05397132 -0.08919201
-0.051251683 -0.07930313 0.014555784 0.051944036 0.046707038 -0.06861231 -0.05705309 0.090363674
0.11954878 -0.053450663 -0.09883587 0.09160187 -0.059219085 -0.07775866 -0.028930215 -0.0002835862
0.060273577 -0.04460158 0.0017122508 0.026259141 -0.06303466 -0.044794064 0.05239696 0.034101296
-0.002021494 0.038154 -0.022184495 0.04374542 -0.004350099 -0.06384141 0.06917569 0.0011704167
0.10318844 0.0048266477 0.061336707 0.07575921 0.056084733 0.031790983 0.0043150727 0.048365016
0.08376782 0.05002306 0.023496585 -0.03369576 0.11915063 -0.011963989 0.03746594 -0.009436031
0.01708738 0.05476032 -0.069226116 -0.02593925 -0.11365277 -0.022984177 -0.06280231 -0.02395949
-0.086709276 -0.06046713 -0.09537018 -0.039027747 -0.0034276526 0.03561492 -0.05578846 -0.03140094
0.14364833 -0.012072014 -0.046511564 0.012567776 -0.034984715 -0.003272546 -0.07844121 -0.09862347
0.048274774 0.033092678 0.019335972 0.06135378 -0.033243652 -0.038429264 -0.06928295 0.033890333
-0.024270702 -0.024822112 0.007727817 0.026840715 -0.012387347 0.06729221 -0.015755266 -0.007566371
0.01119937 0.019235825 0.07702511 0.02924528 0.106238395 -0.020934666 -0.056410383 -0.06638227
-0.05271039 -0.07567509 0.054072067 -0.0056207064 -0.08716319 -0.026638206 0.021794334 0.023629356
00000000: de18 df3c 0d46 003d 9d60 84bd c399 103d
00000010: 7f3a 87bd ee5e 773d 0585 9a3d c401 b3bd
00000020: 9b44 683d b489 0ebe 8be0 8fbc 2c5b ae3d
00000030: a5ac 85bd 14af 03be ba38 c73b 6d08 30bd
00000040: d5df 50bc 4a7e 243d 9430 2bbd d3b0 5d3d
00000050: 392c dabc 472f bc3d ecb4 55bd 2cc3 a63b
00000060: 05d8 63ba dd5d a1bd 2b5d 0abc 55a5 f4bc
00000070: 7965 98bd 1124 3c3d c3f2 483d d6d7 26bd
00000080: 8dfb 383c 7850 113c 3218 c4bd 2cfa 20bd
00000090: eb30 b4bc 04cb 873d 5207 3c3d 3170 553c
000000a0: be09 5d3d e8b2 843b 988c 9a3d e837 02bd
000000b0: 5a93 19be 3106 e43b f807 3bbd 4c91 28bd
000000c0: 9ef0 a9bc 3fdd 1dbc c3c5 9dbd 9866 7cba
000000d0: 1dbf 893d 4c66 fdbc 47c5 6a3d 5410 283d
000000e0: cbfe 4fbd 13cc 09bc 460b f7bc f3fb 963b
000000f0: c3d3 343d e8c6 a43d 6319 8b3d d3c8 f0bc
00000100: a9aa 7f3c 1032 153d 8334 c93c 26a4 593c
00000110: c330 873d 75dd 853d d65b ff3c 4162 cb3d
00000120: cbf0 043d 5898 7a3c 2eea 093d e14f 85bc
00000130: 25a4 1d3d c0af e03c 13a4 793d 861e f43d
00000140: 07c7 343d d117 ef3c 687c 6c3d 1ffc 763d
00000150: 2705 e53c 2f8e 1c3d 7de6 26bb 3bad bf3d
00000160: 7efe 983d 8835 df3c da98 d1bc 293a dd3d
00000170: ff32 ca3c dcb1 853c 4f6a 953d 131a 3cbd
00000180: 555e 01bc 1298 d73d 3602 a7bc bb45 a8bd
00000190: e180 86bd 7dc7 203d 0030 fa3d ea0e 5f3c
000001a0: 5329 21be 145e eebd 79e9 a93d 3b07 453d
000001b0: e45b 523c b1f1 e53c 3e53 853d 2a27 253c
000001c0: 5bbe 98bc 2df3 8e3c 43ba 2dbd a9d1 61bb
000001d0: f5be c9bd c175 523d e77f acbc 6045 b33d
000001e0: 0290 a23c aa52 c83d db3d 23bc 80c7 c9bc
000001f0: 8a15 b7bd 0c1e 5cbc ad65 053e 06a8 abbd
00000200: d7b0 763d 95a3 8d3c 9a79 2ebd e565 a73d
00000210: 93fc 66bd 467e 43bd fe61 94bd e4c0 003d
00000220: b159 9f3d fdd8 a33d 74c0 8fbd ab59 a03c
00000230: 7b9c a93d 13f8 cbbd 122c 5f3d c6f7 bd3d
00000240: 2fb5 92bd 1273 d1bc 4653 8b3c 21d5 383d
00000250: c0b8 233d 9152 c93c 0811 5dbd 4daa b6bd
00000260: 49ed 51bd ae69 a2bd 627b 6e3c 45c3 543d
00000270: e14f 3f3d 9c84 8cbd 80b0 69bd 9710 b93d
00000280: fed5 f43d 15ef 5abd 766a cabd c399 bb3d
00000290: b68f 72bd ef3f 9fbd 0fff ecbc 4cae 94b9
000002a0: 6de1 763d 25b0 36bd 9a6d e03a 691d d73c
000002b0: 5118 81bd fb79 37bd 329e 563d cdad 0b3d
000002c0: 0b7b 04bb 5e47 1c3d 42bc b5bc 662e 333d
000002d0: 468b 8ebb 49bf 82bd fcab 8d3d ab68 993a
000002e0: 7654 d33d db28 9e3b 333c 7b3d a527 9b3d
000002f0: 1bb9 653d 4337 023d 7465 8d3b 651a 463d
00000300: 768e ab3d fbe4 4c3d e97b c03c 9104 0abd
00000310: 3f05 f43d 9b04 44bc e375 193d 9599 1abc
00000320: d5fa 8b3c 5b4c 603d 6cc6 8dbd 8d7e d4bc
00000330: c9c2 e8bd 5049 bcbc 7f9e 80bd b146 c4bc
00000340: a294 b1bd 62ac 77bd 7151 c3bd 8fdb 1fbd
00000350: 78a2 60bb f3e0 113d 7182 64bd 469e 00bd
00000360: 8c18 133e b2c9 45bc e982 3ebd 13e9 4d3c
00000370: 224c 0fbd 3678 56bb c9a5 a0bd 1afb c9bd
00000380: c5bb 453d 308c 073d 7966 9e3c 1a4e 7b3d
00000390: 7f2a 08bd 0168 1dbd 38e4 8dbd 97d0 0a3d
000003a0: 5ad3 c6bc be57 cbbc a139 fd3b 0fe1 db3c
000003b0: 4df4 4abc 80d0 893d 3011 81bc 52ef f7bb
000003c0: 907d 373c 7394 9d3c 57bf 9d3d cc93 ef3c
000003d0: 8493 d93d 2d7f abbc 930e 67bd 6df3 87bd
000003e0: dae6 57bd 8bfb 9abd ac7a 5d3d e72d b8bb
000003f0: 9d82 b2bd 5e38 dabc 088a b23c 5a92 c13c

shared_fc.bias f4 [512]
-0.0073990542 -0.012864555 0.09683121 -0.045908336 0.003160361 -0.001072006 -0.06780863 -0.05539916
0.083036475 0.028825426 0.027424727 -0.040862385 0.0150019545 -0.034296464 -0.052000754 -0.008754748
0.07098682 0.066108204 0.08610244 -0.012286606 -0.08616545 0.0322336 -0.042596243 0.034113098
0.05333501 -0.060343012 0.014434012 0.0685351 0.09303211 -0.057853132 0.07835843 0.022531847
0.11256099 0.036220945 -0.0010940599 -0.090255484 0.04934857 -0.0725565 -0.021839183 0.06793071
0.07774056 0.09986898 -0.108312175 -0.013699737 0.10346765 0.021809814 -0.05512633 -0.05875186
0.04240245 0.015347254 0.04975533 -0.049907 0.0121544665 -0.06671483 -0.059251126 0.006195802
-0.06938229 0.11162377 0.026238963 0.064214475 0.0855111 0.07403662 -0.05657551 -0.053571437
-0.037628043 -0.07896775 -0.074589506 0.03507605 0.046758525 0.032880295 0.08318806 -0.084456585
-0.022956647 0.059185054 0.022681179 0.07389481 -0.03259378 -0.067224 -0.02922718 -0.020595085
-0.0817506 -0.046587456 0.09098956 -0.0024380991 -0.08314745 -0.07093668 -0.008293324 -0.049411375
0.0040160404 0.08746806 0.09628157 0.00037706314 -0.054667387 0.06547252 0.062460363 0.0872057
0.009716 0.034378923 -0.008567189 -0.007829163 -0.043174848 -0.07890436 0.09379974 -0.012157785
-0.031060202 0.017592909 -0.00494832 -0.07891924 0.12316854 -0.031161409 0.047128476 0.069220066
-0.04861493 0.05870007 0.03580484 -0.023246296 -0.00839209 -0.015687061 -0.037891436 0.09701112
0.06878991 0.029642478 -0.03068564 0.106577605 -0.07348666 0.07288547 -0.04864129 -0.020395443
0.056833997 -0.077432856 -0.06564896 -0.027083108 -0.020245695 -0.060369 0.084277235 -0.048136145
-0.012783226 0.029235259 -0.031078309 0.046125848 0.053917676 -0.01946625 -0.026897348 0.0469391
0.07177703 -0.07969925 -0.052433208 -0.058488254 0.08832181 0.03243999 -0.036732063 -0.043990668
0.006826718 0.046071462 0.111766145 -0.06300255 0.047456585 0.12316189 0.069732405 -0.0045101196
0.067272566 -0.0034106798 -0.102287285 0.016725713 -0.0153125925 0.10634978 0.019801049 0.04381907
0.04646339 0.10549079 0.053491846 -0.06972514 0.054533463 -0.015157444 0.10423653 -0.084991194
-0.022687754 -0.025792211 -0.005615815 0.030880185 0.013791518 0.056426167 0.09047252 -0.03436974
0.08514058 -0.056649894 -0.03370705 0.062390137 0.0076217926 0.0119573185 -0.07002561 0.044978105
-0.07764157 -0.085838966 0.01312096 -0.037760325 -0.0017088364 -0.058407865 0.09553333 0.08079954
-0.028251009 0.06778938 -0.002591219 0.061490126 -0.031494845 -0.01128693 0.007933144 -0.066099435
0.10843152 0.017268859 0.009823203 0.114573464 0.013131212 0.094427 0.053938158 0.02410106
0.02848843 -0.097626984 -0.006089828 -0.047893398 -0.09222562 0.114458635 -0.043625075 -0.0060013277
0.073993966 0.054798447 -0.086572915 0.1092528 0.017996596 -0.03527177 -0.04438054 0.02781403
-0.007048335 0.078553386 -0.08574047 -0.050226692 -0.046422437 -0.047563106 0.030596 -0.046347227
-0.023601124 0.008979133 -0.04237918 -0.053111993 -0.009424092 -0.09781772 0.04225677 0.012561346
-0.09126498 -0.04790006 -0.024244031 -0.01125079 0.06772044 0.11407494 -0.08996897 -0.016517188
00000000: c473 f2bb dbc5 52bc 714f c63d 610a 3cbd
00000010: 0f1e 4f3b 8d82 8cba 40df 8abd 3bea 62bd
00000020: 070f aa3d 4d23 ec3c d2a9 e03c 515f 27bd
00000030: c2ca 753c 737a 0cbd befe 54bd 1370 0fbc
00000040: 8a61 913d bd63 873d 7a56 b03d c34d 49bc
00000050: 8377 b0bd 6107 043d 6679 2ebd 2dba 0b3d
00000060: d075 5a3d 3c2a 77bd a27c 6c3c 215c 8c3d
00000070: 9e87 be3d 68f7 6cbd 627a a03d b594 b83c
00000080: 6086 e63d 6a5c 143d 8f66 8fba ded7 b8bd
00000090: ba21 4a3d 8198 94bd 16e8 b2bc 421f 8b3d
000000a0: 7136 9f3d 1c88 cc3d c6d2 ddbd dd74 60bc
000000b0: d9e6 d33d 7faa b23c 26cc 61bd caa5 70bd
000000c0: 31ae 2d3d 0d73 7b3c 3fcc 4b3d 486b 4cbd
000000d0: 8723 473c c9a1 88bd 4fb1 72bd 2706 cb3b
000000e0: 4d18 8ebd 019b e43d 18f3 d63c e182 833d
000000f0: 7220 af3d 83a0 973d b9bb 67bd b96d 5bbd
00000100: dd1f 1abd d8b9 a1bd 62c2 98bd e7ab 0f3d
00000110: de85 3f3d 7dad 063d 805e aa3d 93f7 acbd
00000120: 940f bcbc 076c 723d e1cd b93c 2a56 973d
00000130: 0e81 05bd bdac 89bd d76d efbc 06b7 a8bc
00000140: dc6c a7bd 7dd2 3ebd bc58 ba3d 84c8 1fbb
00000150: 3649 aabd 4047 91bd b9e0 07bc 9563 4abd
00000160: fd98 833b 7422 b33d 462f c53d 8fb0 c539
00000170: e9ea 5fbd 7516 863d 70d6 7f3d e798 b23d
00000180: dc2f 1f3c ead0 0c3d 655d 0cbc e445 00bc
00000190: 1cd8 30bd 9c98 a1bd 141a c03d 7231 47bc
000001a0: f771 febc 011f 903c 8425 a2bb 69a0 a1bd
000001b0: ca3f fc3d 3646 ffbc ca09 413d 40c3 8d3d
000001c0: 7320 47bd 7c6f 703d 19a8 123d 046f bebc
000001d0: fa7e 09bc 2782 80bc 0d34 1bbd c4ad c63d
000001e0: b9e1 8c3d c8d4 f23c 7460 fbbc 5c45 da3d
000001f0: 2d80 96bd fa44 953d 173c 47bd 5814 a7bc
00000200: c4ca 683d 1e95 9ebd f672 86bd 65dd ddbc
00000210: 4dda a5bc 7c45 77bd 8b99 ac3d 682a 45bd
00000220: bc70 51bc c87e ef3c f097 febc 75ee 3c3d
00000230: c8d8 5c3d af77 9fbc d457 dcbc 3743 403d
00000240: d6ff 923d 5c39 a3bd 34c4 56bd 6191 6fbd
00000250: 11e2 b43d ccdf 043d 5c74 16bd 8f2f 34bd
00000260: a9b2 df3b 6eb5 3c3d a6e5 e43d 7b07 81bd
00000270: d661 423d 4d3c fc3d ddcf 8e3d a0c9 93bb
00000280: 33c6 893d b685 5fbb ff7b d1bd 5d04 893c
00000290: abe1 7abc eacd d93d cf35 a23c a07b 333d
000002a0: 6550 3e3d 8e0b d83d 441a 5b3d 0ecc 8ebd
000002b0: 7b5e 5f3d ee56 78bc f679 d53d dd0f aebd
000002c0: abdb b9bc 304a d3bc df04 b8bb 71f8 fc3c
000002d0: d2f5 613c 201f 673d a849 b93d 49c7 0cbd
000002e0: 2f5e ae3d b809 68bd 6710 0abd cd8c 7f3d
000002f0: 3bc0 f93b a1e8 433c 9669 8fbd f63a 383d
00000300: 8b02 9fbd 57cc afbd 4cf9 563c 92aa 1abd
00000310: 09fb dfba 163d 6fbd fba6 c33d 3b7a a53d
00000320: a96e e7bc 29d5 8a3d 71d1 29bb 12dd 7b3d
00000330: bd00 01bd d1ec 38bc 05fa 013c 245f 87bd
00000340: 5811 de3d 6c77 8d3c 80f1 203c 7ea5 ea3d
00000350: 4c24 573c f162 c13d 42ee 5c3d 966f c53c
00000360: 9160 e93c a8f0 c7bd 2e8d c7bb de2b 44bd
00000370: c9e0 bcbd 4a69 ea3d 35b0 32bd c9a6 c4bb
00000380: 268a 973d 5674 603d 244d b1bd efbf df3d
00000390: 996d 933c 2279 10bd 5ec8 35bd 40da e33c
000003a0: b8f5 e6bb 99e0 a03d b398 afbd 81ba 4dbd
000003b0: 7425 3ebd 88d1 42bd 76a4 fa3c 97d6 3dbd
000003c0: 2557 c1bc 371d 133c cb95 2dbd f68b 59bd
000003d0: 8267 1abc a854 c8bd 6f15 2d3d 1bce 4d3c
000003e0: 22e9 babd da32 44bd 6b9b c6bc 3c55 38bc
000003f0: 04b1 8a3d 1fa0 e93d a741 b8bd 0e4f 87bc

shared_ln.weight f4 [512]
1.0701632 1.0931346 1.15011 1.0708449 1.1246147 1.0172889 1.0605873 1.1095996
1.0973185 1.0573201 1.074875 1.1813705 1.1298074 1.1227738 1.0540035 1.1376874
1.076809 1.0949371 1.1485032 1.1022242 1.1038587 1.1511327 1.0747763 1.0844097
1.0452845 1.0837835 1.0903322 1.0626546 1.1288279 1.0771203 1.1190412 1.1972224
1.1192248 1.070459 1.0940759 1.1178275 1.1113677 1.1059772 1.1796443 1.0889015
1.1206558 1.0653034 1.1077881 1.0511011 1.1039948 1.138138 1.1275284 1.0548528
1.0156908 1.0688821 1.0495396 1.1034596 1.043476 1.1387302 1.0856884 1.0619253
1.1063999 1.1820407 1.0528 1.0667384 1.0477852 1.0685557 1.1409605 1.0869191
1.0722818 1.1368543 1.1343998 1.1028247 1.1335855 1.0538819 1.199053 1.1298203
1.1738443 1.0989628 1.083807 1.0888531 1.1255972 1.0633152 1.0611302 1.1454543
1.0723035 1.1848727 1.1024011 1.0571295 1.0592062 1.1154635 1.0838826 1.1377434
1.098433 1.1148249 1.0823706 1.1587461 1.1514593 1.1321279 1.1186795 1.0698762
1.0258478 1.0598991 1.139404 1.0898436 1.047436 1.0704643 1.138179 1.1452777
1.1030446 1.0717638 1.1675539 1.1604913 1.2279238 1.0871706 1.079915 1.0926408
1.1232384 1.0208955 1.1145881 1.0980123 1.1193767 1.0908655 1.064682 1.1150532
1.0609843 1.0358429 1.0979753 1.1291718 1.0903261 1.0852438 1.1148753 1.0244533
1.0949366 1.0668633 1.0792737 1.1162958 1.0798274 1.1459279 1.1087136 1.0958154
1.1065098 1.1236777 1.096082 1.0549316 1.1055369 1.073924 1.1150877 1.180593
1.0693371 1.075109 1.0449085 1.1039789 1.0602403 1.0542904 1.1150217 1.1010199
1.117412 1.1223047 1.1112574 1.0818807 1.0870878 1.0742975 1.0574199 1.1119972
1.0681807 1.0914625 1.1081167 1.0439904 1.2028478 1.1108723 1.074002 1.1279557
1.0770141 1.0839136 1.2044681 1.1220613 1.047764 1.1194123 1.0408441 1.1073962
1.0895734 1.087958 1.1304623 1.0682381 1.1133965 1.0908121 1.1041949 1.1050987
1.1242388 1.0586119 1.1147403 1.0406355 1.1439779 1.1143383 1.0594519 1.1098561
1.0395094 1.1817871 1.0457822 1.1066107 1.0571116 1.0802237 1.1937988 1.1435938
1.0742792 1.0416203 1.0672728 1.0994906 1.0606875 1.0956826 1.1272346 1.0750238
1.1001145 1.0783381 1.0748334 1.1175056 1.0830908 1.1254234 1.1419069 1.0732325
1.0850993 1.084444 1.0841585 1.0331947 1.0835266 1.1511595 1.0432951 1.0852613
1.0276963 1.0940306 1.102898 1.0878196 1.1341742 1.0933365 1.0569988 1.0919352
1.0642585 1.0687419 1.1044124 1.0276577 1.0947391 1.1130561 1.0669497 1.1234262
1.082688 1.054669 1.1182604 1.0471927 1.1038512 1.1195698 1.0583103 1.054492
1.1047693 1.1124786 1.0932207 1.1243787 1.0881635 1.1294392 1.0500544 1.1078845
00000000: 1cfb 883f d6eb 8b3f ce36 933f 7211 893f
00000010: 60f3 8f3f 8636 823f 53c1 873f 5c07 8e3f
00000020: ef74 8c3f 4456 873f 8195 893f 2637 973f
00000030: 879d 903f 0db7 8f3f 96e9 863f be9f 913f
00000040: e1d4 893f e626 8c3f 2702 933f af15 8d3f
00000050: 3e4b 8d3f 5158 933f 4592 893f f0cd 8a3f
00000060: e2cb 853f 6bb9 8a3f 0190 8b3f 1105 883f
00000070: 6f7d 903f 14df 893f be3c 8f3f 953e 993f
00000080: c242 8f3f cd04 893f ae0a 8c3f f914 8f3f
00000090: 4c41 8e3f a990 8d3f 96fe 963f 2061 8b3f
000000a0: a671 8f3f dd5b 883f 00cc 8d3f 7b8a 863f
000000b0: b44f 8d3f 82ae 913f da52 903f 6b05 873f
000000c0: 2802 823f 21d1 883f 5057 863f 2a3e 8d3f
000000d0: 9f90 853f e9c1 913f d6f7 8a3f 2bed 873f
000000e0: 839e 8d3f 1c4d 973f 27c2 863f e28a 883f
000000f0: d31d 863f 6fc6 883f fe0a 923f 2a20 8b3f
00000100: 8840 893f 7184 913f 0334 913f 5c29 8d3f
00000110: 5419 913f 9ae5 863f 927a 993f f49d 903f
00000120: 8840 963f d0aa 8c3f 30ba 8a3f 8a5f 8b3f
00000130: 9213 903f b61a 883f 1dd3 873f 3f9e 923f
00000140: 3e41 893f e9a9 973f 7b1b 8d3f 0550 873f
00000150: 1294 873f 82c7 8e3f aabc 8a3f 93a1 913f
00000160: 7499 8c3f 95b2 8e3f 1f8b 8a3f cb51 943f
00000170: 0563 933f 91e9 903f e430 8f3f b4f1 883f
00000180: fb4e 833f c6aa 873f fed7 913f ff7f 8b3f
00000190: 6212 863f f904 893f d9af 913f 7698 923f
000001a0: 9130 8d3f 8e2f 893f 6872 953f fb8a 943f
000001b0: 9b2c 9d3f 6828 8b3f a83a 8a3f a7db 8b3f
000001c0: 47c6 8f3f b4ac 823f d3aa 8e3f ab8b 8c3f
000001d0: bc47 8f3f 7ba1 8b3f 8047 883f 10ba 8e3f
000001e0: 55ce 873f 8096 843f 748a 8c3f b488 903f
000001f0: ce8f 8b3f 45e9 8a3f 3cb4 8e3f 4921 833f
00000200: e226 8c3f fa8e 883f a425 8a3f c8e2 8e3f
00000210: c937 8a3f c4ad 923f 54ea 8d3f ae43 8c3f
00000220: 1da2 8d3f acd4 8f3f 6a4c 8c3f 0008 873f
00000230: 3c82 8d3f 5776 893f 32bb 8e3f ac1d 973f
00000240: 0ae0 883f 2c9d 893f 90bf 853f 2e4f 8d3f
00000250: f4b5 873f fdf2 863f 08b9 8e3f 38ee 8c3f
00000260: 5b07 8f3f aea7 8f3f af3d 8e3f 117b 8a3f
00000270: b125 8b3f 9582 893f 8959 873f ed55 8e3f
00000280: 25ba 883f 0bb5 8b3f c5d6 8d3f 7aa1 853f
00000290: ebf6 993f 1031 8e3f e678 893f da60 903f
000002a0: 99db 893f aebd 8a3f 032c 9a3f b49f 8f3f
000002b0: 211d 863f e748 8f3f 613a 853f 29bf 8d3f
000002c0: 2477 8b3f 3542 8b3f fdb2 903f 07bc 883f
000002d0: c783 8e3f bb9f 8b3f 4256 8d3f e073 8d3f
000002e0: 0fe7 8f3f 9880 873f cfaf 8e3f 8b33 853f
000002f0: de6d 923f a3a2 8e3f 1f9c 873f c40f 8e3f
00000300: a50e 853f cd44 973f 31dc 853f 6ba5 8d3f
00000310: 6f4f 873f c544 8a3f 66ce 983f 4861 923f
00000320: fb81 893f d053 853f 659c 883f 1cbc 8c3f
00000330: 9cc4 873f 543f 8c3f 3949 903f 619a 893f
00000340: 8dd0 8c3f fc06 8a3f 2494 893f 6c0a 8f3f
00000350: b8a2 8a3f e00d 903f 012a 923f af5f 893f
00000360: 89e4 8a3f 10cf 8a3f b5c5 8a3f b93f 843f
00000370: 00b1 8a3f 3259 933f b28a 853f d8e9 8a3f
00000380: 8d8b 833f 3209 8c3f c32b 8d3f ac3d 8b3f
00000390: 9f2c 913f 73f2 8b3f bd4b 873f 88c4 8b3f
000003a0: 9f39 883f 89cc 883f 635d 8d3f 4a8a 833f
000003b0: 6920 8c3f 9f78 8e3f cf91 883f 6ecc 8f3f
000003c0: 8595 8a3f 65ff 863f 2823 8f3f 690a 863f
000003d0: ff4a 8d3f 104e 8f3f b676 873f 98f9 863f
000003e0: 1569 8d3f b365 8e3f a8ee 8b3f a4eb 8f3f
000003f0: f148 8b3f 7791 903f 2f68 863f 29cf 8d3f

shared_ln.bias f4 [512]
0.0056091514 0.004343905 0.012078269 0.032481205 0.047910955 -0.008734733 -0.0042481036 0.0276979
0.020733424 0.009769391 0.006113574 0.054775745 0.025759341 0.037028454 0.028100593 0.043191846
0.02566591 0.026671683 0.05619655 0.03933276 0.012419009 0.030387618 0.06210409 0.01918644
0.009054712 0.04332014 0.041133158 0.049359083 0.056532755 0.030079324 0.0019040211 0.060220893
0.024456047 0.013006638 0.03282998 0.0027550708 0.008766654 0.011616648 0.03901326 0.034859166
0.044402067 0.023609288 0.03450893 0.03233412 0.029114299 0.032408796 0.018869169 -0.016838256
0.010375759 0.02401165 0.024985122 0.016066225 -0.004312981 0.046695046 0.03554706 0.002814805
0.03912278 0.050885 0.018500319 0.021821622 -0.014361617 0.009442717 0.00760186 0.03617712
0.028894503 0.024359543 0.015651403 0.019772535 0.036500033 0.020252693 0.042851053 0.0011537239
0.001501283 0.02494197 0.02425722 0.03364635 0.027017988 0.00022081863 0.05145971 0.043535985
0.005875601 0.0013178923 0.0063676722 0.009238009 0.005076559 0.019927587 0.027489072 0.033569455
0.031295683 0.022192214 0.046311054 0.027737232 0.0573303 0.0279997 0.029387452 0.033644713
0.007747364 -0.0048942063 0.01523618 0.025795095 0.010173721 0.0047561647 0.043892138 0.06788018
0.029463185 0.025281992 0.067520574 0.060111642 0.05098918 0.03822812 0.01746609 0.019004567
0.053661678 0.027754243 0.033003304 0.030747605 0.0006338525 0.015745599 0.008680516 0.015865903
0.025856469 -0.009077692 0.035710055 0.033568908 0.032011908 0.021701168 0.010699805 0.02000708
0.009825814 -0.019138724 0.016546465 0.027392022 0.038541656 0.043744322 0.037871588 0.019512944
0.05277965 0.033550765 0.00990291 0.0014136985 -0.007896924 0.025030306 0.054622397 0.04122891
0.028326577 0.024324039 -0.009286467 -0.002307062 0.027526597 0.00812203 0.0053418335 0.004619841
0.005297335 0.03388656 0.020285992 0.028667957 0.015440045 0.02903152 0.01107241 0.032943893
0.008287116 -0.0071494156 0.00022765425 0.033374842 0.041413207 0.043617073 0.025820563 0.015597015
0.035981897 0.04034201 0.023805099 0.012989698 0.024892544 0.058339242 0.030497717 0.024087898
0.011501646 0.018429173 0.031479098 -0.0060088034 0.02471478 0.02787136 0.019838223 0.0017699918
0.043341834 0.01721137 0.025691388 0.013552301 0.04044258 0.058349308 0.013786084 0.044585396
0.024659814 0.0130237555 0.0049219686 0.005966113 0.03403035 0.021054963 0.028707255 0.041373316
-0.0008675861 -0.006456503 0.032848805 0.02227354 0.02056346 0.050393324 -0.008857663 0.032099888
0.027248798 -0.00047151273 0.02143131 0.011610814 0.051971447 0.007767651 -0.0015700967 0.028925052
0.027937049 0.010064665 -0.0019138766 0.024426054 0.012569048 0.029341793 0.013442852 0.020377867
-0.0006285512 0.02986575 0.014002112 0.0015740852 0.031063074 0.018136779 0.017031023 0.020725409
-0.0014073341 0.025319915 0.037748836 0.023878567 -0.008198606 0.026790135 -0.00017468604 -0.0018189277
-0.00030176362 0.027173238 -0.005156825 0.010562121 0.017885257 0.015742892 -0.0056240032 0.01328538
0.0089752115 0.028294373 0.0283164 0.030386468 0.017733019 0.024494225 0.021057282 0.03382056
00000000: f9cc b73b 5157 8e3b efe3 453c 030b 053d
00000010: 473e 443d 201c 0fbc ad33 8bbb b5e6 e23c
00000020: 24d9 a93c cc0f 203c 6054 c83b 885c 603d
00000030: 4105 d33c 26ab 173d 3733 e63c efe9 303d
00000040: 5141 d23c 937e da3c 5b2e 663d 631b 213d
00000050: 1979 4b3c 74ef f83c dc60 7e3d e22c 9d3c
00000060: 375a 143c 7670 313d 3e7b 283d c02c 4a3d
00000070: e48e 673d ea68 f63c 5990 f93a 2faa 763d
00000080: 0c58 c83c cb19 553c bb78 063d 6b8e 343b
00000090: 03a2 0f3c c153 3e3c 5ecc 1f3d 7cc8 0e3d
000000a0: f1de 353d 4468 c13c 3c59 0d3d c870 043d
000000b0: 1c81 ee3c 16bf 043d 8493 9a3c 62f0 89bc
000000c0: 16ff 293c 14b4 c43c 99ad cc3c 519d 833c
000000d0: e853 8dbb 4e43 3f3d cb99 113d 9778 383b
000000e0: 353f 203d ca6c 503d fb8d 973c 42c3 b23c
000000f0: fd4c 6bbc a0b5 1a3c 0619 f93b 762e 143d
00000100: 2ab4 ec3c aa8d c73c 5f37 803c 03fa a13c
00000110: 0f81 153d fae8 a53c 9684 2f3d 8d38 973a
00000120: b3c6 c43a 1a53 cc3c 14b7 c63c c1d0 093d
00000130: d454 dd3c 8d8b 6739 6bc7 523d ca52 323d
00000140: 1d88 c03b 21bd ac3a e8a7 d03b 055b 173c
00000150: 4359 a63b 2e3f a33c c330 e13c 2080 093d
00000160: e72f 003d 72cc b53c a9b0 3d3d 3139 e33c
00000170: 2dd3 6a3d a05f e53c f4bd f03c 0acf 093d
00000180: 9add fd3b 945f a0bb 2ca1 793c 3c50 d33c
00000190: aeaf 263c 9ad9 9b3b 3ec8 333d c404 8b3d
000001a0: c75c f13c 2e1c cf3c 3a48 8a3d a037 763d
000001b0: 08da 503d 1795 1c3d 0c15 8f3c 77af 9b3c
000001c0: 59cc 5b3d de5c e33c 792e 073d 67e2 fb3c
000001d0: 1f29 263a eafc 803c b938 0e3c 36f9 813c
000001e0: f2d0 d33c 9aba 14bc b544 123d 8d7f 093d
000001f0: eb1e 033d a6c6 b13c 3c4e 2f3c e3e5 a33c
00000200: 73fc 203c d0c8 9cbc 748c 873c 3c65 e03c
00000210: dbdd 1d3d 3f2d 333d 3d1f 1b3d 9cd9 9f3c
00000220: 792f 583d 876c 093d d13f 223c da4b b93a
00000230: 1a62 01bc 5b0c cd3c bcbb 5f3d a5df 283d
00000240: 230d e83c 3543 c73c 4426 18bc 1432 17bb
00000250: 757f e13c 4312 053c 8c0a af3b 0962 973b
00000260: 4495 ad3b a2cc 0a3d cf2e a63c 10d9 ea3c
00000270: 3ef8 7c3c 83d3 ed3c 0e69 353c 2df0 063d
00000280: afc6 073c a545 eabb 79b6 6e39 0fb4 083d
00000290: e5a0 293d d1a7 323d a585 d33c 9f8a 7f3c
000002a0: c161 133d aa3d 253d e902 c33c bed2 543c
000002b0: 73eb cb3c 21f5 6e3d 59d6 f93c fc53 c53c
000002c0: 6671 3c3c c7f8 963c 3af0 003d 7fe5 c4bb
000002d0: a676 ca3c 7a52 e43c c583 a23c 12ff e73a
000002e0: 3587 313d dcfe 8c3c bf76 d23c 780a 5e3c
000002f0: 1ea7 253d afff 6e3d 07df 613c 2d9f 363d
00000300: 6103 ca3c 9761 553c 7748 a13b 627f c33b
00000310: 6963 0b3d 757b ac3c 7a2b eb3c 1177 293d
00000320: b86e 63ba 1391 d3bb 788c 063d 0077 b63c
00000330: b474 a83c 3b69 4e3d bb1f 11bc 2c7b 033d
00000340: df38 df3c 5e35 f7b9 b790 af3c 493b 3e3c
00000350: 03e0 543d c887 fe3b b4cb cdba 3bf4 ec3c
00000360: 3ddc e43c 44e6 243c 0bdb faba 2619 c83c
00000370: 69ee 4d3c 335e f03c 683f 5c3c 7cef a63c
00000380: 5bc5 24ba 04a9 f43c 1d69 653c 8951 ce3a
00000390: fd77 fe3c 9593 943c a584 8b3c 55c8 a93c
000003a0: 4c76 b8ba b66b cf3c 869e 1a3d fc9c c33c
000003b0: 7253 06bc fc76 db3c ed2b 37b9 1669 eeba
000003c0: 0736 9eb9 699a de3c 95fa a8bb bf0c 2d3c
000003d0: 1a84 923c 3df7 803c 8f49 b8bb ecaa 593c
000003e0: c40c 133c 9ac9 e73c cbf7 e73c 0bed f83c
000003f0: d644 913c 1da8 c83c 5280 ac3c 6d87 0a3d

actor_fc.weight f4 [6, 512]
-0.040820174 0.08352909 -0.14912492 0.061993197 0.08354493 -0.028643537 0.017869849 -0.027077017
0.0312354 -0.060002603 -0.039816562 0.013686387 -0.07967992 -0.082527734 0.0060322057 -0.043903336
-0.04990203 0.05418741 0.0814992 -0.064055495 -0.12514246 -0.071812466 0.014305501 -0.035410628
0.04523022 -0.10857958 -0.10459125 0.08554343 0.054929696 0.08057041 -0.06370053 -0.12964506
0.004023073 0.02180961 0.08655313 -0.13273579 -0.06429529 0.0837596 0.013822458 0.014619643
-0.03353515 0.0794116 -0.025336446 0.07722779 0.06890942 0.029361127 0.14292593 -0.053729378
0.03670288 0.037371043 -0.0317795 -0.12591009 0.0041403486 0.012613361 -0.14792064 0.043787133
0.13227569 0.000999064 -0.013342667 -0.08778787 -0.048018824 -0.06962032 -0.18542948 -0.047479432
-0.013408319 0.023490697 -0.076277524 0.0384455 -0.08104815 -0.10090551 0.17235489 -0.10291359
0.07795973 -0.062578 0.12994319 -0.12959181 0.0767692 0.024223624 0.0730298 0.10950008
-0.008717913 -0.13950014 -0.038028877 -0.029491398 -0.033311274 -0.052397054 0.0145672215 0.081423365
0.08593789 -0.07205964 0.010356626 0.007445387 -0.08148057 -0.11072509 -0.09544414 -0.020129139
-0.0039366023 -0.027403614 0.0188706 0.0893942 0.042663235 -0.054643095 -0.057022914 0.018104725
0.13583788 0.04818896 -0.13057327 -0.11248345 0.18763347 0.064129315 0.09431432 -0.058981393
0.057386402 -0.037640575 -0.04982834 0.035564914 -0.064624436 -0.0047497135 0.034170724 0.13570702
0.049224254 -0.03290345 -0.07248632 0.14399405 0.07518845 0.07235613 0.1425245 0.03706229
0.123148315 -0.06776094 -0.12745868 0.12998945 -0.064454176 -0.08083793 0.00037838906 0.07178157
0.095271714 0.029749863 -0.025986614 0.026163572 -0.06101761 0.0026753438 -0.15390843 0.08261978
-0.06456839 0.0008293003 -0.06459088 -0.11844464 -0.02781557 0.049487215 -0.07693224 0.01738667
0.09380916 0.04838991 -0.11146673 -0.08014669 -0.053079944 0.044727184 0.07266222 0.06673534
-0.018512338 0.0016514405 -0.08410868 0.07479818 -0.12504429 0.02998199 0.114378415 0.13005361
0.05855025 -0.049738586 0.05578754 -0.15188141 0.06212805 -0.06688889 0.031915516 0.08523371
0.113821656 0.02000756 0.10491813 -0.034444872 0.069438905 0.013111938 -0.102843545 0.014115788
-0.09033432 0.08771624 0.012521221 0.055567756 -0.10824887 0.03324831 -0.058258284 -0.051454768
-0.049318556 0.10947294 -0.05052228 -0.04856122 -0.015778711 -0.119832106 0.14945672 -0.13888542
-0.05463018 -0.033868596 0.06440496 -0.038128838 -0.05585956 0.0118654575 -0.177809 0.09276371
0.04245991 -0.066929765 0.11913106 -0.0527294 -0.0050693923 -0.14583328 0.15726024 0.06774569
-0.1319983 -0.034256242 -0.0042458638 -0.07866477 0.026565243 0.012164518 -0.0013362366 0.08096837
-0.020518648 0.09192299 0.051176716 0.025326597 -0.07656932 -0.10161048 0.07735016 -0.06114462
-0.027392382 0.10563562 -0.11182215 0.03361238 0.0408073 0.1184166 0.084477186 -0.13396934
-0.03252168 -0.06487294 -0.09558561 0.0022737088 0.0083961645 0.10142591 -0.103744775 0.024982087
-0.027245922 -0.11359001 0.059561197 -0.05059281 -0.08150721 0.15023814 -0.03899781 0.12082373
00000000: 0e33 27bd 4d11 ab3d 34b4 18be 94ec 7d3d
00000010: 9b19 ab3d daa5 eabc ca63 923c 9fd0 ddbc
00000020: 62e1 ff3c 4ac5 75bd b116 23bd de3c 603c
00000030: 3a2f a3bd 4d04 a9bd cfa9 c53b fcd3 33bd
00000040: 1266 4cbd 9ef3 5d3d 0de9 a63d 872f 83bd
00000050: 5825 00be 6a12 93bd 9f61 6a3c bc0a 11bd
00000060: 5343 393d f95e debd f033 d6bd 6531 af3d
00000070: f6fd 603d 1902 a53d 6c75 82bd adc1 04be
00000080: fbd3 833b 11aa b23c c442 b13d e4eb 07be
00000090: 40ad 83bd 278a ab3d 9777 623c 3a87 6f3c
000000a0: 275c 09bd 8da2 a23d 618e cfbc 9b29 9e3d
000000b0: 6220 8d3d bf86 f03c 2d5b 123e 5613 5cbd
000000c0: c255 163d 6112 193d 392b 02bd 93ee 00be
000000d0: c3ab 873b 45a8 4e3c 8278 17be 235a 333d
000000e0: 4773 073e 06f3 823a 349b 5abc 20ca b3bd
000000f0: 63af 44bd 1995 8ebd 3ae1 3dbe cb79 42bd
00000100: 91ae 5bbc 906f c03c 6437 9cbd 0779 1d3d
00000110: 93fc a5bd 8ca7 cebd cd7d 303e 5cc4 d2bd
00000120: 5aa9 9f3d e528 80bd d40f 053e b7b3 04be
00000130: 2c39 9d3d 9f70 c63c a690 953d 9441 e03d
00000140: 94d5 0ebc 20d9 0ebe 2bc4 1bbd f297 f1bc
00000150: 6771 08bd 4b9e 56bd 5bab 6e3c 4bc1 a63d
00000160: 3400 b03d 0194 93bd d6ae 293c 6ff8 f33b
00000170: 49df a6bd d6c3 e2bd 3878 c3bd dde5 a4bc
00000180: 9dfe 80bb 8b7d e0bc 8496 9a3c 4e14 b73d
00000190: a5bf 2e3d 70d1 5fbd dc90 69bd 5c50 943c
000001a0: 1619 0b3e c961 453d 00b5 05be b95d e6bd
000001b0: fd22 403e 3b56 833d de27 c13d 7996 71bd
000001c0: 010e 6b3d 012d 1abd cd18 4cbd 84ac 113d
000001d0: d159 84bd 7ca3 9bbb 9af6 0b3d c8f6 0a3e
000001e0: 5f9f 493d c5c5 06bd b573 94bd 2d73 133e
000001f0: 67fc 993d 732f 943d f1f1 113e a1ce 173d
00000200: 2f35 fc3d 3fc6 8abd 8784 02be f41b 053e
00000210: 8d00 84bd 5b8e a5bd 8562 c639 3702 933d
00000220: d11d c33d fcb5 f33c e1e1 d4bc fd54 d63c
00000230: 9aed 79bd d254 2f3b 2c9a 1dbe 8f34 a93d
00000240: 6f3c 84bd 6765 593a 3948 84bd 1a93 f2bd
00000250: 7add e3bc 1bb3 4a3d a68e 9dbd 7d6e 8e3c
00000260: 041f c03d 8034 463d ab48 e4bd f323 a4bd
00000270: 5b6a 59bd da33 373d eecf 943d 8aac 883d
00000280: 30a7 97bc 2675 d83a 2c41 acbd ca2f 993d
00000290: 9c0b 00be ca9c f53c 3b3f ea3d c62c 053e
000002a0: 63d2 6f3d b0ba 4bbd 7a81 643d cd86 1bbe
000002b0: fb79 7e3d 0bfd 88bd d8b9 023d 038f ae3d
000002c0: 541b e93d e5e6 a33c 51df d63d 1116 0dbd
000002d0: fc35 8e3d 74d3 563c a39f d2bd e845 673c
000002e0: 3301 b9bd 92a4 b33d cf25 4d3c 049b 633d
000002f0: 95b1 ddbd 612f 083d 3da0 6ebd 3cc2 52bd
00000300: 4102 4abd 5933 e03d 73f0 4ebd 21e8 46bd
00000310: 5b42 81bc 896a f5bd 2f0b 193e fb37 0ebe
00000320: e5c3 5fbd ccb9 0abd bfe6 833d fc2c 1cbd
00000330: fecc 64bd 5667 423c 9013 36be e6fa bd3d
00000340: 71ea 2d3d 7912 89bd fcfa f33d c9fa 57bd
00000350: 251d a6bb 5255 15be d408 213e 41be 8a3d
00000360: 902a 07be 4650 0cbd e320 8bbb ff1a a1bd
00000370: 5a9f d93c b04d 473c a924 afba bfd2 a53d
00000380: b916 a8bc 1f42 bc3d ad9e 513d b979 cf3c
00000390: 60d0 9cbd 2819 d0bd c369 9e3d c872 7abd
000003a0: fd65 e0bc 7d57 d83d 0303 e5bd 23ad 093d
000003b0: 8e25 273d 6784 f23d 6002 ad3d 422f 09be
000003c0: 7435 05bd 1bdc 84bd 63c2 c3bd 8102 153b
000003d0: 1190 093c 63b8 cf3d 2478 d4bd 3ca7 cc3c
000003e0: d732 dfbc e1a1 e8bd 71f6 733d 683a 4fbd
000003f0: 41ed a6bd 07d8 193e 2bbc 1fbd 6f72 f73d

actor_fc.bias f4 [6]
0.013036562 -0.040264685 -0.00088776834 -0.019464053 -0.006453517 0.02519573
00000000: 4e97 553c 95ec 24bd 20b9 68ba 1473 9fbc
00000010: 0678 d3bb 4767 ce3c

fc1.weight f4 [512, 192]
4.145542 3.1489558 3.6717877 3.3374114 1.7248843 2.133004 1.7914748 -0.04993357
-3.5873551 -2.7016346 -0.054269295 -0.06001486 -1.9590763 4.221524 -0.030087778 0.039679002
-2.585667 0.05390288 3.210033 4.036809 0.04440777 0.03576552 6.2419696 3.8732548
2.5320282 -2.1907237 -0.59634984 2.157622 0.051637616 4.337674 3.1525285 -3.0247602
4.05199 3.8443682 1.274396 -1.6447281 0.81256676 2.2326255 0.045516696 2.1573427
2.0367754 -0.8559459 4.2339315 3.006958 4.9757442 5.603964 3.128082 3.180804
4.04057 3.5410376 2.8640833 2.3314953 -0.17273822 -0.036584597 -3.3940766 -2.48783
0.026193244 -0.0645109 -3.606226 4.3890147 -0.054273047 -0.039516676 -2.125287 -0.0648205
2.964394 3.337578 0.015015249 -0.03487294 5.7325916 3.1110442 2.6703365 -1.7649878
0.7886055 1.7143753 -0.02827655 3.931496 2.392059 -3.336815 3.5740602 3.0710578
1.6737492 -1.6884779 1.2054031 1.9731723 0.044582527 1.9981178 2.208118 -0.24930905
4.117554 3.0735562 4.5641127 4.8265524 -0.43497667 0.10516123 6.2910767 6.666804
3.183986 3.187082 4.0448546 3.5538821 2.7961478 2.3138065 -0.08479144 0.060151607
-3.366274 -2.4057038 0.07199332 0.06035486 -3.6118321 4.4217706 -0.0009885151 -0.06273988
-2.1236324 0.04065455 2.9050655 3.3998625 -0.025910595 0.06210195 5.705592 3.006717
2.797231 -1.7674297 0.71785337 1.7437546 -0.06868867 3.9829175 2.4272187 -3.307562
3.5870864 3.0910096 1.6912189 -1.653133 1.3001363 2.0065987 -0.012403683 1.9527663
2.3057694 -0.24878086 4.1481314 3.0430467 4.5996065 4.894717 4.146142 3.1653438
3.6158514 3.3578992 1.6755352 2.1248763 1.7675169 -0.018770592 -3.72581 -2.594806
-0.022729067 0.050937273 -2.0477128 4.2357993 0.054592717 0.045400508 -2.516784 -0.0508412
3.2085395 4.023614 -0.0043499703 0.041226346 6.2632794 3.8561926 2.450531 -2.218591
-0.52056605 2.0493019 0.010442413 4.3312263 3.0822732 -2.961761 4.0944066 3.8179576
1.279109 -1.6646506 0.80540586 2.3053846 0.003977461 2.035376 2.0251365 -0.7643054
4.1326466 3.0030222 4.9528656 5.5791073 0.477568 -0.18073565 6.393639 6.538075
4.374509 3.956367 4.3510013 4.463169 3.9796762 5.1570826 2.369768 0.034882404
-4.022997 -2.4119167 -0.017809402 -0.012877658 -2.271391 4.016685 -0.06620814 -0.0049698646
-2.431729 -0.046297204 4.674537 4.2981944 0.026148206 -0.06421352 7.970515 2.9338996
4.851124 -4.026388 -1.6596308 1.9903738 -0.018470127 5.3994503 2.5216591 -4.2895327
4.6388845 4.089515 2.9005063 -1.8936507 0.8843971 2.0343218 0.051255316 3.2760384
1.7333415 -0.48688388 5.401285 3.9442692 6.0485644 6.194881 4.1142607 4.6540837
4.23368 4.5186496 3.2179346 5.688559 2.2240093 0.06637734 -3.9588509 -2.7742686
-0.05397863 -0.02839019 -3.15357 4.471609 0.035369605 0.052285083 -2.0680132 0.04442951
00000000: 48a8 8440 7e88 4940 92fe 6a40 2698 5540
00000010: 02c9 dc3f 2383 0840 0c4f e53f 2587 4cbd
00000020: 3a97 65c0 95e7 2cc0 7b49 5ebd 24d2 75bd
00000030: 03c3 fabf b916 8740 a57a f6bc 7386 223d
00000040: 917b 25c0 44c9 5c3d 2e71 4d40 8a2d 8140
00000050: ece4 353d de7e 123d 37be c740 68e3 7740
00000060: c00c 2240 d134 0cc0 62aa 18bf 7b16 0a40
00000070: f781 533d 3ace 8a40 07c3 4940 ac95 41c0
00000080: e7a9 8140 210a 7640 681f a33f 7386 d2bf
00000090: 6004 503f 56e3 0e40 b76f 3a3d e711 0a40
000000a0: 875a 0240 451f 5bbf 5e7c 8740 0072 4040
000000b0: 4c39 9f40 ac53 b340 7f32 4840 4b92 4b40
000000c0: 594c 8140 5ca0 6240 244d 3740 3837 1540
000000d0: 4ae2 30be bbd9 15bd 8d38 59c0 9b38 1fc0
000000e0: 3793 d63c 4a1e 84bd 68cc 66c0 cf72 8c40
000000f0: 6a4d 5ebd 3ddc 21bd b404 08c0 9cc0 84bd
00000100: a2b8 3d40 e19a 5540 8502 763c eed6 0ebd
00000110: 6471 b740 591b 4740 cbe6 2a40 1feb e1bf
00000120: 0de2 493f a670 db3f 39a4 e7bc a19d 7b40
00000130: 7f17 1940 618e 55c0 67bd 6440 368c 4440
00000140: 6a3d d63f 0b20 d8bf a64a 9a3f e990 fc3f
00000150: 2b9c 363d 53c2 ff3f ce51 0d40 df4a 7fbe
00000160: 01c3 8340 25b5 4440 360d 9240 1e73 9a40
00000170: 43b5 debe c55e d73d 8050 c940 7556 d540
00000180: 6dc6 4b40 27f9 4b40 736f 8140 ce72 6340
00000190: 16f4 3240 6815 1440 22a7 adbd 8861 763d
000001a0: 0971 57c0 0df7 19c0 3c71 933d a836 773d
000001b0: 4228 67c0 257f 8d40 1091 81ba c47d 80bd
000001c0: 98e9 07c0 6385 263d 98ec 3940 5997 5940
000001d0: 7542 d4bc 9d5e 7e3d 3694 b640 0d6e 4040
000001e0: d505 3340 233b e2bf 3dc5 373f 5a33 df3f
000001f0: a5ac 8cbd 1fe8 7e40 8d57 1b40 19af 53c0
00000200: d392 6540 1ad3 4540 dc79 d83f dd99 d3bf
00000210: de6a a63f 1d6c 0040 d138 4bbc 3ff4 f93f
00000220: ba91 1340 69c0 7ebe 7ebd 8440 47c1 4240
00000230: fa2f 9340 86a1 9c40 32ad 8440 fe94 4a40
00000240: 1c6a 6740 d2e7 5640 f077 d63f f9fd 0740
00000250: fe3d e23f c9c4 99bc ac73 6ec0 4d11 26c0
00000260: 4f32 babc 9aa3 503d ba0d 03c0 ab8b 8740
00000270: 9d9c 5f3d e2f5 393d fd12 21c0 dd3e 50bd
00000280: b658 4d40 72c1 8040 328a 8ebb f5dc 283d
00000290: c96c c840 dccb 7640 80d5 1c40 65fd 0dc0
000002a0: d143 05bf c327 0340 a816 2b3c 6899 8a40
000002b0: f743 4540 7e8d 3dc0 6105 8340 6b59 7440
000002c0: d8b9 a33f 4513 d5bf 142f 4e3f 6c8b 1340
000002d0: 5c55 823b 9a43 0240 d69b 0140 85a9 43bf
000002e0: a43e 8440 8431 4040 e07d 9e40 0c88 b240
000002f0: cb83 f43e c412 39be b198 cc40 e937 d140
00000300: fafb 8b40 1e35 7d40 673b 8b40 48d2 8e40
00000310: 04b3 7e40 d206 a540 47aa 1740 dae0 0e3d
00000320: 64bc 80c0 d85c 1ac0 06e5 91bc d0fc 52bc
00000330: 785e 11c0 af88 8040 2298 87bd 3fda a2bb
00000340: 73a1 1bc0 23a2 3dbd cf95 9540 cf8a 8940
00000350: c334 d63c 6182 83bd 750e ff40 03c5 3b40
00000360: 683c 9b40 2cd8 80c0 c86e d4bf 92c4 fe3f
00000370: aa4e 97bc 4cc8 ac40 dd62 2140 da43 89c0
00000380: be71 9440 4fdd 8240 e5a1 3940 2563 f2bf
00000390: d967 623f 5432 0240 18f1 513d 9daa 5140
000003a0: 22de dd3f d848 f9be 54d7 ac40 e86e 7c40
000003b0: d78d c140 773c c640 06a8 8340 41ee 9440
000003c0: 4e7a 8740 c798 9040 a4f2 4d40 ad08 b640
000003d0: 2b56 0e40 d8f0 873d d05d 7dc0 9e8d 31c0
000003e0: b218 5dbd 8b92 e8bc 17d4 49c0 6c17 8f40
000003f0: b8df 103d e228 563d 545a 04c0 b8fb 353d

fc1.bias f4 [512]
6.910235 8.902839 6.089426 4.9864163 5.3669176 4.7806845 4.0430017 9.064635
5.1363263 6.7053533 8.205006 5.0251737 6.2427793 3.9240012 3.492765 4.1581216
4.519415 9.060062 8.879964 4.1541524 9.174331 3.844894 5.2557507 9.039651
5.511291 6.457454 3.9698272 5.643561 5.7580185 5.3101907 6.114658 5.7025766
4.642422 4.1745625 8.251701 5.2494426 9.058417 5.5737123 6.9428678 10.238796
4.9550853 4.38551 5.5536585 9.03181 9.002087 5.476299 5.9249406 5.231428
3.6597657 4.9338465 5.828116 4.0029445 4.196428 5.0303216 9.076731 5.6960664
4.2881804 4.0930395 9.053302 5.0441656 9.141584 6.261006 6.379774 5.899282
9.086845 5.001895 9.785734 5.269978 9.06889 8.968871 5.614603 9.037078
4.104437 8.986204 9.049945 7.8951316 4.724978 7.4900675 4.399478 4.701764
5.1271544 8.9719715 8.946423 4.263244 5.183833 6.915435 5.8515625 5.960647
5.114862 5.494427 4.789692 6.829802 6.249165 8.101375 4.1440163 4.2867923
9.057586 5.4305816 4.303575 4.1014457 4.2121058 4.76653 5.2573466 8.654756
5.1468596 5.106617 4.519037 3.8801308 5.188187 4.0758944 4.8091693 4.681259
5.523787 4.759959 6.058794 7.3447914 6.080067 7.187057 8.551942 5.489606
6.311371 6.6573315 8.999274 8.934829 8.165919 7.900441 6.9006615 8.983562
6.4544616 6.7622595 5.1217713 4.955161 5.4515753 5.6790323 7.4679174 5.1139545
5.4777746 8.976082 7.395622 5.061381 10.125659 5.9293437 9.043819 5.8651347
5.029542 4.265635 9.041253 9.220551 5.32943 8.516143 6.2012525 5.1103377
4.1013036 8.875462 5.0479903 5.850096 6.65812 5.522991 7.231093 6.287861
6.718278 5.514562 5.061456 8.928278 8.994375 8.085432 6.1230035 6.45823
7.563292 4.8136907 4.163906 6.0612383 8.221786 4.756293 4.644796 5.3135686
9.07782 4.2041845 4.6455145 7.5716867 6.0565486 8.007917 6.0856876 4.917063
9.01455 6.423128 8.984605 9.053232 4.192504 4.894597 3.9145875 8.224026
3.6898253 4.3465075 3.556613 5.389691 7.013668 5.691288 4.7629924 4.5374846
5.5423894 4.4833436 6.0487947 9.125532 8.130288 5.547932 4.8284173 9.344202
5.5910063 9.731164 5.4176393 4.56306 5.6123223 4.359654 6.540526 10.026769
4.2716146 5.9883175 5.021244 5.5035405 3.861942 6.1823554 7.1745453 6.000653
5.3607616 5.8665414 6.0827723 5.5652227 4.223537 4.403116 4.5727324 5.9276056
5.462425 4.739324 5.093037 4.477257 3.400339 4.4352317 9.003208 8.99436
6.7775145 7.414171 9.057616 5.5498714 8.286688 9.875865 4.985047 8.949918
8.980272 9.162705 4.5675316 6.3891773 5.072791 5.292848 6.6930633 7.136991
00000000: a520 dd40 0772 0e41 94dc c240 b990 9f40
00000010: cabd ab40 5efb 9840 4560 8140 bf08 1141
00000020: c95c a440 4192 d640 b447 0341 39ce a040
00000030: d9c4 c740 d622 7b40 7689 5f40 550f 8540
00000040: 0c9f 9040 04f6 1041 5514 0e41 d1ee 8440
00000050: 0fca 1241 be12 7640 1c2f a840 69a2 1041
00000060: 7f5c b040 77a3 ce40 a611 7e40 0d98 b440
00000070: b041 b840 15ed a940 47ab c340 827b b640
00000080: b98e 9440 0496 8540 f806 0441 6ffb a740
00000090: 47ef 1041 da5b b240 f92b de40 1cd2 2341
000000a0: 0f90 9e40 1956 8c40 92b7 b140 4b82 1041
000000b0: 8c08 1041 d73d af40 1d99 bd40 dc67 a740
000000c0: 9a39 6a40 12e2 9d40 ed7f ba40 1f18 8040
000000d0: 2349 8640 65f8 a040 4a3a 1141 2d46 b640
000000e0: c638 8940 2efa 8240 53da 1041 ce69 a140
000000f0: ee43 1241 295a c840 1c27 cc40 ebc6 bc40
00000100: b863 1141 860f a040 5e92 1c41 a9a3 a840
00000110: 2c1a 1141 7f80 0f41 d4aa b340 df97 1041
00000120: 8c57 8340 7ec7 0f41 93cc 1041 eba4 fc40
00000130: 0533 9740 a2ae ef40 86c8 8c40 da74 9640
00000140: a611 a440 328d 0f41 8c24 0f41 7f6c 8840
00000150: f6e1 a540 3e4b dd40 0040 bb40 9fbd be40
00000160: f3ac a340 59d2 af40 2845 9940 bd8d da40
00000170: 29f9 c740 3b9f 0141 c89b 8440 672d 8940
00000180: dfeb 1041 53c7 ad40 e3b6 8940 0b3f 8340
00000190: 92c9 8640 6a87 9840 2f3c a840 e179 0a41
000001a0: 13b3 a440 6869 a340 f39b 9040 1054 7840
000001b0: a105 a640 ba6d 8240 b7e4 9940 e0cc 9540
000001c0: ddc2 b040 9651 9840 a4e1 c140 8808 eb40
000001d0: e98f c240 5ffc e540 c1d4 0841 daaa af40
000001e0: c0f6 c940 dc08 d540 07fd 0f41 0ff5 0e41
000001f0: 9ba7 0241 6ad0 fc40 38d2 dc40 acbc 0f41
00000200: f38a ce40 6e64 d840 8de5 a340 ae90 9e40
00000210: 4e73 ae40 a2ba b540 2ef9 ee40 84a5 a340
00000220: ee49 af40 089e 0f41 efa8 ec40 d5f6 a140
00000230: b302 2241 2fbd bd40 7cb3 1041 2faf bb40
00000240: 02f2 a040 1580 8840 f9a8 1041 6087 1341
00000250: b18a aa40 1f42 0841 a970 c640 e387 a340
00000260: e13d 8340 e401 0e41 2389 a140 fd33 bb40
00000270: 520f d540 58bc b040 1d65 e740 2836 c940
00000280: 22fc d640 4b77 b040 73f7 a140 3ada 0e41
00000290: f6e8 0f41 ee5d 0141 a5ef c340 d2a9 ce40
000002a0: 7d06 f240 c109 9a40 b83e 8540 aaf5 c140
000002b0: 6f8c 0341 8d33 9840 2ba2 9440 c108 aa40
000002c0: c03e 1141 ae88 8640 0ea8 9440 424b f240
000002d0: 3fcf c140 6e20 0041 f4bd c240 9558 9d40
000002e0: 993b 1041 448a cd40 f1c0 0f41 0ada 1041
000002f0: fe28 8640 8aa0 9c40 9a88 7a40 9c95 0341
00000300: 1926 6c40 9716 8b40 8c9f 6340 5978 ac40
00000310: f86f e040 081f b640 6f6a 9840 1333 9140
00000320: 415b b140 8d77 8f40 ba8f c140 2e02 1241
00000330: a915 0241 a988 b140 6582 9a40 da81 1541
00000340: 86e9 b240 d9b2 1b41 4d5d ad40 9604 9240
00000350: 2598 b340 4982 8b40 fd4b d140 a56d 2041
00000360: 11b1 8840 4ca0 bf40 08ae a040 011d b040
00000370: 0f2a 7740 dbd5 c540 e095 e540 5905 c040
00000380: 5c8b ab40 b5ba bb40 12a6 c240 4e16 b240
00000390: 3727 8740 54e6 8c40 d353 9240 f2ae bd40
000003a0: 30cc ae40 8ba8 9740 29fa a240 b045 8f40
000003b0: 279f 5940 6bed 8d40 240d 1041 e6e8 0f41
000003c0: 66e1 d840 e440 ed40 ffeb 1041 8c98 b140
000003d0: 4696 0441 8b03 1e41 8185 9f40 dd32 0f41
000003e0: 32af 0f41 719a 1241 3829 9240 2474 cc40
000003f0: 4e54 a240 035f a940 932d d640 3b62 e440

ln1.weight f4 [512]
1.3838457 0.29257166 1.6867325 1.041912 1.1413996 2.1425273 0.742625 0.29615268
2.4452612 1.3862664 0.6671769 2.4683578 1.3150234 1.7322626 0.6561402 0.95329404
3.9007754 0.31762984 0.30733472 2.662369 0.27160436 0.87130094 1.0850992 0.3110248
1.3807606 1.2470297 2.752428 3.023744 2.8921316 0.57286847 2.491555 1.2125092
0.7827822 0.57464206 0.57660097 1.0644788 0.30365437 1.6986892 0.91927034 0.15183532
1.4859792 1.6320289 1.6549159 0.32273886 0.30280045 4.0107923 2.815427 3.7950022
1.188355 1.436497 1.6311356 0.7679966 1.3650568 1.0481191 0.28938937 1.5408238
2.2399998 1.9224788 0.29635093 4.522818 0.27992964 0.78053427 0.8823248 1.9898297
0.2990296 4.70097 0.1991476 4.183975 0.2886771 0.3164935 2.8852556 0.29432395
1.8611447 0.29092684 0.28801394 0.17116708 0.48777774 -0.20669585 2.4176345 1.0928298
3.1198087 0.30801618 0.35196313 2.1576831 1.5090722 1.2086194 2.3093996 1.768314
0.24430189 2.0618525 1.1739995 0.8423659 1.3300531 0.6770925 1.6853398 2.4274533
0.30214542 1.3437717 3.7788801 0.6688258 1.7084779 4.3679233 1.9330465 0.37710875
2.8140767 2.0416195 1.0999888 0.9044369 1.6601998 1.8273187 1.4862155 1.398724
0.81445885 0.6701834 1.1615694 0.86461264 0.94023764 1.334596 0.4928411 2.9020221
1.4027132 1.2598659 0.28331625 0.32318807 0.5353137 0.4013506 1.0101742 0.26635626
1.3360095 1.32983 1.2769781 2.3245134 0.7521353 1.9442712 0.13971367 1.7687665
1.2344903 0.2816966 -0.26523143 2.3337755 0.1868246 1.5670972 0.2887035 0.6152848
3.2403655 2.2473164 0.3040603 0.26814395 5.1563435 0.119737305 1.8223612 2.5923493
1.6174005 0.34433892 1.7280183 2.07856 1.0197985 2.888373 1.1310222 1.3566746
1.1996396 0.51436836 2.226745 0.297014 0.2891197 0.82007545 0.47695643 0.025823185
0.94191104 2.225939 0.94182646 1.7638619 0.42180207 3.6059828 0.97106194 2.5047038
0.28722635 0.87162083 0.9597199 0.62945485 1.8941514 0.78080076 1.286704 1.9009725
0.31574172 1.3631142 0.3029513 0.2967264 3.8037477 1.0219892 1.2446665 0.3502065
0.83896345 1.5986773 0.8262964 2.5844567 -0.122226804 1.873016 2.5132017 4.132166
3.2812226 1.3749242 1.6289209 0.27860495 0.6311413 2.3215995 1.8432188 0.26238665
2.266927 0.19808745 1.1159769 1.895016 2.3685672 1.6817673 0.37457642 0.16026145
5.1928205 2.268679 0.9286337 2.2904234 0.654322 1.0921986 1.6132082 1.8104835
1.2738246 1.7397116 1.5560656 2.4571285 1.9208153 0.84106493 0.44901013 1.4523878
1.6311556 2.3224277 2.706661 1.4222159 0.45678902 1.4899595 0.2961604 0.3196545
1.0437812 1.055822 0.3234281 2.1537416 0.51119167 0.18732946 3.9112544 0.3370756
0.31385255 0.26922163 1.9595199 1.3912702 1.5453411 4.9028053 1.3862379 1.0804518
00000000: db21 b13f f4cb 953e dae6 d73f 5f5d 853f
00000010: 6219 923f 2b1f 0940 ac1c 3e3f 53a1 973e
00000020: 297f 1c40 2d71 b13f 1bcc 2a3f 93f9 1d40
00000030: b052 a83f c8ba dd3f cef8 273f 140b 743f
00000040: 4ea6 7940 61a0 a23e fa5a 9d3e 4164 2a40
00000050: ba0f 8b3e 940d 5f3f 88e4 8a3f a53e 9f3e
00000060: c3bc b03f ab9e 9f3f c827 3040 0685 4140
00000070: af18 3940 82a7 123f a375 1f40 8033 9b3f
00000080: 6a64 483f be1b 133f 1f9c 133f d740 883f
00000090: 9678 9b3e a66e d93f 4d55 6b3f b87a 1b3e
000000a0: 9134 be3f 53e6 d03f 49d4 d33f 073e a53e
000000b0: a908 9b3e 6958 8040 f52f 3440 51e1 7240
000000c0: 041c 983f 22df b73f 0dc9 d03f 6d9b 443f
000000d0: 2eba ae3f c428 863f d82a 943e b739 c53f
000000e0: 285c 0f40 c913 f63f 4fbb 973e edba 9040
000000f0: f052 8f3e 18d1 473f 0ae0 613f bdb2 fe3f
00000100: 681a 993e 596e 9640 59ed 4b3e 20e3 8540
00000110: 7ccd 933e 700b a23e 07a8 3840 a1b1 963e
00000120: fd39 ee3f 5df4 943e 9076 933e 6c46 2f3e
00000130: 01be f93e 14a8 53be 86ba 1a40 d9e1 8b3f
00000140: f2aa 4740 4cb4 9d3e 8334 b43e 7b17 0a40
00000150: 4729 c13f 0ab4 9a3f 34cd 1340 1d58 e23f
00000160: 462a 7a3e 64f5 0340 9e45 963f 4ba5 573f
00000170: 2e3f aa3f ef55 2d3f 37b9 d73f 655b 1b40
00000180: ceb2 9a3e b600 ac3f 2cd9 7140 2b38 2b3f
00000190: 67af da3f 07c6 8b40 116e f73f 6614 c13e
000001a0: d519 3440 e5a9 0240 6fcc 8c3f 2d89 673f
000001b0: 6d81 d43f 94e5 e93f 4f3c be3f 6309 b33f
000001c0: 6080 503f 2491 2b3f 4eae 943f 4157 5d3f
000001d0: 6ab3 703f 0bd4 aa3f ab55 fc3e bbba 3940
000001e0: 1b8c b33f 4943 a13f d40e 913e e878 a53e
000001f0: 520a 093f d37d cd3e 634d 813f d95f 883e
00000200: 5c02 ab3f df37 aa3f 0574 a33f d4c4 1440
00000210: f08b 403f e1dd f83f 1a11 0f3e f166 e23f
00000220: c703 9e3f 893a 903e 6acc 87be 945c 1540
00000230: f34e 3f3e a496 c83f f2d0 933e 4e83 1d3f
00000240: 2662 4f40 08d4 0f40 cbad 9b3e 2a4a 893e
00000250: c400 a540 d538 f53d 2243 e93f 0de9 2540
00000260: fb06 cf3f 314d b03e b42f dd3f 2107 0540
00000270: c288 823f 1adb 3840 56c5 903f 83a7 ad3f
00000280: ca8d 993f a5ad 033f fd82 0e40 3812 983e
00000290: 7f07 943e 77f0 513f a233 f43e 258b d33c
000002a0: 1521 713f c975 0e40 8a1b 713f 3ac6 e13f
000002b0: 71f6 d73e 6cc8 6640 8497 783f 114d 2040
000002c0: 550f 933e 8b22 5f3f 34b0 753f f423 213f
000002d0: 8e73 f23f 8fe2 473f b7b2 a43f 1153 f33f
000002e0: e6a8 a13e 877a ae3f 6f1c 9b3e 86ec 973e
000002f0: 9a70 7340 8bd0 823f 3b51 9f3f 444e b33e
00000300: 4fc6 563f 75a1 cc3f 2988 533f bd67 2540
00000310: 0c52 fabd fdbe ef3f 4cd8 2040 b43a 8440
00000320: 8dff 5140 84fd af3f 7b80 d03f 4fa5 8e3e
00000330: 7a92 213f 1695 1440 98ee eb3f 8b57 863e
00000340: 5515 1140 70d7 4a3e 55d8 8e3f e28f f23f
00000350: 9b96 1740 2744 d73f 7bc8 bf3e 941b 243e
00000360: 962b a640 0932 1140 f0ba 6d3f 4c96 1240
00000370: a681 273f 2acd 8b3f 9b7d ce3f ecbd e73f
00000380: af0c a33f dfae de3f 282d c73f 9841 1d40
00000390: 47dd f53f 0850 573f a8e4 e53e d8e7 b93f
000003a0: b5c9 d03f a8a2 1440 ef39 2d40 2c0b b63f
000003b0: 40e0 e93e feb6 be3f 56a2 973e c1a9 a33e
000003c0: 9f9a 853f 2d25 873f 5e98 a53e e7d6 0940
000003d0: 75dd 023f 4bd3 3f3e fe51 7a40 2c95 ac3e
000003e0: 48b1 a03e 6bd7 893e 8cd1 fa3f 2415 b23f
000003f0: bdcd c53f c8e3 9c40 3e70 b13f 3f4c 8a3f
