project_3/checkpoints/checkpoint_cycle_09_20241025_125154.pt (torch, 624868 bytes, 12 tensors)

shared_fc.weight f4 [512, 96]
000000 a3 c7 98 bd 4e 8d 14 3e 98 bc f5 3d ba c6 c9 3d
       -0.07459953 0.14507028 0.11998862 0.09852357
000010 44 a5 83 3e 29 bc 03 3e fc 68 15 3e 6b 06 b9 bd
       0.25712025 0.12864746 0.1459083 -0.09034427
000020 e6 da bc 3d f7 56 af 3d 75 3e 6b 3d 05 a4 cb bd
       0.09221439 0.08561509 0.05743261 -0.099433936
000030 df a1 22 bb 00 dc 0b 3d 51 44 97 3c 23 e2 8e 3d
       -0.002481572 0.034145355 0.018465193 0.06976726
000040 d8 4a 68 3e c5 dd 7b 3c 81 06 53 3e ce 30 c1 3d
       0.226848 0.015372698 0.2060795 0.09433137
000050 c7 6f 78 bc 0c 31 a0 3d 4d c5 5b 3e 74 25 18 3e
       -0.015163369 0.07821855 0.21461983 0.14858037
000060 75 9f a6 3d d8 f5 13 3c 2a 47 46 be d7 7a 3a 3d
       0.08135883 0.009030782 -0.19363084 0.045527305
000070 cc a7 c1 3d 9e 70 42 3e 99 4d a6 3d 5d 62 c9 3e
       0.09455833 0.18988273 0.08120269 0.39332858
000080 92 3b f3 3c d8 67 1a 3e e4 4c 35 3e 39 b9 60 3e
       0.029691491 0.15078676 0.17705113 0.21945657
000090 49 10 83 3d 2e c3 68 3e 4f 0c 0e ba 1b 8d a2 3c
       0.063995905 0.22730705 -0.0005418704 0.019842675
0000a0 57 3f ab bc 07 2c 09 3d ad 7a 97 3b 80 af aa bd
       -0.020904226 0.033489253 0.0046227784 -0.08334255
0000b0 f5 a7 8a bc c8 ad 5f bd 37 18 2a 3d fe 9a 0c 3e
       -0.016925791 -0.05460909 0.041527 0.13731
0000c0 70 ba e2 3c fc cc ed 3d 7d 04 81 bd 27 e7 d7 bd
       0.027676791 0.11611363 -0.06299684 -0.10542136
0000d0 f3 4a 8b 3e 94 f1 a0 3d 4f 42 da bd 4c a6 a5 bd
       0.2720562 0.07858577 -0.106571786 -0.08088359
0000e0 eb 5d af bd 8c 35 c3 3d 25 40 eb bd c3 69 76 3e
       -0.08562835 0.09531698 -0.11486844 0.24063782
0000f0 72 7f 02 bd 61 16 c8 3c 10 08 f2 3d 15 c9 38 3d
       -0.031859823 0.024424734 0.11817944 0.04511364
000100 e6 2f 13 3e 99 4b 1c 3e 7e 78 13 3d 7a 77 c4 3d
       0.1437374 0.15263213 0.036003582 0.09593101
000110 3a bf 4c 3e 56 1a 40 3e 74 3c 5b 3e 62 84 17 3d
       0.19994822 0.18760046 0.2140978 0.036991484
000120 24 ca 66 3e 57 d6 b9 bc ae 54 50 bd d2 37 fc 3d
       0.22538048 -0.022685213 -0.050862007 0.123153344
000130 43 d5 42 3e 4b 6e 0d 3e fa 50 9f 3d 43 a2 49 bd
       0.19026665 0.13811605 0.07779117 -0.04922701
000140 ff 56 35 3e 68 00 38 3d 04 fb 5f 3d 20 dd f6 3c
       0.17708968 0.044922262 0.054682747 0.030134737
000150 58 6d 9f bd 75 c0 9e 3d eb 4b 90 bd 01 37 a1 3d
       -0.077845275 0.07751552 -0.0704573 0.07871819
000160 1c 1c 04 3e 0c 3d 4e 3e 08 07 33 3c 13 e7 50 3e
       0.12901348 0.20140475 0.010926969 0.20400648
000170 6a 89 7d 3d 89 20 8b bd b1 a1 4e 3d d8 32 3a 3e
       0.061898626 -0.06793315 0.05044717 0.18183458
000180 aa 22 a2 3d 91 a9 a7 3d c6 c2 c3 bd b4 81 0c 3e
       0.07916768 0.08186639 -0.095586345 0.13721353
000190 a0 a8 76 be cc 33 8f 3e c4 61 1b bd 99 e1 cd 3d
       -0.24087763 0.27969205 -0.037935033 0.10052795
0001a0 4d d6 97 be 0a 57 a9 bd a2 62 bf bd 79 68 c4 3d
       -0.29655686 -0.082685545 -0.093449846 0.09590239
0001b0 af f6 81 be f9 8d ba 3d a7 c5 18 bd b9 c2 aa 3d
       -0.25383517 0.091091104 -0.03729787 0.08337922
0001c0 74 26 6b be 5a 9f 39 3d 98 17 5a 3d 88 d6 3a 3d
       -0.22963887 0.045317985 0.053245157 0.04561475
0001d0 10 36 cb 3c 8f 27 2a bd 30 70 13 3e a2 97 16 3e
       0.024806052 -0.041541632 0.14398265 0.14706281
0001e0 b0 ed fe bd c8 34 be 3c 19 3f 2e 3e 8b f4 96 bd
       -0.12447679 0.023218527 0.17016257 -0.073708616
0001f0 ac 40 5f bd b0 10 39 3e 25 d0 91 bb cc 65 6e 3d
       -0.054505035 0.18072772 -0.0044498616 0.05820255
000200 88 fb 0b bc ac d5 1e 3d 3e 9f 1c 3e f4 2d 23 bb
       -0.008543856 0.038777992 0.15295121 -0.0024899216
000210 ce 03 bc bd c1 8a 11 3d 86 b5 34 3d be 6f 9d 3c
       -0.09180413 0.035532717 0.044118427 0.019218322
000220 df 71 d6 bc 15 94 2e bd 0d 96 b5 3d f2 18 40 3e
       -0.026177345 -0.04262169 0.088665105 0.18759516
000230 a8 7d a0 3e 3e 0e a1 3e 65 b9 7d 3d df fd fe 3c
       0.31345868 0.31456178 0.061944384 0.031126915
000240 cc 57 16 3e 2c 2f 01 3d e6 88 d2 3d 36 32 2c 3d
       0.1468193 0.031539127 0.102800176 0.042040072
000250 0e 72 17 3d a8 02 7a 3d 88 71 ea bc 6a 24 cb bb
       0.036974005 0.06103769 -0.028618589 -0.0061994093
000260 e7 df 81 bd 6d 5d 2d 3d a0 be 94 3c 48 b7 0e 3e
       -0.06341534 0.042325426 0.018157303 0.13937104
000270 e9 24 11 bd c3 8f 21 3d 5a f6 3f 3d b7 36 c7 bd
       -0.03543559 0.039443742 0.0468658 -0.09727233
000280 b0 4e 3b 3e 0a 49 26 bd 71 c9 e5 3c c1 6b 4d bd
       0.18291736 -0.040597 0.028050156 -0.05015159
000290 a4 b9 46 3e c7 e1 ad 3d 7d 09 1f bd 82 7a df bd
       0.19406754 0.08490329 -0.038827408 -0.109120384
0002a0 3a 3f 1d 3e 71 79 14 3e e5 7a 3b 3b a1 26 b1 3d
       0.1535615 0.14499451 0.0028607186 0.08649946
0002b0 a2 bb 76 3d 2e 43 f9 3b a5 0f 9d 3d fb 43 02 3e
       0.060237534 0.0076068854 0.076689996 0.12721245
0002c0 6c 98 46 bd d0 e2 aa 36 5a ef f4 3d 2c 26 8c 3d
       -0.048485205 5.0927993e-06 0.11959715 0.06843218
0002d0 16 d7 08 bd 2e 08 a5 3d 11 d2 b9 3d 07 a1 e4 bd
       -0.033408247 0.08058201 0.0907327 -0.11163526
0002e0 f6 48 d0 3d f2 b2 e7 3d 8a 54 99 3d d6 ec 40 3e
       0.10170166 0.11313428 0.07486828 0.18840346
0002f0 05 a2 e6 39 84 27 12 3e c0 36 5a 3e c8 db de 3c
       0.00043989733 0.14272887 0.21309948 0.02720441
000300 db f0 9c bc b7 e2 e1 bc a0 96 67 3d ae a4 25 3d
       -0.019157818 -0.027573926 0.05654013 0.040440254
000310 25 e8 d7 3e d6 64 b9 be f0 8f d6 bd 96 db 9d bd
       0.421693 -0.36209744 -0.10476673 -0.07707898
000320 19 f4 2c be d2 30 09 be bf 33 09 bd 75 4c 32 bd
       -0.16889991 -0.1339753 -0.033496615 -0.043529946
000330 a6 a3 26 be 1d ab 2b 3e de 78 bb bd ce bf b5 3d
       -0.16273364 0.16764493 -0.09153913 0.088744745
000340 56 72 dc 3d d7 f0 b2 3d 98 c1 96 3c 44 a2 86 3d
       0.10763995 0.08737343 0.01840286 0.065739185
000350 5a 05 78 bd e9 b9 8e 3d 33 95 8c 3d 36 ca 12 bd
       -0.06055198 0.06969053 0.06864395 -0.035837375
000360 0e db 23 bd 05 ed ef 3d f1 cb d0 bd 10 11 aa bb
       -0.04000383 0.1171513 -0.10195149 -0.0051900223
000370 9d 25 88 bc 9f 43 7c 3d 61 32 81 bc 8b 93 f5 3b
       -0.016619498 0.061587926 -0.015771093 0.007494395
000380 19 f6 b0 3d 19 ac a5 bd 87 90 2b 3e f6 6a 1c 3e
       0.086406894 -0.08089466 0.16754352 0.15275177
000390 ef 21 9e bd b2 0f 65 bc a7 0f 44 bd 52 41 fd 3d
       -0.07721316 -0.013980793 -0.04786649 0.123659745
0003a0 40 93 38 3e 4a eb 7b 3d b9 d3 b9 3d 28 29 ee 3d
       0.18024921 0.061503686 0.09073586 0.11628944
0003b0 30 a4 d7 3d 32 5d ee bd 09 a0 9d 3d b0 de c0 3d
       0.10529363 -0.11638869 0.0769654 0.09417474
0003c0 82 b8 09 3e 8f b5 bd bd 95 03 8b be 87 7b 9f be
       0.1344929 -0.09263145 -0.2715117 -0.3114893
0003d0 26 16 7e 3d f6 58 a9 bc fa 2c f2 bd ca 8b 19 be
       0.06203284 -0.020672303 -0.11824985 -0.14994732
0003e0 e9 91 4d bc 41 85 09 bd a5 3c 95 bd 36 89 34 3e
       -0.012546995 -0.033574346 -0.07286958 0.17630467
0003f0 73 fd c7 bd 8f 31 61 3d 11 f7 0a be 9f b5 8a 3d
       -0.097651385 0.054978903 -0.13570811 0.06772923

shared_fc.bias f4 [512]
000000 60 37 1b 3e 01 37 da 3d 92 ac 51 3e 02 d5 df 3c
       0.15157843 0.106550224 0.20475987 0.02732325
000010 d7 b2 d6 3e db 67 18 3e d3 9f bb bc 42 38 12 bd
       0.4193332 0.14883368 -0.022903359 -0.035698183
000020 74 be e2 3d cd 02 ba 39 48 68 63 3c 9e 9a 19 3e
       0.11071482 0.0003547877 0.013879843 0.15000388
000030 2b 55 a9 3d 53 21 e0 3d 80 c7 2b 3e a8 76 5b 3e
       0.082681976 0.10943856 0.16775322 0.21431983
000040 6a d0 e5 3d de 36 57 3e 7d d5 1d 3e a5 de d3 3d
       0.112213925 0.21017024 0.1541347 0.103452004
000050 c8 17 08 3e a7 76 ac 3d a2 f0 5c 3e 6b 2d 63 3e
       0.13290322 0.08421069 0.21576169 0.22185294
000060 6c c7 43 3d a3 8b f6 3d 68 64 11 bd c1 4f 13 3e
       0.047797605 0.12038352 -0.035496145 0.14385892
000070 63 12 29 bd 27 cb 17 3d 3b 2e fd 3d 32 ab 1b 3e
       -0.0412773 0.037058976 0.123623334 0.15202025
000080 fb d6 df 3d f8 ab 7d 3e a6 b3 86 3d f2 d5 e0 3d
       0.10929676 0.24772632 0.06577234 0.10978307
000090 2a 20 5e 3e 78 29 81 3c 1b 53 c0 3c 8d da 57 3e
       0.21691957 0.015766844 0.023477128 0.21079464
0000a0 84 1b b4 3d bf 93 34 bd a6 d3 a2 3d ea ce 94 3c
       0.08794311 -0.044086214 0.07950525 0.01816507
0000b0 79 ed 50 3d 18 97 23 3e be ac 73 3c 49 e8 96 3d
       0.05100772 0.15975606 0.014872728 0.07368524
0000c0 78 fb c0 3e 0d 25 57 3d 55 6f ff bc 1a ba 59 3d
       0.37691855 0.05252557 -0.031181017 0.053155996
0000d0 c8 97 92 3d f7 79 04 3d 29 11 50 3d 55 c1 ac b9
       0.07157856 0.032342877 0.050797615 -0.0003295044
0000e0 ba 9f 06 3e 8b 7d 96 3d 10 4e a3 3e 3f 59 56 3c
       0.13146868 0.07348164 0.31895494 0.013082801
0000f0 90 ea 57 3e d8 a3 02 3e 12 5a 21 3e 29 c6 84 bb
       0.21085572 0.12757814 0.15757015 -0.004051943
000100 de 93 fd 3d 00 52 71 3e 97 f4 d5 3d 94 9a 3d 3e
       0.12381719 0.23566437 0.104470424 0.18515998
000110 fa c9 25 3e 2b 70 1c 3d 82 e6 18 3e 68 12 21 3e
       0.16190329 0.03819291 0.14931682 0.15729678
000120 74 d9 17 3e 2b 56 22 3e e6 0a 85 3e 47 45 5b 3e
       0.14829046 0.15853183 0.25984877 0.21413146
000130 fc af 14 3e 3f 06 cb 3e 6a 5a 03 bc 0b fb 57 3d
       0.14520258 0.39653203 -0.008017162 0.052729648
000140 9f 29 39 3e ea 21 fb 3c ab ab 2c 3e e2 6c 56 3e
       0.18082283 0.03065582 0.16862361 0.20939973
000150 0d 92 59 3e 86 ad 49 3e ed bc 97 3d e0 c7 6f 3e
       0.2124712 0.196951 0.074090816 0.2341609
000160 a3 79 65 3e 16 cd 2a 3e 42 eb fe 3d 99 98 18 3e
       0.22409682 0.16679797 0.124472156 0.14901961
000170 9c 17 1d bc c5 d9 11 3e 25 72 b9 3d a8 d4 d3 3d
       -0.009588148 0.14243229 0.090549745 0.10343295
000180 f7 e6 82 3e 76 a9 dd 3e 5e a6 6f 3d 6f 2a bf 3d
       0.25566837 0.4329335 0.05850827 0.093342654
000190 d2 89 39 3e f2 42 68 3b 04 5a 54 ba 7d d8 12 3e
       0.1811898 0.0035440293 -0.00081005716 0.14340396
0001a0 6e b5 44 3e d2 e8 71 3d f9 5c 32 3e 2e 7c 1d 3e
       0.19209835 0.059059925 0.17418279 0.15379402
0001b0 b9 68 3e 3d 91 21 14 3e 5e 53 09 3d dc e9 c2 3d
       0.04648659 0.1446593 0.03352677 0.095172614
0001c0 19 33 72 3d e3 3e a2 3c 19 b2 09 3e b8 cb 09 3e
       0.05913076 0.019805377 0.13446845 0.13456619
0001d0 9f 81 fb 3d 91 b4 01 3e 78 a8 94 3d 8e 98 d5 3d
       0.12280583 0.12666537 0.07258695 0.10429488
0001e0 2e 76 4f 3d c0 67 87 3d 48 cc 35 3e 5d d2 49 3e
       0.050649814 0.066115856 0.17753708 0.19709153
0001f0 b7 2a 34 3e 3b 69 4b 3b b1 57 ce 3d d8 11 7a 3d
       0.1759442 0.0031038064 0.100753196 0.061052173
000200 fc 8f 8a 3d 8b 0f b5 ba 93 25 41 3e c5 53 3a 3d
       0.06765744 -0.0013813836 0.1886199 0.045490045
000210 20 59 02 3e 5a fe 4c 3c b7 49 20 3e f9 41 0e 3e
       0.12729311 0.012511814 0.1565312 0.13892354
000220 b2 2e ce bb cb cf 14 3e 39 34 fc 3e 99 d0 2d 3e
       -0.0062921876 0.14532392 0.49258593 0.16974105
000230 eb 25 12 3e 00 39 d0 3d 9d 5f 30 3e b0 66 0a bc
       0.14272277 0.10167122 0.17223974 -0.008447334
000240 c6 a1 8b 3e 6f 16 1d 3e 5e 2d 42 3e b1 2d 27 3e
       0.2727186 0.15340589 0.18962619 0.16326024
000250 c4 a0 00 3e 79 ae 61 3e 71 be 85 3e c5 36 68 3a
       0.12561327 0.22039212 0.26121858 0.0008858259
000260 b4 3e 5b 3e 7b 79 61 3e 2d e0 4b 3e 23 4e eb 3c
       0.21410638 0.22018997 0.19909735 0.028723782
000270 b3 ab 16 3e 1f 31 73 3d 56 ca d9 3d dd e8 4e 3c
       0.14713936 0.059373017 0.10634296 0.012628761
000280 18 83 cd 3d 20 65 66 3d d8 49 27 3e 41 3d a6 bc
       0.1003477 0.056248784 0.16336763 -0.02029288
000290 dc bd 12 3e 16 a2 42 3d f1 81 1d 3f 5c 24 a9 bb
       0.14330238 0.04751786 0.615264 -0.005161805
0002a0 4e 31 99 3d a9 92 31 3e dd 6b f4 3c 5c 5a 81 3c
       0.07480107 0.17341103 0.02983659 0.015790157
0002b0 80 b4 c1 3d 35 ea 21 3e ce 54 e0 3c c9 e0 33 3e
       0.09458256 0.15811999 0.027384188 0.17566217
0002c0 de 44 3c 3e 4f d4 4f 3d 8f 3a d2 bd f1 32 ba 3d
       0.18385646 0.050739583 -0.102650754 0.090917476
0002d0 2e 7e 6f 3e a8 f4 19 3e 05 f1 9d 3d c3 65 e0 3d
       0.23387977 0.15034735 0.077119865 0.109569095
0002e0 5c 0c e6 3c d5 b7 c8 3c 24 97 35 3e 1f 46 0e 3e
       0.028082065 0.02450172 0.17733437 0.13893937
0002f0 f9 c4 56 bd d7 d7 30 3e 6e 0f 19 3e 5e d5 f6 bc
       -0.05243394 0.17269836 0.14947292 -0.030131038
000300 89 de 92 3d 34 70 74 3e aa e2 ca 3d 9d ef 97 3d
       0.071713515 0.23870927 0.09906514 0.074187495
000310 c2 b9 34 bd 8d 63 3f 3e 4e 8e 41 3d 86 9a 52 3d
       -0.044122465 0.1869032 0.047254853 0.051416896
000320 8e 92 73 3e 21 a1 00 3e 9b 82 9e 3d c6 35 e5 3d
       0.23786375 0.12561466 0.07739755 0.11191897
000330 64 85 24 3d 1e 57 0e 3f a8 27 3c 3d a1 10 4e 3c
       0.040166274 0.5560168 0.045936257 0.012577207
000340 35 f9 b5 3c 8d 40 36 3e 6f 2d 0f 3e 75 d3 22 3e
       0.022213558 0.17798062 0.13982175 0.15900977
000350 ef 8f 15 3e 27 50 5c 3d 7d 01 c2 3d 1d 17 8c 3c
       0.14605688 0.053787377 0.0947294 0.017100865
000360 c2 f6 26 3e 34 03 ca 3c 2c cb cf 3c 64 c4 70 3e
       0.16305068 0.02465973 0.025365435 0.23512417
000370 52 01 e8 3d 16 9a 6d 3e 48 35 b8 bc 3f 3c c0 3c
       0.11328377 0.2320331 -0.022486344 0.023466228
000380 f8 9b c5 3d ae 4b c8 3d d2 ea 83 3a e6 5b e3 3d
       0.09648889 0.0978006 0.0010064489 0.111015126
000390 4c 31 ee 3d e1 82 67 3d b8 70 fe 3d 58 2d f5 3d
       0.116304964 0.0565213 0.12423843 0.11971539
0003a0 2a 0c 3e 3d 51 46 2f 3e ae e2 2b 3e 6b dd 22 3d
       0.04639832 0.17116667 0.1678569 0.039761942
0003b0 be a6 4f 3c ef 63 56 3e 8a e9 96 3d c1 e4 23 bc
       0.012674032 0.20936559 0.07368763 -0.01000327
0003c0 d8 d8 ce 3d 3a d7 8b 3e 6c ab 9f 3c cd be d3 3d
       0.100999534 0.27312642 0.01949092 0.10339127
0003d0 51 6a 55 3d 97 7b 87 3c d4 7b 27 3e 51 00 bc 3d
       0.052103344 0.016538424 0.1635583 0.09179748
0003e0 5f 15 52 3d 2f 2e 2d 3e f0 56 2b 3e b5 b6 70 3e
       0.051289912 0.16912149 0.16732383 0.23507197
0003f0 c7 c6 01 3e dd 4a 24 3c 7a 2f d2 3d ef 1d 26 3e
       0.12673484 0.010027614 0.10262962 0.16222356

shared_ln.weight f4 [512]
000000 e0 ad 9d 3f df f7 83 3f ff 04 9a 3f a3 a1 a4 3f
       1.2318687 1.0310019 1.2032775 1.2861828
000010 d7 d5 09 3f 55 16 ba 3f 89 7d ce 3f b7 03 a9 3f
       0.5384192 1.4538065 1.613206 1.3204259
000020 32 f3 83 3f 74 47 b0 3f e7 6b a3 3f 95 46 a1 3f
       1.0308592 1.3771806 1.2767304 1.2599665
000030 e7 5c 9d 3f 6e 60 71 3f 47 3a 8c 3f 2c df 7b 3f
       1.2293977 0.94287765 1.0955285 0.9838741
000040 98 0a b8 3f 41 4b 8e 3f d4 be b8 3f 06 26 7e 3f
       1.4378233 1.1116716 1.4433236 0.9927677
000050 09 0d b7 3f b0 35 a1 3f 76 36 8d 3f 0a 19 9e 3f
       1.4300853 1.2594509 1.1032245 1.2351391
000060 7c 11 b2 3f 43 d9 c0 3f 36 16 af 3f 6d 1d 86 3f
       1.3911586 1.5066303 1.3678653 1.047773
000070 39 85 7d 3f 79 f1 9e 3f 06 6e a8 3f f0 a2 93 3f
       0.99031407 1.2417442 1.3158576 1.15341
000080 3e 54 96 3f b7 5c 07 3f 71 52 e3 3f de 98 a4 3f
       1.1744459 0.52875847 1.7759534 1.2859151
000090 76 47 17 3f 7d a2 ab 3f ab a9 e8 3f 4a f6 8a 3f
       0.59093416 1.3408962 1.8176779 1.0856411
0000a0 bb 38 69 3f 7e 89 f6 3f b1 01 cf 3f c4 37 a9 3f
       0.9110219 1.9260709 1.6172391 1.3220143
0000b0 90 ac 8d 3f f9 4e 8d 3f 8e b8 ca 3f 39 20 d5 3f
       1.1068287 1.1039726 1.5837572 1.6650459
0000c0 83 0b 00 3f ce 0c 87 3f 77 48 b8 3f 53 0e 9a 3f
       0.50017565 1.0550783 1.4397115 1.2035621
0000d0 ff 71 9e 3f 92 ad d9 3f db c6 49 3f fe b6 e9 3f
       1.2378539 1.7006094 0.78819054 1.825897
0000e0 17 e5 ab 3f 23 42 43 3f b0 3b 24 3f c1 8e c1 3f
       1.3429288 0.7627279 0.64153576 1.512169
0000f0 69 4a 6b 3f 82 09 8c 3f 06 c7 c7 3f 1d 7f ae 3f
       0.91910416 1.0940402 1.5607612 1.3632542
000100 82 26 90 3f 9f da 1f 3f ee c9 d1 3f ba eb a8 3f
       1.1261752 0.62442964 1.6389749 1.3196938
000110 7c 3d 6b 3f 83 76 7c 3f d8 86 9c 3f 39 f4 3c 3f
       0.9189069 0.98618335 1.2228651 0.73810154
000120 02 4d 86 3f 2a 15 9e 3f c6 ef 6d 3f 19 4e 96 3f
       1.0492251 1.2350209 0.9294399 1.1742584
000130 4e fd 86 3f 14 2c 04 3f b8 db 94 3f be d6 88 3f
       1.0546052 0.5162976 1.1629553 1.0690534
000140 23 6f ab 3f b8 b6 8c 3f 25 f9 9e 3f 6b 54 90 3f
       1.3393291 1.0993261 1.2419783 1.1275762
000150 db 72 2e 3f f2 84 3a 3f f2 25 99 3f bb a4 6f 3f
       0.68144006 0.7285911 1.1964705 0.93610734
000160 53 e4 8f 3f 40 ec 2a 3f cf e9 9e 3f 88 d6 b1 3f
       1.1241554 0.6676674 1.2415103 1.3893595
000170 3c b7 ce 3f 21 4c 9f 3f 22 ec d5 3f 34 eb 84 3f
       1.6149669 1.2445108 1.6712687 1.0384278
000180 9c c0 8f 3f 72 cf da 3e 8f 0f ae 3f 8a 70 9c 3f
       1.1230655 0.42736393 1.3598498 1.2221844
000190 be 9d 93 3f d2 2e b9 3f c4 62 95 3f b2 58 b3 3f
       1.1532514 1.4467413 1.1670766 1.4011443
0001a0 2e e5 27 3f bf c7 8c 3f 47 c1 a4 3f e0 91 ad 3f
       0.65584075 1.0998458 1.2871484 1.3560143
0001b0 8a 61 88 3f 7f 07 82 3f 3e 7b bf 3f c6 ff b9 3f
       1.0654767 1.0158538 1.4959486 1.4531181
0001c0 dd d1 db 3f d8 1a 9e 3f 37 4a 96 3f 0a a0 b4 3f
       1.717342 1.2351942 1.1741399 1.411134
0001d0 a8 c8 aa 3f 5c cc 9a 3f ac 15 92 3f 4a 16 88 3f
       1.3342485 1.2093616 1.1412864 1.0631802
0001e0 95 43 83 3f a1 50 a4 3f 55 05 85 3f 9f d5 a5 3f
       1.0254999 1.2837106 1.0392252 1.2955817
0001f0 49 e1 2e 3f a6 27 a2 3f 59 2a 64 3f 56 cc 97 3f
       0.6831251 1.266835 0.8912712 1.1859233
000200 23 64 9a 3f 21 a2 8c 3f 6f f4 a2 3f 1d 82 aa 3f
       1.2061809 1.0986978 1.2730845 1.3320957
000210 2e a3 7e 3f 13 32 98 3f 5a 1f 4c 3f 7b 9d 96 3f
       0.9946774 1.1890281 0.7973534 1.1766809
000220 f5 ed 9c 3f c8 1a 88 3f c9 74 ab 3e 7f 6f b2 3f
       1.2260119 1.0633173 0.33487538 1.3940276
000230 d4 7f a8 3f 20 c9 9a 3f 26 e7 b8 3f 83 da a0 3f
       1.316401 1.2092628 1.4445541 1.2566684
000240 d1 96 4f 3f ae 89 af 3f 39 59 9f 3f 85 16 a3 3f
       0.810895 1.3713892 1.2449104 1.2741247
000250 bb 80 89 3f d3 e4 97 3f d1 4d 49 3f 95 1f 07 40
       1.074241 1.1866707 0.78634363 2.1113026
000260 f0 2f 82 3f fc 88 91 3f f7 fd 9e 3f 21 32 b6 3f
       1.0170879 1.1369929 1.2421254 1.4234048
000270 bf a9 54 3f fa 42 a5 3f c5 8c b2 3f ee 62 9a 3f
       0.8307151 1.2911065 1.394921 1.2061441
000280 f0 9d bc 3f 7e 1a ab 3f 75 f5 bf 3f 16 6c ae 3f
       1.4735699 1.336746 1.4996783 1.3626735
000290 5e be 8c 3f f7 17 87 3f bb 20 28 3f fa 34 9b 3f
       1.0995595 1.0554188 0.6567494 1.2125542
0002a0 a4 1b b6 3f be 9f b3 3f 48 46 e0 3f 39 29 8d 3f
       1.4227185 1.4033124 1.7521448 1.1028205
0002b0 0b 7d 80 3f 94 cf 7c 3f e7 a0 9f 3f 6a d9 cc 3f
       1.003816 0.9875424 1.2470978 1.600385
0002c0 fe cb a0 3f 3b 92 ff 3f cb 38 1f 40 05 96 aa 3f
       1.2562253 1.9966501 2.4878414 1.3327032
0002d0 7e b3 84 3f e3 be 9e 3f 1f 9e 95 3f 56 5c 94 3f
       1.0367277 1.2402004 1.168888 1.1590679
0002e0 84 7c 8c 3f 0a c8 88 3f a7 cc 90 3f cf 32 6e 3f
       1.0975499 1.0686047 1.1312455 0.9304628
0002f0 9a 10 c8 3f 95 71 b8 3f 14 75 a1 3f 2e a2 d8 3f
       1.5630066 1.4409662 1.2613854 1.6924493
000300 ea 24 b3 3f b7 63 3a 3f b0 f7 b1 3f be 89 8e 3f
       1.399564 0.728084 1.3903713 1.1135786
000310 b7 d2 c8 3f af c3 96 3f 50 f4 6c 3f d7 7a cb 3f
       1.5689305 1.1778468 0.9256029 1.5896863
000320 fa e8 79 3f bb ba d6 3f c0 b8 bf 3f dd 36 cc 3f
       0.9762112 1.6775736 1.4978256 1.5954243
000330 19 8c d0 3f a8 aa 35 3f f0 c0 ac 3f 0b c5 d7 3f
       1.6292754 0.70963526 1.349638 1.6857008
000340 42 63 a9 3f 5f ce 45 3f 7f 07 82 3f 86 43 94 3f
       1.3233416 0.7726802 1.0158538 1.1583107
000350 5e 53 33 3f 40 e7 d9 3f 38 e3 8e 3f e4 e5 ac 3f
       0.70049083 1.7023697 1.1163092 1.3507657
000360 f8 8b be 3f d4 7f 90 3f 14 74 86 3f f9 d0 2e 3f
       1.4886465 1.128901 1.0504174 0.68287617
000370 00 03 91 3f 82 d3 0b 3f 60 69 ff 3f a8 21 b7 3f
       1.132904 0.5461961 1.9954033 1.4307146
000380 0a a7 a1 3f 71 14 43 3f 5e 1b d5 3f 60 ae 93 3f
       1.2629101 0.76203066 1.6648977 1.153759
000390 ff 8e a1 3f d0 71 d1 3f 31 28 86 3f 3f 32 9c 3f
       1.2621764 1.6362858 1.0481015 1.2202834
0003a0 56 17 88 3f 59 d0 a4 3f 5a e4 97 3f 57 0d 93 3f
       1.0632122 1.2876083 1.1866562 1.1488446
0003b0 01 85 bf 3f 77 a7 6f 3f b7 4d b9 3f a7 f7 ae 3f
       1.4962465 0.93614906 1.4476842 1.3669327
0003c0 d1 69 8c 3f c8 74 63 3f e6 3e 7d 3f e5 3b c9 3f
       1.0969793 0.8885007 0.989241 1.5721403
0003d0 66 3a 94 3f aa e5 ba 3f 4b 87 96 3f a0 e6 8d 3f
       1.1580322 1.4601338 1.1760038 1.1086006
0003e0 b5 f0 9f 3f 2f e9 a7 3f 50 a0 8d 3f 53 86 a2 3f
       1.2495333 1.3118037 1.1064548 1.2697242
0003f0 e3 f7 bd 3f 7a ca cb 3f 39 44 8c 3f c2 29 91 3f
       1.4841274 1.5921166 1.095832 1.1340868

shared_ln.bias f4 [512]
000000 f0 3b fb bd b2 1b c9 bd b4 c7 0c be 9a 66 68 be
       -0.122672915 -0.098197356 -0.13748056 -0.2269539
000010 d4 2e db be 34 0d eb bd 91 91 20 bd 5e a4 29 be
       -0.42809165 -0.11477128 -0.039201323 -0.16566607
000020 6f 54 18 be 9c 79 9b bd 13 95 97 bd a0 27 30 be
       -0.14875959 -0.075915545 -0.074014805 -0.17202616
000030 12 10 34 be ae ac e7 bd 85 60 1d be 50 ac 00 be
       -0.17584255 -0.11312233 -0.1536885 -0.12565732
000040 ff d5 4a be 95 90 cd bd b3 ce 70 be ac c9 0f be
       -0.19808196 -0.100373425 -0.2351635 -0.14041775
000050 fb b8 a9 3c 41 2a 1b bd cd be 78 bc 10 f9 86 bc
       0.020718088 -0.037882093 -0.015182209 -0.016476184
000060 df 76 19 bd d1 2e f0 bc 4a 65 75 bd aa 9f 35 be
       -0.03746688 -0.029319199 -0.05991105 -0.17736688
000070 21 f9 57 be 91 fd 3e bd 99 65 a5 bd 42 36 af bd
       -0.21091129 -0.04662854 -0.08076019 -0.08555271
000080 89 40 0a be c4 6e e8 be e3 9a 4c be c6 5a 37 bd
       -0.1350118 -0.45397007 -0.1998096 -0.044764303
000090 a9 10 eb be d1 bd 24 be 45 9a c6 bd f2 a8 ce bc
       -0.45911148 -0.16088034 -0.09697393 -0.025227044
0000a0 8c 13 70 be f2 ef 85 be 58 ab 47 be 1b 7f 4c bd
       -0.23444957 -0.26159626 -0.19498956 -0.049925905
0000b0 9d 89 42 be 13 65 ce bd b9 c8 41 be 48 e1 1f bd
       -0.18997808 -0.10077872 -0.18924226 -0.039033204
0000c0 d1 ea 07 bf de e4 07 be 1c 1e 4b be 2f ea 35 be
       -0.53092676 -0.132709 -0.19835705 -0.17765115
0000d0 ef 17 0a bd d6 e6 5b be 92 16 2e be 92 45 21 bc
       -0.03371423 -0.21474776 -0.17000797 -0.009843247
0000e0 8c ee 86 be 71 39 8c be 48 74 93 be f0 cc fe bd
       -0.26353872 -0.27387574 -0.28799653 -0.124414325
0000f0 79 75 48 be a9 7a 44 bd 80 9d 86 bc 5e bf c4 bd
       -0.19576062 -0.04796854 -0.016432524 -0.09606813
000100 0b ab 58 be 11 8a be be ae b8 3c be d4 c6 b8 bd
       -0.21158998 -0.3721471 -0.18429825 -0.090222985
000110 a6 93 85 be a2 6e 1b be 3a c8 20 be 06 60 65 be
       -0.2608921 -0.15178922 -0.1570138 -0.22399911
000120 3b fb e1 bd 80 c8 94 bd 0a 1b 1f be 16 00 9b bc
       -0.110342465 -0.07264805 -0.15537658 -0.01892094
000130 66 53 3d be 27 94 f0 be e5 65 f6 bd ba bd 44 bb
       -0.18488845 -0.4698803 -0.120311536 -0.0030020312
000140 04 17 c4 bd b3 c3 34 be 35 d9 0d bd aa e7 ff bd
       -0.095747024 -0.17652778 -0.034630973 -0.12495358
000150 4b 5c ad be d8 2f 69 be 83 ee 0d bd 7b bd 0b be
       -0.33859476 -0.22772157 -0.03465129 -0.136465
000160 e0 67 ad bd f0 98 ad be 54 9f 8e bd e9 8d 24 be
       -0.08467078 -0.33905745 -0.06963983 -0.1606976
000170 79 87 a6 be 59 ea 1c be 48 f6 d2 bd 88 fb a3 bd
       -0.32525232 -0.15323772 -0.10300881 -0.0800696
000180 c3 05 a0 bc dd 0c 02 bf e6 a5 13 be bf 38 58 bc
       -0.019533997 -0.5080088 -0.14418754 -0.013197123
000190 72 d8 80 be 7d 4a 67 be 4a 38 a4 bd 63 e3 f6 bc
       -0.25165135 -0.22587009 -0.08018549 -0.030137723
0001a0 7c d8 a1 be 75 5e 78 bd a7 e1 0f bd 4d 33 c1 bd
       -0.31610477 -0.060636956 -0.03512731 -0.09433613
0001b0 0b 1b 4b be 48 16 33 be de 0b 87 3d 12 81 ee bd
       -0.19834535 -0.17488968 0.0659406 -0.11645712
0001c0 f7 39 b4 bd db b6 a3 bd cb f5 d7 bd 1a c1 ad bd
       -0.088001184 -0.07993861 -0.10544928 -0.08484097
0001d0 46 30 78 bd d1 18 c5 bd 63 45 f8 bd 1f 0b f1 bd
       -0.060592912 -0.09623874 -0.121226095 -0.11769699
0001e0 9e d1 4e be b3 0f eb bd c6 05 f6 bd b9 dd 49 bd
       -0.2019715 -0.11477604 -0.1201282 -0.049283717
0001f0 0e 3f d6 be e9 51 90 be 85 21 46 be 63 2e a0 bd
       -0.41844982 -0.28187492 -0.19348724 -0.078213476
000200 b4 2c 9d bd cc 40 4d bd e1 2a 58 be 41 2f 01 be
       -0.07674542 -0.050110623 -0.21110107 -0.12615682
000210 1d 8d 4f be 34 3e 10 be 4e 56 7a be e0 df 89 bc
       -0.20268674 -0.14086229 -0.24446985 -0.016830385
000220 19 19 11 be b0 88 43 be 84 51 1d bf fb ba f5 bd
       -0.1416973 -0.19095111 -0.6145251 -0.11998554
000230 a7 5c da bd 90 d6 55 bd f6 f7 95 bd 96 a7 36 bd
       -0.10662203 -0.052206576 -0.073226854 -0.044593416
000240 85 cf 2f be fe 03 ab bc 36 e6 2b bd 96 fa a8 3a
       -0.17169006 -0.020875927 -0.041967593 0.0012892063
000250 3b bb 16 be 65 19 4e bd 9a 88 34 be 79 8d 07 be
       -0.1471986 -0.050317187 -0.17630234 -0.13237561
000260 ca bd 94 bd de c1 11 be ad 59 a0 bd 2a b6 29 bd
       -0.07262762 -0.1423411 -0.07829604 -0.04143349
000270 58 c0 ad be 94 af 05 be 57 90 c9 bd b0 6d 35 be
       -0.3393581 -0.13055259 -0.09841984 -0.17717624
000280 ff 04 cc bd e1 18 19 bd cb 2c 6f 3c 1c 0c 48 be
       -0.099618904 -0.037377242 0.014598082 -0.1953587
000290 0b d3 09 be a7 7d 19 be cc 61 aa be 25 9d 13 be
       -0.13459413 -0.14989339 -0.33277738 -0.14415415
0002a0 fa 0f 98 bd e6 7c 3c bd 9a 8e 45 bd d1 d4 18 be
       -0.07424922 -0.04601755 -0.0482317 -0.14924933
0002b0 ff 4b 48 be 64 e7 79 bd 20 24 16 be 89 9f f0 bd
       -0.1956024 -0.061011687 -0.14662218 -0.11749179
0002c0 60 bf f9 bd b4 a0 2b be 8b 08 cb be 24 99 1e be
       -0.12194705 -0.16760522 -0.39654955 -0.15488106
0002d0 45 1f 10 be 55 0a 4f bd f3 4b dc bc f1 b1 b1 bd
       -0.14074428 -0.050546963 -0.026891684 -0.08676518
0002e0 9f 41 06 be 60 d1 1e be 47 ad 0a be 98 0d 59 be
       -0.1311097 -0.15509558 -0.13542663 -0.21196592
0002f0 57 6c f5 bd 01 4e c6 3d 8c 66 6f be d8 51 e1 bd
       -0.11983555 0.09682847 -0.23378962 -0.110019386
000300 77 d6 51 be b5 8f 5c be fc 54 12 be a1 48 12 be
       -0.20491968 -0.21539195 -0.14290231 -0.14285518
000310 c9 f5 15 be 65 50 19 be 56 77 07 be 1a c3 66 be
       -0.14644541 -0.14972074 -0.13229117 -0.22535363
000320 70 bb 2d bd 30 94 64 be ef 8f a2 bd 54 f7 86 be
       -0.042415082 -0.22322154 -0.079376094 -0.2636057
000330 a7 d4 1e be b8 b2 98 be f7 b9 80 be 18 fc 04 be
       -0.15510808 -0.29823852 -0.2514188 -0.12986791
000340 6c 5e d1 bd 2f 2a 8f be e4 b9 32 be b9 c7 a1 bc
       -0.10223088 -0.2796187 -0.17453724 -0.019748555
000350 65 64 84 be 0b 06 f9 bd 57 c8 20 be fb f4 6a be
       -0.25857845 -0.12159356 -0.15701424 -0.22945015
000360 a2 1c e3 bd 12 0e b8 bd d7 e4 be bd 2a c8 8c be
       -0.11089446 -0.08987059 -0.093209915 -0.27496463
000370 99 b9 f9 bd 83 63 eb be cc d9 a3 be 19 2b 54 be
       -0.12193603 -0.4597436 -0.32002103 -0.20719565
000380 47 d8 e1 bd 1f 2e c7 be a8 6b 6e bd 50 4b 35 bd
       -0.1102758 -0.38902375 -0.058208138 -0.044261277
000390 ab b7 1d be d3 9c cb bd 6a ea 50 be 56 e7 95 bd
       -0.15402095 -0.09942021 -0.20401922 -0.073195145
0003a0 fd 65 e8 bd 09 8d 6f bd b1 7c b0 bc 4e 66 48 be
       -0.11347578 -0.05848411 -0.021543832 -0.19570276
0003b0 b3 48 f0 bd ee 4d 2e be fc cd 0a bd aa 12 69 be
       -0.11732616 -0.17021915 -0.03388785 -0.22761026
0003c0 1c 77 0e be 58 e4 15 be 7b 33 39 be 61 de 0c be
       -0.13912624 -0.14637887 -0.18086044 -0.13756706
0003d0 fb 79 86 bd e1 dc 0b be 02 6d 14 bd 22 cf 57 be
       -0.06566235 -0.13658477 -0.03623677 -0.21075109
0003e0 2f 89 84 bd 28 31 ce bd 65 c9 18 be 47 d9 99 3d
       -0.06471478 -0.100679696 -0.14920576 0.075121455
0003f0 aa 75 2a 3d e8 ca fa bd f6 19 01 be 4f 02 81 bd
       0.04161612 -0.122457325 -0.1260756 -0.062992685

actor_fc.weight f4 [6, 512]
000000 9f 94 ae 3e b0 92 7b 3b ec e3 1e 3e c5 32 05 3f
       0.34097764 0.0038386993 0.15516633 0.52030593
000010 6e 7c 65 3d 84 0c b5 3d ed bf 4a 3e e0 d6 45 3e
       0.05602687 0.08840278 0.19799776 0.1932025
000020 3c 38 c1 3d 88 3c bf be 7d 67 8a 3d 36 04 81 3e
       0.09434554 -0.3735087 0.0675802 0.25198525
000030 3d bb 02 3e 12 52 b0 3d 03 09 f7 3d 34 f1 08 bb
       0.12766738 0.08609404 0.12062266 -0.0020895721
000040 ab fc 1a 3f 1d 70 0b 3e f9 53 11 3f ec 31 e7 3d
       0.6054179 0.13616987 0.5676876 0.11288819
000050 de 06 2d 3e a5 f9 78 3e b1 11 02 3d 57 63 a9 bd
       0.16897151 0.24313982 0.031755153 -0.08270901
000060 77 24 23 3e 36 62 0a 3f 5a dc 78 3e a0 23 9f 3d
       0.15931879 0.5405611 0.24302807 0.07770467
000070 de 52 5f 3d eb a9 9c be 31 71 99 bc 63 e8 d5 3d
       0.054522388 -0.30598387 -0.018730732 0.10444715
000080 e1 6e 39 3e 09 3b 0a 3d 27 1a d1 bc 83 f7 71 3e
       0.18108703 0.033747707 -0.025525166 0.23629574
000090 01 e0 22 3d 75 7e bb be 67 1f 03 3f 15 71 30 3e
       0.039764408 -0.36619917 0.5121979 0.17230637
0000a0 df 1c 05 3e fc be 5d bd fc c0 b2 3e b8 3e 9d 3d
       0.12999295 -0.054137215 0.3491286 0.07677978
0000b0 16 a8 61 3e 2a 84 39 3d 05 8b 3c be 48 cf be 3e
       0.22036776 0.045292057 -0.18412407 0.37267518
0000c0 42 20 18 3d 4c 3f ee bd fb d2 ff 3d 9a 59 aa 3e
       0.03714014 -0.11633167 0.12491413 0.33271486
0000d0 32 d6 45 3d 8a b3 d0 be 81 fb a2 3c c8 16 27 3f
       0.048299976 -0.40761977 0.019895317 0.65269136
0000e0 a1 77 19 3e e3 d2 16 bd ff 56 37 3d 55 3d ce 3d
       0.14987041 -0.03682221 0.0447607 0.10070292
0000f0 b2 0c a5 bd 7f 2e 54 3e b9 3e 16 3e 3e 7a 0d 3e
       -0.08059062 0.20720862 0.14672364 0.13816163
000100 ec 79 b5 3e a3 e9 89 3d fd f6 1d bf 19 8e cf bd
       0.35444582 0.06734016 -0.61705 -0.10134525
000110 6f 0d 1a 3e 3b 66 08 3e 4b fa ec 3d 78 82 8a 3d
       0.15044187 0.13320248 0.11571177 0.06763166
000120 9f 15 5f 3e f1 d2 47 be db 74 fe 3b 28 43 5d be
       0.21785592 -0.19514062 0.007765395 -0.2160765
000130 dc 93 a2 bc f3 23 fa 3c 06 ba 7b bd 3c cf 0e 3e
       -0.019845895 0.03053472 -0.061456703 0.13946241
000140 3a 70 9b be 7d d5 28 3e 28 35 21 bd 84 69 70 3e
       -0.3035906 0.1648769 -0.039357334 0.23477751
000150 54 1b 17 3d ed 70 0e 3d 31 17 4f be bd 1f 24 3e
       0.036891297 0.034775663 -0.2022369 0.16027732
000160 6f b5 15 3e 7b 60 81 3d cd 4e a0 3d 9f 0d a4 3e
       0.14619993 0.0631723 0.0782753 0.32041642
000170 ee 7b ea 3e 97 be bc bd 6a 23 43 3e 42 c3 9d 3d
       0.45797676 -0.0921604 0.19056478 0.07703258
000180 59 92 2a 3e 84 4a e6 3b fc 58 0c 3d 1b d5 33 3e
       0.1665739 0.007027926 0.03426455 0.17561762
000190 20 d9 ca 3e c8 51 be 3d 0c e7 46 3e a0 8f d5 be
       0.39618778 0.09292942 0.19424075 -0.4171114
0001a0 8a 1c 28 3d 81 73 35 3e 48 34 91 bd 7d cb 00 3f
       0.041042842 0.17719842 -0.0709005 0.503105
0001b0 94 0d 86 3e f2 8c 1a 3e 89 c0 10 bf 50 0e b8 bd
       0.26182234 0.15092829 -0.56543785 -0.08987105
0001c0 a6 30 46 be 9e e3 8f be 9d fa 18 bc 70 2b ee 3d
       -0.19354495 -0.28103346 -0.009337095 0.11629379
0001d0 32 d5 b7 3d d9 b8 33 3e 3e 3a 9c 3d 65 f5 4e 3e
       0.08976211 0.17550983 0.07628296 0.20210798
0001e0 77 04 01 bd 7e d6 31 be ed f9 df bd df 7f b4 3e
       -0.0314984 -0.17366979 -0.109363414 0.35253808
0001f0 90 05 87 bb 58 ff 01 bf fe 96 34 bc 9a 43 0f 3e
       -0.004120536 -0.5078025 -0.0110223275 0.13990632
000200 39 af 37 3e 75 8d 7d bd 9c 10 d0 3d ac 27 98 3e
       0.17937936 -0.061902482 0.10159418 0.29717767
000210 f7 6c 82 3c 6a f0 6f bd bc f4 bd 3d cc 29 a3 bd
       0.0159211 -0.058578886 0.09275195 -0.079669565
000220 21 f9 44 3d 47 98 09 3e e4 55 93 3d f6 62 05 3f
       0.04808915 0.13436995 0.07194117 0.5210413
000230 b8 c5 b6 bb 1b 75 4d be 31 f2 a5 bc 8b 54 8a be
       -0.005577769 -0.20064203 -0.020257087 -0.27017626
000240 8b 36 9b 3d e7 23 15 bd f7 72 ab 3e 79 4c ab bd
       0.075787626 -0.036411192 0.3348615 -0.083641954
000250 3a b5 37 be cd 29 01 3e f7 2a 77 3d b7 80 09 3d
       -0.17940226 0.12613602 0.06034371 0.033570018
000260 54 9d d3 3d da 31 90 3e 26 87 86 3e 59 7f 5c be
       0.10332742 0.28163034 0.26274985 -0.21532954
000270 f9 01 f1 3d 1c b4 2b be 63 d1 e5 3e e3 ab 7f 3e
       0.117679544 -0.16767925 0.44886312 0.24967913
000280 a7 5c 15 bf cc d0 43 bc d5 40 e3 3e 46 ee d6 3e
       -0.583445 -0.0119516365 0.443854 0.41978663
000290 fc 62 03 3e f1 ca 30 3e ed b1 ce 3d 04 8c 9b be
       0.12830728 0.17264916 0.100925304 -0.3038026
0002a0 f2 9f 75 bb be f4 b6 3e c9 0a 19 bf f6 48 5c 3d
       -0.0037479368 0.35733598 -0.5978208 0.05378052
0002b0 77 07 28 bb c3 ec b5 3d 79 5f c5 bd af 43 26 be
       -0.0025639215 0.08883049 -0.096373506 -0.16236757
0002c0 33 f0 4a bd 47 85 9a 3e be 69 06 3f 3d 19 9e 3d
       -0.049545478 0.30179808 0.525051 0.077196576
0002d0 27 9d ef 3d 23 d8 c9 bd c7 9d 1f 3e d4 4a 7b be
       0.11699896 -0.09855678 0.15587531 -0.24540263
0002e0 bb 85 0e 3e a3 38 5d 3e 28 e5 26 3e 08 9d 41 3e
       0.13918202 0.21603636 0.16298354 0.18907559
0002f0 47 b7 c4 3e 8e 81 e2 be 51 4c 33 3e e1 03 2e bf
       0.3842108 -0.44239467 0.17509581 -0.6797467
000300 11 fd 00 3f ea a3 57 3d 22 fe c4 be e9 65 4c 3d
       0.5038615 0.052646555 -0.38475138 0.049901877
000310 80 0c 20 be 90 12 6e 3e bf 12 07 3d 74 9f 2d 3d
       -0.15629768 0.23249269 0.032976862 0.042388394
000320 60 68 0f 3d 08 f2 d0 3d 51 47 81 be dc 4d 34 bf
       0.03501165 0.10202414 -0.25249723 -0.70431304
000330 0d 51 05 bd d5 40 8c 3d 0d cd 87 3e f3 f5 11 3e
       -0.032548 0.06848303 0.2652363 0.14253978
000340 26 6b 98 bd 06 23 b4 3d 56 8e 31 3e 25 a3 3e 3e
       -0.07442312 0.08795743 0.17339453 0.18616922
000350 d1 90 69 3d b3 ef 35 bf a1 be 8c 3e 63 52 46 3e
       0.057022873 -0.71068877 0.27489188 0.19367366
000360 c6 ee bf be 97 98 16 bd 3f 25 37 3e f2 d5 74 3d
       -0.37486857 -0.036766615 0.17885302 0.059774347
000370 a9 1f 80 3d f4 e0 af 3c ef b9 20 3f 7e 5d 09 bf
       0.06256039 0.02146957 0.6278371 -0.5365828
000380 85 bb b5 3e 25 e0 05 bd ba a4 80 be 1e b5 8b 3e
       0.3549463 -0.032684464 -0.25125676 0.2728662
000390 49 39 6a 3d 07 cd 13 3f 3a 24 47 3e 97 1e f6 3d
       0.057183538 0.5773472 0.19447413 0.12017553
0003a0 2c a2 8d bd 21 df 5f 3e 26 84 46 3e 3d 01 19 3e
       -0.069156975 0.2186246 0.19386348 0.14941879
0003b0 b7 fe d6 3e bd 4f 7c bd b1 b3 13 3d d5 c9 c5 bd
       0.41991207 -0.06159948 0.03606004 -0.09657637
0003c0 91 4f 8f bd 1d 46 a0 3d cf 0a 18 3e 2b 07 96 bd
       -0.06997598 0.07825873 0.14847873 -0.07325586
0003d0 c2 b9 2b be d8 4f 5e be 9e aa 79 bd c1 58 b3 3e
       -0.1677008 -0.21710145 -0.06095373 0.3502865
0003e0 b0 66 1f be db 34 91 3e 29 87 8a 3d d9 29 27 be
       -0.15566516 0.28360638 0.06764061 -0.16324557
0003f0 97 08 8d be df d5 b7 bd e2 7a 00 3e cf b5 69 3e
       -0.27545616 -0.089763395 0.12546876 0.2282326

actor_fc.bias f4 [6]
000000 fa 8e 95 3d 78 b4 95 bc 1f b7 23 3d 62 c3 ee 3c
       0.07302661 -0.01827453 0.03996956 0.0291459
000010 59 17 84 bd 74 0f c7 3d
       -0.06449766 0.09719744

fc1.weight f4 [512, 192]
000000 42 1e 1d 40 7e fb 4b 3a 7d ee 8f 3f 58 2e 8b 3f
       2.4549718 0.00077813107 1.1244656 1.0873518
000010 d6 2d ae 40 35 f8 93 40 d8 45 12 bf 12 b1 36 bd
       5.443095 4.6240487 -0.57137823 -0.04460246
000020 85 a3 9b bf 51 23 38 3f 43 b8 14 bd 3d 27 c3 bc
       -1.2159277 0.7192889 -0.03630854 -0.023822421
000030 ee bf 56 bf 42 11 09 40 e1 76 15 bd 56 70 8d bd
       -0.8388661 2.1416783 -0.036490325 -0.06906192
000040 a6 96 a8 bf c8 d6 0a bd 3f 98 1b 40 2a c1 a9 3f
       -1.3170974 -0.033896238 2.4311674 1.3262074
000050 3b 9e 0a 3d 4e 6f 9c bc c4 74 1d 40 3b 0b a8 bc
       0.033842307 -0.019096043 2.4602518 -0.020513168
000060 45 89 45 40 90 93 9a bf 0f df 42 3f e7 9e 01 3f
       3.0865033 -1.2076283 0.7612161 0.5063309
000070 de b9 92 bc 0c cc 1a 40 e4 31 17 40 74 2d 63 be
       -0.017910894 2.418704 2.36242 -0.22185308
000080 af 31 ff 3f 47 8e 38 3f 51 ed 1e 40 91 3f 99 3f
       1.9937037 0.720921 2.4832346 1.1972524
000090 ef 5a 22 40 84 2d 01 3e 89 af 3f 3d f1 1b a5 3f
       2.5368001 0.12615019 0.046798263 1.2899152
0000a0 32 66 27 3f ea ac 89 be 13 71 e8 3f 44 df 94 3f
       0.6539031 -0.26889735 1.8159508 1.1630635
0000b0 57 b0 f2 3f 12 5c 67 40 0e 54 a9 3f 12 57 70 3f
       1.8960065 3.6149945 1.3228776 0.9388286
0000c0 5e e3 8e 3e 1f 19 04 40 40 d6 6d 3f a3 1d 0e 40
       0.27907842 2.0640333 0.92905045 2.220559
0000d0 43 7b 78 3f ec bc cd bc 88 d9 e8 bf 75 a6 d4 bf
       0.9706308 -0.025114499 -1.8191385 -1.6613299
0000e0 ba a4 31 3c c3 1c 10 bd a6 7e fb bf 26 36 1f 40
       0.0108424965 -0.03518368 -1.9648025 2.48768
0000f0 79 97 70 3c 4a d6 4c bd b2 e9 48 c0 30 c3 55 3d
       0.014684551 -0.05000905 -3.1392636 0.0521881
000100 37 68 81 3f 2c c1 9f 3f 07 a0 29 3d 94 58 23 3d
       1.0109929 1.2480826 0.04141238 0.039879397
000110 5b 9a 33 40 c0 fe 3c 3f 7a d0 07 40 21 1f 0a bf
       2.806296 0.7382622 2.1220994 -0.5395375
000120 55 4c 95 3e ab cc 72 3f db 50 93 3d 7a 3c 3c 40
       0.291598 0.9484355 0.07193156 2.9411912
000130 e7 e2 16 bf 79 b6 05 c0 25 82 16 40 1d dd ac 3f
       -0.58939976 -2.0892622 2.3516934 1.3504978
000140 68 b0 14 40 a7 3f 3a 3e a3 c7 96 3e 67 87 79 3f
       2.323267 0.18188344 0.29449186 0.9747223
000150 37 50 98 3b 62 4f ad 3f a7 c9 10 40 7e c1 62 bc
       0.004648234 1.3539851 2.262308 -0.013840077
000160 9e 62 17 40 22 3b f0 3f d9 f5 ed 3f c1 d1 a4 3f
       2.365394 1.8768046 1.8590652 1.2876512
000170 ec be 9a 3f 7a b1 9f 3d 7b 71 04 40 71 8a 20 40
       1.2089515 0.07797523 2.0694263 2.5084498
000180 84 b7 a7 3f 44 ce 66 3f 57 d5 85 3e 91 c9 fd 3f
       1.310288 0.90158486 0.26139328 1.9827138
000190 e2 8f 6f 3f af 9d 0a 40 62 a0 6f 3f ee db 2b 3d
       0.9357892 2.1658742 0.936041 0.04195779
0001a0 02 0b e3 bf 3f 1c d6 bf 07 e8 42 3d 41 fc 54 bd
       -1.7737734 -1.672737 0.04758456 -0.05199838
0001b0 a2 24 05 c0 14 7d 22 40 ca dc 0a bc e0 1c 6c 3d
       -2.080361 2.5388842 -0.008475492 0.057644725
0001c0 3c ac 45 c0 18 37 42 3b 7b e2 6d 3f 7e 3e a0 3f
       -3.0886374 0.002963489 0.92923707 1.2519071
0001d0 d4 05 55 bd c6 d2 20 bc 65 df 2d 40 da 91 24 3f
       -0.05200751 -0.009815877 2.71676 0.6428505
0001e0 50 12 0e 40 99 9e 02 bf 50 ea 86 3e 8b 6c 78 3f
       2.2198677 -0.5102325 0.2635064 0.97040623
0001f0 ed e6 ea 3b 7e 58 38 40 9e c2 05 bf 79 a8 05 c0
       0.007168642 2.8804011 -0.5225009 -2.0884078
000200 1b de 14 40 dd 8c a5 3f ec f7 0c 40 91 f5 58 3e
       2.3260562 1.2933613 2.202632 0.21187426
000210 8b c3 b5 3e 47 f1 5f 3f 67 ca 93 bd 62 c8 9f 3f
       0.3550075 0.87477535 -0.072163396 1.2483027
000220 b7 0e 0f 40 60 b0 e6 bc d2 74 18 40 f6 e0 e7 3f
       2.2352731 -0.028160274 2.3821301 1.8115528
000230 e1 bf ea 3f 27 20 b2 3f 00 2e 1a 40 a0 1c 3f bd
       1.8339807 1.3916062 2.4090576 -0.04665816
000240 1b 58 95 3f 0a 16 81 3f 72 c7 b1 40 57 09 92 40
       1.1667513 1.0084851 5.5555964 4.56364
000250 83 b9 f9 be d6 cc 40 bd 8b a8 95 bf bb 0a 3f 3f
       -0.48774347 -0.047070347 -1.169206 0.7462575
000260 49 0d 09 3d 6e e9 62 3d 2a 25 5b bf 42 6c 0e 40
       0.033459935 0.055398397 -0.8560358 2.2253575
000270 9e 30 66 3d 2c 80 cb 3c aa 51 af bf 08 62 70 bc
       0.05619871 0.02484139 -1.3696797 -0.01467181
000280 6d cf 1d 40 8c 27 9a 3f 61 94 c8 3c 2e bd 87 3c
       2.4657853 1.2043319 0.024484815 0.0165697
000290 20 e0 1d 40 bc 2e 08 3c 67 99 49 40 c7 e1 8b bf
       2.4668045 0.008311924 3.149988 -1.0928277
0002a0 af dc 45 3f 9e 57 11 3f a4 4d 3a 3d 6e e4 1c 40
       0.7728986 0.5677432 0.0454842 2.4514422
0002b0 8a 6e 13 40 03 c8 8f be 59 ee f8 3f 45 47 3c 3f
       2.3036218 -0.28082284 1.9447738 0.7354625
0002c0 15 c6 1a 40 b9 e8 8c 3f 2b 72 27 40 74 b6 ba 3c
       2.41834 1.1008521 2.6163433 0.022792079
0002d0 74 97 52 bd 5f 5e ab 3f da de 48 3f ed 8a 6e be
       -0.05141397 1.3388175 0.78465044 -0.23295183
0002e0 6d 7e ec 3f 38 f0 8d 3f 49 94 f3 3f 30 53 6d 40
       1.8476082 1.1088934 1.9029628 3.7082024
0002f0 d0 1b 90 bf c4 f4 2a be 0f e6 28 40 cc 5b 2b 40
       -1.1258488 -0.16694933 2.6390417 2.6774778
000300 59 bc 41 40 5c 17 27 40 8e 3d 06 40 8d b5 62 40
       3.0271208 2.6108007 2.097507 3.542331
000310 16 d2 15 3f 06 1f 5d 40 12 11 48 40 1d 71 ed 3c
       0.5852369 3.4550185 3.126042 0.0289846
000320 c1 ec 18 c0 6a 1e 1b c0 71 db ab 3c 89 50 84 3d
       -2.3894503 -2.4237313 0.020978661 0.06460673
000330 f2 31 c4 bf 4b 81 5d 40 4f df 81 3d 37 25 77 3b
       -1.5327742 3.4610164 0.06341421 0.003771139
000340 4f cd ce bf f5 fe 7f 3c 09 2b 7e 40 f6 66 25 40
       -1.6156405 0.015624751 3.9713767 2.5844092
000350 83 d1 37 3d 71 a4 77 bd e1 d2 ab 40 34 e5 ec 3e
       0.04487754 -0.060459558 5.369492 0.46268618
000360 72 da 1a 40 af a9 e1 be 9b d1 df bf 8d 2c 42 3e
       2.4195828 -0.4407477 -1.7485842 0.18962307
000370 b1 49 7a bd 2e 9e 5d 40 17 40 42 3f 33 6c fc bf
       -0.061105434 3.4627795 0.75879043 -1.972052
000380 a2 c4 52 40 6e 0b ed 3f cd 6d e8 3f 2c 91 4f 3e
       3.2932515 1.8519113 1.8158509 0.20270222
000390 a7 f5 ca 3e 82 4d bf 3b 73 7c c3 bc 58 f8 f5 3f
       0.39640543 0.005838097 -0.023863053 1.9216413
0003a0 cc 6f aa 3f 19 ce 80 bf 37 ae 56 40 30 bc cc 3f
       1.3315368 -1.0062896 3.3543832 1.599493
0003b0 c3 d5 32 40 01 85 53 40 bb 8a 51 40 92 1c 14 40
       2.794297 3.304993 3.2740924 2.3142438
0003c0 6e 35 06 40 58 1d 6f 40 b8 52 41 bf f7 a1 11 40
       2.097011 3.736166 -0.75516844 2.2755105
0003d0 80 d7 3d 40 de eb 8b bd e6 e4 15 c0 fd 6a 1b c0
       2.966278 -0.068320975 -2.3420959 -2.428405
0003e0 6c 7c 83 3d c6 6d 52 bc 17 2b bd bf fd f4 3a 40
       0.06420216 -0.012843555 -1.4778775 2.921203
0003f0 68 0a 50 3d 21 0b 91 bb 3b ae 2a c0 20 55 68 3d
       0.050791174 -0.0044263755 -2.6668842 0.056721807

fc1.bias f4 [512]
000000 e6 d5 33 40 54 71 b7 40 49 6d a5 40 c5 81 3d 40
       2.8099303 5.732584 5.1695905 2.9610455
000010 37 77 1a 40 6d 92 dc 3f 5d 60 18 40 a3 7a bd 40
       2.4135263 1.7232186 2.3808815 5.9212203
000020 92 c9 33 40 31 25 97 40 16 7b 34 40 e4 fe 22 40
       2.8091779 4.72329 2.8200126 2.5468073
000030 f4 90 3f 40 54 4a 1a 40 62 ca bd 40 69 18 e4 40
       2.9932222 2.4107866 5.930955 7.1279798
000040 ab 25 e4 3f 06 c4 ac 40 41 03 cf 40 d3 9d c8 40
       1.7823995 5.3989286 6.469147 6.2692657
000050 b2 18 03 40 99 50 33 40 e9 73 99 40 fe 4b b0 40
       2.0483823 2.8017943 4.795399 5.5092764
000060 e1 1b ae 40 c2 5c 44 40 a7 13 c2 40 be 46 bb 40
       5.440903 3.0681615 6.064899 5.8523855
000070 ae cc 7f 40 bf 53 0b 40 49 e8 0d 40 75 63 30 40
       3.9968677 2.1769865 2.2173026 2.7560704
000080 2f a4 c1 40 10 06 b0 40 1d 9d 76 40 43 bb c3 40
       6.051292 5.50074 3.8533394 6.116609
000090 10 97 8c 40 31 db 5d 40 59 6a 90 40 5d ea 8f 40
       4.3934402 3.4665034 4.512982 4.497359
0000a0 ac b1 0f 40 6d 0b 5c 40 72 5b 94 40 7e cf 18 40
       2.2452192 3.4381974 4.6361628 2.3876643
0000b0 b4 4c 2c 40 71 4c c0 40 e5 d4 bc 40 bd 2f b0 40
       2.6921816 6.009331 5.900988 5.5058274
0000c0 18 e1 8f 40 22 90 b9 40 ad 21 8b 40 43 d4 6e 40
       4.4962273 5.7988443 4.347861 3.7317054
0000d0 a1 5f a6 40 89 cb 51 40 db 4b 26 40 af d5 12 40
       5.1991735 3.2780478 2.5983799 2.2942922
0000e0 e0 ab 36 40 78 95 cc 40 91 88 57 40 4d 94 76 40
       2.8542404 6.3932457 3.3677104 3.8528016
0000f0 67 63 e2 3f b7 44 af 40 f4 c9 49 40 93 44 99 40
       1.7686585 5.477138 3.1529512 4.789621
000100 a7 ab 61 40 30 dd 57 40 67 68 b9 40 d2 38 98 40
       3.5261018 3.3728752 5.7939944 4.756936
000110 44 e4 3d 40 88 48 34 40 e1 16 4e 40 6b 9a 5c 40
       2.9670572 2.816927 3.2201464 3.446925
000120 f8 3b 40 40 f6 36 91 40 44 d8 2f 40 aa 93 b6 40
       3.0036602 4.537959 2.7475748 5.7055254
000130 bf 73 90 40 5d b3 a3 40 41 73 53 40 41 04 21 40
       4.514129 5.115645 3.3039095 2.5158846
000140 28 bc 8f 40 c2 90 2e 40 4e 8d 0d 40 17 e5 69 40
       4.4917183 2.7275853 2.2117496 3.6546075
000150 c9 8f c0 40 54 0f 3c 40 98 93 62 40 3b 81 c9 3f
       6.017552 2.9384356 3.5402584 1.5742563
000160 f4 6b 75 40 19 59 87 40 1e fa 4a 40 0a eb be 40
       3.834714 4.229626 3.171516 5.9661913
000170 46 eb 34 40 ac 18 6d 40 eb 0a 7c 40 1b f7 c6 40
       2.82686 3.7046309 3.9381664 6.2176642
000180 12 e6 b7 40 ee 55 c1 40 52 42 bd 40 e4 e7 5a 40
       5.7468348 6.0417395 5.9143457 3.4204035
000190 52 ab a5 40 ba d6 1e 40 76 6a c9 40 2d 7a 9d 40
       5.177163 2.4818559 6.2942457 4.921164
0001a0 e8 ae 1d 40 b1 b9 17 40 db 46 f4 3f 1d 0b 89 40
       2.4638004 2.3707087 1.9084123 4.2826066
0001b0 28 74 b6 40 ef e7 5e 40 22 74 14 40 52 e0 c9 40
       5.701679 3.482906 2.3195882 6.308633
0001c0 32 b7 5a 40 67 ac c2 40 6e 9e 41 40 be 38 bd 40
       3.4174314 6.083545 3.0252948 5.9131765
0001d0 4f 87 3e 40 50 6d c2 40 8d 68 8c 40 ef 2d b2 40
       2.9770086 6.075844 4.3877625 5.568107
0001e0 6b d1 29 40 6c 7a d4 40 03 8d b3 40 08 18 17 40
       2.6534069 6.639944 5.6109633 2.3608418
0001f0 1b 98 2d 40 65 48 ab 40 4e c3 c0 40 77 33 87 40
       2.7124088 5.352587 6.023841 4.2250323
000200 a9 15 0f 40 e3 6d b9 40 20 78 c1 40 02 42 c8 40
       2.235697 5.794664 6.0459137 6.2580576
000210 3a b5 c1 40 fd 20 26 40 f3 00 66 40 5a 92 f6 3f
       6.0533724 2.5957634 3.593808 1.9263413
000220 9f 4f b6 40 8a b3 49 40 39 d3 2b 40 18 78 c2 40
       5.6972194 3.1515832 2.684767 6.07716
000230 23 7f cb 40 fa 38 74 40 63 b3 bf 40 42 de c8 40
       6.3592696 3.8159776 5.990648 6.277131
000240 23 c4 15 40 02 06 02 40 e4 06 4f 40 9a 18 50 40
       2.3400962 2.0316167 3.2347956 3.2515016
000250 ee 47 c8 40 e0 e8 c7 40 21 2b bd 40 d6 51 95 40
       6.2587805 6.247177 5.9115148 4.6662397
000260 65 be e4 3f a3 c5 56 40 7a d7 4b 40 61 36 56 40
       1.7870604 3.3558128 3.1850266 3.347069
000270 3b 65 b9 40 a7 fa e2 40 56 cb a7 40 29 00 35 40
       5.793607 7.093097 5.2435713 2.8281348
000280 46 94 96 40 e5 6b 36 40 f4 3a d6 40 3b 3b 06 40
       4.7056 2.8503354 6.6946964 2.0973651
000290 20 f0 fb 3f 3f a6 b3 40 0f a9 c0 40 df af ad 40
       1.9682655 5.6140437 6.020637 5.4277186
0002a0 fd aa 70 40 4f 81 bb 40 84 fc 3e 40 09 ae 92 40
       3.7604363 5.8595347 2.9841623 4.5837445
0002b0 49 3b 67 40 59 8a bd 40 01 e9 2e 40 1d c0 c1 40
       3.6129935 5.923138 2.7329714 6.0547013
0002c0 61 9b 90 40 ee 02 c0 40 16 ba 1c 40 05 c3 99 40
       4.518967 6.0003576 2.4488578 4.805056
0002d0 bb b0 c3 40 7e 95 cd 40 cf ab 30 40 f3 6c 83 40
       6.1153235 6.4244986 2.7604864 4.1070495
0002e0 dd 0d 5c 40 b2 de a0 40 16 f8 06 40 f2 b6 c3 40
       3.4383461 5.0271845 2.108892 6.116082
0002f0 d5 ea a1 40 40 52 25 40 9a d5 bf 40 6c ab ca 40
       5.059916 2.5831451 5.9948244 6.3334255
000300 89 ce 33 40 61 ce 15 40 05 77 18 40 e3 84 4c 40
       2.809481 2.3407214 2.3822644 3.1956108
000310 aa d2 f3 3f 45 9b b2 40 c2 1f 2e 40 e7 ad 3d 40
       1.9048665 5.581454 2.7206883 2.9637392
000320 31 45 30 40 45 89 80 40 d9 bd c5 3f 07 2f 2a 40
       2.754223 4.0167565 1.5448562 2.6591203
000330 9d 04 d3 40 b2 b2 89 40 37 6c be 40 c9 28 c1 40
       6.594313 4.3030634 5.95071 6.0362287
000340 a6 96 cc 40 8d 80 bb 40 08 47 18 40 00 3b 55 40
       6.3933897 5.859442 2.3793354 3.331726
000350 4f 2c 18 40 75 04 e1 3f d7 fa bb 40 71 a6 b3 40
       2.3777044 1.7579485 5.87437 5.6140676
000360 c4 ce a1 40 83 43 34 40 c0 8b bd 40 14 e1 b4 40
       5.05649 2.8166206 5.9233093 5.6524754
000370 1b 85 9d 40 a9 6d e9 3f 58 28 a7 40 b1 a1 57 40
       4.922498 1.8236591 5.223675 3.3692439
000380 4f 63 30 40 35 35 3f 40 b5 c1 bc 40 62 12 2f 40
       2.7560613 2.9876225 5.898646 2.735497
000390 da 4d c8 40 ca 1d b0 40 73 0d c2 40 e8 80 51 40
       6.2595034 5.5036364 6.0641418 3.2734928
0003a0 da 0c b5 40 8f 60 c2 40 7e 3b bb 40 58 15 3f 40
       5.657819 6.074287 5.851012 2.9856777
0003b0 ef f2 c4 40 ce cf b4 40 e7 5f 61 40 43 6d aa 40
       6.154655 5.650367 3.5214784 5.3258376
0003c0 10 60 c8 40 4a 76 7e 40 bd 8c d5 3f 6e 9b 06 40
       6.2617264 3.9759698 1.6683575 2.1032367
0003d0 e2 c5 a2 40 fc 40 c9 40 a8 8f 41 40 38 e1 d5 3f
       5.0866556 6.2891827 3.024393 1.6709356
0003e0 d7 ec 3d 40 60 25 27 40 84 fc 8b 40 fc 02 0b 40
       2.9675806 2.6116562 4.3745747 2.1720572
0003f0 e0 1d 25 40 30 fb 50 40 1c 0a 42 40 77 41 ae 40
       2.5799484 3.2653313 3.031867 5.4454913
