project_3/checkpoints/checkpoint_cycle_03_20241025_022358.pt (torch, 624850 bytes, 12 tensors)

shared_fc.weight f4 [512, 96]
0.028301565 0.030567028 -0.062620506 0.030902717 -0.06232762 0.065179884 0.07637608 -0.08740571
0.046693075 -0.14464113 -0.017563125 0.085134834 -0.071491905 -0.12509526 0.0060797604 -0.042976785
-0.013616833 0.0401595 -0.034516614 0.053551506 -0.026632415 0.09188705 -0.048809614 0.012093622
-0.00020192175 -0.07674667 -0.0029944603 -0.027514707 -0.074412294 0.055715296 0.033297315 -0.0388672
0.012630084 0.013418907 -0.097446345 -0.03417501 -0.030279968 0.06385292 0.04590542 0.019920634
0.047638945 0.013116534 0.077717565 -0.031767424 -0.14731252 0.008344554 -0.038346205 -0.027856786
-0.023855675 -0.013459132 -0.068297595 -0.011159333 0.064804964 -0.030932568 0.053414896 0.03149495
-0.0507801 -0.0084104715 -0.033982594 0.006371283 0.044147264 0.08045751 0.055262074 -0.029392635
0.01461803 0.03419754 0.024561172 0.013283765 0.070172854 0.07111016 0.023144713 0.10373868
0.019154085 0.015608856 0.033670597 -0.005108483 0.028373957 0.026805436 0.063079305 0.1225268
0.048418347 0.02503237 0.06923768 0.062703334 0.027956558 0.03578656 0.0008898634 0.099767834
0.07681321 0.025082303 -0.022969514 0.103615545 0.023961699 0.009667209 0.077447854 -0.041380342
-0.021675607 0.103724174 -0.011896919 -0.08114073 -0.059045047 0.035896495 0.14205666 0.013614396
-0.16226879 -0.11962218 0.082964845 0.0481026 0.011776548 0.028501756 0.06510018 0.010080138
-0.008312472 0.01744994 -0.043548156 -0.0063742106 -0.09850875 0.05138183 -0.02154766 0.08815382
0.016276134 0.09840026 -0.0154238315 -0.023775134 -0.08939655 -0.0055225547 0.12723847 -0.08039583
0.05993662 0.015907027 -0.037962433 0.08497855 -0.05675491 -0.04645395 -0.07245253 0.036974702
0.07436618 0.08495121 -0.06981814 0.0134266345 0.07890125 -0.10032981 0.04677852 0.09317599
-0.069147356 -0.023251554 0.01842714 0.04647539 0.03980796 0.024575504 -0.05345922 -0.090928
-0.051251683 -0.07930313 0.009543227 0.054063898 0.046707038 -0.06861231 -0.058104478 0.090363674
0.115901165 -0.051945053 -0.09883587 0.09160187 -0.059890218 -0.072902076 -0.033596136 -0.0015742208
0.053554293 -0.047328066 0.0017122508 0.031825792 -0.0624551 -0.041726176 0.0518452 0.040284775
-0.0084734 0.044849914 -0.035488497 0.037393194 -0.004350099 -0.055679712 0.07056393 0.0066663898
0.099640064 -0.0040135235 0.07096886 0.07357537 0.055479497 0.032759316 0.0079938695 0.04599691
0.07441717 0.047040068 0.028072516 -0.031899627 0.13003995 -0.0056600794 0.047487948 -0.009436031
0.023254497 0.056562245 -0.069226116 -0.02593925 -0.10502711 -0.026532358 -0.06280231 -0.02395949
-0.07078274 -0.06046713 -0.09692438 -0.047175825 -0.0034276526 0.03561492 -0.059979696 -0.031389337
0.1467502 -0.0040153177 -0.05331996 0.012243418 -0.034984715 -0.007151777 -0.08160452 -0.092787795
0.044415224 0.03292693 0.016240519 0.062243443 -0.032080997 -0.041321333 -0.06928295 0.0323848
-0.028484019 -0.014058994 0.009275228 0.02879331 -0.018725837 0.06611766 -0.027896952 -0.006681846
0.008496077 0.021669138 0.09187133 0.067381024 0.10238693 -0.020934666 -0.04563692 -0.08240954
-0.05271039 -0.07567509 0.057528388 -0.009936267 -0.08716319 -0.026638206 0.06264657 0.023629356
00000000: afd8 e73c b467 fa3c 2e3f 80bd b227 fd3c
00000010: 3f4b 7fbd 087d 853d 106b 9c3d c401 b3bd
00000020: 3d41 3f3d ce1c 14be 8be0 8fbc 2c5b ae3d
00000030: 596a 92bd f918 00be ba38 c73b 6d08 30bd
00000040: 2319 5fbc 4a7e 243d 4b61 0dbd d358 5b3d
00000050: 392c dabc 472f bc3d 97ec 47bd 5424 463c
00000060: f5ba 53b9 5c2d 9dbd b53e 44bb 8666 e1bc
00000070: 7965 98bd b935 643d c462 083d 3733 1fbd
00000080: 69ee 4e3c fada 5b3c f391 c7bd 18fb 0bbd
00000090: b20d f8bc 52c5 823d 5207 3c3d 9930 a33c
000000a0: 0e21 433d bbe6 563c 632a 9f3d 8f1e 02bd
000000b0: 18d9 16be 99b7 083c e910 1dbd ea33 e4bc
000000c0: fa6c c3bc b183 5cbc 9cdf 8bbd a3d5 36bc
000000d0: 77b8 843d 4c66 fdbc 94c9 5a3d d900 013d
000000e0: cbfe 4fbd 13cc 09bc 5531 0bbd 32c6 d03b
000000f0: c3d3 343d e8c6 a43d 7c5a 623d d3c8 f0bc
00000100: 7680 6f3c b812 0c3d 8334 c93c 26a4 593c
00000110: c9b6 8f3d 34a2 913d fb99 bd3c f274 d43d
00000120: 07e9 9c3c 4abc 7f3c 2eea 093d 1065 a7bb
00000130: 8070 e83c 1397 db3c b92f 813d 55ef fa3d
00000140: 5152 463d af10 cd3c 7ccc 8d3d 9b6a 803d
00000150: 2705 e53c ee94 123d b945 693a 1453 cc3d
00000160: 3f50 9d3d 6779 cd3c 902a bcbc 6334 d43d
00000170: 534b c43c 3763 1e3c fb9c 9e3d 6f7e 29bd
00000180: 0b91 b1bc 576d d43d 4ceb 42bc 1c2d a6bd
00000190: 38d9 71bd 3408 133d 4d77 113e ea0e 5f3c
000001a0: ca29 26be 79fc f4bd 79e9 a93d 3b07 453d
000001b0: 6cf2 403c 847c e93c 3e53 853d 2a27 253c
000001c0: 0931 08bc 2df3 8e3c 8d5f 32bd c1de d0bb
000001d0: f5be c9bd c175 523d b884 b0bc fd89 b43d
000001e0: 8755 853c 1386 c93d 3db4 7cbc 12c4 c2bc
000001f0: 8a15 b7bd 8cf6 b4bb cd4a 023e 92a6 a4bd
00000200: 1a80 753d 744f 823c 7f7e 1bbd 3c09 ae3d
00000210: d677 68bd 7f46 3ebd fe61 94bd c972 173d
00000220: 4c4d 983d e6fa ad3d d0fc 8ebd 63fb 5b3c
00000230: fb96 a13d b779 cdbd d59a 3f3d 0ed3 be3d
00000240: 219d 8dbd 0b7a bebc 83f4 963c fb5c 3e3d
00000250: ac0d 233d 9152 c93c 0ef8 5abd 7638 babd
00000260: 49ed 51bd ae69 a2bd 325b 1c3c 1b72 5d3d
00000270: e14f 3f3d 9c84 8cbd f6fe 6dbd 9710 b93d
00000280: 975d ed3d 56c4 54bd 766a cabd c399 bb3d
00000290: 724f 75bd af4d 95bd 1a9c 09bd 1656 ceba
000002a0: bf5b 5b3d 13db 41bd 9a6d e03a c35b 023d
000002b0: ebd0 7fbd 11e9 2abd a25b 543d a601 253d
000002c0: 04d4 0abc 8bb4 373d 635c 11bd 9b29 193d
000002d0: 468b 8ebb 6910 64bd d283 903d bb71 da3b
000002e0: 1710 cc3d e083 83bb 1f58 913d afae 963d
000002f0: 783e 633d a22e 063d b8f8 023c 4267 3c3d
00000300: 0768 983d 16ad 403d 55f8 e53c 2fa9 02bd
00000310: 3129 053e 3078 b9bb b982 423d 9599 1abc
00000320: 3780 be3c d0ad 673d 6cc6 8dbd 8d7e d4bc
00000330: 7418 d7bd 635a d9bc 7f9e 80bd b146 c4bc
00000340: 8bf6 90bd 62ac 77bd 4a80 c6bd 703b 41bd
00000350: 78a2 60bb f3e0 113d 45ad 75bd 1b92 00bd
00000360: af45 163e ed92 83bb 0866 5abd 9e98 483c
00000370: 224c 0fbd 7459 eabb 4520 a7bd 8707 bebd
00000380: bdec 353d 63de 063d d60a 853c fbf2 7e3d
00000390: 5d67 03bd 8f40 29bd 38e4 8dbd eda5 043d
000003a0: 5157 e9bc b257 66bc 20f7 173c f3df eb3c
000003b0: ed66 99bc b268 873d 2688 e4bc 63f3 dabb
000003c0: 2133 0b3c 7a83 b13c 0927 bc3d 10ff 893d
000003d0: 3db0 d13d 2d7f abbc c7ed 3abd 55c6 a8bd
000003e0: dae6 57bd 8bfb 9abd e3a2 6b3d b9cb 22bc
000003f0: 9d82 b2bd 5e38 dabc d84c 803d 5a92 c13c

shared_fc.bias f4 [512]
-0.004036356 -0.0140177505 0.092024244 -0.04278858 0.00482355 0.0005859014 -0.06623014 -0.054998066
0.08209761 0.030882087 0.029282786 -0.04115141 0.015226294 -0.035512965 -0.055548463 -0.0043266723
0.07127572 0.067747734 0.08104147 -0.015364948 -0.088914536 0.032965012 -0.042367376 0.037283674
0.05533731 -0.058383558 0.015278219 0.071988486 0.092882074 -0.054360375 0.08391487 0.024221957
0.11469494 0.03955937 -0.0007051106 -0.08865135 0.04804339 -0.07425853 -0.022985289 0.07001925
0.079621576 0.099597275 -0.10901625 -0.013542814 0.10568974 0.025593305 -0.054902054 -0.059560385
0.045855444 0.013139832 0.05306688 -0.048883606 0.013082688 -0.063809335 -0.06077624 0.0049111396
-0.064687096 0.12050304 0.022837592 0.0645149 0.08910346 0.077935435 -0.053106584 -0.053483285
-0.034286663 -0.08127923 -0.07438482 0.038493328 0.04739475 0.035318866 0.08187812 -0.0849701
-0.024147995 0.06309633 0.021973675 0.07517112 -0.03198629 -0.06429848 -0.029380474 -0.01910992
-0.080356985 -0.04742125 0.09587733 0.00068000454 -0.083796956 -0.070294015 -0.0050795916 -0.045363944
0.004684533 0.08869505 0.10211654 -0.00015534213 -0.053087085 0.061504763 0.062942795 0.08790682
0.009731402 0.036029037 -0.006051093 -0.0073397416 -0.041483413 -0.0745143 0.09913523 -0.013538076
-0.03469009 0.017133337 -0.00394261 -0.07921449 0.12722716 -0.029349955 0.048728503 0.06915782
-0.05224869 0.05957212 0.040338352 -0.02195588 -0.008326038 -0.01413805 -0.035470266 0.09222254
0.07049251 0.028383246 -0.029882772 0.10658222 -0.071274444 0.07238651 -0.04701718 -0.018131014
0.055312168 -0.078726254 -0.06338346 -0.02439406 -0.019860331 -0.06113788 0.087695345 -0.046930924
-0.011182464 0.03287118 -0.028896682 0.04761925 0.05715038 -0.016809963 -0.026531536 0.0465443
0.06901259 -0.076861076 -0.05694423 -0.057147205 0.0890046 0.031867888 -0.039660074 -0.04228875
0.0066897115 0.048303843 0.10959261 -0.06311714 0.044630338 0.12225024 0.06876019 -0.003853101
0.066954754 0.0033902691 -0.09786333 0.019313628 -0.013734386 0.100973114 0.020453246 0.043213643
0.046144817 0.10589327 0.053661283 -0.06830268 0.052010898 -0.016095681 0.10476971 -0.08273708
-0.022753816 -0.023269476 -0.0070488965 0.027760053 0.01593971 0.058446713 0.09372569 -0.03727718
0.0874259 -0.055844847 -0.037959926 0.064043656 0.0061014923 0.015508695 -0.06957668 0.048027832
-0.07662018 -0.08232646 0.017808542 -0.036603168 0.0030523255 -0.060288455 0.10184644 0.07865517
-0.028007535 0.067710385 -0.00081485277 0.063712195 -0.03133235 -0.013489069 0.00804372 -0.06319547
0.1052296 0.019298207 0.014575078 0.11539599 0.013605625 0.093570605 0.055148825 0.030348226
0.027583893 -0.098492526 -0.0024529037 -0.04520019 -0.091963306 0.11427411 -0.047801062 -0.0004830816
0.07422963 0.055766862 -0.08606382 0.11141602 0.018587196 -0.036221392 -0.041818764 0.035388716
-0.0046791635 0.081253245 -0.08179603 -0.051795144 -0.047825675 -0.04997564 0.035026852 -0.048809454
-0.02188164 0.010131233 -0.04320761 -0.04832294 -0.010453217 -0.095019326 0.04371644 0.0147970915
-0.09359679 -0.04392417 -0.027441297 -0.010503656 0.06881838 0.117933705 -0.08463463 -0.014775669
00000000: 6943 84bb b5aa 65bc 3577 bc3d 1443 2fbd
00000010: df0e 9e3b 2d97 193a aba3 87bd a745 61bd
00000020: cb22 a83d 6efc fc3c 74e2 ef3c 628e 28bd
00000030: b577 793c 0b76 11bd c986 63bd c2c6 8dbb
00000040: 01f9 913d 53bf 8a3d 12f9 a53d 43bd 7bbc
00000050: d318 b6bd 5206 073d 6a89 2dbd c4b6 183d
00000060: 60a9 623d 9923 6fbd 7f51 7a3c b36e 933d
00000070: f538 be3d fca8 5ebd 8fdb ab3d 206d c63c
00000080: 2ee5 ea3d 0209 223d 2cd7 38ba d78e b5bd
00000090: 25c9 443d db14 98bd a54b bcbc 4166 8f3d
000000a0: a310 a33d a8f9 cb3d e943 dfbd aee2 5dbc
000000b0: dd73 d83d 0da9 d13c fae0 60bd 97f5 73bd
000000c0: ebd2 3b3d 7348 573c a85c 593d 2d3a 48bd
000000d0: c558 563c 78ae 82bd 82f0 78bd a0ed a03b
000000e0: ab7a 84bd 4cca f63d e715 bb3c 6320 843d
000000f0: e07b b63d 9d9c 9f3d 4a86 59bd 4a11 5bbd
00000100: 2c70 0cbd ba75 a6bd 1257 98bd 2eab 1d3d
00000110: ff20 423d 84aa 103d b7af a73d ce04 aebd
00000120: 04d2 c5bc a638 813d 2302 b43c 51f3 993d
00000130: 0e04 03bd ecae 83bd 52af f0bc 688c 9cbc
00000140: 3492 a4bd c93c 42bd 555b c43d 5542 323a
00000150: bd9d abbd 4ff6 8fbd b472 a6bb 8bcf 39bd
00000160: b680 993b c0a5 b53d 7a22 d13d 56e3 22b9
00000170: d871 59bd 6bec 7b3d 27e8 803d 7e08 b43d
00000180: 7570 1f3c 2f93 133d 3f48 c6bb 3782 f0bb
00000190: 83ea 29bd f49a 98bd 6907 cb3d cece 5dbc
000001a0: 3217 0ebd 365b 8c3c 0331 81bb 353b a2bd
000001b0: d647 023e 516f f0bc 8a97 473d 9da2 8d3d
000001c0: b902 56bd e501 743d d439 253d d1dc b3bc
000001d0: ef69 08bc 48a3 67bc 4549 11bd 2cdf bc3d
000001e0: 615e 903d fb83 e83c b7cc f4bc c747 da3d
000001f0: 56f8 91bd 613f 943d 1695 40bd 7e87 94bc
00000200: 038f 623d 3b3b a1bd 30cf 81bd 0dd6 c7bc
00000210: 22b2 a2bc b76b 7abd 9e99 b33d a43a 40bd
00000220: a736 37bc eea3 063d bcb8 ecbc 670c 433d
00000230: 8416 6a3d 0cb5 89bc aa58 d9bc 3ca5 3e3d
00000240: 7956 8d3d 5769 9dbd 5a3e 69bd 3013 6abd
00000250: 0b48 b63d e787 023d 9a72 22bd f836 2dbd
00000260: 5e35 db3b 40da 453d 1772 e03d 8f43 81bd
00000270: 4dce 363d 555e fa3d 24d2 8c3d 4f84 7cbb
00000280: 931f 893d 472f 5e3b 926c c8bd 9d37 9e3c
00000290: 3106 61bc feca ce3d 918d a73c ca00 313d
000002a0: 5902 3d3d 92de d83d efcb 5b3d 47e2 8bbd
000002b0: 6109 553d 17db 83bc 8091 d63d 0f72 a9bd
000002c0: 3666 babc a19f bebc 6efa e6bb 0d69 e33c
000002d0: ff93 823c d265 6f3d 41f3 bf3d f5af 18bd
000002e0: 5a0c b33d 91bd 64bd de7b 1bbd 5229 833d
000002f0: 07ef c73b 2e18 7e3c 387e 8ebd d5b8 443d
00000300: 0aeb 9cbd c69a a8bd 38e3 913c 34ed 15bd
00000310: 8609 483b 07f1 76bd de94 d03d f615 a13d
00000320: 0f70 e5bc beab 8a3d d89b 55ba 8a7b 823d
00000330: 5a56 00bd 4201 5dbc cfc9 033c a06c 81bd
00000340: 9e82 d73d 4617 9e3c 4fcc 6e3c bc54 ec3d
00000350: 21ea 5e3c f2a1 bf3d bce3 613d d89c f83c
00000360: 9ef7 e13c 73b6 c9bd e5c0 20bb d623 39bd
00000370: 4257 bcbd 8b08 ea3d 0ccb 43bd 1d46 fdb9
00000380: b405 983d cb6b 643d 3a42 b0bd 152e e43d
00000390: 2d44 983c e25c 14bd 274a 2bbd c2f3 103d
000003a0: ab53 99bb 1a68 a63d ad84 a7bd 2527 54bd
000003b0: dbe4 43bd 42b3 4cbd 5178 0f3d 6cec 47bd
000003c0: 2041 b3bc 79fd 253c 76fa 30bd 46ee 45bd
000003d0: f843 2bbc 7e99 c2bd 0310 333d 806f 723c
000003e0: adaf bfbd d5e9 33bd 92cc e0bc 8717 2cbc
000003f0: a7f0 8c3d 3a87 f13d ec54 adbd a615 72bc

shared_ln.weight f4 [512]
1.0756774 1.0963833 1.1565598 1.0758859 1.1357677 1.0232508 1.0629086 1.1088321
1.0932589 1.06718 1.094838 1.1846558 1.1413691 1.132264 1.0510736 1.1444688
1.0810995 1.1088363 1.1615423 1.115489 1.1112032 1.1621696 1.0807283 1.0973152
1.0532757 1.091897 1.0990542 1.0662684 1.1356232 1.0870037 1.130366 1.215806
1.1333199 1.0812873 1.1017178 1.1315849 1.1144723 1.1060253 1.2084879 1.0918646
1.1341918 1.0633625 1.1120471 1.0483359 1.1287569 1.1508727 1.1386551 1.0598071
1.0156305 1.0709878 1.0661559 1.121176 1.0537926 1.1448615 1.0869997 1.0638456
1.1122737 1.2006451 1.059961 1.0737257 1.0479764 1.080814 1.1573907 1.0864837
1.0759454 1.1523448 1.1490672 1.1195321 1.1390872 1.0591989 1.221357 1.1368483
1.182265 1.1018994 1.0906421 1.0917413 1.1271152 1.0674418 1.0633618 1.1528393
1.071395 1.2036027 1.1094023 1.0626829 1.0655994 1.1289784 1.0918521 1.143319
1.1079609 1.1265857 1.0854006 1.1748677 1.1549606 1.1496801 1.1365386 1.0723497
1.0301027 1.0644579 1.1520668 1.0919245 1.0488293 1.0840088 1.1501294 1.1499878
1.1143317 1.0719934 1.1848226 1.1656152 1.2578542 1.089535 1.0919399 1.099061
1.131866 1.0217173 1.1335635 1.113072 1.1252419 1.1056325 1.0861077 1.125331
1.0561805 1.0431153 1.0996884 1.1309515 1.0952258 1.0881482 1.1282413 1.0265652
1.0919466 1.0776614 1.084704 1.1183329 1.0992525 1.1548239 1.1108004 1.1070762
1.1101539 1.1512945 1.1028845 1.0813336 1.114362 1.0740235 1.1194412 1.1948186
1.0757645 1.0825782 1.0521901 1.1242261 1.0608847 1.0485959 1.1231353 1.1054367
1.1222073 1.1328124 1.1097043 1.0835648 1.1001248 1.0757042 1.060582 1.1233473
1.0786451 1.1006272 1.1121933 1.0446835 1.215361 1.1193362 1.0739409 1.1227357
1.0700034 1.0951874 1.212729 1.1364921 1.0530065 1.1330553 1.0376441 1.1187688
1.0984796 1.105837 1.1438193 1.0687056 1.126612 1.1041082 1.1181213 1.1064149
1.1279266 1.0548673 1.1162766 1.049323 1.153138 1.1214131 1.0615026 1.1227028
1.0482051 1.2081155 1.0524986 1.1186528 1.0586228 1.088332 1.1893505 1.1666276
1.0853415 1.0511642 1.0644453 1.1140608 1.0673121 1.1036285 1.1380312 1.0840693
1.1053419 1.100337 1.1047583 1.1433583 1.0955825 1.1496806 1.1501983 1.0685763
1.0840635 1.0814989 1.1069078 1.0384276 1.0954264 1.1719376 1.0408231 1.100872
1.0279769 1.1012 1.1248649 1.0978037 1.1420791 1.1127362 1.059592 1.1097612
1.0728331 1.076339 1.1122918 1.029393 1.1006638 1.1211007 1.0702447 1.1470381
1.0889531 1.0580302 1.1205312 1.0507978 1.1156512 1.1230768 1.0638151 1.0586531
1.1165152 1.1218008 1.101989 1.1390568 1.102363 1.1419404 1.0570492 1.114655
00000000: ccaf 893f 4a56 8c3f 270a 943f a1b6 893f
00000010: d660 913f e2f9 823f 640d 883f 36ee 8d3f
00000020: e8ef 8b3f 5b99 883f a723 8c3f cda2 973f
00000030: 6218 923f 07ee 903f 9489 863f f47d 923f
00000040: 7861 8a3f 59ee 8d3f 6bad 943f 58c8 8e3f
00000050: e83b 8e3f f9c1 943f 4e55 8a3f d374 8c3f
00000060: bdd1 863f 48c3 8b3f cfad 8c3f 7c7b 883f
00000070: 1a5c 913f f022 8b3f d5af 903f 889f 9b3f
00000080: a010 913f 9f67 8a3f 1705 8d3f c6d7 903f
00000090: 07a7 8e3f 3d92 8d3f bbaf 9a3f 38c2 8b3f
000000a0: 322d 913f 431c 883f 8f57 8e3f df2f 863f
000000b0: 1b7b 903f cc4f 933f 73bf 913f c2a7 873f
000000c0: 2e00 823f 2116 893f cc77 883f b282 8f3f
000000d0: ade2 863f d28a 923f ce22 8b3f 182c 883f
000000e0: fc5e 8e3f bdae 993f cdac 873f d86f 893f
000000f0: 1724 863f 1d58 8a3f 6125 943f e611 8b3f
00000100: 94b8 893f 0980 933f a214 933f d44c 8f3f
00000110: 9ccd 913f d493 873f 6d55 9c3f 3f84 913f
00000120: 7654 973f 0a0b 8d3f 299a 8b3f 2ebe 8b3f
00000130: 5045 903f efa1 883f 3d1c 883f 3d90 933f
00000140: 7923 893f a70f 9a3f e500 8e3f fe05 883f
00000150: 9065 883f 5d82 903f cfc1 8b3f 4758 923f
00000160: aad1 8d3f f633 903f 68ee 8a3f 1162 963f
00000170: c0d5 933f b828 933f 197a 913f c142 893f
00000180: 68da 833f 2840 883f ed76 933f 2fc4 8b3f
00000190: 0a40 863f cdc0 8a3f 7137 933f cd32 933f
000001a0: 6ca2 8e3f 1437 893f 44a8 973f e132 953f
000001b0: 5e01 a13f e275 8b3f b0c4 8b3f 08ae 8c3f
000001c0: fce0 903f a2c7 823f 9c18 913f 2579 8e3f
000001d0: ed07 903f 5e85 8d3f 9405 8b3f d90a 903f
000001e0: ec30 873f cd84 853f 97c2 8c3f 05c3 903f
000001f0: 5c30 8c3f 7148 8b3f 366a 903f 7d66 833f
00000200: e8c4 8b3f cff0 893f 95d7 8a3f 8825 8f3f
00000210: 4eb4 8c3f 45d1 933f b52e 8e3f acb4 8d3f
00000220: 8619 8e3f 9e5d 933f 522b 8d3f 2469 8a3f
00000230: 6aa3 8e3f 9a79 893f d949 8f3f d1ef 983f
00000240: a7b2 893f ec91 8a3f 2aae 863f a4e6 8f3f
00000250: 12cb 873f 6438 863f e6c2 8f3f f37e 8d3f
00000260: 7da4 8f3f ffff 903f ca0a 8e3f 40b2 8a3f
00000270: e4d0 8c3f adb0 893f 27c1 873f d8c9 8f3f
00000280: 0b11 8a3f 5ae1 8c3f 5a5c 8e3f 30b8 853f
00000290: f390 9b3f 6946 8f3f e576 893f ceb5 8f3f
000002a0: dff5 883f 1a2f 8c3f b43a 9b3f 9378 913f
000002b0: ebc8 863f f507 913f 86d1 843f d133 8f3f
000002c0: fb9a 8c3f 118c 8d3f ac68 923f 58cb 883f
000002d0: d234 903f 6b53 8d3f 991e 8f3f 019f 8d3f
000002e0: e65f 903f e405 873f 27e2 8e3f 3750 863f
000002f0: 079a 933f 778a 8f3f 51df 873f bab4 8f3f
00000300: 962b 863f 87a3 9a3f 46b8 863f 0430 8f3f
00000310: f480 873f 774e 8b3f a33c 983f 0e54 953f
00000320: 78ec 8a3f 8c8c 863f be3f 883f 8b99 8e3f
00000330: af9d 883f b343 8d3f 02ab 913f c8c2 8a3f
00000340: d87b 8d3f d8d7 8c3f b868 8d3f 9159 923f
00000350: 0c3c 8c3f bc28 933f b339 933f 1cc7 883f
00000360: 98c2 8a3f 8e6e 8a3f 28af 8d3f 32eb 843f
00000370: ef36 8c3f 0d02 963f b139 853f 60e9 8c3f
00000380: bf94 833f 1ff4 8c3f 93fb 8f3f d584 8c3f
00000390: a62f 923f 246e 8e3f b6a0 873f a80c 8e3f
000003a0: 9852 893f 7ac5 893f 945f 8e3f 26c3 833f
000003b0: 8de2 8c3f 3a80 8f3f c7fd 883f 25d2 923f
000003c0: d162 8b3f 896d 873f 916d 8f3f 8b80 863f
000003d0: a9cd 8e3f fbc0 8f3f 182b 883f f281 873f
000003e0: f8e9 8e3f 2b97 8f3f fa0d 8d3f 9dcc 913f
000003f0: 3b1a 8d3f 1a2b 923f 634d 873f 04ad 8e3f

shared_ln.bias f4 [512]
0.008047515 0.00085742195 0.0055701756 0.035935674 0.052764248 -0.006939208 -0.0073611815 0.021884587
0.017705802 0.013074835 0.006712533 0.05258808 0.019259715 0.030835852 0.019685468 0.05192724
0.024368593 0.028297374 0.05080018 0.03324792 0.005747982 0.030428976 0.06048648 0.016312098
0.010296851 0.0449086 0.042659465 0.050737336 0.05072456 0.031239897 0.0047275512 0.060241487
0.02553524 0.014624957 0.029801553 0.0026528093 0.0026320547 0.0031092707 0.033187285 0.03376356
0.04543505 0.016641678 0.03475533 0.028697886 0.023852611 0.03312651 0.015089067 -0.018678542
0.011983275 0.022269383 0.025665894 0.017428866 -0.005060181 0.050119273 0.03367749 -0.0055128527
0.0400553 0.05869983 0.010216105 0.019342413 -0.018445795 0.014087908 0.012546775 0.03146068
0.03236317 0.019729972 0.014620345 0.02336504 0.036313303 0.023083242 0.03996902 -0.0017018698
-0.007279179 0.025423508 0.020980299 0.030655332 0.02225857 -0.0045211357 0.046763595 0.035610892
0.0063799294 0.0009082343 0.00857057 0.008423726 0.0040004426 0.016689273 0.02288164 0.03745558
0.024471428 0.021423016 0.05617016 0.026355278 0.05599321 0.02623794 0.028026504 0.033788856
0.0071837115 -0.0076700468 0.017485552 0.027309297 0.002733272 0.005492266 0.044164184 0.070620276
0.031007385 0.018271174 0.068135835 0.05866026 0.054390047 0.03838819 0.015200796 0.019452747
0.043912213 0.024600595 0.03834468 0.030280635 0.0025684235 0.01971189 0.013005471 0.0049982187
0.026702084 -0.009302478 0.03736533 0.030709976 0.030211452 0.022340737 0.010569342 0.018259889
0.0045128646 -0.02549837 0.020596962 0.030156031 0.038698915 0.041297566 0.03869979 0.020030664
0.051653914 0.034479655 0.009865755 0.00047371938 -0.0071820454 0.028624337 0.053910792 0.0388953
0.021761023 0.02601483 -0.019834133 -0.0022025586 0.02738839 0.0021472932 0.0021342884 0.003512151
-0.0008375637 0.036633685 0.018781414 0.027229672 0.012374433 0.02310415 0.0072344937 0.035620444
0.0051523014 -0.005256743 0.0018453825 0.034853544 0.04241683 0.037433773 0.024150068 0.00730893
0.032497883 0.038940545 0.01662433 0.011577706 0.019626377 0.057396688 0.026405422 0.022137513
0.0062887887 0.013037901 0.023886347 -0.009203915 0.021103831 0.026559485 0.021980643 -0.002566622
0.049884196 0.016332213 0.014655496 0.012077539 0.03941338 0.058039162 0.01145487 0.050712354
0.023322567 0.012096872 0.006266361 0.007217187 0.040467996 0.017186338 0.033515844 0.043585945
-0.0049151443 -0.011813477 0.032454867 0.022615176 0.020359222 0.04938443 -0.008562611 0.03192994
0.023363324 -0.0006312128 0.023867741 0.013782724 0.054133978 0.0036497922 -0.0014542248 0.02639252
0.023767846 0.0069409627 0.0043895193 0.029867562 0.011413489 0.026221463 0.010976386 0.02896889
-0.0011806241 0.030768482 0.015614417 0.0013704904 0.027405534 0.017632091 0.016578512 0.026984734
0.00069016375 0.02293147 0.04042491 0.01994945 -0.010780932 0.022122199 0.0029538253 -0.0036076044
-0.0007412463 0.027357226 -0.004030947 0.012998236 0.014966328 0.013236756 -0.0066220164 0.014532275
0.0075883605 0.029542796 0.022225048 0.034840334 0.01821701 0.024988025 0.028032826 0.031001437
00000000: b9d9 033c 9dc4 603a 0586 b63b 4931 133d
00000010: 531f 583d 4c62 e3bb 1136 f1bb 4e47 b33c
00000020: c20b 913c d537 563c cff4 db3b 9966 573d
00000030: 8dc6 9d3c 789b fc3c 6b43 a13c a8b1 543d
00000040: a5a0 c73c e5cf e73c d913 503d f92e 083d
00000050: 9159 bc3b 3046 f93c acc0 773d f3a0 853c
00000060: 20b4 283c 15f2 373d b1bb 2e3d f4d1 4f3d
00000070: 8ec4 4f3d d0ea ff3c 93e9 9a3b c7bf 763d
00000080: 482f d13c 849d 6f3c 6322 f43c c1da 2d3b
00000090: 8d7e 2c3b e8c4 4b3b 64ef 073d a94b 0a3d
000000a0: 1a1a 3a3d 2154 883c 9b5b 0e3d d417 eb3c
000000b0: 8d66 c33c aaaf 073d 2238 773c be03 99bc
000000c0: 8055 443c 486e b63c 4841 d23c fbc6 8e3c
000000d0: e0cf a5bb de49 4d3d 68f1 093d 29a5 b4bb
000000e0: 0711 243d 3c6f 703d 7361 273c fb73 9e3c
000000f0: a31b 97bc f8d0 663c fd90 4d3c eadc 003d
00000100: 3e8f 043d c0a0 a13c 2c8a 6f3c 0a68 bf3c
00000110: 42bd 143d 1119 bd3c 8eb6 233d 4611 dfba
00000120: 2e86 eebb f644 d03c e0de ab3c e420 fb3c
00000130: 9b57 b63c 0926 94bb 2f8b 3f3d badc 113d
00000140: ba0e d13b 9216 6e3a 936b 0c3c ab03 0a3c
00000150: 2516 833b f1b7 883c 4772 bb3c 066b 193d
00000160: 4e78 c83c 527f af3c af12 663d 06e7 d73c
00000170: 2359 653d f3f0 d63c d797 e53c 2f66 0a3d
00000180: 5765 eb3b 0455 fbbb dc3d 8f3c bfb7 df3c
00000190: b220 333b 77f8 b33b 81e5 343d 5da1 903d
000001a0: 3303 fe3c 6ead 953c cd8a 8b3d be45 703d
000001b0: 19c8 5e3d ef3c 1d3d c20c 793c 5e5b 9f3c
000001c0: 4bdd 333d 3087 c93c 500f 1d3d 180f f83c
000001d0: ff52 283b d47a a13c e614 553c 19c8 a33b
000001e0: 54be da3c 6c69 18bc 630c 193d 7d93 fb3c
000001f0: 027e f73c ec03 b73c 092b 2d3c c395 953c
00000200: a7e0 933b f5e1 d0bc f6ba a83c c809 f73c
00000210: c182 1e3d a327 293d ac83 1e3d 5917 a43c
00000220: 0e93 533d 8a3a 0d3d faa3 213c 8a5d f839
00000230: 5d57 ebbb 967d ea3c 90d1 5c3d ae50 1f3d
00000240: 2c44 b23c 0e1d d53c 317b a2bc cd58 10bb
00000250: 9e5d e03c 9ab9 0c3b 6bdf 0b3b 1e2c 663b
00000260: f38f 5bba 340d 163d 7bdb 993c c310 df3c
00000270: 22be 4a3c ea44 bd3c 550f ed3b bee6 113d
00000280: a3d4 a83b c240 acbb c3e0 f13a 97c2 0e3d
00000290: 45bd 2d3d 2854 193d 5dd6 c53c c07f ef3b
000002a0: 801c 053d 1f80 1f3d bf2f 883c 6bb0 3d3c
000002b0: 7fc7 a03c ca18 6b3d 2f50 d83c bb59 b53c
000002c0: 2f12 ce3b ec9c 553c 4dad c33c 04cc 16bc
000002d0: f1e1 ac3c 4793 d93c c010 b43c c634 28bb
000002e0: 5f53 4c3d 22cb 853c 9b1d 703c dfe0 453c
000002f0: ed6f 213d 79ba 6d3d 35ad 3b3c c2b7 4f3d
00000300: f80e bf3c f531 463c 0c56 cd3b 277e ec3b
00000310: c5c1 253d 5dca 8c3c e947 093d 2d87 323d
00000320: 380f a1bb 508d 41bc 65ef 043d 7643 b93c
00000330: 62c8 a63c 5447 4a3d 324a 0cbc f8c8 023d
00000340: 7164 bf3c f977 25ba 4886 c33c efd0 613c
00000350: 97bb 5d3d 5a31 6f3b b09b beba 2035 d83c
00000360: c9b4 c23c 0471 e33b f5d5 8f3b d1ac f43c
00000370: a4ff 3a3c 65ce d63c 4dd6 333c 2a50 ed3c
00000380: 2cbf 9aba 2f0e fc3c 9dd3 7f3c 07a2 b33a
00000390: 9281 e03c 2d71 903c a9cf 873c 170f dd3c
000003a0: 1bec 343a c7da bb3c 9794 253d 076d a33c
000003b0: 82a2 30bc 9d39 b53c f794 413b 8f6d 6cbb
000003c0: 3250 42ba 431c e03c 0916 84bb 8ef6 543c
000003d0: 5435 753c fbde 583c 80fd d8bb c718 6e3c
000003e0: c8a7 f83b bc03 f23c 4e11 b63c bdb4 0e3d
000003f0: d73b 953c b0b3 cc3c 19a5 e53c baf6 fd3c

actor_fc.weight f4 [6, 512]
-0.039224878 0.088541456 -0.14988913 0.05940042 0.09357701 -0.02902444 0.014250513 -0.022629986
0.03029981 -0.063992076 -0.032425474 0.019784017 -0.06536205 -0.08403668 0.0040640407 -0.03727016
-0.049679663 0.05770689 0.09352366 -0.07106771 -0.1272938 -0.069296725 0.0176848 -0.037409265
0.040025763 -0.118388444 -0.10998437 0.08788263 0.06545179 0.08673427 -0.06524408 -0.13165805
-0.0063193636 0.028794413 0.093224905 -0.13660547 -0.06956296 0.07980752 0.025727758 0.015259777
-0.028360363 0.07375081 -0.030768333 0.07624222 0.08165445 0.028529344 0.14558513 -0.058407936
0.035801742 0.043390986 -0.03489581 -0.13680235 0.0017563344 0.020913249 -0.1502256 0.036258526
0.13757788 0.00598378 -0.0151390685 -0.093308166 -0.050294828 -0.07055825 -0.19735983 -0.039529923
-0.017124329 0.02104167 -0.08240339 0.04420789 -0.07490834 -0.10386363 0.18494442 -0.10659753
0.086640485 -0.06416273 0.12910888 -0.12751912 0.07856289 0.03769125 0.07496167 0.12005375
-0.0058163353 -0.15131365 -0.029314093 -0.032800928 -0.03680969 -0.044633705 0.018871304 0.084511034
0.089122534 -0.07785121 0.012034796 0.009920462 -0.08553673 -0.11368844 -0.107839756 -0.015572382
-0.0030904468 -0.017579494 0.025900818 0.09174769 0.053877857 -0.05754439 -0.07140772 0.019266779
0.14007477 0.053482365 -0.13091299 -0.11737626 0.20995417 0.060415134 0.09621291 -0.05791841
0.05958582 -0.031652898 -0.052564736 0.042288978 -0.060374904 -0.011189444 0.037236832 0.14244108
0.048123628 -0.03197682 -0.07269422 0.14460313 0.07645192 0.07089189 0.15388693 0.04149646
0.12270809 -0.0748422 -0.1271474 0.12638833 -0.056931272 -0.08188912 0.0029084906 0.07511716
0.09133948 0.034954917 -0.02576934 0.019011715 -0.06475265 0.0013632311 -0.15294409 0.092482604
-0.0714311 0.0002019649 -0.06847646 -0.12971209 -0.031151671 0.049871806 -0.06874971 0.02427463
0.0846198 0.05485829 -0.10339834 -0.086333886 -0.048943706 0.04668758 0.08242028 0.070661254
-0.015776966 -0.005690295 -0.08391134 0.07819711 -0.13541012 0.040278092 0.11444969 0.12547256
0.05994045 -0.044158712 0.054585803 -0.16376004 0.061183654 -0.068008885 0.036058843 0.08980586
0.1173906 0.025508106 0.10851611 -0.025931502 0.07188424 0.012720615 -0.113117054 0.011674201
-0.09323607 0.08596376 0.0057681412 0.06295039 -0.11283975 0.03266609 -0.0553977 -0.0535485
-0.048670433 0.12267302 -0.057989478 -0.05259587 -0.011547043 -0.12254923 0.14691675 -0.15011887
-0.05329464 -0.027754765 0.0640256 -0.044536427 -0.059782684 0.01133531 -0.18774396 0.10345479
0.044544987 -0.07236631 0.1341915 -0.04199337 0.0017068295 -0.16269207 0.17153057 0.06936663
-0.12697199 -0.032910295 -0.0015348808 -0.08203491 0.040324494 0.013289748 -0.0050661513 0.09347776
-0.023196442 0.09559639 0.056874134 0.03361956 -0.07137558 -0.110900074 0.082473256 -0.069569506
-0.029527793 0.112690635 -0.11120941 0.03896504 0.03872192 0.119016424 0.08766469 -0.15198871
-0.02197219 -0.06404777 -0.10200457 -0.00071204035 0.007898204 0.11038768 -0.10598978 0.031282835
-0.026113354 -0.11779684 0.059975818 -0.052110445 -0.09422839 0.15917712 -0.04593678 0.12725542
00000000: 44aa 20bd 3955 b53d 897c 19be db4d 733d
00000010: 4ea5 bf3d aac4 edbc fc7a 693c 8562 b9bc
00000020: 4f37 f83c 470e 83bd 93d0 04bd 1712 a23c
00000030: 8adc 85bd 6c1b acbd a52b 853b 98a8 18bd
00000040: e77c 4bbd 0f5e 6c3d 5589 bf3d f38b 91bd
00000050: 4e59 02be 71eb 8dbd b7df 903c 753a 19bd
00000060: 0ef2 233d a475 f2bd 7c3f e1bd cffb b33d
00000070: 970b 863d bda1 b13d b09e 85bd 5ed1 06be
00000080: aa12 cfbb 43e2 eb3c b3ec be3d 4ee2 0bbe
00000090: 0677 8ebd 2072 a33d 05c3 d23c 2504 7a3c
000000a0: fe53 e8bc aa0a 973d df0d fcbc e224 9c3d
000000b0: 733a a73d 5fb6 e93c 4514 153e 293d 6fbd
000000c0: d9a4 123d bfba 313d e9ee 0ebd ea15 0cbe
000000d0: ce34 e63a 4352 ab3c bdd4 19be d283 143d
000000e0: 37e1 0c3e 9613 c43b db09 78bc 5a18 bfbd
000000f0: f301 4ebd d880 90bd b218 4abe 21ea 21bd
00000100: 5248 8cbc 955f ac3c 1cc3 a8bd 5513 353d
00000110: 8b69 99bd 74b6 d4bd 1262 3d3e ce4f dabd
00000120: 9170 b13d c067 83bd 1e35 043e 5f94 02be
00000130: 95e5 a03d 2462 1a3d 8185 993d bede f53d
00000140: f596 bebb f7f1 1abe 1c24 f0bc 445a 06bd
00000150: c2c5 16bd d5d1 36bd fe97 9a3c 1f14 ad3d
00000160: e085 b63d 7570 9fbd 982d 453c 6f89 223c
00000170: e22d afbd 7cd5 e8bd 17db dcbd 4e23 7fbc
00000180: 1889 4abb df02 90bc f42d d43c 37e6 bb3d
00000190: 07af 5c3d abb3 6bbd 363e 92bd 5dd5 9d3c
000001a0: c36f 0f3e 5310 5b3d 0e0e 06be f762 f0bd
000001b0: 3afe 563e dc75 773d 460b c53d db3b 6dbd
000001c0: 4310 743d 78a6 01bd 1f4e 57bd 3537 2d3d
000001d0: ad4b 77bd ee53 37bc a685 183d 13dc 113e
000001e0: 481d 453d 20fa 02bd b5e0 94bd d812 143e
000001f0: d392 9c3d c42f 913d 8994 1d3e 31f8 293d
00000200: 614e fb3d de46 99bd ee32 02be f16b 013e
00000210: c430 69bd 7cb5 a7bd 609c 3e3b 07d7 993d
00000220: 3110 bb3d e32c 0f3d 391a d3bc 75be 9b3c
00000230: 0a9d 84bd 72ae b23a 609d 1cbe 8567 bd3d
00000240: 784a 92bd 8ac6 5339 633d 8cbd 3fd3 04be
00000250: ca31 ffbc 6146 4c3d a6cc 8cbd 97db c63c
00000260: 254d ad3d 16b3 603d 82c2 d3bd d2cf b0bd
00000270: 3279 48bd 7a3b 3f3d f7cb a83d d9b6 903d
00000280: b23e 81bc a775 babb b5d9 abbd ce25 a03d
00000290: f3a8 0abe a4fa 243d 9964 ea3d e17b 003e
000002a0: 1e84 753d c4df 34bd 5d95 5f3d b6b0 27be
000002b0: b69b 7a3d 3e48 8bbd 70b2 133d 22ec b73d
000002c0: 7c6a f03d 60f6 d03c b23d de3d 4d6e d4bc
000002d0: 0b38 933d 206a 503c eaa9 e7bd 2645 3f3c
000002e0: 8df2 bebd c50d b03d ad02 bd3b 22ec 803d
000002f0: 8718 e7bd e1cc 053d b3e8 62bd ac55 5bbd
00000300: a65a 47bd fe3b fb3d 6086 6dbd c46e 57bd
00000310: cf2f 3dbc 17fb fabd 5871 163e c3b8 19be
00000320: 7b4b 5abd f65d e3bc db1f 833d d46b 36bd
00000330: b0de 74bd bcb7 393c f43f 40be 1be0 d33d
00000340: ce74 363d ca34 94bd 7f69 093e 3d01 2cbd
00000350: b2b7 df3a c098 26be b6a5 2f3e 1710 8e3d
00000360: f204 02be f2cc 06bd 0e2e c9ba eb01 a8bd
00000370: 4c2b 253d 3ebd 593c f501 a6bb 4571 bf3d
00000380: 7706 bebc 0ac8 c33d daf4 683d aab4 093d
00000390: 5c2d 92bd 941f e3bd bde7 a83d 757a 8ebd
000003a0: 45e4 f1bc 59ca e63d c2c1 e3bd ce99 1f3d
000003b0: e09a 1e3d e2be f33d 8c89 b33d eea2 1bbe
000003c0: 06ff b3bc 7a2b 83bd c6e7 d0bd 38a8 3aba
000003d0: 7867 013c f012 e23d 2b11 d9bd 6e22 003d
000003e0: aceb d5bc 783f f1bd 34a9 753d c371 55bd
000003f0: d0fa c0bd 54ff 223e 3428 3cbd 3f4f 023e

actor_fc.bias f4 [6]
0.013475457 -0.036602758 0.0028285047 -0.018215502 -0.0050887214 0.02647709
00000000: 2ac8 5c3c c6ec 15bd 6f5e 393b ad38 95bc
00000010: 4abf a6bb 7be6 d83c

fc1.weight f4 [512, 192]
4.8008475 3.955474 4.5876637 4.0324516 2.075991 2.6044977 1.8057693 -0.04993357
-4.0095954 -3.465296 -0.054269295 -0.06001486 -2.4662519 5.363932 -0.030087778 0.039679002
-2.8882234 0.05390288 4.3033466 5.0399036 0.04440777 0.03576552 7.7912693 4.6449027
3.439738 -2.0709498 -0.564506 2.900002 0.051637616 5.1331186 3.6055686 -3.8043532
4.9213896 4.2300634 2.1812096 -1.5022496 1.6831762 2.9240057 0.045516696 2.447937
2.6520946 -0.9017805 5.2221622 3.7841399 5.9858794 6.610109 3.8441935 3.7279413
4.6893253 4.5261765 3.1767259 2.5250115 0.0318789 -0.036584597 -3.7982645 -3.214121
0.026193244 -0.0645109 -4.5511723 5.6336136 -0.054273047 -0.039516676 -2.5965586 -0.0648205
3.8671193 4.223092 0.015015249 -0.03487294 7.1406617 3.3265622 3.7202964 -1.7115682
1.2699729 2.4106934 -0.02827655 4.8485637 2.3476534 -4.094434 4.29763 3.7392888
2.1431 -1.6730076 1.2982692 2.4952505 0.044582527 2.501178 2.4691193 -0.12529513
5.2127633 3.8079216 5.585117 5.7894483 -0.42853403 0.18853249 7.863016 8.124064
3.9000974 3.7342193 4.69361 4.5390224 3.1087904 2.5073228 0.11982336 0.060151607
-3.770462 -3.131995 0.07199332 0.06035486 -4.556777 5.6663694 -0.0009885151 -0.06273988
-2.594904 0.04065455 3.8077908 4.2854195 -0.025910595 0.06210195 7.1136622 3.222235
3.8471909 -1.7140101 1.1992215 2.44007 -0.06868867 4.899982 2.3828006 -4.0651836
4.310653 3.7592523 2.1605842 -1.6376628 1.3930031 2.5286782 -0.012403683 2.4558227
2.5667708 -0.12476694 5.24334 3.7774122 5.6206107 5.857613 4.8014474 3.9718611
4.5317316 4.0529447 2.0266397 2.59637 1.7818094 -0.018770592 -4.148049 -3.3584673
-0.022729067 0.050937273 -2.5548887 5.3782077 0.054592717 0.045400508 -2.8193405 -0.0508412
4.301853 5.0267086 -0.0043499703 0.041226346 7.812579 4.6278424 3.3582408 -2.0988152
-0.4887234 2.7916818 0.010442413 5.126671 3.5353134 -3.741354 4.963806 4.2036667
2.1859226 -1.5221721 1.6760153 2.996765 0.003977461 2.3259702 2.640456 -0.8101394
5.1208773 3.780204 5.963001 6.5852523 0.4711252 -0.26410505 7.9102798 8.0362425
5.0814476 4.746346 5.1805444 5.0664225 3.9236145 5.560201 2.599414 0.034882404
-4.4549155 -2.9468675 -0.017809402 -0.012877658 -2.773424 5.2106833 -0.06620814 -0.0049698646
-2.6641188 -0.046297204 5.8805513 5.1455045 0.026148206 -0.06421352 9.523164 3.7641108
5.564315 -3.8262908 -2.0134969 2.6622488 -0.018470127 6.422969 2.820517 -5.052399
5.373442 4.454486 3.5098944 -1.4691494 1.291764 2.6273584 0.051255316 3.7232037
2.2375453 -0.568954 6.452528 4.659812 7.1170835 7.0617666 4.661821 5.351851
4.831658 5.535713 3.421584 6.0063396 2.7243288 0.06637734 -4.3772187 -3.6925197
-0.05397863 -0.02839019 -4.053208 5.819292 0.035369605 0.052285083 -2.3239033 0.04442951
00000000: 8ba0 9940 7c26 7d40 24ce 9240 d809 8140
00000010: 09dd 0440 17b0 2640 7323 e73f 2587 4cbd
00000020: 9b4e 80c0 69c7 5dc0 7b49 5ebd 24d2 75bd
00000030: 12d7 1dc0 55a5 ab40 a57a f6bc 7386 223d
00000040: a7d8 38c0 44c9 5c3d 04b5 8940 e446 a140
00000050: ece4 353d de7e 123d 1452 f940 0ba3 9440
00000060: ab24 5c40 718a 04c0 7783 10bf a299 3940
00000070: f781 533d 8242 a440 a3c1 6640 867a 73c0
00000080: 067c 9d40 ae5c 8740 f098 0b40 b749 c0bf
00000090: 5172 d73f e922 3b40 b76f 3a3d 00ab 1c40
000000a0: ebbb 2940 16db 66bf f41b a740 592f 7240
000000b0: 538c bf40 0386 d340 4407 7640 9796 6e40
000000c0: f40e 9640 70d6 9040 7a4f 4b40 ca99 2140
000000d0: 7393 023d bbd9 15bd c416 73c0 29b4 4dc0
000000e0: 3793 d63c 4a1e 84bd 34a3 91c0 9046 b440
000000f0: 6a4d 5ebd 3ddc 21bd 042e 26c0 9cc0 84bd
00000100: e27e 7740 9223 8740 8502 763c eed6 0ebd
00000110: 4d80 e440 65e6 5440 5619 6e40 ab14 dbbf
00000120: 798e a23f cd48 1a40 39a4 e7bc 6f27 9b40
00000130: f43f 1640 9a05 83c0 2f86 8940 8250 6f40
00000140: 8d28 0940 1d25 d6bf af2d a63f 2fb2 1f40
00000150: 2b9c 363d 4d13 2040 0d06 1e40 5e4d 00be
00000160: f5ce a640 fdb4 7340 47b9 b240 2943 b940
00000170: d068 dbbe a90e 413e d49d fb40 2bfc 0141
00000180: 329b 7940 73fd 6e40 0e32 9640 ac3f 9140
00000190: 6cf6 4640 fa77 2040 f365 f53d 8861 763d
000001a0: 404f 71c0 9b72 48c0 3c71 933d a836 773d
000001b0: 1ed1 91c0 e652 b540 1091 81ba c47d 80bd
000001c0: e812 26c0 6385 263d d8b2 7340 2822 8940
000001d0: 7542 d4bc 9d5e 7e3d 1fa3 e340 1939 4e40
000001e0: 6038 7640 af64 dbbf 1780 993f 1b2a 1c40
000001f0: a5ac 8cbd a7cc 9c40 ce7f 1840 fc15 82c0
00000200: dff0 8940 9797 7040 0347 0a40 ef9e d1bf
00000210: ed4d b23f ddd5 2140 d138 4bbc 332c 1d40
00000220: f945 2440 cf85 ffbd 71c9 a740 1fc1 7140
00000230: 0bdc b340 9171 bb40 75a5 9940 f932 7e40
00000240: f203 9140 b9b1 8140 77b4 0140 ed2a 2640
00000250: 5512 e43f c9c4 99bc d1bc 84c0 21f1 56c0
00000260: 4f32 babc 9aa3 503d 4c83 23c0 471a ac40
00000270: 9d9c 5f3d e2f5 393d 1370 34c0 dd3e 50bd
00000280: c8a8 8940 ccda a040 328a 8ebb f5dc 283d
00000290: a600 fa40 4917 9440 6bed 5640 fd52 06c0
000002a0: f439 fabe eaaa 3240 a816 2b3c b00d a440
000002b0: 9342 6240 5872 6fc0 80d7 9e40 7084 8640
000002c0: 28e6 0b40 89d6 c2bf ab87 d63f ffca 3f40
000002d0: 5c55 823b b2dc 1440 3bfd 2840 4c65 4fbf
000002e0: 3ade a340 ddee 7140 e7d0 be40 63ba d240
000002f0: 5237 f13e c738 87be 0321 fd40 7394 0041
00000300: 389b a240 11e2 9740 05c7 a540 2220 a240
00000310: 801c 7b40 2bed b140 cd5c 2640 dae0 0e3d
00000320: ab8e 8ec0 7a99 3cc0 06e5 91bc d0fc 52bc
00000330: c77f 31c0 ebbd a640 2298 87bd 3fda a2bb
00000340: ec80 2ac0 23a2 3dbd 7a2d bc40 f9a7 a440
00000350: c334 d63c 6182 83bd e15e 1841 31e7 7040
00000360: de0e b240 f3e1 74c0 22dd 00c0 4962 2a40
00000370: aa4e 97bc f688 cd40 5a83 3440 41ad a1c0
00000380: 3df3 ab40 268b 8e40 1ca2 6040 160d bcbf
00000390: 8658 a53f a426 2840 18f1 513d f848 6e40
000003a0: f133 0f40 f8a6 11bf 1c7b ce40 2e1d 9540
000003b0: 26bf e340 fef9 e140 a32d 9540 5d42 ab40
000003c0: f19c 9a40 9024 b140 3bfb 5a40 ef33 c040
000003d0: 675b 2e40 d8f0 873d 2d12 8cc0 3e52 6cc0
000003e0: b218 5dbd 8b92 e8bc e1b3 81c0 a437 ba40
000003f0: b8df 103d e228 563d d5ba 14c0 b8fb 353d

fc1.bias f4 [512]
8.480671 10.46284 6.6958485 5.8125377 6.7119527 5.4255767 5.3509407 10.617343
5.997877 7.732961 9.753076 5.3795576 7.2870708 4.366889 4.6608963 5.1819615
5.696245 10.618009 10.427498 4.57201 10.720943 4.2197423 5.9214697 10.595991
5.9990835 7.930717 4.571123 6.8639507 6.886935 5.9994726 7.338756 6.4964275
4.978642 5.226608 9.809263 6.063025 10.619888 6.9509745 8.233456 11.811877
5.74908 5.455969 6.546074 10.591798 10.561652 6.5208073 7.0973396 6.0866613
4.0666933 5.4683776 6.507087 4.5781326 4.8367634 5.6152782 10.637549 6.2733316
5.0266104 4.300127 10.608986 5.6888037 10.691357 7.2284594 7.3908777 6.7711267
10.64465 6.0308657 11.350711 6.372168 10.632345 10.529726 6.7202625 10.588584
4.7465014 10.544874 10.6021 9.653633 6.060813 9.16038 4.79628 5.181075
5.9899783 10.527828 10.491926 4.7757964 5.9215646 8.27702 7.250864 7.167584
7.157696 6.6048193 5.3379683 8.142211 7.4616337 9.644454 4.450538 5.401057
10.616629 6.914048 4.708042 4.5674396 4.5512433 5.999644 5.701612 10.217027
6.4074864 6.2788267 5.33102 4.2377014 6.560353 4.8585134 5.030694 5.9985785
6.595501 5.495274 7.1873384 8.880659 7.427591 8.683131 10.112477 6.6331463
7.0928874 7.9979143 10.553942 10.492687 9.716541 9.430789 8.0064 10.540543
7.0502515 8.222195 5.676798 5.789608 6.037548 6.7527695 8.819329 5.9070287
6.2346916 10.531828 9.146617 6.371241 11.704484 7.145421 10.602265 6.9440002
6.2194285 5.1044445 10.597197 10.764898 6.341488 10.096495 7.052245 5.8458424
4.4999104 10.456305 5.5484767 6.8218904 8.16608 6.504786 8.713751 7.213183
7.19711 6.623615 5.8105283 10.482593 10.551109 9.619367 6.988266 8.015629
8.866284 5.886695 4.629654 7.292185 9.747654 5.2280974 4.905276 6.0728245
10.634004 5.116595 5.3665767 9.074253 7.0570145 9.562808 6.712581 5.954956
10.571415 6.9004474 10.543578 10.610178 5.491931 6.3627043 4.753239 9.792748
4.9286923 4.9629536 4.6412487 6.420246 8.447072 6.1257663 5.4015036 5.477353
6.220986 5.6104436 7.0685267 10.683044 9.672421 5.976113 5.603989 10.888763
6.5870013 11.297159 5.6273117 4.985659 6.9251585 4.808131 8.490368 11.561471
5.070779 7.2633224 5.6888757 6.4728646 4.508522 7.4622936 8.089325 6.8541775
5.7536983 6.710036 7.5398946 6.2861495 4.64229 4.848581 5.636363 7.2461
6.8823175 5.2391176 5.92746 5.0639296 3.897065 5.582583 10.561242 10.553854
8.068584 8.938696 10.617991 6.7008643 9.7789545 11.445618 6.1618958 10.506978
10.539843 10.711015 5.3468237 7.8988485 5.59107 6.20498 7.748464 8.661623
00000000: d4b0 0741 cb67 2741 6444 d640 4f00 ba40
00000010: 51c8 d640 539e ad40 e83a ab40 a3e0 2941
00000020: 9cee bf40 6b74 f740 990c 1c41 5625 ac40
00000030: af2f e940 8ebd 8b40 1026 9540 a1d2 a540
00000040: a447 b640 5de3 2941 08d7 2641 e84d 9240
00000050: fc88 2b41 2108 8740 ae7c bd40 2e89 2941
00000060: 7ef8 bf40 6fc8 fd40 a446 9240 7ca5 db40
00000070: c661 dc40 aefb bf40 17d7 ea40 bce2 cf40
00000080: 0951 9f40 5f40 a740 bef2 1c41 4d04 c240
00000090: 10eb 2941 626e de40 3cbc 0341 73fd 3c41
000000a0: 77f8 b740 4c97 ae40 7079 d140 0178 2941
000000b0: 87fc 2841 74aa d040 681d e340 eec5 c240
000000c0: 5a22 8240 f3fc ae40 0f3a d040 1080 9240
000000d0: c4c6 9a40 5cb0 b340 6733 2a41 22bf c840
000000e0: fed9 a040 a49a 8940 68be 2941 ae0a b640
000000f0: cc0f 2b41 8a4f e740 1282 ec40 12ad d840
00000100: 7d50 2a41 dafc c040 839c 3541 cde8 cb40
00000110: 161e 2a41 c279 2841 640c d740 d76a 2941
00000120: 57e3 9740 ceb7 2841 34a2 2941 4875 1a41
00000130: 2ef2 c140 eb90 1241 207b 9940 5ecb a540
00000140: e7ad bf40 fc71 2841 eede 2741 53d3 9840
00000150: 757d bd40 ad6e 0441 1407 e840 d95c e540
00000160: d80b e540 ae5a d340 a3d0 aa40 7f46 0241
00000170: b4c5 ee40 af4f 1a41 cf6a 8e40 75d5 ac40
00000180: b6dd 2941 e23f dd40 48a8 9640 7728 9240
00000190: c9a3 9140 15fd bf40 9b73 b640 f178 2341
000001a0: 210a cd40 26ec c840 b797 aa40 409b 8740
000001b0: 69ee d140 f178 9b40 72fb a040 5bf4 bf40
000001c0: 580e d340 49d9 af40 adfe e540 2e17 0e41
000001d0: d3ae ed40 1bee 0a41 b5cc 2141 bc42 d440
000001e0: eff8 e240 eaee ff40 f2dc 2841 0ce2 2741
000001f0: f476 1b41 83e4 1641 371a 0041 10a6 2841
00000200: a99b e140 1c8e 0341 54a8 b540 7844 b940
00000210: 9833 c140 b016 d840 f91b 0d41 6106 bd40
00000220: 9882 c740 5e82 2841 8b58 1241 35e1 cb40
00000230: 9145 3b41 4aa7 e440 e1a2 2941 4035 de40
00000240: 8f05 c740 9c57 a340 1e8e 2941 063d 2c41
00000250: 78ed ca40 3e8b 2141 feab e140 2411 bb40
00000260: 44ff 8f40 064d 2741 1f8d b140 ed4c da40
00000270: 44a8 0241 3527 d040 866b 0b41 65d2 e640
00000280: ba4e e640 a7f4 d340 d9ef b940 b3b8 2741
00000290: 58d1 2841 ede8 1941 e09f df40 0440 0041
000002a0: 4ddc 0d41 ce5f bc40 2026 9440 9459 e940
000002b0: 64f6 1b41 934c a740 05f8 9c40 9454 c240
000002c0: e124 2a41 25bb a340 ffba ab40 2430 1141
000002d0: 10d3 e140 4301 1941 77cd d640 008f be40
000002e0: 8424 2941 77d0 dc40 7fb2 2841 4ac3 2941
000002f0: e6bd af40 469b cb40 891a 9840 19af 1c41
00000300: d9b7 9d40 84d0 9e40 1c85 9440 a872 cd40
00000310: 3527 0741 4706 c440 1ed9 ac40 7a46 af40
00000320: 5112 c740 c188 b340 5f31 e240 c0ed 2a41
00000330: 3dc2 1a41 513c bf40 e153 b340 6038 2e41
00000340: b7c8 d240 2ac1 3441 f012 b440 858a 9f40
00000350: e69a dd40 36dc 9940 8cd8 0741 c9fb 3841
00000360: d243 a240 236d e840 450b b640 b521 cf40
00000370: d045 9040 1ccb ee40 e06d 0141 6c55 db40
00000380: 4c1e b840 9db8 d640 d146 f140 2328 c940
00000390: a48d 9440 9327 9b40 165d b440 0de0 e740
000003a0: f23b dc40 daa6 a740 c1ad bd40 b60b a240
000003b0: 8369 7940 85a4 b240 d9fa 2841 96dc 2841
000003c0: ec18 0141 e604 0f41 4be3 2941 7b6d d640
000003d0: 9976 1c41 4021 3741 402e c540 951c 2841
000003e0: 32a3 2841 5160 2b41 2e19 ab40 5ec3 fc40
000003f0: 0cea b240 328f c640 6bf3 f740 0296 0a41

ln1.weight f4 [512]
1.4797205 0.29257166 2.301639 1.054228 1.2333297 2.4591367 0.5485288 0.29615268
1.8568921 1.2421868 0.63541406 2.112309 1.3964251 1.6580034 0.72761685 1.2394631
3.7700393 0.31762984 0.30733472 2.456179 0.27160436 0.86618745 1.7061865 0.3110248
1.4140698 1.1712452 2.9089177 2.9518943 2.9284444 0.40567088 2.4530745 0.97931904
0.828554 0.73101455 0.57660097 1.2962043 0.30365437 1.5914309 0.90234363 0.15183532
1.9783019 1.694878 1.8852353 0.32273886 0.30280045 4.374467 2.6842754 3.3575175
1.1106952 1.3958359 2.0048988 0.670303 1.228613 0.7065209 0.28938937 0.99673826
1.8991723 1.8536688 0.29635093 3.3065782 0.27992964 0.26421708 0.49741334 2.147161
0.2990296 4.7587566 0.1991476 4.3476443 0.2886771 0.3164935 2.6265173 0.29432395
1.3681444 0.29092684 0.28801394 0.18670745 0.5628714 -0.20669585 2.0550628 1.2400727
2.67884 0.30801618 0.35196313 2.228764 0.992631 1.1718016 2.1627557 1.8658433
0.33364153 1.9867467 0.80108726 0.8423659 1.304208 0.6770925 1.5486457 1.9779707
0.30214542 1.0605241 3.2504344 0.7866521 1.5688436 4.2428327 1.5787743 0.37710875
3.0085077 2.0330405 0.77342 0.8989424 1.4199249 1.8316404 1.1911943 1.6225065
0.62780416 1.0106702 0.25326002 0.8450062 0.9276097 1.2342937 0.4928411 1.9660228
1.4745306 1.3623129 0.28331625 0.32318807 0.5353137 0.4013506 1.1085824 0.26635626
1.7163458 1.3146405 1.2689183 2.9247165 0.6403009 1.6585588 0.29097494 2.3074963
1.2582705 0.2816966 -0.56206423 2.117884 0.1868246 0.78202444 0.2887035 0.7517845
4.3359694 1.9528309 0.3040603 0.26814395 5.421557 0.119737305 2.1302912 2.947054
1.604246 0.34433892 1.8327147 1.8373066 0.9159614 3.2175648 1.1084539 1.4634815
1.3360561 1.0382208 3.0829318 0.297014 0.2891197 0.82007545 0.75144917 0.025823185
1.0852126 2.5861917 0.87839675 1.669718 0.42180207 3.2290604 0.81026524 2.8825145
0.28722635 0.96099293 0.7511342 0.62945485 1.6827873 0.78080076 1.3948797 1.5551752
0.31574172 1.369937 0.3029513 0.2967264 4.1234574 0.67935777 1.2522644 0.3502065
0.914042 0.60132337 0.89371145 2.5956645 -0.30360338 1.4749807 2.4126918 4.1351514
2.748356 0.36936232 1.7003438 0.27860495 0.6311413 2.8243885 1.593275 0.26238665
2.2508652 0.19808745 1.2089925 1.7863518 2.7796276 1.3228732 0.2891749 0.16026145
5.407806 2.3031583 0.9120983 2.1014042 0.5572602 1.0585524 1.4427372 2.1495454
0.867004 1.5344902 1.4230467 1.8235015 2.1328635 0.5819986 0.67256725 1.4680274
1.8307172 2.0023105 3.0692422 1.715219 0.51814413 1.5175571 0.2961604 0.3196545
0.9086638 1.0240707 0.3234281 1.8267963 0.51119167 0.18732946 4.85653 0.3370756
0.31385255 0.26922163 2.4173937 1.2918686 1.3467914 3.4435818 1.4948453 1.0169823
00000000: 7b67 bd3f f4cb 953e 0e4e 1340 f1f0 863f
00000010: bfdd 9d3f 7f62 1d40 626c 0c3f 53a1 973e
00000020: a4ae ed3f faff 9e3f 7faa 223f 1230 0740
00000030: 0fbe b23f 7539 d43f 1945 3a3f baa6 9e3f
00000040: 5348 7140 61a0 a23e fa5a 9d3e 0932 1d40
00000050: ba0f 8b3e 76be 5d3f 5264 da3f a53e 9f3e
00000060: 3d00 b53f 5deb 953f b52b 3a40 d6eb 3c40
00000070: a26b 3b40 18b4 cf3e 2cff 1c40 a7b4 7a3f
00000080: 1d1c 543f c523 3b3f 1f9c 133f 06ea a53f
00000090: 9678 9b3e 02b4 cb3f feff 663f b87a 1b3e
000000a0: ff38 fd3f c3f1 d83f 644f f13f 073e a53e
000000b0: a908 9b3e a2fb 8b40 2bcb 2b40 91e1 5640
000000c0: 432b 8e3f c0aa b23f 4350 0040 fa98 2b3f
000000d0: 3143 9d3f 8ede 343f d82a 943e 3d2a 7f3f
000000e0: 1418 f33f 0545 ed3f 4fbb 973e fa9e 5340
000000f0: f052 8f3e 7647 873e f6ac fe3e 166b 0940
00000100: 681a 993e bc47 9840 59ed 4b3e e71f 8b40
00000110: 7ccd 933e 700b a23e dc18 2840 a1b1 963e
00000120: 5b1f af3f 5df4 943e 9076 933e 3d30 3f3e
00000130: 5718 103f 14a8 53be 2686 0340 b4ba 9e3f
00000140: 1d72 2b40 4cb4 9d3e 8334 b43e 12a4 0e40
00000150: 111d 7e3f 98fd 953f 976a 0a40 f4d3 ee3f
00000160: 10d3 aa3e b74d fe3f 0e14 4d3f 4ba5 573f
00000170: 4af0 a63f ef55 2d3f 063a c63f 252e fd3f
00000180: ceb2 9a3e 41bf 873f 1e07 5040 0862 493f
00000190: decf c83f 49c5 8740 4715 ca3f 6614 c13e
000001a0: 648b 4040 561d 0240 dafe 453f 1721 663f
000001b0: 19c0 b53f 3173 ea3f 0e79 983f 4bae cf3f
000001c0: c6b7 203f a45d 813f 4cab 813e 5452 583f
000001d0: d477 6d3f 56fd 9d3f ab55 fc3e a3a6 fb3f
000001e0: 6bbd bc3f 4560 ae3f d40e 913e e878 a53e
000001f0: 520a 093f d37d cd3e 07e6 8d3f d95f 883e
00000200: 38b1 db3f 2446 a83f ea6b a23f 8e2e 3b40
00000210: c3ea 233f a84b d43f abfa 943e 05ae 1340
00000220: 020f a13f 893a 903e 71e3 0fbf 698b 0740
00000230: f34e 3f3e c132 483f f2d0 933e f374 403f
00000240: 43c0 8a40 5df6 f93f cbad 9b3e 2a4a 893e
00000250: 657d ad40 d538 f53d b156 0840 889c 3c40
00000260: ef57 cd3f 314d b03e 6596 ea3f dd2c eb3f
00000270: 727c 6a3f 95ec 4d40 d1e1 8d3f 5d53 bb3f
00000280: e303 ab3f 6be4 843f c14e 4540 3812 983e
00000290: 7f07 943e 77f0 513f f95e 403f 258b d33c
000002a0: 3fe8 8a3f 2a84 2540 9cde 603f 52b9 d53f
000002b0: 71f6 d73e eda8 4e40 8b6d 4f3f 1e7b 3840
000002c0: 550f 933e a203 763f 554a 403f f423 213f
000002d0: 9365 d73f 8fe2 473f 6b8b b23f fb0f c73f
000002e0: e6a8 a13e 185a af3f 6f1c 9b3e 86ec 973e
000002f0: 5df3 8340 64ea 2d3f 334a a03f 444e b33e
00000300: a8fe 693f 54f0 193f 46ca 643f 5e1f 2640
00000310: e771 9bbe 2bcc bc3f 8b69 1a40 2953 8440
00000320: 11e5 2f40 0f1d bd3e dea4 d93f 4fa5 8e3e
00000330: 7a92 213f c8c2 3440 6ff0 cb3f 8b57 863e
00000340: 2d0e 1040 70d7 4a3e 44c0 9a3f 2da7 e43f
00000350: 6be5 3140 e953 a93f bc0e 943e 941b 243e
00000360: bf0c ad40 f266 1340 467f 693f 687d 0640
00000370: 9ba8 0e3f a57e 873f 9dab b83f 2792 0940
00000380: f9f3 5d3f 2d6a c43f 6526 b63f 7f68 e93f
00000390: d680 0840 dcfd 143f 5e2d 2c3f 52e8 bb3f
000003a0: f154 ea3f db25 0040 776e 4440 4c8c db3f
000003b0: 18a5 043f 503f c23f 56a2 973e c1a9 a33e
000003c0: 319e 683f c014 833f 5e98 a53e 76d4 e93f
000003d0: 75dd 023f 4bd3 3f3e b268 9b40 2c95 ac3e
000003e0: 48b1 a03e 6bd7 893e 94b6 1a40 f35b a53f
000003f0: a963 ac3f a563 5c40 1757 bf3f 7a2c 823f
