project_3/checkpoints/checkpoint_cycle_05_20241025_075532.pt (torch, 624850 bytes, 12 tensors)

shared_fc.weight f4 [512, 96]
000000 7f 97 2d 3d a5 cd 04 3d 2e f6 48 bd 4a 22 9f 3c
       0.042380806 0.03242268 -0.0490629 0.01942553
000010 91 66 9b bd 64 9e d3 3d 5d 9d 9c 3d c4 01 b3 bd
       -0.07587922 0.10332945 0.07647202 -0.08740571
000020 86 d3 ce 3c b2 93 2c be 8b e0 8f bc 2c 5b ae 3d
       0.025247347 -0.16853216 -0.017563125 0.085134834
000030 38 1e 8c bd 44 de f6 bd ba 38 c7 3b 6d 08 30 bd
       -0.06841701 -0.120541126 0.0060797604 -0.042976785
000040 6b 7c 13 3c 4a 7e 24 3d a2 65 b9 bc 15 77 40 3d
       0.0090018315 0.0401595 -0.02263147 0.046988565
000050 39 2c da bc 47 2f bc 3d ef 23 29 bd e3 e5 96 3c
       -0.026632415 0.09188705 -0.041294035 0.018420165
000060 c4 7f a5 3b b0 5d 9a bd 96 5c 80 3a 48 a2 83 bc
       0.0050506312 -0.07537401 0.0009793218 -0.016068593
000070 79 65 98 bd 89 94 7b 3d 6e 31 1a 3d 83 e2 3f bd
       -0.074412294 0.06142095 0.037644796 -0.046846878
000080 ec a1 a4 3c ec 82 2e 3d e5 35 d5 bd 0b 4c 22 bd
       0.020096742 0.042605326 -0.1041067 -0.0396233
000090 58 d1 14 bd 35 14 63 3d 52 07 3c 3d 8f 11 92 3c
       -0.03633246 0.055439193 0.04590542 0.017830638
0000a0 1f 26 58 3d 5d b7 f2 3c 7e a2 a1 3d 6c e5 0d bd
       0.05277073 0.02962845 0.07892321 -0.034642622
0000b0 88 c1 27 be 77 fb 10 3c 72 0d 1b bd 95 fe ac bc
       -0.1638242 0.008849016 -0.03785462 -0.021117488
0000c0 17 3b 6d bc 83 dc 16 bc 53 f5 4e bd 5f 06 1b bb
       -0.01447942 -0.0092078475 -0.05052693 -0.002365492
0000d0 23 dc 43 3d 4c 66 fd bc e2 a0 44 3d 49 33 d3 3b
       0.04781736 -0.030932568 0.048004992 0.0064453227
0000e0 cb fe 4f bd 13 cc 09 bc 3a ec 1a bd b6 9f 93 3c
       -0.0507801 -0.0084104715 -0.03782294 0.018020492
0000f0 c3 d3 34 3d e8 c6 a4 3d a7 6c 5b 3d d3 c8 f0 bc
       0.044147264 0.08045751 0.053570416 -0.029392635
000100 1c 58 c0 3c e1 06 88 3c 83 34 c9 3c 26 a4 59 3c
       0.023479514 0.016604843 0.024561172 0.013283765
000110 0a da 9f 3d bb 34 ae 3d f7 87 c4 3c 25 5d d5 3d
       0.078052595 0.08506151 0.023990614 0.104181565
000120 10 bb 43 3c 78 8d 6b 3c 2e ea 09 3d 9f 44 20 3b
       0.011946455 0.0143769905 0.033670597 0.0024454964
000130 61 5e df 3c 5c f5 9a 3c 82 4e 91 3d c4 b2 00 3e
       0.027266683 0.018915825 0.07095052 0.12568194
000140 a6 5f 5e 3d 39 e9 d6 3c 88 6f 9d 3d f3 4e 94 3d
       0.054290436 0.026234256 0.076872885 0.07241621
000150 27 05 e5 3c 7c cc 18 3d 85 5d d8 3a 02 b4 c1 3d
       0.027956558 0.037304386 0.0016507363 0.09458162
000160 6c 32 a1 3d 05 1f 2c 3d d3 86 ff bc fb af d3 3d
       0.07870945 0.04202177 -0.031192219 0.103363
000170 b5 f9 ed 3c fc 41 40 3c 84 82 a6 3d bf 4c fe bc
       0.029049734 0.011734482 0.08130363 -0.031042455
000180 69 29 a5 bc ab 2f c5 3d 64 a9 39 bc 20 dd af bd
       -0.020161347 0.096282326 -0.01133189 -0.08587098
000190 51 0c 36 bd cd 89 78 3c 9f 1a 1f 3e ea 0e 5f 3c
       -0.04444534 0.015169573 0.15537499 0.013614396
0001a0 80 13 16 be ff f5 ef bd 79 e9 a9 3d 3b 07 45 3d
       -0.14655876 -0.11716842 0.082964845 0.0481026
0001b0 a0 31 a9 ba ed 2b 0f 3d 3e 53 85 3d 2a 27 25 3c
       -0.0012908466 0.034954 0.06510018 0.010080138
0001c0 53 4e 6a bc 2d f3 8e 3c 6c 6a 38 bd 57 1a 93 bb
       -0.0143009005 0.01744994 -0.045023367 -0.004489224
0001d0 f5 be c9 bd c1 75 52 3d 7d be b7 bc 23 dc bb 3d
       -0.09850875 0.05138183 -0.0224297 0.09172847
0001e0 e5 97 a2 3a 22 27 bb 3d c7 8f 8f bc bc 80 f9 bc
       0.0012404887 0.09138323 -0.017524613 -0.030456893
0001f0 8a 15 b7 bd 8b a9 16 bc 41 28 e7 3d 87 2c a9 bd
       -0.08939655 -0.009195696 0.11286975 -0.08260446
000200 b0 79 61 3d dc 47 2c 3c ae 8b 20 bd da ab b5 3d
       0.05504769 0.0105151795 -0.03919571 0.08870669
000210 37 de 88 bd 83 5c 47 bd fe 61 94 bd 7f c8 2d 3d
       -0.06683009 -0.04867221 -0.07245253 0.042427536
000220 f5 b9 8e 3d 0b 33 a7 3d e1 4f 85 bd 9f d2 85 3c
       0.06969062 0.081640325 -0.06509376 0.016335784
000230 3b 66 ae 3d 2c c7 d2 bd e0 95 29 3d 2b a1 c0 3d
       0.08515593 -0.10291895 0.041402698 0.0940574
000240 6e dd 8b bd 98 b6 7d bc 8d fd a2 3c 38 a1 5a 3d
       -0.06829344 -0.015485428 0.019896293 0.053376406
000250 57 22 1c 3d 91 52 c9 3c 2b ea 30 bd 2f b1 c5 bd
       0.038118687 0.024575504 -0.04319207 -0.09652936
000260 49 ed 51 bd ae 69 a2 bd 6c 22 e3 3b 35 0b 63 3d
       -0.051251683 -0.07930313 0.0069315936 0.05543061
000270 e1 4f 3f 3d 9c 84 8c bd ef a7 4e bd 97 10 b9 3d
       0.046707038 -0.06861231 -0.050453123 0.090363674
000280 93 d8 ec 3d 51 44 24 bd 76 6a ca bd c3 99 bb 3d
       0.11564746 -0.040104214 -0.09883587 0.09160187
000290 5e 1f 61 bd 78 e6 a3 bd 6d 38 eb bc f7 10 27 3b
       -0.054961555 -0.08002943 -0.02871343 0.002549229
0002a0 bd e0 66 3d c0 37 21 bd 9a 6d e0 3a 23 c6 d3 3c
       0.05636667 -0.039359808 0.0017122508 0.025851315
0002b0 d1 dd 41 bd 5f 4a 52 bd aa b0 59 3d dc 17 45 3d
       -0.04733068 -0.051340457 0.053146996 0.048118457
0002c0 f1 34 97 bc fc 14 33 3d cb da 2e bd 04 e9 df 3c
       -0.018457862 0.043721184 -0.042689126 0.02733279
0002d0 46 8b 8e bb 31 ea 3c bd c2 b1 9b 3d be 07 23 3c
       -0.004350099 -0.04612178 0.07602264 0.009950576
0002e0 c2 f2 d2 3d 1e f6 2a bb f8 74 9e 3d 74 63 a4 3d
       0.10300209 -0.0026086639 0.07737154 0.08026782
0002f0 80 94 54 3d 90 52 f0 3c 88 e7 56 3c 27 8d 42 3d
       0.051899433 0.029336244 0.013116725 0.047497895
000300 99 d6 7f 3d 30 1e 0e 3d 8e c8 3c 3d 40 d1 4b bd
       0.062460516 0.034696758 0.0460897 -0.049760103
000310 54 dc 11 3e 6c d0 c5 3c c9 bf 98 3d 95 99 1a bc
       0.14244205 0.024147235 0.07458455 -0.009436031
000320 6b 36 e4 3c 5c c9 07 3d 6c c6 8d bd 8d 7e d4 bc
       0.02785798 0.033151016 -0.069226116 -0.02593925
000330 e1 d0 e0 bd 89 45 be bc 7f 9e 80 bd b1 46 c4 bc
       -0.109773405 -0.023226516 -0.06280231 -0.02395949
000340 9f 60 04 bd 62 ac 77 bd 3e 18 c9 bd 77 90 4d bd
       -0.032318708 -0.06046713 -0.09819077 -0.0501866
000350 78 a2 60 bb f3 e0 11 3d d5 2c 84 bd 41 d3 28 bd
       -0.0034276526 0.03561492 -0.064538635 -0.041217092
000360 be df 23 3e 4e cd a6 3c 20 76 3d bd 78 46 9c 3c
       0.1600332 0.020361569 -0.04625523 0.01907657
000370 22 4c 0f bd 4f 05 9b 3b 1e d4 ca bd 45 37 c1 bd
       -0.034984715 0.0047308574 -0.099037394 -0.0943437
000380 c5 56 03 3d 32 4e 1f 3c 1d af 33 3c 83 50 71 3d
       0.03206517 0.009723233 0.010967043 0.058914673
000390 af b5 fc bc d2 e3 3a bd 38 e4 8d bd 13 91 03 3d
       -0.030848352 -0.045627423 -0.06928295 0.032120775
0003a0 3c d7 27 bd 4f 9d a4 ba b8 da 59 3c a6 04 e0 3c
       -0.040976748 -0.0012559089 0.0132967755 0.027345967
0003b0 00 ad e2 bc 0b ea 84 3d ea d5 8b bc 3d 71 cf bc
       -0.027670383 0.06489953 -0.017069776 -0.02532255
0003c0 0f 94 9e 3a 44 65 cf 3c 52 99 c9 3d 4a 56 b4 3d
       0.0012098568 0.025316842 0.09843697 0.08805521
0003d0 02 ae d1 3d 2d 7f ab bc 9d 1f 42 bd 85 6a c5 bd
       0.102382675 -0.020934666 -0.04739343 -0.096394576
0003e0 da e6 57 bd 8b fb 9a bd 68 00 78 3d 43 bb 91 bc
       -0.05271039 -0.07567509 0.060547262 -0.017789489
0003f0 9d 82 b2 bd 5e 38 da bc 7e c5 b4 3d 5a 92 c1 3c
       -0.08716319 -0.026638206 0.08826731 0.023629356

shared_fc.bias f4 [512]
000000 ff 1f 68 3b 67 77 37 bc 87 b8 ba 3d 36 81 44 bd
       0.0035419462 -0.011197901 0.09117227 -0.047974788
000010 ab 63 d3 3a 4e c3 fa 3a ab f6 92 bd 93 95 42 bd
       0.0016127726 0.0019131692 -0.071759544 -0.047505926
000020 a8 05 aa 3d 26 08 fe 3c a6 2c 05 3d 42 eb 11 bd
       0.0830186 0.031009745 0.032513283 -0.03562475
000030 34 1b b7 3c 79 0c 1d bd cf e5 63 bd 93 06 a8 3a
       0.022351839 -0.038341973 -0.055639084 0.0012819342
000040 18 3f 99 3d 0b 68 82 3d 3b 03 ba 3d 45 e5 4f bc
       0.07482737 0.06367501 0.090826474 -0.012688939
000050 45 92 a8 bd b7 bc 0e 3d dd 0a 16 bd c0 21 1d 3d
       -0.08231024 0.03484794 -0.036631454 0.038362265
000060 e6 22 63 3d 8a e4 53 bd d6 14 6e 3c 15 69 89 3d
       0.055453204 -0.051731624 0.014531335 0.06709496
000070 1b d9 c9 3d ec a3 42 bd 18 51 b1 3d 9c f6 e3 3c
       0.09855863 -0.04751961 0.086580455 0.027827553
000080 58 26 ef 3d e2 e5 35 3d c6 c4 9c b9 78 5d b3 bd
       0.11677235 0.044408686 -0.00029901246 -0.08758062
000090 be 61 4b 3d eb 46 94 bd e9 cc bc bc 9c 99 93 3d
       0.04965376 -0.07240089 -0.023046928 0.07207033
0000a0 7f b1 a5 3d ac 51 d1 3d c6 7d cb bd d0 a2 30 bc
       0.08090495 0.10220656 -0.09936099 -0.010781005
0000b0 02 e6 df 3d e8 44 ef 3c a5 7b 61 bd 8b 49 69 bd
       0.109325424 0.029207662 -0.055049557 -0.0569549
0000c0 ad 7f 2f 3d d7 80 35 3c dc d3 65 3d 7e 39 44 bd
       0.04284637 0.011078081 0.056110248 -0.04790639
0000d0 87 bd 8f 3c 0f 46 82 bd ee 91 6f bd 69 e2 5d 3c
       0.017546428 -0.06361019 -0.05848878 0.01354275
0000e0 3c 03 87 bd 1c 29 fd 3d 51 76 d2 3c 95 61 8e 3d
       -0.06592414 0.123613566 0.025691183 0.06952206
0000f0 b2 68 be 3d fa 85 a7 3d cc 3c 3c bd ef 3b 49 bd
       0.09297313 0.08179851 -0.045956418 -0.049129423
000100 ae 29 d6 bc b7 9c a8 bd 54 a6 97 bd 80 51 24 3d
       -0.026142921 -0.08233016 -0.074047714 0.040116787
000110 a7 b6 49 3d 3f a4 0d 3d 05 b2 b3 3d 36 5f 9a bd
       0.049246456 0.034580465 0.08774189 -0.07537691
000120 66 a0 c5 bc 1f b9 89 3d 8a c7 d7 3c aa 0b a3 3d
       -0.024124335 0.06724762 0.026340265 0.07961209
000130 97 a0 e5 bc 8c b9 88 bd fa 12 c4 bc e0 6b 7d bc
       -0.028030677 -0.06676015 -0.02393483 -0.015467614
000140 2c 98 a8 bd a9 24 33 bd 83 68 c4 3d 79 50 e5 3b
       -0.082321495 -0.043736134 0.095902465 0.0069981185
000150 be 15 9f bd 49 2e 91 bd 6a 53 a2 bb 56 39 37 bd
       -0.07767819 -0.07088906 -0.0049537914 -0.044732414
000160 fc fa 9f 3b 6b 06 bb 3d d6 6b d0 3d 1f 16 b7 3b
       0.0048822146 0.091320835 0.10176818 0.005587354
000170 25 06 58 bd 1d 94 82 3d 26 b7 75 3d 43 89 b2 3d
       -0.052740235 0.063759066 0.059989117 0.08717587
000180 9b 4f 81 3c 4b ae 22 3d 9a 31 a7 bb 0e bf 4c bc
       0.01578503 0.039717 -0.0051023485 -0.012496723
000190 0e f1 29 bd b5 87 89 bd 4c 4e cc 3d 5a e3 50 bc
       -0.041489653 -0.06715337 0.099758714 -0.012749517
0001a0 b6 d4 00 bd 86 45 80 3c ee cf 1b bb 4f c2 9e bd
       -0.031452857 0.015658151 -0.0023775059 -0.07751905
0001b0 77 ad 04 3e 1e 9d b7 bc 53 da 5d 3d 94 cc 95 3d
       0.12956797 -0.022413787 0.05416329 0.07314411
0001c0 27 95 1e bd 87 22 7c 3d dd d1 2a 3d 0b 16 a3 bc
       -0.03871646 0.061556365 0.041704047 -0.019907972
0001d0 ad c1 c7 bb 48 0c 78 bc e9 e1 f5 bc 60 a1 bf 3d
       -0.006096086 -0.015139647 -0.030014949 0.09356952
0001e0 09 42 95 3d 0d 8b fb 3c 67 68 d8 bc 41 42 df 3d
       0.07287986 0.030705953 -0.02641697 0.10901309
0001f0 15 56 8f bd dd 9e 9b 3d f0 c5 54 bd 08 54 6c bc
       -0.06998841 0.0759866 -0.05194658 -0.0144243315
000200 23 e4 70 3d 27 09 9e bd 09 13 84 bd ed e8 af bc
       0.058811318 -0.077165894 -0.06448943 -0.021473372
000210 19 06 bb bc df a0 7b bd 1e 69 b2 3d d4 d4 46 bd
       -0.022830056 -0.061432716 0.08711456 -0.048542812
000220 5b 2f 64 bc f3 0f 0a 3d b6 ee d2 bc 44 5b 43 3d
       -0.013927306 0.033706617 -0.025748592 0.04769446
000230 fc 72 89 3d 34 51 9f bc 7e 60 d8 bc 04 38 54 3d
       0.06711385 -0.0194479 -0.026413199 0.051811233
000240 ec da 91 3d fe a8 97 bd 4d aa 48 bd bf b3 51 bd
       0.07121834 -0.074052796 -0.048990536 -0.05119681
000250 0f 87 b6 3d 79 b0 1c 3d 4c b1 1f bd 60 aa 20 bd
       0.08912479 0.038254235 -0.038987443 -0.039224982
000260 a2 c0 ec 3b 77 0c 35 3d 56 35 dc 3d 8f 13 84 bd
       0.007225112 0.04420134 0.107523605 -0.06449043
000270 1c 49 41 3d fb 00 fe 3d 42 63 92 3d ea 87 62 ba
       0.047188863 0.12402531 0.07147838 -0.00086414686
000280 dc 99 92 3d 89 73 32 3b 0b 68 bd bd 58 03 ad 3c
       0.071582526 0.002722951 -0.0924836 0.021119758
000290 93 01 05 bc d8 1c db 3d 1d d8 95 3c 05 d2 20 3d
       -0.008118051 0.10698861 0.018291527 0.03926279
0002a0 41 fb 52 3d 3c a8 de 3d 02 ba 64 3d 73 d9 8e bd
       0.051509146 0.10871932 0.055841453 -0.06975069
0002b0 bb 88 5b 3d 84 31 96 bc d9 da dd 3d 79 f1 a1 bd
       0.053597193 -0.018334158 0.108327575 -0.079073854
0002c0 54 67 bf bc 9c 47 a8 bc 40 80 95 bb 14 08 b4 3c
       -0.0233647 -0.020541959 -0.0045624077 0.021976508
0002d0 cb 5a 81 3c 32 23 88 3d 0d e5 bb 3d 79 81 1e bd
       0.015790364 0.06647338 0.09174547 -0.038697693
0002e0 7d 5e be 3d b6 e1 4a bd 86 ff 19 bd b5 d2 7c 3d
       0.09295366 -0.04953166 -0.0375972 0.061724383
0002f0 55 0e 51 3c 71 5b 95 3c a6 cf 88 bd e7 da 43 3d
       0.012759765 0.01823208 -0.06680231 0.047816183
000300 5b 00 9c bd 2b 81 a5 bd 56 d4 9e 3c 3a b2 04 bd
       -0.07617255 -0.080812775 0.019388359 -0.032396533
000310 ed 7d 46 3b 63 f1 72 bd 8e da ca 3d 04 b4 a1 3d
       0.003028746 -0.059312236 0.09904967 0.078956634
000320 9f 78 de bc 06 42 96 3d 67 30 1d bb f6 ae 8b 3d
       -0.027157126 0.07336812 -0.002398515 0.068204805
000330 55 65 e7 bc 21 06 2e bc b5 28 2f 3c ff b5 7e bd
       -0.028246561 -0.010621578 0.010690858 -0.062185284
000340 dd 79 e1 3d 0c a0 ac 3c 7b 1d 3d 3c f3 3c ea 3d
       0.11009572 0.02107241 0.011542673 0.114374064
000350 aa b4 07 3c 78 39 be 3d d2 3a 65 3d 1e f6 f6 3c
       0.00828282 0.09288305 0.0559643 0.030146655
000360 d9 16 f7 3c 7e 00 c6 bd 4e c2 c1 39 de 8f 2c bd
       0.030162262 -0.096680626 0.00036956597 -0.04212939
000370 96 e9 b2 bd 64 11 ec 3d 6e ac 1f bd 96 27 d5 3b
       -0.08735959 0.115267545 -0.0389828 0.006504963
000380 41 fd 95 3d 55 40 75 3d 18 83 bc bd a8 f8 e6 3d
       0.07323695 0.059875805 -0.09204692 0.11277896
000390 78 f9 8f 3c 9d 4a 0f bd 28 3a 29 bd 1a d3 0b 3d
       0.01757501 -0.034983266 -0.041315228 0.03413687
0003a0 38 c3 8d 39 14 e1 ab 3d 9d 0e a4 bd bb b4 38 bd
       0.00027039065 0.083925396 -0.080106 -0.045094233
0003b0 dc d4 34 bd 39 3b 3f bd be f0 e8 3c 53 c7 35 bd
       -0.04414831 -0.04668734 0.028435107 -0.044379544
0003c0 50 89 7b bc 0e f5 5f 3c 05 79 3d bd d2 8e 3e bd
       -0.015352562 0.013669265 -0.04625799 -0.046522923
0003d0 b0 72 c0 bb bd 3f bb bd fb 4c 3a 3d 0e 44 60 3c
       -0.005873047 -0.091430165 0.04548357 0.0136881005
0003e0 22 a6 be bd 69 78 4e bd 7a 7c cc bc 7f 8f 2c bc
       -0.09309031 -0.0504078 -0.024961699 -0.010532259
0003f0 04 d6 92 3d 66 fa ed 3d 28 52 a9 bd 7f 42 70 bc
       0.071697265 0.11620025 -0.08267623 -0.014664291

shared_ln.weight f4 [512]
000000 e5 f3 8b 3f 07 7c 8d 3f 80 42 98 3f e8 05 89 3f
       1.0933806 1.1053475 1.1895294 1.0704927
000010 f6 8c 93 3f 6b bf 84 3f 53 bf 88 3f fa 7f 90 3f
       1.1527393 1.0370916 1.0683388 1.1289055
000020 2a 95 8a 3f 8a 51 8b 3f c1 c2 90 3f 84 32 98 3f
       1.0826771 1.0884259 1.1309434 1.1890416
000030 d0 d9 93 3f 76 34 93 3f 96 6f 86 3f 29 92 92 3f
       1.1550846 1.1500385 1.0502803 1.1450855
000040 34 cb 8a 3f 7b 0b 91 3f a4 8e 98 3f 88 92 90 3f
       1.0843263 1.1331629 1.191853 1.1294718
000050 7a 42 91 3f d3 b7 97 3f 2c db 8d 3f 15 b2 8d 3f
       1.1348412 1.1852974 1.1082511 1.1069971
000060 b9 10 89 3f b2 99 8d 3f 56 2c 8c 3f 6c c3 88 3f
       1.0708228 1.1062529 1.095103 1.0684638
000070 4b ea 92 3f e0 ea 8e 3f 28 4d 92 3f 2a 21 9e 3f
       1.147775 1.1165428 1.1429796 1.2353871
000080 d9 b4 92 3f 67 9d 8b 3f 12 53 8f 3f 37 50 94 3f
       1.146144 1.090741 1.1197226 1.158698
000090 cd 40 90 3f 1b de 90 3f 5f 33 9f 3f 8a a9 8b 3f
       1.1269776 1.1317781 1.2437552 1.0911114
0000a0 53 bf 94 3f 7f 91 88 3f 4e 65 8d 3f e2 93 86 3f
       1.1620888 1.0669402 1.1046541 1.051388
0000b0 f2 2c 94 3f f0 b2 94 3f 5a 45 94 3f 20 75 88 3f
       1.1576216 1.1617107 1.1583664 1.0660744
0000c0 88 5d 82 3f 70 dd 8b 3f 31 ad 8a 3f 3b 03 94 3f
       1.0184793 1.0926952 1.0834104 1.1563486
0000d0 d2 bf 89 3f ab 50 93 3f 3d 5b 8f 3f df 36 89 3f
       1.0761664 1.1508993 1.1199719 1.071987
0000e0 35 b8 91 3f a5 df 9d 3f 3d 89 89 3f 0e e9 8c 3f
       1.138434 1.2333876 1.0745007 1.1008623
0000f0 13 d7 87 3f 47 b2 8b 3f 1f 6a 96 3f 06 49 8b 3f
       1.061251 1.0913781 1.1751136 1.088166
000100 e5 8f 8c 3f 48 e0 94 3f 31 24 98 3f da 0e 90 3f
       1.0981413 1.1630945 1.1886045 1.1254532
000110 9d 2a 92 3f 8e 78 88 3f f6 c1 a1 3f fc 4d 94 3f
       1.1419255 1.066179 1.2637317 1.1586299
000120 ad fa 9c 3f 25 35 8f 3f 28 2a 8c 3f 3e 95 8b 3f
       1.2264 1.1188093 1.0950365 1.090492
000130 4d 5c 92 3f ae e1 88 3f 20 db 8a 3f 88 54 95 3f
       1.1434418 1.0693872 1.0848122 1.1666422
000140 e7 88 89 3f 1e f0 9c 3f 2a 7d 90 3f af 8d 89 3f
       1.0744904 1.2260778 1.1288197 1.0746363
000150 aa 24 8a 3f 0f f2 92 3f ea c8 8e 3f 95 a8 94 3f
       1.0792439 1.148012 1.1155064 1.1613947
000160 f7 90 92 3f fe 5d 92 3f c6 7a 8b 3f b7 73 99 3f
       1.145049 1.1434934 1.0896842 1.1988438
000170 ee 08 96 3f b9 bc 96 3f 74 47 94 3f ca 03 8f 3f
       1.1721475 1.1776344 1.1584306 1.1173031
000180 78 d3 86 3f a4 07 8b 3f 4b 2e 95 3f e3 f5 89 3f
       1.0533285 1.0861707 1.1654752 1.0778164
000190 ef 7a 88 3f 95 d9 8b 3f 2b d1 94 3f b8 99 93 3f
       1.0662516 1.0925776 1.1626333 1.1531286
0001a0 de 85 90 3f de 60 88 3f 51 53 98 3f dc 0a 98 3f
       1.1290853 1.0654562 1.1900426 1.1878314
0001b0 c4 27 a5 3f 82 2d 8d 3f 11 8c 8d 3f 1f 3e 8f 3f
       1.290276 1.1029513 1.105837 1.1190833
0001c0 bc 0f 95 3f a5 c2 82 3f 3c 32 95 3f 38 4c 91 3f
       1.1645427 1.0215651 1.1655955 1.1351385
0001d0 1b 74 91 3f 99 21 8e 3f f7 27 90 3f ed 27 94 3f
       1.1363558 1.1104003 1.1262196 1.1574684
0001e0 a6 5f 87 3f 77 30 89 3f 34 61 8e 3f 57 9d 91 3f
       1.0576065 1.0717915 1.1123414 1.1376141
0001f0 ea 4a 8d 3f a4 11 8e 3f f2 78 94 3f a7 2c 84 3f
       1.1038487 1.1099133 1.159941 1.0326127
000200 15 1c 8c 3f f9 33 8c 3f e2 b6 89 3f f5 4b 91 3f
       1.094607 1.0953361 1.0758936 1.1351305
000210 9b 31 8e 3f 5e 03 97 3f 24 44 8f 3f fe d3 91 3f
       1.1108888 1.1797903 1.119267 1.139282
000220 01 d9 8c 3f 5c 9d 97 3f 3f 8d 8f 3f e9 d0 90 3f
       1.1003724 1.1844897 1.121498 1.1313754
000230 0b 8f 91 3f 3b 4c 89 3f 97 83 8f 3f 4c 36 9d 3f
       1.1371778 1.0726389 1.1212033 1.2282195
000240 3a 3b 8d 3f b5 c1 8c 3f 84 90 8c 3f 12 13 92 3f
       1.10337 1.0996615 1.0981603 1.141207
000250 42 f3 86 3f b8 41 89 3f 9c 63 93 3f 9d 30 8e 3f
       1.0542986 1.0723181 1.1514773 1.1108586
000260 b3 cf 92 3f 83 fc 93 3f f7 f9 91 3f eb e6 8a 3f
       1.1469635 1.1561435 1.1404408 1.085172
000270 69 fb 8e 3f 6a ba 88 3f 85 01 87 3f 4c ad 92 3f
       1.1170474 1.0681889 1.0547339 1.1459136
000280 57 8c 8a 3f 2d 95 8e 3f 60 4d 90 3f 00 b1 86 3f
       1.0824078 1.1139275 1.1273613 1.0522766
000290 0d cb 9d 3f 32 28 91 3f 8d a0 88 3f cd 78 90 3f
       1.2327591 1.1340392 1.0673996 1.1286865
0002a0 51 95 88 3f 17 cd 8f 3f 27 15 9d 3f 4b 20 93 3f
       1.0670568 1.1234463 1.227208 1.149423
0002b0 c0 5f 8b 3f 62 a6 92 3f e5 2a 84 3f 49 4f 92 3f
       1.0888596 1.1457026 1.032559 1.1430446
0002c0 fe 69 93 3f 80 61 92 3f 3b da 92 3f 34 98 8c 3f
       1.1516721 1.1436005 1.1472849 1.0983949
0002d0 7a bb 94 3f 30 6d 91 3f bd a6 91 3f cf 76 8e 3f
       1.1619713 1.1361446 1.137901 1.1130008
0002e0 95 de 90 3f 81 45 89 3f fb 6b 90 3f bb 09 88 3f
       1.1317927 1.0724336 1.1282953 1.062797
0002f0 05 ce 95 3f 78 fe 91 3f bb 29 8a 3f 61 55 90 3f
       1.1703497 1.1405783 1.0793985 1.1276056
000300 6b 80 87 3f c5 40 9f 3f 7d 7e 86 3f f3 5f 92 3f
       1.0586065 1.2441641 1.0507351 1.1435531
000310 a1 48 88 3f 00 07 8b 3f bb 08 97 3f 9c d6 98 3f
       1.0647165 1.0861511 1.1799539 1.1940494
000320 3b ae 8b 3f 95 80 87 3f 37 fd 89 3f 00 70 91 3f
       1.0912546 1.0586115 1.07804 1.1362305
000330 98 d1 8a 3f 6f e9 90 3f b6 7f 95 3f b0 7d 8b 3f
       1.0845213 1.1321238 1.1679599 1.0897732
000340 e0 a3 8d 3f c5 3d 92 3f 9d d5 8f 3f 9e 2c 96 3f
       1.1065636 1.14251 1.1237065 1.1732366
000350 24 49 8c 3f f7 21 97 3f 79 3d 96 3f 1d ba 88 3f
       1.0959821 1.180724 1.173751 1.0681797
000360 a3 84 8d 3f d1 37 8b 3f e6 29 90 3f f0 07 85 3f
       1.1056103 1.0876409 1.1262786 1.0393047
000370 d4 ac 8f 3f 9f b2 98 3f fb ce 85 3f 56 68 91 3f
       1.1224618 1.1929511 1.045379 1.1359966
000380 a5 01 83 3f 97 92 8e 3f e8 0b 94 3f 83 6f 90 3f
       1.0234877 1.1138486 1.1566133 1.1284031
000390 d4 1e 94 3f ce d9 91 3f 74 08 88 3f 43 ad 91 3f
       1.1571908 1.1394594 1.062758 1.1381
0003a0 c8 bb 8a 3f 1f 18 8a 3f 9a 8a 8e 3f be 1b 84 3f
       1.0838556 1.0788611 1.1136048 1.0320966
0003b0 c6 63 8d 3f 29 ad 90 3f f8 9d 8b 3f b8 5d 96 3f
       1.1046073 1.1302844 1.0907583 1.1747351
0003c0 92 3d 8e 3f 56 b5 89 3f 14 bb 91 3f 87 f1 85 3f
       1.111254 1.0758464 1.1385217 1.0464333
0003d0 41 b8 8f 3f 3d 6c 91 3f 51 27 88 3f e5 25 88 3f
       1.1228105 1.1361157 1.0636998 1.0636564
0003e0 e2 61 91 3f 27 7a 8f 3f 9f af 90 3f 38 86 94 3f
       1.1357996 1.1209153 1.1303595 1.160346
0003f0 30 9e 90 3f 8d a7 95 3f 8d 3f 87 3f 30 50 8f 3f
       1.1298275 1.1691757 1.0566269 1.1196346

shared_ln.bias f4 [512]
000000 62 25 76 3c da 1b 87 bb 1b f7 25 bb df 26 cd 3c
       0.015023561 -0.004123193 -0.0025324288 0.02504295
000010 1c ae 55 3d 30 f1 d1 bb 12 8b aa bc 5b e0 d7 3c
       0.052167997 -0.0064069256 -0.020818267 0.026352098
000020 f7 2d 10 3c 78 ed 96 3c fe be 36 3c 0b a0 73 3d
       0.008800021 0.01842378 0.0111539345 0.0594788
000030 ae 49 9b 3c 31 8d b0 3c 28 70 b5 3b c8 d3 72 3d
       0.018956032 0.0215517 0.0055370517 0.059284
000040 4c 6b d9 3c 7d d2 a6 3c e3 9d 4b 3d 6d 40 11 3d
       0.026540421 0.02036404 0.04971112 0.03546183
000050 17 5b 0d 3c e8 ae 0f 3d 44 5b 8f 3d 72 9a 3a 3c
       0.008627675 0.035078913 0.069998294 0.011389362
000060 4a 6d 49 3c 74 29 5b 3d 02 c4 17 3d 5b 34 41 3d
       0.012294123 0.05350633 0.037052162 0.04716907
000070 7a c6 58 3d 08 c6 f2 3c 73 e8 c4 3b 37 4c 7d 3d
       0.052923657 0.029635444 0.0060091554 0.061840262
000080 6b 6f ce 3c 1f bf 7b 3c 6d c8 f4 3c ea 84 92 3b
       0.025199613 0.015365391 0.029880727 0.004471411
000090 59 2c d5 3b 14 7f f1 ba ef b3 09 3d bb 57 dc 3c
       0.006505531 -0.0018424713 0.033618864 0.026897302
0000a0 b7 a4 34 3d 76 e7 64 3c cb d7 24 3d d2 fb fc 3c
       0.044102397 0.0139712 0.04024486 0.030881796
0000b0 e8 9e 84 3c b3 8d fc 3c 31 1c 6f 3b ea d7 bb bc
       0.016189054 0.030829286 0.003648531 -0.022930104
0000c0 63 22 84 39 32 95 19 3c 50 1f f2 3c 3e 77 8e 3c
       0.00025202622 0.00937395 0.029555947 0.017390843
0000d0 0a cb 14 bc ac ae 4d 3d d2 75 1a 3d 21 9f 13 3b
       -0.009081611 0.05021541 0.03771002 0.0022525268
0000e0 19 00 08 3d 3f 97 7a 3d 23 c0 3f 3c 15 e1 7f 3c
       0.033203218 0.061179396 0.011703524 0.015617629
0000f0 9f 8e ac bc ec 60 a0 3c 4d 57 8b 3c c3 43 f7 3c
       -0.0210641 0.019577466 0.017009402 0.030183678
000100 52 36 47 3d ed 78 ac 3c d7 dc 93 3c 58 23 b0 3c
       0.04863579 0.021053756 0.01804964 0.021501228
000110 eb ff 1a 3d 7d cf d0 3c e8 e4 ea 3c cf 25 07 3b
       0.03784172 0.025489563 0.028673604 0.00206219
000120 2d b7 8b bc 84 5b e8 3c 85 27 6d 3c 4d 09 ff 3c
       -0.017055118 0.02836395 0.014474754 0.031132365
000130 a2 e8 90 3c 77 d9 73 bc c3 8d 39 3d 01 57 f2 3c
       0.017689053 -0.014883391 0.04530121 0.029582502
000140 13 3f 6c 3b 87 14 e5 3b e7 48 11 3c 42 fd 0f 3c
       0.0036048337 0.0069909724 0.008867479 0.008788409
000150 f8 d3 11 3c d1 51 e5 3b 23 a9 81 3c 3c 65 0f 3d
       0.008900635 0.0069982787 0.015827721 0.035008654
000160 c7 be 80 3c 10 c1 c8 3c 15 8a 6a 3d 5c e8 09 3d
       0.01571597 0.024506122 0.05726059 0.03366886
000170 19 fe 62 3d ae d0 e4 3c b5 72 9f 3c 6b 6a 08 3d
       0.055418108 0.027931537 0.019463876 0.033304613
000180 dd fe 1f 3c 0f 29 f9 bb 60 42 4c 3c 32 78 c4 3c
       0.009765354 -0.0076037715 0.012466997 0.023983095
000190 5b 86 b5 bb e4 cc 25 3b 17 4f 2d 3d 24 4c 9b 3d
       -0.005539698 0.0025299126 0.042311754 0.07582882
0001a0 2a 11 0e 3d 20 14 e5 3b 3c 6c 96 3d d3 34 55 3d
       0.034684338 0.0069909245 0.07344863 0.05205233
0001b0 0a 04 59 3d 26 23 1e 3d ac 47 71 3c 49 7e e0 3c
       0.052982368 0.03860774 0.014726561 0.027403967
0001c0 1a c7 5d 3d 44 f6 e9 3c dc 47 16 3d 1a 4b 0a 3d
       0.054144956 0.028559811 0.036689624 0.03376303
0001d0 7d f3 93 3a 18 91 55 3c c5 73 75 3c f2 8f 7c 3a
       0.0011287775 0.013035081 0.014981215 0.00096344866
0001e0 42 d8 de 3c 4e 73 27 39 84 64 33 3d b9 29 c2 3c
       0.02720273 0.00015969315 0.04379703 0.023701536
0001f0 60 42 8a 3c bf 64 96 3c ae 69 e8 ba 81 b1 96 3c
       0.016877353 0.018358586 -0.001773169 0.018395187
000200 45 ad 91 3b f2 ff 16 bd 3d 96 84 3c e8 8e da 3c
       0.004445704 -0.036865182 0.01618492 0.026679471
000210 cc 4b 05 3d 65 c1 ff 3c 37 64 19 3d ed 94 88 3c
       0.03254299 0.031220147 0.037449088 0.016672576
000220 85 0d 3b 3d c7 7f 0e 3d 3e 66 7d 3c a8 85 a8 3a
       0.04566719 0.034789827 0.015466271 0.0012857215
000230 96 20 a6 3b 0f 78 d4 3c 34 c1 46 3d 2d 4e 26 3d
       0.0050698025 0.025936155 0.048524097 0.040601898
000240 82 4e ba 3c 93 2d 9f 3c 1e f5 1c bc 2b 68 f7 3a
       0.022742514 0.019430911 -0.009579925 0.0018875649
000250 c6 4e d1 3c f5 6e 2f 3c d3 fb f2 3a f2 00 84 3b
       0.025550257 0.010707607 0.0018538184 0.004028433
000260 6a 5f 9c bb 67 d5 0b 3d 6c ab 2e 3c e7 28 d4 3c
       -0.0047721164 0.034139063 0.010660987 0.02589841
000270 d1 8e a7 3b 87 be 9e 3c 1f 14 92 3b cc 94 20 3d
       0.0051134606 0.01937796 0.004457965 0.039204404
000280 3c d1 9f 3b 27 6a b2 bb ae a3 04 3a 6e d2 09 3d
       0.0048772376 -0.0054447833 0.00050597906 0.033647947
000290 41 db 31 3d 3e 84 32 3d 54 13 99 3c 88 b7 21 bb
       0.043421987 0.043583147 0.018685974 -0.0024676044
0002a0 c0 94 09 3d a5 d8 1d 3d 88 10 31 3c 64 75 7a 3b
       0.033589125 0.038536686 0.010807164 0.0038216943
0002b0 95 34 4e 3c 8e 28 5a 3d cb b6 90 3c ed af d2 3c
       0.012585779 0.053261332 0.017665287 0.025718654
0002c0 48 48 28 bb ff 19 3b 3b e5 fb b1 3c 88 25 a0 bc
       -0.0025677849 0.002854943 0.021726558 -0.019549146
0002d0 84 b9 88 3c b1 54 0f 3d 98 99 ab 3c c8 dc 06 bb
       0.016690023 0.034992877 0.020947263 -0.0020578373
0002e0 17 5b 4c 3d 25 d9 b5 3c 68 a4 37 3c f3 66 13 3c
       0.049891558 0.02219827 0.011208631 0.008996713
0002f0 58 b2 42 3d 56 ae 7e 3d 81 cf 29 3c cc cd 5b 3d
       0.047533363 0.06217798 0.010364414 0.05366306
000300 69 60 3d 3c 9e 01 99 3b 04 88 68 3b f7 3d f4 3b
       0.0115586305 0.0046693822 0.0035481462 0.007453676
000310 72 ed 3d 3d c1 c2 56 3c 0f a2 bf 3c 6e 30 1a 3d
       0.046369024 0.013107956 0.023392705 0.037643842
000320 52 ba f5 bb 8d 33 66 bc e0 20 4a 3c 79 85 ac 3c
       -0.0074990178 -0.014050377 0.01233694 0.021059738
000330 5d 8b dd 3c fc d5 66 3d b0 12 5a bc 6a 8f ee 3c
       0.027043993 0.056356415 -0.0133101195 0.02912112
000340 d9 26 e9 3c 53 c2 bb ba 19 b0 89 3c 60 a9 e2 3b
       0.028460907 -0.0014324881 0.016807603 0.0069171637
000350 1d 4b 45 3d fc c2 7a bb af f5 17 bc e5 73 a5 3c
       0.048167337 -0.0038263192 -0.009274884 0.020196864
000360 7e fb e4 3c 27 24 78 3b b7 f2 95 3b 03 6b a8 3c
       0.027951952 0.0037863345 0.004576053 0.02055884
000370 a2 4e 86 3c 41 9c 2e 3c fe 20 85 3c 42 6e 16 3d
       0.016394917 0.010657371 0.016251083 0.036726244
000380 a1 1f 3b bc a1 77 01 3d a3 bb c0 3b 16 e2 f8 3a
       -0.011421115 0.031608228 0.005881743 0.0018988277
000390 98 f7 e8 3c 62 71 99 3c 32 37 87 3c 66 be af 3c
       0.028438374 0.018730823 0.016505811 0.021453094
0003a0 a4 45 99 3b 83 c8 d4 3c ab 7f 1d 3d b3 4a eb 3c
       0.0046774913 0.025974518 0.03845183 0.028722143
0003b0 3e 97 4e bc ce 3c cd 3c 7d 09 e8 bb 33 8c a5 bb
       -0.012609301 0.025053408 -0.007081209 -0.0050521134
0003c0 72 1e 0d 3c cb c8 05 3d c5 31 60 ba e0 fd 29 3c
       0.008613216 0.032662194 -0.0008552338 0.01037547
0003d0 16 4d 7c 3c 1a cc c1 3b 5a f7 40 bc c0 e9 a7 3b
       0.015399238 0.0059142234 -0.011777723 0.0051243007
0003e0 a6 24 0c 3c f4 05 4b 3c 44 47 9a 3c 2c 3b fe 3c
       0.00855366 0.012391556 0.01883281 0.031034075
0003f0 37 11 a7 3c 7c a0 9e 3c 7c 24 c6 3c 68 13 ea 3c
       0.02039395 0.019363634 0.024187319 0.028573707

actor_fc.weight f4 [6, 512]
000000 b8 6b 0b bd 05 f4 cc 3d af ca 27 be cd f1 80 3d
       -0.034038275 0.100074805 -0.16385911 0.0629612
000010 87 e4 06 3e ed 69 e7 bc 41 0c c6 3c 7a 92 39 bc
       0.13173114 -0.028248752 0.024175765 -0.011326427
000020 ff c6 26 3d f9 7b 87 bd 72 6b 0c bd cb aa a8 3c
       0.04071712 -0.06615443 -0.034282155 0.020589253
000030 94 21 80 bd 5d 21 b3 bd 88 e2 8e 3c f5 7f 11 bc
       -0.062564045 -0.08746598 0.017442003 -0.008880605
000040 5b 69 11 bd 3b 80 93 3d 2c 32 f4 3d eb 25 a3 bd
       -0.035500865 0.072021924 0.11923632 -0.07966217
000050 84 40 09 be a3 dc 63 bd 5a 04 43 3d 0a c5 20 bd
       -0.13403517 -0.055630337 0.04761157 -0.03925041
000060 d0 15 47 3d ad 1a 00 be 39 30 cf bd dc be c2 3d
       0.048604786 -0.12510176 -0.101166196 0.0950906
000070 5b 65 8c 3d 05 c1 db 3d 28 fc ab bd 5a 34 f1 bd
       0.068552695 0.10730175 -0.08397704 -0.117775634
000080 3c a4 d3 bc b4 f8 14 3d 12 1c d4 3d 0e ad 1a be
       -0.025835149 0.036369994 0.103569165 -0.15105078
000090 3c 5f 97 bd d0 95 d0 3d ab 13 77 3d 44 c7 4b 3c
       -0.073912114 0.101848245 0.06032149 0.012437645
0000a0 6e 3b 80 bc 33 55 b2 3d 8a a6 cf bc a5 05 95 3d
       -0.015653338 0.08707657 -0.025347967 0.07276467
0000b0 d4 fb 91 3d a9 20 27 3d 1b 11 30 3e 9b bb 49 bd
       0.071281105 0.04080263 0.17194025 -0.04925118
0000c0 bf 27 67 3d e6 04 80 3d 40 d8 18 bd ae 1f 16 be
       0.05643439 0.06250934 -0.037315607 -0.14660522
0000d0 71 28 72 3c 47 e6 40 3d 02 b7 3c be ae 41 3f 3d
       0.01478015 0.04709461 -0.18429187 0.046693496
0000e0 60 9b 0c 3e 21 4d 03 3c 29 c3 b5 bb b1 20 d0 bd
       0.13731146 0.008013994 -0.0055469465 -0.101624854
0000f0 59 24 43 bd 2d 1e 9c bd d0 7b 5c be fb d3 ba bc
       -0.047642086 -0.07622943 -0.21531606 -0.022806158
000100 37 2f a9 bc 5a d7 a0 3c 00 d2 b3 bd 39 63 6c 3d
       -0.020652397 0.019633938 -0.08780289 0.057711814
000110 c2 71 71 bd c7 dd df bd 8f 68 67 3e a5 51 cd bd
       -0.05894638 -0.109309725 0.2259848 -0.10025338
000120 a3 25 ff 3d 18 e4 9c bd 58 51 0b 3e 63 af d7 bd
       0.124583505 -0.07660693 0.13605249 -0.10531499
000130 1f cc a9 3d 90 82 38 3d cf c0 a9 3d ee e0 00 3e
       0.08290886 0.04504639 0.082887284 0.12585804
000140 45 cc a5 3b 8b cb 1a be f0 f3 69 bc 12 84 1c bd
       0.005059751 -0.15116708 -0.014279351 -0.03821189
000150 60 f9 4b bd ac ff c3 3a c0 68 d5 3c 65 6b a6 3d
       -0.04979837 0.0014953515 0.026050925 0.08125953
000160 52 79 e5 3d 0d 3c b5 bd 04 14 d1 3c ce 20 7f 3c
       0.11204781 -0.088493444 0.02552224 0.015571786
000170 43 8f b2 bd e7 9e e3 bd c1 90 f8 bd 4b f6 99 ba
       -0.08718731 -0.111142926 -0.121369846 -0.0011746375
000180 a6 4f 30 bb ef 8d 93 bc 23 40 f3 3c 2f 9c a9 3d
       -0.0026902943 -0.018012015 0.029693669 0.08281743
000190 09 c7 7b 3d d1 01 5c bd 2a 26 7d bd ea 78 52 3c
       0.06146911 -0.05371267 -0.061803974 0.012846211
0001a0 50 61 14 3e c5 9d 86 3d 78 c6 fc bd e7 f9 ff bd
       0.14490247 0.06573061 -0.123425424 -0.12498837
0001b0 e8 63 77 3e 77 1a 80 3d 1e d9 d7 3d 54 4a 65 bd
       0.24159205 0.06255048 0.10539459 -0.055979088
0001c0 6d 66 8d 3d 65 fa b1 bc 43 11 36 bd 3c 4a 72 3d
       0.06904302 -0.021725843 -0.044450056 0.059152827
0001d0 86 ad 3a bd d7 66 3a bc 01 5e 7b 3d fc 57 2e 3e
       -0.04557564 -0.011377058 0.061368946 0.17025751
0001e0 7b 62 49 3d ff e1 2f bd d5 cb 9f bd fc 28 15 3e
       0.049166184 -0.042940136 -0.0780255 0.14566416
0001f0 1d e7 a7 3d db 20 a5 3d c0 a2 42 3e 2d 75 51 3d
       0.08198378 0.08062907 0.19007397 0.05113714
000200 1c 07 fe 3d f7 b1 96 bd 99 f3 ce bd c0 2a 0f 3e
       0.124037 -0.07358163 -0.10105056 0.13981152
000210 a1 47 2d bd e1 a6 91 bd 9e a1 65 3b 71 ae a8 3d
       -0.04230464 -0.07111908 0.0035038958 0.08236397
000220 55 1a b0 3d ff 45 06 3d 8e 2d 92 bc 56 dd cd 3c
       0.085987724 0.032781597 -0.017843988 0.025129955
000230 9c 86 9d bd b3 57 b3 3c 7e f2 18 be 74 be 02 3e
       -0.0769169 0.021892404 -0.14936253 0.12767965
000240 08 db 9b bd f9 01 f8 3b 10 10 d8 bd f0 e3 0a be
       -0.07610136 0.0075685945 -0.10549939 -0.13563514
000250 54 f2 a5 bc c0 c9 89 3d 5b ce a9 bd 6b a9 23 3d
       -0.020257153 0.06727934 -0.08291312 0.03995649
000260 3f 91 b8 3d 48 a2 78 3d fc a3 e3 bd 73 04 b2 bd
       0.090120785 0.06070164 -0.11115262 -0.08692255
000270 ac e4 72 bd 87 29 65 3d 17 cf b8 3d 87 b1 a3 3d
       -0.05930011 0.055947807 0.09023874 0.07992845
000280 10 67 20 bc 3f 61 9b bb 62 f4 8c bd 10 12 b5 3d
       -0.009790197 -0.0047418172 -0.0688255 0.08841336
000290 6a 48 15 be d0 b8 4f 3d fd dc dd 3d 50 25 05 3e
       -0.14578405 0.05071336 0.10833166 0.13002515
0002a0 32 24 58 3d 66 90 17 bd 75 f7 86 3d 1d 7f 25 be
       0.052768894 -0.037002943 0.065901674 -0.16161771
0002b0 28 99 b7 3d fe b2 80 bd 0c 73 15 3d 06 35 e0 3d
       0.08964759 -0.0628414 0.03648667 0.109476134
0002c0 19 2e 14 3e af c6 57 3d 86 c5 d7 3d b0 ab 0b bd
       0.1447071 0.052679714 0.105357215 -0.03409928
0002d0 f4 57 94 3d de 03 97 b9 23 1e f3 bd 48 f0 34 3c
       0.07243338 -0.00028803846 -0.118709825 0.011043616
0002e0 f3 5b ba bd 54 57 d4 3d c0 cb 2e bc b9 43 8d 3d
       -0.09099569 0.10368219 -0.010668695 0.06897683
0002f0 eb 8d 05 be 80 24 30 3d 7e cc 5e bd 35 a3 4e bd
       -0.13042419 0.04300356 -0.054394238 -0.050448615
000300 1c 9b 15 bd 89 e6 0b 3e e3 3f 73 bd d5 86 5e bd
       -0.036524877 0.13662161 -0.0593871 -0.054327805
000310 be 16 23 bb e2 4e d8 bd 70 5a 10 3e 95 ec 25 be
       -0.0024885382 -0.10561921 0.14096999 -0.1620353
000320 25 51 07 bd a0 37 12 bc 37 63 80 3d 0d ca 18 bd
       -0.03303637 -0.008924395 0.06268924 -0.037302066
000330 0f 51 75 bd 69 4e 9e 3c 58 f0 5b be 28 6f e5 3d
       -0.059891757 0.019324498 -0.21478403 0.11202842
000340 d9 22 64 3d 9a 48 c6 bd ef 0e 10 3e b2 19 2f bd
       0.055697296 -0.096818164 0.14068197 -0.042749114
000350 65 de 86 3c aa 01 39 be b8 0d 4c 3e 6f c9 88 3d
       0.016463468 -0.18067041 0.19927108 0.066790454
000360 f2 77 0d be 1f 26 29 bd 23 d8 b2 bb 98 d9 a5 bd
       -0.13815287 -0.04129612 -0.0054578944 -0.08098143
000370 ae 65 bc 3d ff 1e e7 3c c9 e6 97 3b 29 7f e5 3d
       0.09199081 0.028213022 0.004635666 0.112058945
000380 cb e3 7f bc 16 b7 c7 3d ff b4 47 3d 2f 08 17 3d
       -0.015618275 0.09751718 0.048756596 0.03687304
000390 07 58 6b bd c5 ff de bd fc ef a7 3d da 0b b1 bd
       -0.057456996 -0.10888628 0.0820007 -0.08644839
0003a0 21 5f b2 bc 45 2b e9 3d 71 df ba bd 3b e5 61 3d
       -0.021773877 0.11385206 -0.09124649 0.05515025
0003b0 1a 51 30 3d ae 70 0b 3e 75 b7 da 3d b3 5a 39 be
       0.043046094 0.13617203 0.10679523 -0.18101005
0003c0 e7 b5 81 bc 9b c5 89 bd b4 9e ed bd f2 f0 43 3c
       -0.015833808 -0.067271434 -0.11602536 0.011959301
0003d0 fd 5c 0d 3c 68 7c 0c 3e 2e b5 c6 bd 02 d6 19 3d
       0.008628127 0.13719332 -0.09702526 0.03755761
0003e0 ec 66 d0 bc cc d5 da bd 6b 96 9f 3d 0f 02 3f bd
       -0.025439702 -0.1068531 0.07792362 -0.046632823
0003f0 f4 80 e8 bd 5d 7e 39 3e 4f da 72 bd 39 49 06 3e
       -0.11352721 0.1811461 -0.059290227 0.1311387

actor_fc.bias f4 [6]
000000 d5 e4 79 3c 13 c8 14 bd 91 e3 15 3c 8c 61 50 bc
       0.015252312 -0.03632362 0.009148494 -0.0127185695
000010 25 73 6e b9 2b 7d ef 3c
       -0.00022740343 0.02923449

fc1.weight f4 [512, 192]
000000 69 58 ce 40 a9 4e a9 40 f5 12 cd 40 14 73 b3 40
       6.4482923 5.290852 6.408564 5.6077976
000010 b8 69 57 40 9d d5 27 40 f3 4e 3d 40 25 87 4c bd
       3.3658276 2.622413 2.9579437 -0.04993357
000020 c1 8b a6 c0 31 ba 9e c0 7b 49 5e bd 24 d2 75 bd
       -5.20456 -4.9602284 -0.054269295 -0.06001486
000030 4c 19 4e c0 7e 47 f3 40 a5 7a f6 bc 73 86 22 3d
       -3.220294 7.602477 -0.030087778 0.039679002
000040 62 eb 67 c0 44 c9 5c 3d 28 1f c3 40 aa 41 d0 40
       -3.6237416 0.05390288 6.0975533 6.5080156
000050 ec e4 35 3d de 7e 12 3d 06 a8 2a 41 5f b1 b3 40
       0.04440777 0.03576552 10.666021 5.6154017
000060 19 09 92 40 bb 0d fe bf 10 e7 dd be c4 ab 76 40
       4.5636106 -1.984794 -0.4334035 3.8542337
000070 f7 81 53 3d 57 f4 e8 40 da 4b 87 40 d3 97 a4 c0
       0.051637616 7.2798266 4.228009 -5.143533
000080 fd 77 cf 40 1b b6 a5 40 5a 6c 2e 40 d4 8e 19 c0
       6.483397 5.1784797 2.7253633 -2.3993425
000090 4c 50 b9 3f 50 b7 62 40 b7 6f 3a 3d e5 1a 34 40
       1.447763 3.5424385 0.045516696 2.8141415
0000a0 b2 fc 6e 40 a7 e1 1c bf de c4 e4 40 46 37 9a 40
       3.7341733 -0.6128182 7.1490316 4.8192472
0000b0 90 2c fa 40 7c cb 0d 41 60 a2 b7 40 90 a8 a5 40
       7.8179398 8.862179 5.738571 5.1768265
0000c0 ea b2 bd 40 93 fc c6 40 e6 4f 56 40 99 f7 5f 40
       5.92809 6.218332 3.3486266 3.4994872
0000d0 fc c9 c9 3f bb d9 15 bd 3d c4 8b c0 58 eb 83 c0
       1.5764766 -0.036584597 -4.367705 -4.1224785
0000e0 37 93 d6 3c 4a 1e 84 bd 52 29 b4 c0 3d 50 f3 40
       0.026193244 -0.0645109 -5.630044 7.6035447
0000f0 6a 4d 5e bd 3d dc 21 bd 32 4a 14 c0 9c c0 84 bd
       -0.054273047 -0.039516676 -2.3170285 -0.0648205
000100 19 52 ae 40 7d 4f c3 40 85 02 76 3c ee d6 0e bd
       5.4475217 6.103453 0.015015249 -0.03487294
000110 f7 20 24 41 e3 54 98 40 c7 c1 a8 40 20 5a 03 c0
       10.258048 4.760362 5.2736545 -2.0523758
000120 6c 3d bc 3f f0 55 68 40 39 a4 e7 bc 55 64 d8 40
       1.4706244 3.6302452 -0.02827655 6.7622476
000130 1a 13 29 40 8d 71 b1 c0 53 3b c3 40 18 38 a4 40
       2.6417909 -5.545111 6.1009917 5.1318474
000140 bc 4a 40 40 0e 02 d7 bf 91 de 82 3f f2 1c 61 40
       3.0045614 -1.6797502 1.0224172 3.5173917
000150 2b 9c 36 3d 0f 4d 66 40 61 8e 47 40 90 72 ad be
       0.044582527 3.5984533 3.118065 -0.33876467
000160 18 00 ef 40 f2 37 a1 40 ee 46 fc 40 5b 62 01 41
       7.4687614 5.0380793 7.8836584 8.086513
000170 5f 1e a1 bb 0d c5 d2 bc 7a 85 2d 41 fd 97 32 41
       -0.0049169506 -0.025728727 10.845087 11.1621065
000180 4c 6c b9 40 00 dc a5 40 04 d6 bd 40 cf 65 c7 40
       5.79447 5.1831055 5.932375 6.231178
000190 d8 f6 51 40 c9 d5 5e 40 a8 0b d5 3f 88 61 76 3d
       3.2806911 3.4817984 1.6644182 0.060151607
0001a0 ab e0 8a c0 47 4a 81 c0 3c 71 93 3d a8 36 77 3d
       -4.3399253 -4.040317 0.07199332 0.06035486
0001b0 3c 57 b4 c0 93 5c f4 40 10 91 81 ba c4 7d 80 bd
       -5.6356487 7.6363006 -0.0009885151 -0.06273988
0001c0 16 2f 14 c0 63 85 26 3d f1 6b ac 40 13 4e c5 40
       -2.315374 0.04065455 5.3881764 6.1657805
0001d0 75 42 d4 bc 9d 5e 7e 3d 4d b2 23 41 1f fe 94 40
       -0.025910595 0.06210195 10.23103 4.6560206
0001e0 4f d1 ac 40 24 82 03 c0 30 2f b3 3f 3e 37 6a 40
       5.4005504 -2.0548182 1.3998775 3.6596217
0001f0 a5 ac 8c bd 8d 09 da 40 f4 52 2b 40 ef 81 b0 c0
       -0.06868867 6.813666 2.676938 -5.515861
000200 03 a6 c3 40 b6 db a4 40 32 69 41 40 e0 7b d2 bf
       6.114015 5.15182 3.0220456 -1.6444054
000210 d1 fe 8e 3f a0 40 63 40 d1 38 4b bc f5 65 63 40
       1.1171514 3.5508194 -0.012403683 3.553098
000220 4d ce 4d 40 4c 2d ad be 94 fa ef 40 e6 3d a0 40
       3.2157166 -0.3382362 7.499338 5.007556
000230 b2 69 fd 40 a6 79 02 41 53 5d ce 40 eb d4 a9 40
       7.9191523 8.154699 6.448892 5.307241
000240 c3 48 cb 40 f2 1a b4 40 d6 40 54 40 73 50 27 40
       6.352632 5.628289 3.3164573 2.6142852
000250 41 c6 3b 40 c9 c4 99 bc 07 fa aa c0 51 4e 9b c0
       2.9339755 -0.018770592 -5.343021 -4.85331
000260 4f 32 ba bc 9a a3 50 3d 86 c5 53 c0 70 bc f3 40
       -0.022729067 0.050937273 -3.3089309 7.6167526
000270 9d 9c 5f 3d e2 f5 39 3d ce 82 63 c0 dd 3e 50 bd
       0.054592717 0.045400508 -3.5548587 -0.0508412
000280 ec 12 c3 40 92 d5 cf 40 32 8a 8e bb f5 dc 28 3d
       6.09606 6.4948206 -0.0043499703 0.041226346
000290 4c ff 2a 41 9d 25 b3 40 63 6d 8f 40 3e cf 00 c0
       10.687328 5.5983415 4.482103 -2.012649
0002a0 04 1b b7 be 6c bd 6f 40 a8 16 2b 3c 85 bf e8 40
       -0.357628 3.7459364 0.010442413 7.273379
0002b0 7e 0c 85 40 09 94 a2 c0 77 d3 d0 40 dd dd a4 40
       4.157775 -5.0805707 6.5258136 5.152083
0002c0 92 b9 2e 40 34 d5 1a c0 b2 65 b8 3f 66 5f 67 40
       2.7300763 -2.419263 1.4406035 3.6151977
0002d0 5c 55 82 3b 97 4c 2c 40 02 3e 6e 40 2e 6c 05 bf
       0.003977461 2.6921747 3.7225347 -0.52118194
0002e0 24 87 e1 40 02 17 9a 40 24 71 f9 40 ca 65 0d 41
       7.0477467 4.8153086 7.795061 8.837351
0002f0 b2 96 42 3d d5 2a 4c bd ee fe 30 41 08 fb 2d 41
       0.047506995 -0.049845535 11.062239 10.873787
000300 b2 3e d3 40 32 34 d4 40 c1 5f d4 40 cf 99 eb 40
       6.601403 6.6313715 6.6366887 7.3625255
000310 d7 4b 90 40 db b0 c9 40 5f 12 8b 40 da e0 0e 3d
       4.509258 6.302839 4.3459926 0.034882404
000320 7b f6 b3 c0 68 c9 a3 c0 06 e5 91 bc d0 fc 52 bc
       -5.623838 -5.1183357 -0.017809402 -0.012877658
000330 81 bc 7f c0 5c 23 fd 40 22 98 87 bd 3f da a2 bb
       -3.9958804 7.9105663 -0.06620814 -0.0049698646
000340 16 22 31 c0 23 a2 3d bd 33 fe 05 41 3d 60 da 40
       -2.7677054 -0.046297204 8.37456 6.824248
000350 c3 34 d6 3c 61 82 83 bd 23 40 4f 41 ec 26 ab 40
       0.026148206 -0.06421352 12.953158 5.348501
000360 f3 a6 dc 40 93 e6 6c c0 0e fd ed bf 87 d9 8d 40
       6.8953795 -3.7015731 -1.8592851 4.4328036
000370 aa 4e 97 bc 07 1a 10 41 58 db 37 40 37 3d e1 c0
       -0.018470127 9.006354 2.8727627 -7.0387225
000380 72 ab e4 40 9c a0 b8 40 ae b3 93 40 c7 b2 c8 bf
       7.1459284 5.7696056 4.6156836 -1.5679559
000390 a0 6e 94 3f 0c 7a 4f 40 18 f1 51 3d 1b 65 97 40
       1.159626 3.2418242 0.051255316 4.731092
0003a0 dc 5f 5c 40 42 84 af be 26 40 06 41 c5 3d ce 40
       3.4433508 -0.34280592 8.390661 6.44504
0003b0 4b b5 15 41 13 2e 1b 41 a4 5c cd 40 79 6b de 40
       9.356761 9.698749 6.4175587 6.950619
0003c0 27 26 d0 40 06 9c f0 40 d5 b9 80 40 4a c1 e3 40
       6.5046573 7.519046 4.0226846 7.117345
0003d0 42 64 a3 40 d8 f0 87 3d dd 29 b5 c0 0c bb ac c0
       5.1059885 0.06637734 -5.6613603 -5.397833
0003e0 b2 18 5d bd 8b 92 e8 bc 43 4c b1 c0 67 aa fd 40
       -0.05397863 -0.02839019 -5.5405593 7.927051
0003f0 b8 df 10 3d e2 28 56 3d 0f 9f 09 c0 b8 fb 35 3d
       0.035369605 0.052285083 -2.1503332 0.04442951

fc1.bias f4 [512]
000000 10 69 3c 41 1a b7 64 41 e8 c8 03 41 70 b7 e8 40
       11.77565 14.294703 8.236549 7.2723923
000010 af 3b 0b 41 9c d0 cc 40 bb d6 03 41 bd f8 66 41
       8.702071 6.400465 8.239924 14.435727
000020 56 91 f9 40 98 de 2b 41 98 58 5b 41 25 ce cc 40
       7.798991 10.741844 13.709129 6.400164
000030 12 1a 17 41 6c dc a3 40 b6 d5 d9 40 6d b6 d4 40
       9.443865 5.120657 6.8073378 6.647269
000040 ac b0 01 41 5a 1e 67 41 2e df 63 41 87 e8 a7 40
       8.105633 14.44491 14.241987 5.2471347
000050 9e 6b 67 41 b8 77 ae 40 e7 6d eb 40 68 cb 66 41
       14.463774 5.452114 7.357166 14.42466
000060 df a6 d9 40 83 c8 38 41 54 b5 ba 40 db 65 19 41
       6.80162 11.548953 5.834635 9.587367
000070 e6 49 1a 41 65 47 25 41 83 43 2d 41 bb 70 0d 41
       9.643042 10.32993 10.828982 8.840022
000080 86 bf bb 40 fc 96 e9 40 03 a6 5c 41 f5 d6 ed 40
       5.8671293 7.2996807 13.79053 7.43249
000090 09 36 67 41 02 2b 1d 41 37 e0 43 41 89 c9 72 41
       14.450692 9.823 12.24224 15.174203
0000a0 7e df 0b 41 de 43 ff 40 27 89 0e 41 af ca 66 41
       8.7420635 7.9770346 8.908484 14.424483
0000b0 7b 54 66 41 ab 2b 0a 41 23 14 20 41 94 fd fe 40
       14.395625 8.635661 10.004916 7.9684544
0000c0 32 e4 97 40 b7 0e 02 41 d7 85 04 41 3e 40 c0 40
       4.746606 8.1285925 8.282676 6.007842
0000d0 ed ef d8 40 cd 25 1b 41 46 52 67 41 d3 5b 0b 41
       6.779288 9.696729 14.457586 8.709918
0000e0 f6 bf c4 40 ed d8 cf 40 4f f3 66 41 48 b0 da 40
       6.1484327 6.49523 14.4344015 6.8340187
0000f0 52 9d 67 41 8f 3d 35 41 43 5d 2a 41 f5 16 02 41
       14.475908 11.327529 10.647769 8.130605
000100 c0 58 67 41 36 09 00 41 a0 1b 6f 41 99 6f 0b 41
       14.4591675 8.002249 14.944244 8.7147455
000110 4a 74 67 41 38 e1 65 41 70 9b 0e 41 6c 41 66 41
       14.465891 14.367485 8.912949 14.390972
000120 00 cc ac 40 ce 1a 66 41 3e 72 66 41 02 52 5e 41
       5.3999023 14.381544 14.402891 13.895021
000130 72 f5 1c 41 4a 85 56 41 c5 c5 ef 40 23 31 de 40
       9.809923 13.407541 7.492892 6.943498
000140 d8 c5 0b 41 52 bc 65 41 01 29 65 41 78 a0 bb 40
       8.735802 14.358477 14.322511 5.8633385
000150 d9 c4 03 41 99 0d 3e 41 8a 4d 29 41 31 ff 1b 41
       8.2355585 11.87832 10.58143 9.749803
000160 fd 61 34 41 37 b9 11 41 c0 76 e1 40 99 44 34 41
       11.273923 9.107718 7.045746 11.266747
000170 d0 77 33 41 74 c2 59 41 65 48 af 40 29 01 cf 40
       11.216751 13.609974 5.477587 6.4688916
000180 a3 41 67 41 af 07 1f 41 40 4c b2 40 55 f8 ea 40
       14.453525 9.939376 5.571808 7.342814
000190 4a fb b2 40 8a 26 08 41 94 e5 cf 40 9a ce 61 41
       5.593175 8.509409 6.4967747 14.11294
0001a0 38 6c 19 41 f0 a0 0d 41 1d d7 fa 40 50 ea c9 40
       9.588921 8.851791 7.838759 6.3098526
0001b0 56 68 fb 40 98 37 c0 40 54 eb bd 40 a2 cc 04 41
       7.8564863 6.0067863 5.9349766 8.299959
0001c0 3f b3 fd 40 0c 98 e8 40 14 de 32 41 75 8b 48 41
       7.9281306 7.2685604 11.179218 12.534047
0001d0 77 53 1d 41 73 1e 45 41 79 92 60 41 b8 52 11 41
       9.832877 12.319934 14.03576 9.082695
0001e0 9d ee 0d 41 56 d3 1f 41 38 16 66 41 ac 70 65 41
       8.870755 9.989096 14.3804245 14.340008
0001f0 5b 13 5b 41 eb 91 56 41 ab 5c 22 41 42 e8 65 41
       13.692225 13.4106245 10.147624 14.369204
000200 25 ac 0a 41 5a e1 41 41 75 35 05 41 9e 56 06 41
       8.667027 12.117517 8.325551 8.396147
000210 f1 58 f0 40 de 42 08 41 bd 85 4c 41 72 f6 01 41
       7.510857 8.516325 12.782651 8.122667
000220 a2 2d 05 41 94 8e 65 41 fc 2a 52 41 1d a3 1c 41
       8.323641 14.347309 13.135494 9.789823
000230 ef 80 72 41 3c 3d 2d 41 d8 ad 66 41 4c fd 1e 41
       15.156478 10.82745 14.417442 9.93684
000240 05 4a 09 41 8b 0f ea 40 31 ac 66 41 4e f8 67 41
       8.580571 7.3143973 14.417039 14.498121
000250 cd 7f 0e 41 3c 89 60 41 a2 6a 10 41 23 97 13 41
       8.906201 14.0335045 9.026033 9.224399
000260 71 31 b0 40 dd b3 66 41 22 88 d5 40 d6 9b 0b 41
       5.5060353 14.418912 6.672868 8.725546
000270 f9 3c 42 41 b7 ef 1e 41 cf 4d 4a 41 3a 28 0e 41
       12.139886 9.933524 12.643996 8.884821
000280 4e 3e 08 41 a4 1c 18 41 ae 2f eb 40 3e ce 64 41
       8.515211 9.506992 7.3495703 14.300352
000290 23 fa 65 41 cd 0a 59 41 75 40 05 41 0d 24 41 41
       14.373569 13.565137 8.328237 12.071301
0002a0 66 02 48 41 12 33 04 41 2e bb cd 40 9e 56 0f 41
       12.500586 8.262468 6.429099 8.958647
0002b0 a5 47 5a 41 5d 97 c0 40 78 b3 e4 40 cd 1d fc 40
       13.642491 6.018477 7.146908 7.878638
0002c0 b7 16 67 41 53 b8 f1 40 e0 68 f0 40 47 b4 50 41
       14.443046 7.5537505 7.512802 13.044013
0002d0 70 c9 2a 41 1b 5c 58 41 9d 76 ff 40 b3 69 02 41
       10.674179 13.522487 7.983229 8.150805
0002e0 f7 52 66 41 00 cd 26 41 26 f8 65 41 8b e1 66 41
       14.395255 10.425049 14.373083 14.430064
0002f0 e9 a5 06 41 09 12 1b 41 23 d3 da 40 90 e8 5c 41
       8.415505 9.691903 6.8382735 13.806778
000300 3e 74 01 41 45 fb fd 40 f1 cd fc 40 d7 63 09 41
       8.090879 7.9369226 7.9001393 8.586875
000310 bb 18 44 41 52 4d ec 40 9f e4 db 40 d1 69 f4 40
       12.256038 7.3844385 6.871658 7.637917
000320 e6 3f d9 40 69 aa 26 41 66 72 06 41 69 ce 67 41
       6.78905 10.416604 8.402929 14.487893
000330 57 0c 5a 41 e5 72 e0 40 a8 75 cb 40 a6 54 69 41
       13.628013 7.014025 6.3581123 14.583166
000340 91 27 07 41 91 24 6e 41 b9 23 0b 41 42 ca cc 40
       8.44716 14.883927 8.696221 6.3996897
000350 4c cc 13 41 40 65 c0 40 4b 61 51 41 8a 6a 6e 41
       9.237377 6.0123596 13.086253 14.9010105
000360 31 db e0 40 05 e1 1b 41 6b 29 dc 40 6d e2 0c 41
       7.026757 9.742436 6.880056 8.80528
000370 23 d7 0b 41 e5 c1 1b 41 24 57 2b 41 45 d1 20 41
       8.740024 9.734838 10.708775 10.051091
000380 05 80 fa 40 20 e9 0a 41 5f 56 36 41 fa 66 f3 40
       7.8281274 8.681915 11.396087 7.6063204
000390 1d 62 c1 40 91 42 f3 40 ad d0 fe 40 dc 11 29 41
       6.0432267 7.601876 7.962973 10.56686
0003a0 73 ff 13 41 0a 45 c5 40 41 83 f3 40 7c 34 ec 40
       9.249866 6.1646776 7.609772 7.381407
0003b0 28 01 e3 40 df b6 ec 40 a0 29 66 41 f4 2f 66 41
       7.093891 7.397323 14.385162 14.386707
0003c0 d0 6c 20 41 a7 82 4e 41 fd 42 67 41 19 82 12 41
       10.026566 12.906898 14.453855 9.156762
0003d0 31 c0 59 41 38 f2 6f 41 22 f5 02 41 ca 52 65 41
       13.609422 14.996635 8.184847 14.332712
0003e0 e0 03 66 41 04 78 67 41 fb ab d6 40 6a d5 38 41
       14.375946 14.466801 6.7084937 11.552103
0003f0 bc d1 f3 40 b3 0f ef 40 99 03 18 41 ea 21 47 41
       7.6193523 7.4706664 9.500878 12.44578
